…
I0623 13:08:21.722756 29185 solver.cpp:70] Creating training net from net file: prototxt/16-06-21_16h05m31s_0_40_reconstructFull_net.sh
I0623 13:08:21.723361 29185 net.cpp:277] The NetState phase (0) differed from the phase (1) specified by a rule in layer data
I0623 13:08:21.723518 29185 net.cpp:39] Initializing net from parameters: 
layers {
  top: "data"
  name: "data"
  type: DATA
  data_param {
    source: "/dataset/cifar100_lmdb_lab/cifar100_train_lmdb"
    batch_size: 750
    backend: LMDB
  }
  include {
    phase: TRAIN
  }
  transform_param {
    mean_file: "/dataset/cifar100_lmdb_lab/mean.binaryproto"
  }
}
layers {
  bottom: "data"
  top: "0_0_conv"
  name: "0_0_conv"
  type: CONVOLUTION
  blobs_lr: 0
  blobs_lr: 0
  weight_decay: 0
  weight_decay: 0
  convolution_param {
    num_output: 32
    pad: 1
    kernel_size: 3
    stride: 1
    weight_filler {
      type: "xavier"
    }
    bias_filler {
      type: "constant"
      value: 0
    }
  }
}
layers {
  bottom: "0_0_conv"
  top: "0_0_conv"
  name: "0_0_conv_ReLU"
  type: RELU
}
layers {
  bottom: "0_0_conv"
  top: "0_1_conv"
  name: "0_1_conv"
  type: CONVOLUTION
  blobs_lr: 0
  blobs_lr: 0
  weight_decay: 0
  weight_decay: 0
  convolution_param {
    num_output: 32
    pad: 1
    kernel_size: 3
    stride: 1
    weight_filler {
      type: "xavier"
    }
    bias_filler {
      type: "constant"
      value: 0
    }
  }
}
layers {
  bottom: "0_1_conv"
  top: "0_1_conv"
  name: "0_1_conv_ReLU"
  type: RELU
}
layers {
  bottom: "0_1_conv"
  top: "0_pool"
  top: "0_pool_mask"
  name: "0_pool"
  type: POOLING
  pooling_param {
    pool: MAX
    kernel_size: 2
    stride: 2
  }
}
layers {
  bottom: "0_pool"
  top: "1_0_conv"
  name: "1_0_conv"
  type: CONVOLUTION
  blobs_lr: 0
  blobs_lr: 0
  weight_decay: 0
  weight_decay: 0
  convolution_param {
    num_output: 32
    pad: 1
    kernel_size: 3
    stride: 1
    weight_filler {
      type: "xavier"
    }
    bias_filler {
      type: "constant"
      value: 0
    }
  }
}
layers {
  bottom: "1_0_conv"
  top: "1_0_conv"
  name: "1_0_conv_ReLU"
  type: RELU
}
layers {
  bottom: "1_0_conv"
  top: "1_1_conv"
  name: "1_1_conv"
  type: CONVOLUTION
  blobs_lr: 0
  blobs_lr: 0
  weight_decay: 0
  weight_decay: 0
  convolution_param {
    num_output: 32
    pad: 1
    kernel_size: 3
    stride: 1
    weight_filler {
      type: "xavier"
    }
    bias_filler {
      type: "constant"
      value: 0
    }
  }
}
layers {
  bottom: "1_1_conv"
  top: "1_1_conv"
  name: "1_1_conv_ReLU"
  type: RELU
}
layers {
  bottom: "1_1_conv"
  top: "1_pool"
  top: "1_pool_mask"
  name: "1_pool"
  type: POOLING
  pooling_param {
    pool: MAX
    kernel_size: 2
    stride: 2
  }
}
layers {
  bottom: "1_pool"
  top: "2_0_conv"
  name: "2_0_conv"
  type: CONVOLUTION
  blobs_lr: 0
  blobs_lr: 0
  weight_decay: 0
  weight_decay: 0
  convolution_param {
    num_output: 32
    pad: 1
    kernel_size: 3
    stride: 1
    weight_filler {
      type: "xavier"
    }
    bias_filler {
      type: "constant"
      value: 0
    }
  }
}
layers {
  bottom: "2_0_conv"
  top: "2_0_conv"
  name: "2_0_conv_ReLU"
  type: RELU
}
layers {
  bottom: "2_0_conv"
  top: "2_1_conv"
  name: "2_1_conv"
  type: CONVOLUTION
  blobs_lr: 0
  blobs_lr: 0
  weight_decay: 0
  weight_decay: 0
  convolution_param {
    num_output: 32
    pad: 1
    kernel_size: 3
    stride: 1
    weight_filler {
      type: "xavier"
    }
    bias_filler {
      type: "constant"
      value: 0
    }
  }
}
layers {
  bottom: "2_1_conv"
  top: "2_1_conv"
  name: "2_1_conv_ReLU"
  type: RELU
}
layers {
  bottom: "2_1_conv"
  top: "2_pool"
  top: "2_pool_mask"
  name: "2_pool"
  type: POOLING
  pooling_param {
    pool: MAX
    kernel_size: 2
    stride: 2
  }
}
layers {
  bottom: "2_pool"
  top: "middle_conv"
  name: "middle_conv"
  type: CONVOLUTION
  blobs_lr: 0
  blobs_lr: 0
  weight_decay: 0
  weight_decay: 0
  convolution_param {
    num_output: 50
    pad: 0
    kernel_size: 4
    stride: 1
    weight_filler {
      type: "xavier"
    }
    bias_filler {
      type: "constant"
      value: 0
    }
  }
}
layers {
  bottom: "middle_conv"
  top: "middle_deconv"
  name: "middle_deconv"
  type: DECONVOLUTION
  blobs_lr: 1
  blobs_lr: 2
  weight_decay: 0
  weight_decay: 0
  convolution_param {
    num_output: 32
    pad: 1
    kernel_size: 4
    stride: 1
    weight_filler {
      type: "xavier"
    }
    bias_filler {
      type: "constant"
      value: 0
    }
  }
}
layers {
  bottom: "middle_deconv"
  bottom: "2_pool_mask"
  top: "2_unpool"
  name: "2_unpool"
  type: UNPOOLING
  unpooling_param {
    unpool: MAX
    kernel_size: 2
    stride: 2
    unpool_size: 8
  }
}
layers {
  bottom: "2_unpool"
  top: "2_1_deconv"
  name: "2_1_deconv"
  type: DECONVOLUTION
  blobs_lr: 1
  blobs_lr: 2
  weight_decay: 0
  weight_decay: 0
  convolution_param {
    num_output: 32
    pad: 1
    kernel_size: 3
    stride: 1
    weight_filler {
      type: "xavier"
    }
    bias_filler {
      type: "constant"
      value: 0
    }
  }
}
layers {
  bottom: "2_1_deconv"
  top: "2_1_deconv"
  name: "2_1_deconv_ReLU"
  type: RELU
}
layers {
  bottom: "2_1_deconv"
  top: "2_0_deconv"
  name: "2_0_deconv"
  type: DECONVOLUTION
  blobs_lr: 1
  blobs_lr: 2
  weight_decay: 0
  weight_decay: 0
  convolution_param {
    num_output: 32
    pad: 1
    kernel_size: 3
    stride: 1
    weight_filler {
      type: "xavier"
    }
    bias_filler {
      type: "constant"
      value: 0
    }
  }
}
layers {
  bottom: "2_0_deconv"
  top: "2_0_deconv"
  name: "2_0_deconv_ReLU"
  type: RELU
}
layers {
  bottom: "2_0_deconv"
  bottom: "1_pool_mask"
  top: "1_unpool"
  name: "1_unpool"
  type: UNPOOLING
  unpooling_param {
    unpool: MAX
    kernel_size: 2
    stride: 2
    unpool_size: 16
  }
}
layers {
  bottom: "1_unpool"
  top: "1_1_deconv"
  name: "1_1_deconv"
  type: DECONVOLUTION
  blobs_lr: 1
  blobs_lr: 2
  weight_decay: 0
  weight_decay: 0
  convolution_param {
    num_output: 32
    pad: 1
    kernel_size: 3
    stride: 1
    weight_filler {
      type: "xavier"
    }
    bias_filler {
      type: "constant"
      value: 0
    }
  }
}
layers {
  bottom: "1_1_deconv"
  top: "1_1_deconv"
  name: "1_1_deconv_ReLU"
  type: RELU
}
layers {
  bottom: "1_1_deconv"
  top: "1_0_deconv"
  name: "1_0_deconv"
  type: DECONVOLUTION
  blobs_lr: 1
  blobs_lr: 2
  weight_decay: 0
  weight_decay: 0
  convolution_param {
    num_output: 32
    pad: 1
    kernel_size: 3
    stride: 1
    weight_filler {
      type: "xavier"
    }
    bias_filler {
      type: "constant"
      value: 0
    }
  }
}
layers {
  bottom: "1_0_deconv"
  top: "1_0_deconv"
  name: "1_0_deconv_ReLU"
  type: RELU
}
layers {
  bottom: "1_0_deconv"
  bottom: "0_pool_mask"
  top: "0_unpool"
  name: "0_unpool"
  type: UNPOOLING
  unpooling_param {
    unpool: MAX
    kernel_size: 2
    stride: 2
    unpool_size: 32
  }
}
layers {
  bottom: "0_unpool"
  top: "0_1_deconv"
  name: "0_1_deconv"
  type: DECONVOLUTION
  blobs_lr: 1
  blobs_lr: 2
  weight_decay: 0
  weight_decay: 0
  convolution_param {
    num_output: 32
    pad: 1
    kernel_size: 3
    stride: 1
    weight_filler {
      type: "xavier"
    }
    bias_filler {
      type: "constant"
      value: 0
    }
  }
}
layers {
  bottom: "0_1_deconv"
  top: "0_1_deconv"
  name: "0_1_deconv_ReLU"
  type: RELU
}
layers {
  bottom: "0_1_deconv"
  top: "0_0_deconv"
  name: "0_0_deconv"
  type: DECONVOLUTION
  blobs_lr: 1
  blobs_lr: 2
  weight_decay: 0
  weight_decay: 0
  convolution_param {
    num_output: 32
    pad: 1
    kernel_size: 3
    stride: 1
    weight_filler {
      type: "xavier"
    }
    bias_filler {
      type: "constant"
      value: 0
    }
  }
}
layers {
  bottom: "0_0_deconv"
  top: "0_0_deconv"
  name: "0_0_deconv_ReLU"
  type: RELU
}
layers {
  bottom: "0_0_deconv"
  top: "reconstruct1"
  name: "reconstruct1"
  type: LOCAL
  blobs_lr: 1
  blobs_lr: 2
  weight_decay: 0
  weight_decay: 0
  local_param {
    num_output: 3
    pad: 0
    kernel_size: 1
    stride: 1
    weight_filler {
      type: "xavier"
    }
    bias_filler {
      type: "constant"
      value: 0
    }
  }
}
layers {
  bottom: "reconstruct1"
  top: "reconstruct2"
  name: "reconstruct2"
  type: LOCAL
  blobs_lr: 1
  blobs_lr: 2
  weight_decay: 0
  weight_decay: 0
  local_param {
    num_output: 3
    pad: 0
    kernel_size: 1
    stride: 1
    weight_filler {
      type: "xavier"
    }
    bias_filler {
      type: "constant"
      value: 0
    }
  }
}
layers {
  bottom: "data"
  bottom: "reconstruct2"
  top: "L2_Loss"
  name: "L2_Loss"
  type: EUCLIDEAN_LOSS
}
state {
  phase: TRAIN
}
I0623 13:08:21.723634 29185 layer_factory.hpp:78] Creating layer data
I0623 13:08:21.723649 29185 data_transformer.cpp:25] Loading mean file from/dataset/cifar100_lmdb_lab/mean.binaryproto
I0623 13:08:21.723695 29185 net.cpp:69] Creating Layer data
I0623 13:08:21.723701 29185 net.cpp:358] data -> data
I0623 13:08:21.723708 29185 net.cpp:98] Setting up data
I0623 13:08:21.723712 29185 data_layer.cpp:32] Opening dataset /dataset/cifar100_lmdb_lab/cifar100_train_lmdb
I0623 13:08:21.723781 29185 data_layer.cpp:71] output data size: 750,3,32,32
I0623 13:08:21.724889 29185 net.cpp:105] Top shape: 750 3 32 32 (2304000)
I0623 13:08:21.724911 29185 layer_factory.hpp:78] Creating layer data_data_0_split
I0623 13:08:21.724920 29185 net.cpp:69] Creating Layer data_data_0_split
I0623 13:08:21.724925 29185 net.cpp:396] data_data_0_split <- data
I0623 13:08:21.724930 29185 net.cpp:358] data_data_0_split -> data_data_0_split_0
I0623 13:08:21.724936 29185 net.cpp:358] data_data_0_split -> data_data_0_split_1
I0623 13:08:21.724941 29185 net.cpp:98] Setting up data_data_0_split
I0623 13:08:21.724947 29185 net.cpp:105] Top shape: 750 3 32 32 (2304000)
I0623 13:08:21.724951 29185 net.cpp:105] Top shape: 750 3 32 32 (2304000)
I0623 13:08:21.724953 29185 layer_factory.hpp:78] Creating layer 0_0_conv
I0623 13:08:21.724958 29185 net.cpp:69] Creating Layer 0_0_conv
I0623 13:08:21.724961 29185 net.cpp:396] 0_0_conv <- data_data_0_split_0
I0623 13:08:21.724968 29185 net.cpp:358] 0_0_conv -> 0_0_conv
I0623 13:08:21.724974 29185 net.cpp:98] Setting up 0_0_conv
I0623 13:08:21.725262 29185 net.cpp:105] Top shape: 750 32 32 32 (24576000)
I0623 13:08:21.725273 29185 layer_factory.hpp:78] Creating layer 0_0_conv_ReLU
I0623 13:08:21.725278 29185 net.cpp:69] Creating Layer 0_0_conv_ReLU
I0623 13:08:21.725281 29185 net.cpp:396] 0_0_conv_ReLU <- 0_0_conv
I0623 13:08:21.725286 29185 net.cpp:347] 0_0_conv_ReLU -> 0_0_conv (in-place)
I0623 13:08:21.725289 29185 net.cpp:98] Setting up 0_0_conv_ReLU
I0623 13:08:21.725293 29185 net.cpp:105] Top shape: 750 32 32 32 (24576000)
I0623 13:08:21.725296 29185 layer_factory.hpp:78] Creating layer 0_1_conv
I0623 13:08:21.725301 29185 net.cpp:69] Creating Layer 0_1_conv
I0623 13:08:21.725303 29185 net.cpp:396] 0_1_conv <- 0_0_conv
I0623 13:08:21.725307 29185 net.cpp:358] 0_1_conv -> 0_1_conv
I0623 13:08:21.725312 29185 net.cpp:98] Setting up 0_1_conv
I0623 13:08:21.725368 29185 net.cpp:105] Top shape: 750 32 32 32 (24576000)
I0623 13:08:21.725373 29185 layer_factory.hpp:78] Creating layer 0_1_conv_ReLU
I0623 13:08:21.725376 29185 net.cpp:69] Creating Layer 0_1_conv_ReLU
I0623 13:08:21.725379 29185 net.cpp:396] 0_1_conv_ReLU <- 0_1_conv
I0623 13:08:21.725384 29185 net.cpp:347] 0_1_conv_ReLU -> 0_1_conv (in-place)
I0623 13:08:21.725388 29185 net.cpp:98] Setting up 0_1_conv_ReLU
I0623 13:08:21.725390 29185 net.cpp:105] Top shape: 750 32 32 32 (24576000)
I0623 13:08:21.725394 29185 layer_factory.hpp:78] Creating layer 0_pool
I0623 13:08:21.725399 29185 net.cpp:69] Creating Layer 0_pool
I0623 13:08:21.725401 29185 net.cpp:396] 0_pool <- 0_1_conv
I0623 13:08:21.725405 29185 net.cpp:358] 0_pool -> 0_pool
I0623 13:08:21.725414 29185 net.cpp:358] 0_pool -> 0_pool_mask
I0623 13:08:21.725419 29185 net.cpp:98] Setting up 0_pool
I0623 13:08:21.725436 29185 net.cpp:105] Top shape: 750 32 16 16 (6144000)
I0623 13:08:21.725440 29185 net.cpp:105] Top shape: 750 32 16 16 (6144000)
I0623 13:08:21.725442 29185 layer_factory.hpp:78] Creating layer 1_0_conv
I0623 13:08:21.725447 29185 net.cpp:69] Creating Layer 1_0_conv
I0623 13:08:21.725450 29185 net.cpp:396] 1_0_conv <- 0_pool
I0623 13:08:21.725455 29185 net.cpp:358] 1_0_conv -> 1_0_conv
I0623 13:08:21.725460 29185 net.cpp:98] Setting up 1_0_conv
I0623 13:08:21.725510 29185 net.cpp:105] Top shape: 750 32 16 16 (6144000)
I0623 13:08:21.725517 29185 layer_factory.hpp:78] Creating layer 1_0_conv_ReLU
I0623 13:08:21.725522 29185 net.cpp:69] Creating Layer 1_0_conv_ReLU
I0623 13:08:21.725524 29185 net.cpp:396] 1_0_conv_ReLU <- 1_0_conv
I0623 13:08:21.725528 29185 net.cpp:347] 1_0_conv_ReLU -> 1_0_conv (in-place)
I0623 13:08:21.725531 29185 net.cpp:98] Setting up 1_0_conv_ReLU
I0623 13:08:21.725534 29185 net.cpp:105] Top shape: 750 32 16 16 (6144000)
I0623 13:08:21.725538 29185 layer_factory.hpp:78] Creating layer 1_1_conv
I0623 13:08:21.725543 29185 net.cpp:69] Creating Layer 1_1_conv
I0623 13:08:21.725544 29185 net.cpp:396] 1_1_conv <- 1_0_conv
I0623 13:08:21.725548 29185 net.cpp:358] 1_1_conv -> 1_1_conv
I0623 13:08:21.725553 29185 net.cpp:98] Setting up 1_1_conv
I0623 13:08:21.725605 29185 net.cpp:105] Top shape: 750 32 16 16 (6144000)
I0623 13:08:21.725610 29185 layer_factory.hpp:78] Creating layer 1_1_conv_ReLU
I0623 13:08:21.725613 29185 net.cpp:69] Creating Layer 1_1_conv_ReLU
I0623 13:08:21.725615 29185 net.cpp:396] 1_1_conv_ReLU <- 1_1_conv
I0623 13:08:21.725620 29185 net.cpp:347] 1_1_conv_ReLU -> 1_1_conv (in-place)
I0623 13:08:21.725622 29185 net.cpp:98] Setting up 1_1_conv_ReLU
I0623 13:08:21.725625 29185 net.cpp:105] Top shape: 750 32 16 16 (6144000)
I0623 13:08:21.725628 29185 layer_factory.hpp:78] Creating layer 1_pool
I0623 13:08:21.725632 29185 net.cpp:69] Creating Layer 1_pool
I0623 13:08:21.725635 29185 net.cpp:396] 1_pool <- 1_1_conv
I0623 13:08:21.725639 29185 net.cpp:358] 1_pool -> 1_pool
I0623 13:08:21.725644 29185 net.cpp:358] 1_pool -> 1_pool_mask
I0623 13:08:21.725648 29185 net.cpp:98] Setting up 1_pool
I0623 13:08:21.725651 29185 net.cpp:105] Top shape: 750 32 8 8 (1536000)
I0623 13:08:21.725654 29185 net.cpp:105] Top shape: 750 32 8 8 (1536000)
I0623 13:08:21.725657 29185 layer_factory.hpp:78] Creating layer 2_0_conv
I0623 13:08:21.725661 29185 net.cpp:69] Creating Layer 2_0_conv
I0623 13:08:21.725663 29185 net.cpp:396] 2_0_conv <- 1_pool
I0623 13:08:21.725668 29185 net.cpp:358] 2_0_conv -> 2_0_conv
I0623 13:08:21.725672 29185 net.cpp:98] Setting up 2_0_conv
I0623 13:08:21.725729 29185 net.cpp:105] Top shape: 750 32 8 8 (1536000)
I0623 13:08:21.725736 29185 layer_factory.hpp:78] Creating layer 2_0_conv_ReLU
I0623 13:08:21.725740 29185 net.cpp:69] Creating Layer 2_0_conv_ReLU
I0623 13:08:21.725744 29185 net.cpp:396] 2_0_conv_ReLU <- 2_0_conv
I0623 13:08:21.725747 29185 net.cpp:347] 2_0_conv_ReLU -> 2_0_conv (in-place)
I0623 13:08:21.725751 29185 net.cpp:98] Setting up 2_0_conv_ReLU
I0623 13:08:21.725754 29185 net.cpp:105] Top shape: 750 32 8 8 (1536000)
I0623 13:08:21.725756 29185 layer_factory.hpp:78] Creating layer 2_1_conv
I0623 13:08:21.725762 29185 net.cpp:69] Creating Layer 2_1_conv
I0623 13:08:21.725765 29185 net.cpp:396] 2_1_conv <- 2_0_conv
I0623 13:08:21.725769 29185 net.cpp:358] 2_1_conv -> 2_1_conv
I0623 13:08:21.725774 29185 net.cpp:98] Setting up 2_1_conv
I0623 13:08:21.725826 29185 net.cpp:105] Top shape: 750 32 8 8 (1536000)
I0623 13:08:21.725831 29185 layer_factory.hpp:78] Creating layer 2_1_conv_ReLU
I0623 13:08:21.725834 29185 net.cpp:69] Creating Layer 2_1_conv_ReLU
I0623 13:08:21.725837 29185 net.cpp:396] 2_1_conv_ReLU <- 2_1_conv
I0623 13:08:21.725841 29185 net.cpp:347] 2_1_conv_ReLU -> 2_1_conv (in-place)
I0623 13:08:21.725844 29185 net.cpp:98] Setting up 2_1_conv_ReLU
I0623 13:08:21.725847 29185 net.cpp:105] Top shape: 750 32 8 8 (1536000)
I0623 13:08:21.725852 29185 layer_factory.hpp:78] Creating layer 2_pool
I0623 13:08:21.725857 29185 net.cpp:69] Creating Layer 2_pool
I0623 13:08:21.725864 29185 net.cpp:396] 2_pool <- 2_1_conv
I0623 13:08:21.725868 29185 net.cpp:358] 2_pool -> 2_pool
I0623 13:08:21.725873 29185 net.cpp:358] 2_pool -> 2_pool_mask
I0623 13:08:21.725878 29185 net.cpp:98] Setting up 2_pool
I0623 13:08:21.725881 29185 net.cpp:105] Top shape: 750 32 4 4 (384000)
I0623 13:08:21.725884 29185 net.cpp:105] Top shape: 750 32 4 4 (384000)
I0623 13:08:21.725886 29185 layer_factory.hpp:78] Creating layer middle_conv
I0623 13:08:21.725891 29185 net.cpp:69] Creating Layer middle_conv
I0623 13:08:21.725894 29185 net.cpp:396] middle_conv <- 2_pool
I0623 13:08:21.725900 29185 net.cpp:358] middle_conv -> middle_conv
I0623 13:08:21.725904 29185 net.cpp:98] Setting up middle_conv
I0623 13:08:21.726042 29185 net.cpp:105] Top shape: 750 50 1 1 (37500)
I0623 13:08:21.726047 29185 layer_factory.hpp:78] Creating layer middle_deconv
I0623 13:08:21.726058 29185 net.cpp:69] Creating Layer middle_deconv
I0623 13:08:21.726061 29185 net.cpp:396] middle_deconv <- middle_conv
I0623 13:08:21.726068 29185 net.cpp:358] middle_deconv -> middle_deconv
I0623 13:08:21.726073 29185 net.cpp:98] Setting up middle_deconv
I0623 13:08:21.726213 29185 net.cpp:105] Top shape: 750 32 2 2 (96000)
I0623 13:08:21.726219 29185 layer_factory.hpp:78] Creating layer 2_unpool
I0623 13:08:21.726223 29185 net.cpp:69] Creating Layer 2_unpool
I0623 13:08:21.726227 29185 net.cpp:396] 2_unpool <- middle_deconv
I0623 13:08:21.726230 29185 net.cpp:396] 2_unpool <- 2_pool_mask
I0623 13:08:21.726234 29185 net.cpp:358] 2_unpool -> 2_unpool
I0623 13:08:21.726238 29185 net.cpp:98] Setting up 2_unpool
I0623 13:08:21.726244 29185 net.cpp:105] Top shape: 750 32 8 8 (1536000)
I0623 13:08:21.726248 29185 layer_factory.hpp:78] Creating layer 2_1_deconv
I0623 13:08:21.726253 29185 net.cpp:69] Creating Layer 2_1_deconv
I0623 13:08:21.726255 29185 net.cpp:396] 2_1_deconv <- 2_unpool
I0623 13:08:21.726260 29185 net.cpp:358] 2_1_deconv -> 2_1_deconv
I0623 13:08:21.726264 29185 net.cpp:98] Setting up 2_1_deconv
I0623 13:08:21.726317 29185 net.cpp:105] Top shape: 750 32 8 8 (1536000)
I0623 13:08:21.726323 29185 layer_factory.hpp:78] Creating layer 2_1_deconv_ReLU
I0623 13:08:21.726328 29185 net.cpp:69] Creating Layer 2_1_deconv_ReLU
I0623 13:08:21.726331 29185 net.cpp:396] 2_1_deconv_ReLU <- 2_1_deconv
I0623 13:08:21.726335 29185 net.cpp:347] 2_1_deconv_ReLU -> 2_1_deconv (in-place)
I0623 13:08:21.726338 29185 net.cpp:98] Setting up 2_1_deconv_ReLU
I0623 13:08:21.726341 29185 net.cpp:105] Top shape: 750 32 8 8 (1536000)
I0623 13:08:21.726344 29185 layer_factory.hpp:78] Creating layer 2_0_deconv
I0623 13:08:21.726349 29185 net.cpp:69] Creating Layer 2_0_deconv
I0623 13:08:21.726352 29185 net.cpp:396] 2_0_deconv <- 2_1_deconv
I0623 13:08:21.726356 29185 net.cpp:358] 2_0_deconv -> 2_0_deconv
I0623 13:08:21.726361 29185 net.cpp:98] Setting up 2_0_deconv
I0623 13:08:21.726413 29185 net.cpp:105] Top shape: 750 32 8 8 (1536000)
I0623 13:08:21.726418 29185 layer_factory.hpp:78] Creating layer 2_0_deconv_ReLU
I0623 13:08:21.726423 29185 net.cpp:69] Creating Layer 2_0_deconv_ReLU
I0623 13:08:21.726425 29185 net.cpp:396] 2_0_deconv_ReLU <- 2_0_deconv
I0623 13:08:21.726429 29185 net.cpp:347] 2_0_deconv_ReLU -> 2_0_deconv (in-place)
I0623 13:08:21.726433 29185 net.cpp:98] Setting up 2_0_deconv_ReLU
I0623 13:08:21.726436 29185 net.cpp:105] Top shape: 750 32 8 8 (1536000)
I0623 13:08:21.726438 29185 layer_factory.hpp:78] Creating layer 1_unpool
I0623 13:08:21.726443 29185 net.cpp:69] Creating Layer 1_unpool
I0623 13:08:21.726445 29185 net.cpp:396] 1_unpool <- 2_0_deconv
I0623 13:08:21.726451 29185 net.cpp:396] 1_unpool <- 1_pool_mask
I0623 13:08:21.726455 29185 net.cpp:358] 1_unpool -> 1_unpool
I0623 13:08:21.726459 29185 net.cpp:98] Setting up 1_unpool
I0623 13:08:21.726462 29185 net.cpp:105] Top shape: 750 32 16 16 (6144000)
I0623 13:08:21.726465 29185 layer_factory.hpp:78] Creating layer 1_1_deconv
I0623 13:08:21.726469 29185 net.cpp:69] Creating Layer 1_1_deconv
I0623 13:08:21.726475 29185 net.cpp:396] 1_1_deconv <- 1_unpool
I0623 13:08:21.726485 29185 net.cpp:358] 1_1_deconv -> 1_1_deconv
I0623 13:08:21.726490 29185 net.cpp:98] Setting up 1_1_deconv
I0623 13:08:21.726550 29185 net.cpp:105] Top shape: 750 32 16 16 (6144000)
I0623 13:08:21.726555 29185 layer_factory.hpp:78] Creating layer 1_1_deconv_ReLU
I0623 13:08:21.726559 29185 net.cpp:69] Creating Layer 1_1_deconv_ReLU
I0623 13:08:21.726562 29185 net.cpp:396] 1_1_deconv_ReLU <- 1_1_deconv
I0623 13:08:21.726567 29185 net.cpp:347] 1_1_deconv_ReLU -> 1_1_deconv (in-place)
I0623 13:08:21.726569 29185 net.cpp:98] Setting up 1_1_deconv_ReLU
I0623 13:08:21.726572 29185 net.cpp:105] Top shape: 750 32 16 16 (6144000)
I0623 13:08:21.726575 29185 layer_factory.hpp:78] Creating layer 1_0_deconv
I0623 13:08:21.726583 29185 net.cpp:69] Creating Layer 1_0_deconv
I0623 13:08:21.726585 29185 net.cpp:396] 1_0_deconv <- 1_1_deconv
I0623 13:08:21.726590 29185 net.cpp:358] 1_0_deconv -> 1_0_deconv
I0623 13:08:21.726594 29185 net.cpp:98] Setting up 1_0_deconv
I0623 13:08:21.726652 29185 net.cpp:105] Top shape: 750 32 16 16 (6144000)
I0623 13:08:21.726657 29185 layer_factory.hpp:78] Creating layer 1_0_deconv_ReLU
I0623 13:08:21.726662 29185 net.cpp:69] Creating Layer 1_0_deconv_ReLU
I0623 13:08:21.726665 29185 net.cpp:396] 1_0_deconv_ReLU <- 1_0_deconv
I0623 13:08:21.726668 29185 net.cpp:347] 1_0_deconv_ReLU -> 1_0_deconv (in-place)
I0623 13:08:21.726672 29185 net.cpp:98] Setting up 1_0_deconv_ReLU
I0623 13:08:21.726675 29185 net.cpp:105] Top shape: 750 32 16 16 (6144000)
I0623 13:08:21.726678 29185 layer_factory.hpp:78] Creating layer 0_unpool
I0623 13:08:21.726682 29185 net.cpp:69] Creating Layer 0_unpool
I0623 13:08:21.726685 29185 net.cpp:396] 0_unpool <- 1_0_deconv
I0623 13:08:21.726687 29185 net.cpp:396] 0_unpool <- 0_pool_mask
I0623 13:08:21.726692 29185 net.cpp:358] 0_unpool -> 0_unpool
I0623 13:08:21.726696 29185 net.cpp:98] Setting up 0_unpool
I0623 13:08:21.726699 29185 net.cpp:105] Top shape: 750 32 32 32 (24576000)
I0623 13:08:21.726702 29185 layer_factory.hpp:78] Creating layer 0_1_deconv
I0623 13:08:21.726706 29185 net.cpp:69] Creating Layer 0_1_deconv
I0623 13:08:21.726708 29185 net.cpp:396] 0_1_deconv <- 0_unpool
I0623 13:08:21.726714 29185 net.cpp:358] 0_1_deconv -> 0_1_deconv
I0623 13:08:21.726719 29185 net.cpp:98] Setting up 0_1_deconv
I0623 13:08:21.726769 29185 net.cpp:105] Top shape: 750 32 32 32 (24576000)
I0623 13:08:21.726774 29185 layer_factory.hpp:78] Creating layer 0_1_deconv_ReLU
I0623 13:08:21.726778 29185 net.cpp:69] Creating Layer 0_1_deconv_ReLU
I0623 13:08:21.726780 29185 net.cpp:396] 0_1_deconv_ReLU <- 0_1_deconv
I0623 13:08:21.726784 29185 net.cpp:347] 0_1_deconv_ReLU -> 0_1_deconv (in-place)
I0623 13:08:21.726788 29185 net.cpp:98] Setting up 0_1_deconv_ReLU
I0623 13:08:21.726791 29185 net.cpp:105] Top shape: 750 32 32 32 (24576000)
I0623 13:08:21.726794 29185 layer_factory.hpp:78] Creating layer 0_0_deconv
I0623 13:08:21.726800 29185 net.cpp:69] Creating Layer 0_0_deconv
I0623 13:08:21.726802 29185 net.cpp:396] 0_0_deconv <- 0_1_deconv
I0623 13:08:21.726806 29185 net.cpp:358] 0_0_deconv -> 0_0_deconv
I0623 13:08:21.726810 29185 net.cpp:98] Setting up 0_0_deconv
I0623 13:08:21.726861 29185 net.cpp:105] Top shape: 750 32 32 32 (24576000)
I0623 13:08:21.726866 29185 layer_factory.hpp:78] Creating layer 0_0_deconv_ReLU
I0623 13:08:21.726869 29185 net.cpp:69] Creating Layer 0_0_deconv_ReLU
I0623 13:08:21.726872 29185 net.cpp:396] 0_0_deconv_ReLU <- 0_0_deconv
I0623 13:08:21.726876 29185 net.cpp:347] 0_0_deconv_ReLU -> 0_0_deconv (in-place)
I0623 13:08:21.726879 29185 net.cpp:98] Setting up 0_0_deconv_ReLU
I0623 13:08:21.726882 29185 net.cpp:105] Top shape: 750 32 32 32 (24576000)
I0623 13:08:21.726884 29185 layer_factory.hpp:78] Creating layer reconstruct1
I0623 13:08:21.726891 29185 net.cpp:69] Creating Layer reconstruct1
I0623 13:08:21.726894 29185 net.cpp:396] reconstruct1 <- 0_0_deconv
I0623 13:08:21.726900 29185 net.cpp:358] reconstruct1 -> reconstruct1
I0623 13:08:21.726907 29185 net.cpp:98] Setting up reconstruct1
I0623 13:08:21.727397 29185 net.cpp:105] Top shape: 750 3 32 32 (2304000)
I0623 13:08:21.727407 29185 layer_factory.hpp:78] Creating layer reconstruct2
I0623 13:08:21.727413 29185 net.cpp:69] Creating Layer reconstruct2
I0623 13:08:21.727416 29185 net.cpp:396] reconstruct2 <- reconstruct1
I0623 13:08:21.727421 29185 net.cpp:358] reconstruct2 -> reconstruct2
I0623 13:08:21.727424 29185 net.cpp:98] Setting up reconstruct2
I0623 13:08:21.727488 29185 net.cpp:105] Top shape: 750 3 32 32 (2304000)
I0623 13:08:21.727494 29185 layer_factory.hpp:78] Creating layer L2_Loss
I0623 13:08:21.727499 29185 net.cpp:69] Creating Layer L2_Loss
I0623 13:08:21.727501 29185 net.cpp:396] L2_Loss <- data_data_0_split_1
I0623 13:08:21.727505 29185 net.cpp:396] L2_Loss <- reconstruct2
I0623 13:08:21.727509 29185 net.cpp:358] L2_Loss -> L2_Loss
I0623 13:08:21.727514 29185 net.cpp:98] Setting up L2_Loss
I0623 13:08:21.727520 29185 net.cpp:105] Top shape: 1 1 1 1 (1)
I0623 13:08:21.727524 29185 net.cpp:111]     with loss weight 1
I0623 13:08:21.727536 29185 net.cpp:172] L2_Loss needs backward computation.
I0623 13:08:21.727540 29185 net.cpp:172] reconstruct2 needs backward computation.
I0623 13:08:21.727542 29185 net.cpp:172] reconstruct1 needs backward computation.
I0623 13:08:21.727545 29185 net.cpp:172] 0_0_deconv_ReLU needs backward computation.
…
