…
I0623 12:15:42.747376  2038 net.cpp:277] The NetState phase (0) differed from the phase (1) specified by a rule in layer accuracy_top_1
I0623 12:15:42.747381  2038 net.cpp:277] The NetState phase (0) differed from the phase (1) specified by a rule in layer accuracy_top_5
I0623 12:15:42.747472  2038 net.cpp:39] Initializing net from parameters: 
layers {
  top: "data"
  top: "label"
  name: "data"
  type: DATA
  data_param {
    source: "/dataset/cifar100_lmdb_lab/cifar100_train_lmdb"
    batch_size: 128
    backend: LMDB
  }
  include {
    phase: TRAIN
  }
  transform_param {
    mean_file: "/dataset/cifar100_lmdb_lab/mean.binaryproto"
  }
}
layers {
  bottom: "data"
  top: "0_0_conv"
  name: "0_0_conv"
  type: CONVOLUTION
  blobs_lr: 0
  blobs_lr: 0
  weight_decay: 0
  weight_decay: 0
  convolution_param {
    num_output: 32
    pad: 1
    kernel_size: 3
    stride: 1
    weight_filler {
      type: "xavier"
    }
    bias_filler {
      type: "constant"
      value: 0
    }
  }
}
layers {
  bottom: "0_0_conv"
  top: "0_0_conv"
  name: "0_0_conv_ReLU"
  type: RELU
}
layers {
  bottom: "0_0_conv"
  top: "0_1_conv"
  name: "0_1_conv"
  type: CONVOLUTION
  blobs_lr: 0
  blobs_lr: 0
  weight_decay: 0
  weight_decay: 0
  convolution_param {
    num_output: 32
    pad: 1
    kernel_size: 3
    stride: 1
    weight_filler {
      type: "xavier"
    }
    bias_filler {
      type: "constant"
      value: 0
    }
  }
}
layers {
  bottom: "0_1_conv"
  top: "0_1_conv"
  name: "0_1_conv_ReLU"
  type: RELU
}
layers {
  bottom: "0_1_conv"
  top: "0_pool"
  name: "0_pool"
  type: POOLING
  pooling_param {
    pool: MAX
    kernel_size: 2
    stride: 2
  }
}
layers {
  bottom: "0_pool"
  top: "1_0_conv"
  name: "1_0_conv"
  type: CONVOLUTION
  blobs_lr: 0
  blobs_lr: 0
  weight_decay: 0
  weight_decay: 0
  convolution_param {
    num_output: 32
    pad: 1
    kernel_size: 3
    stride: 1
    weight_filler {
      type: "xavier"
    }
    bias_filler {
      type: "constant"
      value: 0
    }
  }
}
layers {
  bottom: "1_0_conv"
  top: "1_0_conv"
  name: "1_0_conv_ReLU"
  type: RELU
}
layers {
  bottom: "1_0_conv"
  top: "1_1_conv"
  name: "1_1_conv"
  type: CONVOLUTION
  blobs_lr: 0
  blobs_lr: 0
  weight_decay: 0
  weight_decay: 0
  convolution_param {
    num_output: 32
    pad: 1
    kernel_size: 3
    stride: 1
    weight_filler {
      type: "xavier"
    }
    bias_filler {
      type: "constant"
      value: 0
    }
  }
}
layers {
  bottom: "1_1_conv"
  top: "1_1_conv"
  name: "1_1_conv_ReLU"
  type: RELU
}
layers {
  bottom: "1_1_conv"
  top: "1_pool"
  name: "1_pool"
  type: POOLING
  pooling_param {
    pool: MAX
    kernel_size: 2
    stride: 2
  }
}
layers {
  bottom: "1_pool"
  top: "2_0_conv"
  name: "2_0_conv"
  type: CONVOLUTION
  blobs_lr: 0
  blobs_lr: 0
  weight_decay: 0
  weight_decay: 0
  convolution_param {
    num_output: 32
    pad: 1
    kernel_size: 3
    stride: 1
    weight_filler {
      type: "xavier"
    }
    bias_filler {
      type: "constant"
      value: 0
    }
  }
}
layers {
  bottom: "2_0_conv"
  top: "2_0_conv"
  name: "2_0_conv_ReLU"
  type: RELU
}
layers {
  bottom: "2_0_conv"
  top: "2_1_conv"
  name: "2_1_conv"
  type: CONVOLUTION
  blobs_lr: 0
  blobs_lr: 0
  weight_decay: 0
  weight_decay: 0
  convolution_param {
    num_output: 32
    pad: 1
    kernel_size: 3
    stride: 1
    weight_filler {
      type: "xavier"
    }
    bias_filler {
      type: "constant"
      value: 0
    }
  }
}
layers {
  bottom: "2_1_conv"
  top: "2_1_conv"
  name: "2_1_conv_ReLU"
  type: RELU
}
layers {
  bottom: "2_1_conv"
  top: "2_pool"
  name: "2_pool"
  type: POOLING
  pooling_param {
    pool: MAX
    kernel_size: 2
    stride: 2
  }
}
layers {
  bottom: "2_pool"
  top: "middle_conv"
  name: "middle_conv"
  type: CONVOLUTION
  blobs_lr: 0
  blobs_lr: 0
  weight_decay: 0
  weight_decay: 0
  convolution_param {
    num_output: 50
    pad: 0
    kernel_size: 4
    stride: 1
    weight_filler {
      type: "xavier"
    }
    bias_filler {
      type: "constant"
      value: 0
    }
  }
}
layers {
  bottom: "middle_conv"
  top: "middle_conv"
  name: "middle_conv_ReLU"
  type: RELU
}
layers {
  bottom: "middle_conv"
  top: "fc1"
  name: "fc1"
  type: INNER_PRODUCT
  blobs_lr: 0
  blobs_lr: 0
  weight_decay: 0
  weight_decay: 0
  inner_product_param {
    num_output: 512
    weight_filler {
      type: "xavier"
    }
    bias_filler {
      type: "constant"
      value: 0
    }
  }
}
layers {
  bottom: "fc1"
  top: "fc1"
  name: "fc1_Dropout"
  type: DROPOUT
  dropout_param {
    dropout_ratio: 0.5
  }
  include {
    phase: TRAIN
  }
}
layers {
  bottom: "fc1"
  top: "fc1"
  name: "fc1_Dropout_ReLU"
  type: RELU
}
layers {
  bottom: "fc1"
  top: "fc2"
  name: "fc2"
  type: INNER_PRODUCT
  blobs_lr: 1
  blobs_lr: 2
  weight_decay: 0
  weight_decay: 0
  inner_product_param {
    num_output: 100
    weight_filler {
      type: "xavier"
    }
    bias_filler {
      type: "constant"
      value: 0
    }
  }
}
layers {
  bottom: "fc2"
  bottom: "label"
  top: "softmax"
  name: "softmax"
  type: SOFTMAX_LOSS
}
state {
  phase: TRAIN
}
I0623 12:15:42.747539  2038 layer_factory.hpp:78] Creating layer data
I0623 12:15:42.747553  2038 data_transformer.cpp:25] Loading mean file from/dataset/cifar100_lmdb_lab/mean.binaryproto
I0623 12:15:42.747599  2038 net.cpp:69] Creating Layer data
I0623 12:15:42.747606  2038 net.cpp:358] data -> data
I0623 12:15:42.747613  2038 net.cpp:358] data -> label
I0623 12:15:42.747619  2038 net.cpp:98] Setting up data
I0623 12:15:42.747623  2038 data_layer.cpp:32] Opening dataset /dataset/cifar100_lmdb_lab/cifar100_train_lmdb
I0623 12:15:42.747692  2038 data_layer.cpp:71] output data size: 128,3,32,32
I0623 12:15:42.748087  2038 net.cpp:105] Top shape: 128 3 32 32 (393216)
I0623 12:15:42.748093  2038 net.cpp:105] Top shape: 128 1 1 1 (128)
I0623 12:15:42.748097  2038 layer_factory.hpp:78] Creating layer 0_0_conv
I0623 12:15:42.748102  2038 net.cpp:69] Creating Layer 0_0_conv
I0623 12:15:42.748106  2038 net.cpp:396] 0_0_conv <- data
I0623 12:15:42.748113  2038 net.cpp:358] 0_0_conv -> 0_0_conv
I0623 12:15:42.748121  2038 net.cpp:98] Setting up 0_0_conv
I0623 12:15:42.748419  2038 net.cpp:105] Top shape: 128 32 32 32 (4194304)
I0623 12:15:42.748432  2038 layer_factory.hpp:78] Creating layer 0_0_conv_ReLU
I0623 12:15:42.748437  2038 net.cpp:69] Creating Layer 0_0_conv_ReLU
I0623 12:15:42.748440  2038 net.cpp:396] 0_0_conv_ReLU <- 0_0_conv
I0623 12:15:42.748445  2038 net.cpp:347] 0_0_conv_ReLU -> 0_0_conv (in-place)
I0623 12:15:42.748450  2038 net.cpp:98] Setting up 0_0_conv_ReLU
I0623 12:15:42.748453  2038 net.cpp:105] Top shape: 128 32 32 32 (4194304)
I0623 12:15:42.748456  2038 layer_factory.hpp:78] Creating layer 0_1_conv
I0623 12:15:42.748461  2038 net.cpp:69] Creating Layer 0_1_conv
I0623 12:15:42.748463  2038 net.cpp:396] 0_1_conv <- 0_0_conv
I0623 12:15:42.748467  2038 net.cpp:358] 0_1_conv -> 0_1_conv
I0623 12:15:42.748472  2038 net.cpp:98] Setting up 0_1_conv
I0623 12:15:42.748523  2038 net.cpp:105] Top shape: 128 32 32 32 (4194304)
I0623 12:15:42.748529  2038 layer_factory.hpp:78] Creating layer 0_1_conv_ReLU
I0623 12:15:42.748533  2038 net.cpp:69] Creating Layer 0_1_conv_ReLU
I0623 12:15:42.748536  2038 net.cpp:396] 0_1_conv_ReLU <- 0_1_conv
I0623 12:15:42.748540  2038 net.cpp:347] 0_1_conv_ReLU -> 0_1_conv (in-place)
I0623 12:15:42.748548  2038 net.cpp:98] Setting up 0_1_conv_ReLU
I0623 12:15:42.748558  2038 net.cpp:105] Top shape: 128 32 32 32 (4194304)
I0623 12:15:42.748560  2038 layer_factory.hpp:78] Creating layer 0_pool
I0623 12:15:42.748564  2038 net.cpp:69] Creating Layer 0_pool
I0623 12:15:42.748569  2038 net.cpp:396] 0_pool <- 0_1_conv
I0623 12:15:42.748572  2038 net.cpp:358] 0_pool -> 0_pool
I0623 12:15:42.748576  2038 net.cpp:98] Setting up 0_pool
I0623 12:15:42.748584  2038 net.cpp:105] Top shape: 128 32 16 16 (1048576)
I0623 12:15:42.748586  2038 layer_factory.hpp:78] Creating layer 1_0_conv
I0623 12:15:42.748589  2038 net.cpp:69] Creating Layer 1_0_conv
I0623 12:15:42.748592  2038 net.cpp:396] 1_0_conv <- 0_pool
I0623 12:15:42.748597  2038 net.cpp:358] 1_0_conv -> 1_0_conv
I0623 12:15:42.748602  2038 net.cpp:98] Setting up 1_0_conv
I0623 12:15:42.748654  2038 net.cpp:105] Top shape: 128 32 16 16 (1048576)
I0623 12:15:42.748661  2038 layer_factory.hpp:78] Creating layer 1_0_conv_ReLU
I0623 12:15:42.748664  2038 net.cpp:69] Creating Layer 1_0_conv_ReLU
I0623 12:15:42.748667  2038 net.cpp:396] 1_0_conv_ReLU <- 1_0_conv
I0623 12:15:42.748670  2038 net.cpp:347] 1_0_conv_ReLU -> 1_0_conv (in-place)
I0623 12:15:42.748674  2038 net.cpp:98] Setting up 1_0_conv_ReLU
I0623 12:15:42.748677  2038 net.cpp:105] Top shape: 128 32 16 16 (1048576)
I0623 12:15:42.748679  2038 layer_factory.hpp:78] Creating layer 1_1_conv
I0623 12:15:42.748684  2038 net.cpp:69] Creating Layer 1_1_conv
I0623 12:15:42.748687  2038 net.cpp:396] 1_1_conv <- 1_0_conv
I0623 12:15:42.748695  2038 net.cpp:358] 1_1_conv -> 1_1_conv
I0623 12:15:42.748700  2038 net.cpp:98] Setting up 1_1_conv
I0623 12:15:42.748760  2038 net.cpp:105] Top shape: 128 32 16 16 (1048576)
I0623 12:15:42.748765  2038 layer_factory.hpp:78] Creating layer 1_1_conv_ReLU
I0623 12:15:42.748769  2038 net.cpp:69] Creating Layer 1_1_conv_ReLU
I0623 12:15:42.748772  2038 net.cpp:396] 1_1_conv_ReLU <- 1_1_conv
I0623 12:15:42.748777  2038 net.cpp:347] 1_1_conv_ReLU -> 1_1_conv (in-place)
I0623 12:15:42.748781  2038 net.cpp:98] Setting up 1_1_conv_ReLU
I0623 12:15:42.748783  2038 net.cpp:105] Top shape: 128 32 16 16 (1048576)
I0623 12:15:42.748786  2038 layer_factory.hpp:78] Creating layer 1_pool
I0623 12:15:42.748790  2038 net.cpp:69] Creating Layer 1_pool
I0623 12:15:42.748793  2038 net.cpp:396] 1_pool <- 1_1_conv
I0623 12:15:42.748797  2038 net.cpp:358] 1_pool -> 1_pool
I0623 12:15:42.748801  2038 net.cpp:98] Setting up 1_pool
I0623 12:15:42.748805  2038 net.cpp:105] Top shape: 128 32 8 8 (262144)
I0623 12:15:42.748807  2038 layer_factory.hpp:78] Creating layer 2_0_conv
I0623 12:15:42.748811  2038 net.cpp:69] Creating Layer 2_0_conv
I0623 12:15:42.748814  2038 net.cpp:396] 2_0_conv <- 1_pool
I0623 12:15:42.748819  2038 net.cpp:358] 2_0_conv -> 2_0_conv
I0623 12:15:42.748824  2038 net.cpp:98] Setting up 2_0_conv
I0623 12:15:42.748875  2038 net.cpp:105] Top shape: 128 32 8 8 (262144)
I0623 12:15:42.748880  2038 layer_factory.hpp:78] Creating layer 2_0_conv_ReLU
I0623 12:15:42.748884  2038 net.cpp:69] Creating Layer 2_0_conv_ReLU
I0623 12:15:42.748888  2038 net.cpp:396] 2_0_conv_ReLU <- 2_0_conv
I0623 12:15:42.748891  2038 net.cpp:347] 2_0_conv_ReLU -> 2_0_conv (in-place)
I0623 12:15:42.748894  2038 net.cpp:98] Setting up 2_0_conv_ReLU
I0623 12:15:42.748898  2038 net.cpp:105] Top shape: 128 32 8 8 (262144)
I0623 12:15:42.748900  2038 layer_factory.hpp:78] Creating layer 2_1_conv
I0623 12:15:42.748905  2038 net.cpp:69] Creating Layer 2_1_conv
I0623 12:15:42.748908  2038 net.cpp:396] 2_1_conv <- 2_0_conv
I0623 12:15:42.748913  2038 net.cpp:358] 2_1_conv -> 2_1_conv
I0623 12:15:42.748917  2038 net.cpp:98] Setting up 2_1_conv
I0623 12:15:42.748968  2038 net.cpp:105] Top shape: 128 32 8 8 (262144)
I0623 12:15:42.748972  2038 layer_factory.hpp:78] Creating layer 2_1_conv_ReLU
I0623 12:15:42.748975  2038 net.cpp:69] Creating Layer 2_1_conv_ReLU
I0623 12:15:42.748978  2038 net.cpp:396] 2_1_conv_ReLU <- 2_1_conv
I0623 12:15:42.748983  2038 net.cpp:347] 2_1_conv_ReLU -> 2_1_conv (in-place)
I0623 12:15:42.748989  2038 net.cpp:98] Setting up 2_1_conv_ReLU
I0623 12:15:42.748992  2038 net.cpp:105] Top shape: 128 32 8 8 (262144)
I0623 12:15:42.748998  2038 layer_factory.hpp:78] Creating layer 2_pool
I0623 12:15:42.749002  2038 net.cpp:69] Creating Layer 2_pool
I0623 12:15:42.749006  2038 net.cpp:396] 2_pool <- 2_1_conv
I0623 12:15:42.749008  2038 net.cpp:358] 2_pool -> 2_pool
I0623 12:15:42.749012  2038 net.cpp:98] Setting up 2_pool
I0623 12:15:42.749017  2038 net.cpp:105] Top shape: 128 32 4 4 (65536)
I0623 12:15:42.749020  2038 layer_factory.hpp:78] Creating layer middle_conv
I0623 12:15:42.749024  2038 net.cpp:69] Creating Layer middle_conv
I0623 12:15:42.749027  2038 net.cpp:396] middle_conv <- 2_pool
I0623 12:15:42.749035  2038 net.cpp:358] middle_conv -> middle_conv
I0623 12:15:42.749039  2038 net.cpp:98] Setting up middle_conv
I0623 12:15:42.749168  2038 net.cpp:105] Top shape: 128 50 1 1 (6400)
I0623 12:15:42.749174  2038 layer_factory.hpp:78] Creating layer middle_conv_ReLU
I0623 12:15:42.749177  2038 net.cpp:69] Creating Layer middle_conv_ReLU
I0623 12:15:42.749181  2038 net.cpp:396] middle_conv_ReLU <- middle_conv
I0623 12:15:42.749186  2038 net.cpp:347] middle_conv_ReLU -> middle_conv (in-place)
I0623 12:15:42.749188  2038 net.cpp:98] Setting up middle_conv_ReLU
I0623 12:15:42.749191  2038 net.cpp:105] Top shape: 128 50 1 1 (6400)
I0623 12:15:42.749194  2038 layer_factory.hpp:78] Creating layer fc1
I0623 12:15:42.749198  2038 net.cpp:69] Creating Layer fc1
I0623 12:15:42.749202  2038 net.cpp:396] fc1 <- middle_conv
I0623 12:15:42.749207  2038 net.cpp:358] fc1 -> fc1
I0623 12:15:42.749210  2038 net.cpp:98] Setting up fc1
I0623 12:15:42.749341  2038 net.cpp:105] Top shape: 128 512 1 1 (65536)
I0623 12:15:42.749346  2038 layer_factory.hpp:78] Creating layer fc1_Dropout
I0623 12:15:42.749352  2038 net.cpp:69] Creating Layer fc1_Dropout
I0623 12:15:42.749356  2038 net.cpp:396] fc1_Dropout <- fc1
I0623 12:15:42.749359  2038 net.cpp:347] fc1_Dropout -> fc1 (in-place)
I0623 12:15:42.749363  2038 net.cpp:98] Setting up fc1_Dropout
I0623 12:15:42.749366  2038 net.cpp:105] Top shape: 128 512 1 1 (65536)
I0623 12:15:42.749371  2038 layer_factory.hpp:78] Creating layer fc1_Dropout_ReLU
I0623 12:15:42.749373  2038 net.cpp:69] Creating Layer fc1_Dropout_ReLU
I0623 12:15:42.749377  2038 net.cpp:396] fc1_Dropout_ReLU <- fc1
I0623 12:15:42.749382  2038 net.cpp:347] fc1_Dropout_ReLU -> fc1 (in-place)
I0623 12:15:42.749384  2038 net.cpp:98] Setting up fc1_Dropout_ReLU
I0623 12:15:42.749387  2038 net.cpp:105] Top shape: 128 512 1 1 (65536)
I0623 12:15:42.749390  2038 layer_factory.hpp:78] Creating layer fc2
I0623 12:15:42.749394  2038 net.cpp:69] Creating Layer fc2
I0623 12:15:42.749397  2038 net.cpp:396] fc2 <- fc1
I0623 12:15:42.749400  2038 net.cpp:358] fc2 -> fc2
I0623 12:15:42.749405  2038 net.cpp:98] Setting up fc2
I0623 12:15:42.749675  2038 net.cpp:105] Top shape: 128 100 1 1 (12800)
I0623 12:15:42.749683  2038 layer_factory.hpp:78] Creating layer softmax
I0623 12:15:42.749691  2038 net.cpp:69] Creating Layer softmax
I0623 12:15:42.749693  2038 net.cpp:396] softmax <- fc2
I0623 12:15:42.749696  2038 net.cpp:396] softmax <- label
I0623 12:15:42.749701  2038 net.cpp:358] softmax -> softmax
I0623 12:15:42.749706  2038 net.cpp:98] Setting up softmax
I0623 12:15:42.749714  2038 net.cpp:105] Top shape: 1 1 1 1 (1)
I0623 12:15:42.749717  2038 net.cpp:111]     with loss weight 1
I0623 12:15:42.749729  2038 net.cpp:172] softmax needs backward computation.
I0623 12:15:42.749732  2038 net.cpp:172] fc2 needs backward computation.
I0623 12:15:42.749735  2038 net.cpp:174] fc1_Dropout_ReLU does not need backward computation.
I0623 12:15:42.749738  2038 net.cpp:174] fc1_Dropout does not need backward computation.
…
I0623 12:15:42.750258  2038 net.cpp:277] The NetState phase (1) differed from the phase (0) specified by a rule in layer data
I0623 12:15:42.750269  2038 net.cpp:277] The NetState phase (1) differed from the phase (0) specified by a rule in layer fc1_Dropout
I0623 12:15:42.750362  2038 net.cpp:39] Initializing net from parameters: 
layers {
  top: "data"
  top: "label"
  name: "data"
  type: DATA
  data_param {
    source: "/dataset/cifar100_lmdb_lab/cifar100_test_lmdb"
    batch_size: 128
    backend: LMDB
  }
  include {
    phase: TEST
  }
  transform_param {
    mean_file: "/dataset/cifar100_lmdb_lab/mean.binaryproto"
  }
}
layers {
  bottom: "data"
  top: "0_0_conv"
  name: "0_0_conv"
  type: CONVOLUTION
  blobs_lr: 0
  blobs_lr: 0
  weight_decay: 0
  weight_decay: 0
  convolution_param {
    num_output: 32
    pad: 1
    kernel_size: 3
    stride: 1
    weight_filler {
      type: "xavier"
    }
    bias_filler {
      type: "constant"
      value: 0
    }
  }
}
layers {
  bottom: "0_0_conv"
  top: "0_0_conv"
  name: "0_0_conv_ReLU"
  type: RELU
}
layers {
  bottom: "0_0_conv"
  top: "0_1_conv"
  name: "0_1_conv"
  type: CONVOLUTION
  blobs_lr: 0
  blobs_lr: 0
  weight_decay: 0
  weight_decay: 0
  convolution_param {
    num_output: 32
    pad: 1
    kernel_size: 3
    stride: 1
    weight_filler {
      type: "xavier"
    }
    bias_filler {
      type: "constant"
      value: 0
    }
  }
}
layers {
  bottom: "0_1_conv"
  top: "0_1_conv"
  name: "0_1_conv_ReLU"
  type: RELU
}
layers {
  bottom: "0_1_conv"
  top: "0_pool"
  name: "0_pool"
  type: POOLING
  pooling_param {
    pool: MAX
    kernel_size: 2
    stride: 2
  }
}
layers {
  bottom: "0_pool"
  top: "1_0_conv"
  name: "1_0_conv"
  type: CONVOLUTION
  blobs_lr: 0
  blobs_lr: 0
  weight_decay: 0
  weight_decay: 0
  convolution_param {
    num_output: 32
    pad: 1
    kernel_size: 3
    stride: 1
    weight_filler {
      type: "xavier"
    }
    bias_filler {
      type: "constant"
      value: 0
    }
  }
}
layers {
  bottom: "1_0_conv"
  top: "1_0_conv"
  name: "1_0_conv_ReLU"
  type: RELU
}
layers {
  bottom: "1_0_conv"
  top: "1_1_conv"
  name: "1_1_conv"
  type: CONVOLUTION
  blobs_lr: 0
  blobs_lr: 0
  weight_decay: 0
  weight_decay: 0
  convolution_param {
    num_output: 32
    pad: 1
    kernel_size: 3
    stride: 1
    weight_filler {
      type: "xavier"
    }
    bias_filler {
      type: "constant"
      value: 0
    }
  }
}
layers {
  bottom: "1_1_conv"
  top: "1_1_conv"
  name: "1_1_conv_ReLU"
  type: RELU
}
layers {
  bottom: "1_1_conv"
  top: "1_pool"
  name: "1_pool"
  type: POOLING
  pooling_param {
    pool: MAX
    kernel_size: 2
    stride: 2
  }
}
layers {
  bottom: "1_pool"
  top: "2_0_conv"
  name: "2_0_conv"
  type: CONVOLUTION
  blobs_lr: 0
  blobs_lr: 0
  weight_decay: 0
  weight_decay: 0
  convolution_param {
    num_output: 32
    pad: 1
    kernel_size: 3
    stride: 1
    weight_filler {
      type: "xavier"
    }
    bias_filler {
      type: "constant"
      value: 0
    }
  }
}
layers {
  bottom: "2_0_conv"
  top: "2_0_conv"
  name: "2_0_conv_ReLU"
  type: RELU
}
layers {
  bottom: "2_0_conv"
  top: "2_1_conv"
  name: "2_1_conv"
  type: CONVOLUTION
  blobs_lr: 0
  blobs_lr: 0
  weight_decay: 0
  weight_decay: 0
  convolution_param {
    num_output: 32
    pad: 1
    kernel_size: 3
    stride: 1
    weight_filler {
      type: "xavier"
    }
    bias_filler {
      type: "constant"
      value: 0
    }
  }
}
layers {
  bottom: "2_1_conv"
  top: "2_1_conv"
  name: "2_1_conv_ReLU"
  type: RELU
}
layers {
  bottom: "2_1_conv"
  top: "2_pool"
  name: "2_pool"
  type: POOLING
  pooling_param {
    pool: MAX
    kernel_size: 2
    stride: 2
  }
}
layers {
  bottom: "2_pool"
  top: "middle_conv"
  name: "middle_conv"
  type: CONVOLUTION
  blobs_lr: 0
  blobs_lr: 0
  weight_decay: 0
  weight_decay: 0
  convolution_param {
    num_output: 50
    pad: 0
    kernel_size: 4
    stride: 1
    weight_filler {
      type: "xavier"
    }
    bias_filler {
      type: "constant"
      value: 0
    }
  }
}
layers {
  bottom: "middle_conv"
  top: "middle_conv"
  name: "middle_conv_ReLU"
  type: RELU
}
layers {
  bottom: "middle_conv"
  top: "fc1"
  name: "fc1"
  type: INNER_PRODUCT
  blobs_lr: 0
  blobs_lr: 0
  weight_decay: 0
  weight_decay: 0
  inner_product_param {
    num_output: 512
    weight_filler {
      type: "xavier"
    }
    bias_filler {
      type: "constant"
      value: 0
    }
  }
}
layers {
  bottom: "fc1"
  top: "fc1"
  name: "fc1_Dropout_ReLU"
  type: RELU
}
layers {
  bottom: "fc1"
  top: "fc2"
  name: "fc2"
  type: INNER_PRODUCT
  blobs_lr: 1
  blobs_lr: 2
  weight_decay: 0
  weight_decay: 0
  inner_product_param {
    num_output: 100
    weight_filler {
      type: "xavier"
    }
    bias_filler {
      type: "constant"
      value: 0
    }
  }
}
layers {
  bottom: "fc2"
  bottom: "label"
  top: "softmax"
  name: "softmax"
  type: SOFTMAX_LOSS
}
layers {
  bottom: "fc2"
  bottom: "label"
  top: "accuracy_top_1"
  name: "accuracy_top_1"
  type: ACCURACY
  accuracy_param {
    top_k: 1
  }
  include {
    phase: TEST
  }
}
layers {
  bottom: "fc2"
  bottom: "label"
  top: "accuracy_top_5"
  name: "accuracy_top_5"
  type: ACCURACY
  accuracy_param {
    top_k: 5
  }
  include {
    phase: TEST
  }
}
state {
  phase: TEST
}
I0623 12:15:42.750439  2038 layer_factory.hpp:78] Creating layer data
I0623 12:15:42.750447  2038 data_transformer.cpp:25] Loading mean file from/dataset/cifar100_lmdb_lab/mean.binaryproto
I0623 12:15:42.750478  2038 net.cpp:69] Creating Layer data
I0623 12:15:42.750483  2038 net.cpp:358] data -> data
I0623 12:15:42.750489  2038 net.cpp:358] data -> label
I0623 12:15:42.750494  2038 net.cpp:98] Setting up data
I0623 12:15:42.750497  2038 data_layer.cpp:32] Opening dataset /dataset/cifar100_lmdb_lab/cifar100_test_lmdb
I0623 12:15:42.750536  2038 data_layer.cpp:71] output data size: 128,3,32,32
I0623 12:15:42.750919  2038 net.cpp:105] Top shape: 128 3 32 32 (393216)
I0623 12:15:42.750937  2038 net.cpp:105] Top shape: 128 1 1 1 (128)
I0623 12:15:42.750941  2038 layer_factory.hpp:78] Creating layer label_data_1_split
I0623 12:15:42.750946  2038 net.cpp:69] Creating Layer label_data_1_split
I0623 12:15:42.750948  2038 net.cpp:396] label_data_1_split <- label
I0623 12:15:42.750953  2038 net.cpp:358] label_data_1_split -> label_data_1_split_0
I0623 12:15:42.750962  2038 net.cpp:358] label_data_1_split -> label_data_1_split_1
I0623 12:15:42.750969  2038 net.cpp:358] label_data_1_split -> label_data_1_split_2
I0623 12:15:42.750979  2038 net.cpp:98] Setting up label_data_1_split
I0623 12:15:42.750993  2038 net.cpp:105] Top shape: 128 1 1 1 (128)
I0623 12:15:42.750996  2038 net.cpp:105] Top shape: 128 1 1 1 (128)
I0623 12:15:42.750999  2038 net.cpp:105] Top shape: 128 1 1 1 (128)
I0623 12:15:42.751001  2038 layer_factory.hpp:78] Creating layer 0_0_conv
I0623 12:15:42.751006  2038 net.cpp:69] Creating Layer 0_0_conv
I0623 12:15:42.751009  2038 net.cpp:396] 0_0_conv <- data
I0623 12:15:42.751014  2038 net.cpp:358] 0_0_conv -> 0_0_conv
I0623 12:15:42.751019  2038 net.cpp:98] Setting up 0_0_conv
I0623 12:15:42.751034  2038 net.cpp:105] Top shape: 128 32 32 32 (4194304)
I0623 12:15:42.751040  2038 layer_factory.hpp:78] Creating layer 0_0_conv_ReLU
I0623 12:15:42.751044  2038 net.cpp:69] Creating Layer 0_0_conv_ReLU
I0623 12:15:42.751046  2038 net.cpp:396] 0_0_conv_ReLU <- 0_0_conv
I0623 12:15:42.751051  2038 net.cpp:347] 0_0_conv_ReLU -> 0_0_conv (in-place)
I0623 12:15:42.751055  2038 net.cpp:98] Setting up 0_0_conv_ReLU
I0623 12:15:42.751058  2038 net.cpp:105] Top shape: 128 32 32 32 (4194304)
I0623 12:15:42.751061  2038 layer_factory.hpp:78] Creating layer 0_1_conv
I0623 12:15:42.751065  2038 net.cpp:69] Creating Layer 0_1_conv
I0623 12:15:42.751068  2038 net.cpp:396] 0_1_conv <- 0_0_conv
I0623 12:15:42.751073  2038 net.cpp:358] 0_1_conv -> 0_1_conv
I0623 12:15:42.751077  2038 net.cpp:98] Setting up 0_1_conv
I0623 12:15:42.751128  2038 net.cpp:105] Top shape: 128 32 32 32 (4194304)
I0623 12:15:42.751134  2038 layer_factory.hpp:78] Creating layer 0_1_conv_ReLU
I0623 12:15:42.751137  2038 net.cpp:69] Creating Layer 0_1_conv_ReLU
I0623 12:15:42.751140  2038 net.cpp:396] 0_1_conv_ReLU <- 0_1_conv
I0623 12:15:42.751144  2038 net.cpp:347] 0_1_conv_ReLU -> 0_1_conv (in-place)
I0623 12:15:42.751148  2038 net.cpp:98] Setting up 0_1_conv_ReLU
I0623 12:15:42.751152  2038 net.cpp:105] Top shape: 128 32 32 32 (4194304)
I0623 12:15:42.751154  2038 layer_factory.hpp:78] Creating layer 0_pool
I0623 12:15:42.751158  2038 net.cpp:69] Creating Layer 0_pool
I0623 12:15:42.751160  2038 net.cpp:396] 0_pool <- 0_1_conv
I0623 12:15:42.751165  2038 net.cpp:358] 0_pool -> 0_pool
I0623 12:15:42.751169  2038 net.cpp:98] Setting up 0_pool
I0623 12:15:42.751173  2038 net.cpp:105] Top shape: 128 32 16 16 (1048576)
I0623 12:15:42.751176  2038 layer_factory.hpp:78] Creating layer 1_0_conv
I0623 12:15:42.751180  2038 net.cpp:69] Creating Layer 1_0_conv
I0623 12:15:42.751183  2038 net.cpp:396] 1_0_conv <- 0_pool
I0623 12:15:42.751188  2038 net.cpp:358] 1_0_conv -> 1_0_conv
I0623 12:15:42.751194  2038 net.cpp:98] Setting up 1_0_conv
I0623 12:15:42.751255  2038 net.cpp:105] Top shape: 128 32 16 16 (1048576)
I0623 12:15:42.751260  2038 layer_factory.hpp:78] Creating layer 1_0_conv_ReLU
I0623 12:15:42.751265  2038 net.cpp:69] Creating Layer 1_0_conv_ReLU
I0623 12:15:42.751267  2038 net.cpp:396] 1_0_conv_ReLU <- 1_0_conv
I0623 12:15:42.751271  2038 net.cpp:347] 1_0_conv_ReLU -> 1_0_conv (in-place)
I0623 12:15:42.751284  2038 net.cpp:98] Setting up 1_0_conv_ReLU
I0623 12:15:42.751287  2038 net.cpp:105] Top shape: 128 32 16 16 (1048576)
I0623 12:15:42.751289  2038 layer_factory.hpp:78] Creating layer 1_1_conv
I0623 12:15:42.751296  2038 net.cpp:69] Creating Layer 1_1_conv
I0623 12:15:42.751298  2038 net.cpp:396] 1_1_conv <- 1_0_conv
I0623 12:15:42.751303  2038 net.cpp:358] 1_1_conv -> 1_1_conv
I0623 12:15:42.751308  2038 net.cpp:98] Setting up 1_1_conv
I0623 12:15:42.751365  2038 net.cpp:105] Top shape: 128 32 16 16 (1048576)
I0623 12:15:42.751371  2038 layer_factory.hpp:78] Creating layer 1_1_conv_ReLU
I0623 12:15:42.751375  2038 net.cpp:69] Creating Layer 1_1_conv_ReLU
I0623 12:15:42.751379  2038 net.cpp:396] 1_1_conv_ReLU <- 1_1_conv
I0623 12:15:42.751382  2038 net.cpp:347] 1_1_conv_ReLU -> 1_1_conv (in-place)
I0623 12:15:42.751386  2038 net.cpp:98] Setting up 1_1_conv_ReLU
I0623 12:15:42.751389  2038 net.cpp:105] Top shape: 128 32 16 16 (1048576)
I0623 12:15:42.751394  2038 layer_factory.hpp:78] Creating layer 1_pool
I0623 12:15:42.751401  2038 net.cpp:69] Creating Layer 1_pool
I0623 12:15:42.751405  2038 net.cpp:396] 1_pool <- 1_1_conv
I0623 12:15:42.751408  2038 net.cpp:358] 1_pool -> 1_pool
I0623 12:15:42.751413  2038 net.cpp:98] Setting up 1_pool
I0623 12:15:42.751416  2038 net.cpp:105] Top shape: 128 32 8 8 (262144)
I0623 12:15:42.751420  2038 layer_factory.hpp:78] Creating layer 2_0_conv
I0623 12:15:42.751423  2038 net.cpp:69] Creating Layer 2_0_conv
I0623 12:15:42.751426  2038 net.cpp:396] 2_0_conv <- 1_pool
I0623 12:15:42.751431  2038 net.cpp:358] 2_0_conv -> 2_0_conv
I0623 12:15:42.751435  2038 net.cpp:98] Setting up 2_0_conv
I0623 12:15:42.751485  2038 net.cpp:105] Top shape: 128 32 8 8 (262144)
I0623 12:15:42.751492  2038 layer_factory.hpp:78] Creating layer 2_0_conv_ReLU
I0623 12:15:42.751495  2038 net.cpp:69] Creating Layer 2_0_conv_ReLU
I0623 12:15:42.751498  2038 net.cpp:396] 2_0_conv_ReLU <- 2_0_conv
I0623 12:15:42.751502  2038 net.cpp:347] 2_0_conv_ReLU -> 2_0_conv (in-place)
I0623 12:15:42.751505  2038 net.cpp:98] Setting up 2_0_conv_ReLU
I0623 12:15:42.751508  2038 net.cpp:105] Top shape: 128 32 8 8 (262144)
I0623 12:15:42.751512  2038 layer_factory.hpp:78] Creating layer 2_1_conv
I0623 12:15:42.751518  2038 net.cpp:69] Creating Layer 2_1_conv
I0623 12:15:42.751521  2038 net.cpp:396] 2_1_conv <- 2_0_conv
I0623 12:15:42.751525  2038 net.cpp:358] 2_1_conv -> 2_1_conv
I0623 12:15:42.751529  2038 net.cpp:98] Setting up 2_1_conv
I0623 12:15:42.751590  2038 net.cpp:105] Top shape: 128 32 8 8 (262144)
I0623 12:15:42.751607  2038 layer_factory.hpp:78] Creating layer 2_1_conv_ReLU
I0623 12:15:42.751611  2038 net.cpp:69] Creating Layer 2_1_conv_ReLU
I0623 12:15:42.751615  2038 net.cpp:396] 2_1_conv_ReLU <- 2_1_conv
I0623 12:15:42.751619  2038 net.cpp:347] 2_1_conv_ReLU -> 2_1_conv (in-place)
I0623 12:15:42.751623  2038 net.cpp:98] Setting up 2_1_conv_ReLU
I0623 12:15:42.751626  2038 net.cpp:105] Top shape: 128 32 8 8 (262144)
I0623 12:15:42.751629  2038 layer_factory.hpp:78] Creating layer 2_pool
I0623 12:15:42.751634  2038 net.cpp:69] Creating Layer 2_pool
I0623 12:15:42.751638  2038 net.cpp:396] 2_pool <- 2_1_conv
I0623 12:15:42.751642  2038 net.cpp:358] 2_pool -> 2_pool
I0623 12:15:42.751646  2038 net.cpp:98] Setting up 2_pool
I0623 12:15:42.751651  2038 net.cpp:105] Top shape: 128 32 4 4 (65536)
I0623 12:15:42.751653  2038 layer_factory.hpp:78] Creating layer middle_conv
I0623 12:15:42.751658  2038 net.cpp:69] Creating Layer middle_conv
I0623 12:15:42.751663  2038 net.cpp:396] middle_conv <- 2_pool
I0623 12:15:42.751669  2038 net.cpp:358] middle_conv -> middle_conv
I0623 12:15:42.751674  2038 net.cpp:98] Setting up middle_conv
I0623 12:15:42.751812  2038 net.cpp:105] Top shape: 128 50 1 1 (6400)
I0623 12:15:42.751818  2038 layer_factory.hpp:78] Creating layer middle_conv_ReLU
I0623 12:15:42.751822  2038 net.cpp:69] Creating Layer middle_conv_ReLU
I0623 12:15:42.751826  2038 net.cpp:396] middle_conv_ReLU <- middle_conv
I0623 12:15:42.751830  2038 net.cpp:347] middle_conv_ReLU -> middle_conv (in-place)
I0623 12:15:42.751837  2038 net.cpp:98] Setting up middle_conv_ReLU
I0623 12:15:42.751842  2038 net.cpp:105] Top shape: 128 50 1 1 (6400)
I0623 12:15:42.751844  2038 layer_factory.hpp:78] Creating layer fc1
I0623 12:15:42.751848  2038 net.cpp:69] Creating Layer fc1
I0623 12:15:42.751852  2038 net.cpp:396] fc1 <- middle_conv
I0623 12:15:42.751857  2038 net.cpp:358] fc1 -> fc1
I0623 12:15:42.751862  2038 net.cpp:98] Setting up fc1
I0623 12:15:42.751998  2038 net.cpp:105] Top shape: 128 512 1 1 (65536)
I0623 12:15:42.752004  2038 layer_factory.hpp:78] Creating layer fc1_Dropout_ReLU
I0623 12:15:42.752007  2038 net.cpp:69] Creating Layer fc1_Dropout_ReLU
I0623 12:15:42.752010  2038 net.cpp:396] fc1_Dropout_ReLU <- fc1
I0623 12:15:42.752015  2038 net.cpp:347] fc1_Dropout_ReLU -> fc1 (in-place)
I0623 12:15:42.752019  2038 net.cpp:98] Setting up fc1_Dropout_ReLU
I0623 12:15:42.752022  2038 net.cpp:105] Top shape: 128 512 1 1 (65536)
I0623 12:15:42.752027  2038 layer_factory.hpp:78] Creating layer fc2
I0623 12:15:42.752034  2038 net.cpp:69] Creating Layer fc2
I0623 12:15:42.752041  2038 net.cpp:396] fc2 <- fc1
I0623 12:15:42.752045  2038 net.cpp:358] fc2 -> fc2
I0623 12:15:42.752053  2038 net.cpp:98] Setting up fc2
I0623 12:15:42.752323  2038 net.cpp:105] Top shape: 128 100 1 1 (12800)
I0623 12:15:42.752332  2038 layer_factory.hpp:78] Creating layer fc2_fc2_0_split
I0623 12:15:42.752336  2038 net.cpp:69] Creating Layer fc2_fc2_0_split
I0623 12:15:42.752339  2038 net.cpp:396] fc2_fc2_0_split <- fc2
I0623 12:15:42.752343  2038 net.cpp:358] fc2_fc2_0_split -> fc2_fc2_0_split_0
I0623 12:15:42.752351  2038 net.cpp:358] fc2_fc2_0_split -> fc2_fc2_0_split_1
I0623 12:15:42.752357  2038 net.cpp:358] fc2_fc2_0_split -> fc2_fc2_0_split_2
I0623 12:15:42.752362  2038 net.cpp:98] Setting up fc2_fc2_0_split
I0623 12:15:42.752367  2038 net.cpp:105] Top shape: 128 100 1 1 (12800)
I0623 12:15:42.752369  2038 net.cpp:105] Top shape: 128 100 1 1 (12800)
I0623 12:15:42.752372  2038 net.cpp:105] Top shape: 128 100 1 1 (12800)
I0623 12:15:42.752375  2038 layer_factory.hpp:78] Creating layer softmax
I0623 12:15:42.752379  2038 net.cpp:69] Creating Layer softmax
I0623 12:15:42.752382  2038 net.cpp:396] softmax <- fc2_fc2_0_split_0
I0623 12:15:42.752388  2038 net.cpp:396] softmax <- label_data_1_split_0
I0623 12:15:42.752393  2038 net.cpp:358] softmax -> softmax
I0623 12:15:42.752396  2038 net.cpp:98] Setting up softmax
I0623 12:15:42.752401  2038 net.cpp:105] Top shape: 1 1 1 1 (1)
I0623 12:15:42.752404  2038 net.cpp:111]     with loss weight 1
I0623 12:15:42.752410  2038 layer_factory.hpp:78] Creating layer accuracy_top_1
I0623 12:15:42.752416  2038 net.cpp:69] Creating Layer accuracy_top_1
I0623 12:15:42.752419  2038 net.cpp:396] accuracy_top_1 <- fc2_fc2_0_split_1
I0623 12:15:42.752424  2038 net.cpp:396] accuracy_top_1 <- label_data_1_split_1
I0623 12:15:42.752432  2038 net.cpp:358] accuracy_top_1 -> accuracy_top_1
I0623 12:15:42.752436  2038 net.cpp:98] Setting up accuracy_top_1
I0623 12:15:42.752442  2038 net.cpp:105] Top shape: 1 1 1 1 (1)
I0623 12:15:42.752446  2038 layer_factory.hpp:78] Creating layer accuracy_top_5
I0623 12:15:42.752451  2038 net.cpp:69] Creating Layer accuracy_top_5
I0623 12:15:42.752454  2038 net.cpp:396] accuracy_top_5 <- fc2_fc2_0_split_2
I0623 12:15:42.752460  2038 net.cpp:396] accuracy_top_5 <- label_data_1_split_2
I0623 12:15:42.752463  2038 net.cpp:358] accuracy_top_5 -> accuracy_top_5
I0623 12:15:42.752468  2038 net.cpp:98] Setting up accuracy_top_5
I0623 12:15:42.752471  2038 net.cpp:105] Top shape: 1 1 1 1 (1)
I0623 12:15:42.752475  2038 net.cpp:174] accuracy_top_5 does not need backward computation.
I0623 12:15:42.752477  2038 net.cpp:174] accuracy_top_1 does not need backward computation.
I0623 12:15:42.752480  2038 net.cpp:172] softmax needs backward computation.
I0623 12:15:42.752483  2038 net.cpp:172] fc2_fc2_0_split needs backward computation.
I0623 12:15:42.752486  2038 net.cpp:172] fc2 needs backward computation.
…
