…
I0615 21:46:19.778928 26781 solver.cpp:70] Creating training net from net file: prototxt/16-06-15_15h49m18s_0_50_reconstructFullFC0_net.sh
I0615 21:46:19.779523 26781 net.cpp:277] The NetState phase (0) differed from the phase (1) specified by a rule in layer data
I0615 21:46:19.779683 26781 net.cpp:39] Initializing net from parameters: 
layers {
  top: "data"
  name: "data"
  type: DATA
  data_param {
    source: "/dataset/cifar100_lmdb_lab/cifar100_train_lmdb"
    batch_size: 750
    backend: LMDB
  }
  include {
    phase: TRAIN
  }
  transform_param {
    mean_file: "/dataset/cifar100_lmdb_lab/mean.binaryproto"
  }
}
layers {
  bottom: "data"
  top: "0_0_conv"
  name: "0_0_conv"
  type: CONVOLUTION
  blobs_lr: 0
  blobs_lr: 0
  weight_decay: 0
  weight_decay: 0
  convolution_param {
    num_output: 8
    pad: 1
    kernel_size: 3
    stride: 1
    weight_filler {
      type: "xavier"
    }
    bias_filler {
      type: "constant"
      value: 0
    }
  }
}
layers {
  bottom: "0_0_conv"
  top: "0_0_conv"
  name: "0_0_conv_ReLU"
  type: RELU
}
layers {
  bottom: "0_0_conv"
  top: "0_1_conv"
  name: "0_1_conv"
  type: CONVOLUTION
  blobs_lr: 0
  blobs_lr: 0
  weight_decay: 0
  weight_decay: 0
  convolution_param {
    num_output: 8
    pad: 1
    kernel_size: 3
    stride: 1
    weight_filler {
      type: "xavier"
    }
    bias_filler {
      type: "constant"
      value: 0
    }
  }
}
layers {
  bottom: "0_1_conv"
  top: "0_1_conv"
  name: "0_1_conv_ReLU"
  type: RELU
}
layers {
  bottom: "0_1_conv"
  top: "0_pool"
  top: "0_pool_mask"
  name: "0_pool"
  type: POOLING
  pooling_param {
    pool: MAX
    kernel_size: 2
    stride: 2
  }
}
layers {
  bottom: "0_pool"
  top: "1_0_conv"
  name: "1_0_conv"
  type: CONVOLUTION
  blobs_lr: 0
  blobs_lr: 0
  weight_decay: 0
  weight_decay: 0
  convolution_param {
    num_output: 8
    pad: 1
    kernel_size: 3
    stride: 1
    weight_filler {
      type: "xavier"
    }
    bias_filler {
      type: "constant"
      value: 0
    }
  }
}
layers {
  bottom: "1_0_conv"
  top: "1_0_conv"
  name: "1_0_conv_ReLU"
  type: RELU
}
layers {
  bottom: "1_0_conv"
  top: "1_1_conv"
  name: "1_1_conv"
  type: CONVOLUTION
  blobs_lr: 0
  blobs_lr: 0
  weight_decay: 0
  weight_decay: 0
  convolution_param {
    num_output: 8
    pad: 1
    kernel_size: 3
    stride: 1
    weight_filler {
      type: "xavier"
    }
    bias_filler {
      type: "constant"
      value: 0
    }
  }
}
layers {
  bottom: "1_1_conv"
  top: "1_1_conv"
  name: "1_1_conv_ReLU"
  type: RELU
}
layers {
  bottom: "1_1_conv"
  top: "1_pool"
  top: "1_pool_mask"
  name: "1_pool"
  type: POOLING
  pooling_param {
    pool: MAX
    kernel_size: 2
    stride: 2
  }
}
layers {
  bottom: "1_pool"
  top: "2_0_conv"
  name: "2_0_conv"
  type: CONVOLUTION
  blobs_lr: 0
  blobs_lr: 0
  weight_decay: 0
  weight_decay: 0
  convolution_param {
    num_output: 8
    pad: 1
    kernel_size: 3
    stride: 1
    weight_filler {
      type: "xavier"
    }
    bias_filler {
      type: "constant"
      value: 0
    }
  }
}
layers {
  bottom: "2_0_conv"
  top: "2_0_conv"
  name: "2_0_conv_ReLU"
  type: RELU
}
layers {
  bottom: "2_0_conv"
  top: "2_1_conv"
  name: "2_1_conv"
  type: CONVOLUTION
  blobs_lr: 0
  blobs_lr: 0
  weight_decay: 0
  weight_decay: 0
  convolution_param {
    num_output: 8
    pad: 1
    kernel_size: 3
    stride: 1
    weight_filler {
      type: "xavier"
    }
    bias_filler {
      type: "constant"
      value: 0
    }
  }
}
layers {
  bottom: "2_1_conv"
  top: "2_1_conv"
  name: "2_1_conv_ReLU"
  type: RELU
}
layers {
  bottom: "2_1_conv"
  top: "2_pool"
  top: "2_pool_mask"
  name: "2_pool"
  type: POOLING
  pooling_param {
    pool: MAX
    kernel_size: 2
    stride: 2
  }
}
layers {
  bottom: "2_pool"
  top: "middle_conv_zeros"
  name: "middle_conv_zeros"
  type: CONVOLUTION
  blobs_lr: 0
  blobs_lr: 0
  weight_decay: 0
  weight_decay: 0
  convolution_param {
    num_output: 50
    pad: 0
    kernel_size: 4
    stride: 1
    weight_filler {
      type: "constant"
      value: 0
    }
    bias_filler {
      type: "constant"
      value: 0
    }
  }
}
layers {
  bottom: "middle_conv_zeros"
  top: "middle_deconv"
  name: "middle_deconv"
  type: DECONVOLUTION
  blobs_lr: 1
  blobs_lr: 2
  weight_decay: 0
  weight_decay: 0
  convolution_param {
    num_output: 8
    pad: 1
    kernel_size: 4
    stride: 1
    weight_filler {
      type: "xavier"
    }
    bias_filler {
      type: "constant"
      value: 0
    }
  }
}
layers {
  bottom: "middle_deconv"
  bottom: "2_pool_mask"
  top: "2_unpool"
  name: "2_unpool"
  type: UNPOOLING
  unpooling_param {
    unpool: MAX
    kernel_size: 2
    stride: 2
    unpool_size: 8
  }
}
layers {
  bottom: "2_unpool"
  top: "2_1_deconv"
  name: "2_1_deconv"
  type: DECONVOLUTION
  blobs_lr: 1
  blobs_lr: 2
  weight_decay: 0
  weight_decay: 0
  convolution_param {
    num_output: 8
    pad: 1
    kernel_size: 3
    stride: 1
    weight_filler {
      type: "xavier"
    }
    bias_filler {
      type: "constant"
      value: 0
    }
  }
}
layers {
  bottom: "2_1_deconv"
  top: "2_1_deconv"
  name: "2_1_deconv_ReLU"
  type: RELU
}
layers {
  bottom: "2_1_deconv"
  top: "2_0_deconv"
  name: "2_0_deconv"
  type: DECONVOLUTION
  blobs_lr: 1
  blobs_lr: 2
  weight_decay: 0
  weight_decay: 0
  convolution_param {
    num_output: 8
    pad: 1
    kernel_size: 3
    stride: 1
    weight_filler {
      type: "xavier"
    }
    bias_filler {
      type: "constant"
      value: 0
    }
  }
}
layers {
  bottom: "2_0_deconv"
  top: "2_0_deconv"
  name: "2_0_deconv_ReLU"
  type: RELU
}
layers {
  bottom: "2_0_deconv"
  bottom: "1_pool_mask"
  top: "1_unpool"
  name: "1_unpool"
  type: UNPOOLING
  unpooling_param {
    unpool: MAX
    kernel_size: 2
    stride: 2
    unpool_size: 16
  }
}
layers {
  bottom: "1_unpool"
  top: "1_1_deconv"
  name: "1_1_deconv"
  type: DECONVOLUTION
  blobs_lr: 1
  blobs_lr: 2
  weight_decay: 0
  weight_decay: 0
  convolution_param {
    num_output: 8
    pad: 1
    kernel_size: 3
    stride: 1
    weight_filler {
      type: "xavier"
    }
    bias_filler {
      type: "constant"
      value: 0
    }
  }
}
layers {
  bottom: "1_1_deconv"
  top: "1_1_deconv"
  name: "1_1_deconv_ReLU"
  type: RELU
}
layers {
  bottom: "1_1_deconv"
  top: "1_0_deconv"
  name: "1_0_deconv"
  type: DECONVOLUTION
  blobs_lr: 1
  blobs_lr: 2
  weight_decay: 0
  weight_decay: 0
  convolution_param {
    num_output: 8
    pad: 1
    kernel_size: 3
    stride: 1
    weight_filler {
      type: "xavier"
    }
    bias_filler {
      type: "constant"
      value: 0
    }
  }
}
layers {
  bottom: "1_0_deconv"
  top: "1_0_deconv"
  name: "1_0_deconv_ReLU"
  type: RELU
}
layers {
  bottom: "1_0_deconv"
  bottom: "0_pool_mask"
  top: "0_unpool"
  name: "0_unpool"
  type: UNPOOLING
  unpooling_param {
    unpool: MAX
    kernel_size: 2
    stride: 2
    unpool_size: 32
  }
}
layers {
  bottom: "0_unpool"
  top: "0_1_deconv"
  name: "0_1_deconv"
  type: DECONVOLUTION
  blobs_lr: 1
  blobs_lr: 2
  weight_decay: 0
  weight_decay: 0
  convolution_param {
    num_output: 8
    pad: 1
    kernel_size: 3
    stride: 1
    weight_filler {
      type: "xavier"
    }
    bias_filler {
      type: "constant"
      value: 0
    }
  }
}
layers {
  bottom: "0_1_deconv"
  top: "0_1_deconv"
  name: "0_1_deconv_ReLU"
  type: RELU
}
layers {
  bottom: "0_1_deconv"
  top: "0_0_deconv"
  name: "0_0_deconv"
  type: DECONVOLUTION
  blobs_lr: 1
  blobs_lr: 2
  weight_decay: 0
  weight_decay: 0
  convolution_param {
    num_output: 8
    pad: 1
    kernel_size: 3
    stride: 1
    weight_filler {
      type: "xavier"
    }
    bias_filler {
      type: "constant"
      value: 0
    }
  }
}
layers {
  bottom: "0_0_deconv"
  top: "0_0_deconv"
  name: "0_0_deconv_ReLU"
  type: RELU
}
layers {
  bottom: "0_0_deconv"
  top: "reconstruct1"
  name: "reconstruct1"
  type: LOCAL
  blobs_lr: 1
  blobs_lr: 2
  weight_decay: 0
  weight_decay: 0
  local_param {
    num_output: 3
    pad: 0
    kernel_size: 1
    stride: 1
    weight_filler {
      type: "xavier"
    }
    bias_filler {
      type: "constant"
      value: 0
    }
  }
}
layers {
  bottom: "reconstruct1"
  top: "reconstruct2"
  name: "reconstruct2"
  type: LOCAL
  blobs_lr: 1
  blobs_lr: 2
  weight_decay: 0
  weight_decay: 0
  local_param {
    num_output: 3
    pad: 0
    kernel_size: 1
    stride: 1
    weight_filler {
      type: "xavier"
    }
    bias_filler {
      type: "constant"
      value: 0
    }
  }
}
layers {
  bottom: "data"
  bottom: "reconstruct2"
  top: "L2_Loss"
  name: "L2_Loss"
  type: EUCLIDEAN_LOSS
}
state {
  phase: TRAIN
}
I0615 21:46:19.779796 26781 layer_factory.hpp:78] Creating layer data
I0615 21:46:19.779810 26781 data_transformer.cpp:25] Loading mean file from/dataset/cifar100_lmdb_lab/mean.binaryproto
I0615 21:46:19.779857 26781 net.cpp:69] Creating Layer data
I0615 21:46:19.779863 26781 net.cpp:358] data -> data
I0615 21:46:19.779871 26781 net.cpp:98] Setting up data
I0615 21:46:19.779875 26781 data_layer.cpp:32] Opening dataset /dataset/cifar100_lmdb_lab/cifar100_train_lmdb
I0615 21:46:19.779945 26781 data_layer.cpp:71] output data size: 750,3,32,32
I0615 21:46:19.780849 26781 net.cpp:105] Top shape: 750 3 32 32 (2304000)
I0615 21:46:19.780871 26781 layer_factory.hpp:78] Creating layer data_data_0_split
I0615 21:46:19.780881 26781 net.cpp:69] Creating Layer data_data_0_split
I0615 21:46:19.780884 26781 net.cpp:396] data_data_0_split <- data
I0615 21:46:19.780889 26781 net.cpp:358] data_data_0_split -> data_data_0_split_0
I0615 21:46:19.780897 26781 net.cpp:358] data_data_0_split -> data_data_0_split_1
I0615 21:46:19.780902 26781 net.cpp:98] Setting up data_data_0_split
I0615 21:46:19.780906 26781 net.cpp:105] Top shape: 750 3 32 32 (2304000)
I0615 21:46:19.780910 26781 net.cpp:105] Top shape: 750 3 32 32 (2304000)
I0615 21:46:19.780913 26781 layer_factory.hpp:78] Creating layer 0_0_conv
I0615 21:46:19.780920 26781 net.cpp:69] Creating Layer 0_0_conv
I0615 21:46:19.780922 26781 net.cpp:396] 0_0_conv <- data_data_0_split_0
I0615 21:46:19.780928 26781 net.cpp:358] 0_0_conv -> 0_0_conv
I0615 21:46:19.780933 26781 net.cpp:98] Setting up 0_0_conv
I0615 21:46:19.781216 26781 net.cpp:105] Top shape: 750 8 32 32 (6144000)
I0615 21:46:19.781227 26781 layer_factory.hpp:78] Creating layer 0_0_conv_ReLU
I0615 21:46:19.781231 26781 net.cpp:69] Creating Layer 0_0_conv_ReLU
I0615 21:46:19.781234 26781 net.cpp:396] 0_0_conv_ReLU <- 0_0_conv
I0615 21:46:19.781239 26781 net.cpp:347] 0_0_conv_ReLU -> 0_0_conv (in-place)
I0615 21:46:19.781242 26781 net.cpp:98] Setting up 0_0_conv_ReLU
I0615 21:46:19.781245 26781 net.cpp:105] Top shape: 750 8 32 32 (6144000)
I0615 21:46:19.781249 26781 layer_factory.hpp:78] Creating layer 0_1_conv
I0615 21:46:19.781256 26781 net.cpp:69] Creating Layer 0_1_conv
I0615 21:46:19.781260 26781 net.cpp:396] 0_1_conv <- 0_0_conv
I0615 21:46:19.781263 26781 net.cpp:358] 0_1_conv -> 0_1_conv
I0615 21:46:19.781267 26781 net.cpp:98] Setting up 0_1_conv
I0615 21:46:19.781278 26781 net.cpp:105] Top shape: 750 8 32 32 (6144000)
I0615 21:46:19.781283 26781 layer_factory.hpp:78] Creating layer 0_1_conv_ReLU
I0615 21:46:19.781287 26781 net.cpp:69] Creating Layer 0_1_conv_ReLU
I0615 21:46:19.781291 26781 net.cpp:396] 0_1_conv_ReLU <- 0_1_conv
I0615 21:46:19.781294 26781 net.cpp:347] 0_1_conv_ReLU -> 0_1_conv (in-place)
I0615 21:46:19.781297 26781 net.cpp:98] Setting up 0_1_conv_ReLU
I0615 21:46:19.781301 26781 net.cpp:105] Top shape: 750 8 32 32 (6144000)
I0615 21:46:19.781302 26781 layer_factory.hpp:78] Creating layer 0_pool
I0615 21:46:19.781307 26781 net.cpp:69] Creating Layer 0_pool
I0615 21:46:19.781309 26781 net.cpp:396] 0_pool <- 0_1_conv
I0615 21:46:19.781313 26781 net.cpp:358] 0_pool -> 0_pool
I0615 21:46:19.781323 26781 net.cpp:358] 0_pool -> 0_pool_mask
I0615 21:46:19.781328 26781 net.cpp:98] Setting up 0_pool
I0615 21:46:19.781343 26781 net.cpp:105] Top shape: 750 8 16 16 (1536000)
I0615 21:46:19.781347 26781 net.cpp:105] Top shape: 750 8 16 16 (1536000)
I0615 21:46:19.781349 26781 layer_factory.hpp:78] Creating layer 1_0_conv
I0615 21:46:19.781353 26781 net.cpp:69] Creating Layer 1_0_conv
I0615 21:46:19.781357 26781 net.cpp:396] 1_0_conv <- 0_pool
I0615 21:46:19.781360 26781 net.cpp:358] 1_0_conv -> 1_0_conv
I0615 21:46:19.781365 26781 net.cpp:98] Setting up 1_0_conv
I0615 21:46:19.781376 26781 net.cpp:105] Top shape: 750 8 16 16 (1536000)
I0615 21:46:19.781381 26781 layer_factory.hpp:78] Creating layer 1_0_conv_ReLU
I0615 21:46:19.781386 26781 net.cpp:69] Creating Layer 1_0_conv_ReLU
I0615 21:46:19.781388 26781 net.cpp:396] 1_0_conv_ReLU <- 1_0_conv
I0615 21:46:19.781393 26781 net.cpp:347] 1_0_conv_ReLU -> 1_0_conv (in-place)
I0615 21:46:19.781395 26781 net.cpp:98] Setting up 1_0_conv_ReLU
I0615 21:46:19.781399 26781 net.cpp:105] Top shape: 750 8 16 16 (1536000)
I0615 21:46:19.781401 26781 layer_factory.hpp:78] Creating layer 1_1_conv
I0615 21:46:19.781405 26781 net.cpp:69] Creating Layer 1_1_conv
I0615 21:46:19.781407 26781 net.cpp:396] 1_1_conv <- 1_0_conv
I0615 21:46:19.781412 26781 net.cpp:358] 1_1_conv -> 1_1_conv
I0615 21:46:19.781417 26781 net.cpp:98] Setting up 1_1_conv
I0615 21:46:19.781427 26781 net.cpp:105] Top shape: 750 8 16 16 (1536000)
I0615 21:46:19.781431 26781 layer_factory.hpp:78] Creating layer 1_1_conv_ReLU
I0615 21:46:19.781435 26781 net.cpp:69] Creating Layer 1_1_conv_ReLU
I0615 21:46:19.781437 26781 net.cpp:396] 1_1_conv_ReLU <- 1_1_conv
I0615 21:46:19.781440 26781 net.cpp:347] 1_1_conv_ReLU -> 1_1_conv (in-place)
I0615 21:46:19.781445 26781 net.cpp:98] Setting up 1_1_conv_ReLU
I0615 21:46:19.781446 26781 net.cpp:105] Top shape: 750 8 16 16 (1536000)
I0615 21:46:19.781450 26781 layer_factory.hpp:78] Creating layer 1_pool
I0615 21:46:19.781453 26781 net.cpp:69] Creating Layer 1_pool
I0615 21:46:19.781455 26781 net.cpp:396] 1_pool <- 1_1_conv
I0615 21:46:19.781461 26781 net.cpp:358] 1_pool -> 1_pool
I0615 21:46:19.781464 26781 net.cpp:358] 1_pool -> 1_pool_mask
I0615 21:46:19.781468 26781 net.cpp:98] Setting up 1_pool
I0615 21:46:19.781471 26781 net.cpp:105] Top shape: 750 8 8 8 (384000)
I0615 21:46:19.781473 26781 net.cpp:105] Top shape: 750 8 8 8 (384000)
I0615 21:46:19.781476 26781 layer_factory.hpp:78] Creating layer 2_0_conv
I0615 21:46:19.781481 26781 net.cpp:69] Creating Layer 2_0_conv
I0615 21:46:19.781482 26781 net.cpp:396] 2_0_conv <- 1_pool
I0615 21:46:19.781486 26781 net.cpp:358] 2_0_conv -> 2_0_conv
I0615 21:46:19.781491 26781 net.cpp:98] Setting up 2_0_conv
I0615 21:46:19.781498 26781 net.cpp:105] Top shape: 750 8 8 8 (384000)
I0615 21:46:19.781503 26781 layer_factory.hpp:78] Creating layer 2_0_conv_ReLU
I0615 21:46:19.781507 26781 net.cpp:69] Creating Layer 2_0_conv_ReLU
I0615 21:46:19.781509 26781 net.cpp:396] 2_0_conv_ReLU <- 2_0_conv
I0615 21:46:19.781513 26781 net.cpp:347] 2_0_conv_ReLU -> 2_0_conv (in-place)
I0615 21:46:19.781517 26781 net.cpp:98] Setting up 2_0_conv_ReLU
I0615 21:46:19.781519 26781 net.cpp:105] Top shape: 750 8 8 8 (384000)
I0615 21:46:19.781522 26781 layer_factory.hpp:78] Creating layer 2_1_conv
I0615 21:46:19.781527 26781 net.cpp:69] Creating Layer 2_1_conv
I0615 21:46:19.781529 26781 net.cpp:396] 2_1_conv <- 2_0_conv
I0615 21:46:19.781533 26781 net.cpp:358] 2_1_conv -> 2_1_conv
I0615 21:46:19.781538 26781 net.cpp:98] Setting up 2_1_conv
I0615 21:46:19.781548 26781 net.cpp:105] Top shape: 750 8 8 8 (384000)
I0615 21:46:19.781551 26781 layer_factory.hpp:78] Creating layer 2_1_conv_ReLU
I0615 21:46:19.781554 26781 net.cpp:69] Creating Layer 2_1_conv_ReLU
I0615 21:46:19.781558 26781 net.cpp:396] 2_1_conv_ReLU <- 2_1_conv
I0615 21:46:19.781560 26781 net.cpp:347] 2_1_conv_ReLU -> 2_1_conv (in-place)
I0615 21:46:19.781564 26781 net.cpp:98] Setting up 2_1_conv_ReLU
I0615 21:46:19.781566 26781 net.cpp:105] Top shape: 750 8 8 8 (384000)
I0615 21:46:19.781570 26781 layer_factory.hpp:78] Creating layer 2_pool
I0615 21:46:19.781575 26781 net.cpp:69] Creating Layer 2_pool
I0615 21:46:19.781582 26781 net.cpp:396] 2_pool <- 2_1_conv
I0615 21:46:19.781585 26781 net.cpp:358] 2_pool -> 2_pool
I0615 21:46:19.781590 26781 net.cpp:358] 2_pool -> 2_pool_mask
I0615 21:46:19.781594 26781 net.cpp:98] Setting up 2_pool
I0615 21:46:19.781596 26781 net.cpp:105] Top shape: 750 8 4 4 (96000)
I0615 21:46:19.781599 26781 net.cpp:105] Top shape: 750 8 4 4 (96000)
I0615 21:46:19.781601 26781 layer_factory.hpp:78] Creating layer middle_conv_zeros
I0615 21:46:19.781608 26781 net.cpp:69] Creating Layer middle_conv_zeros
I0615 21:46:19.781611 26781 net.cpp:396] middle_conv_zeros <- 2_pool
I0615 21:46:19.781615 26781 net.cpp:358] middle_conv_zeros -> middle_conv_zeros
I0615 21:46:19.781620 26781 net.cpp:98] Setting up middle_conv_zeros
I0615 21:46:19.781628 26781 net.cpp:105] Top shape: 750 50 1 1 (37500)
I0615 21:46:19.781632 26781 layer_factory.hpp:78] Creating layer middle_deconv
I0615 21:46:19.781640 26781 net.cpp:69] Creating Layer middle_deconv
I0615 21:46:19.781642 26781 net.cpp:396] middle_deconv <- middle_conv_zeros
I0615 21:46:19.781646 26781 net.cpp:358] middle_deconv -> middle_deconv
I0615 21:46:19.781651 26781 net.cpp:98] Setting up middle_deconv
I0615 21:46:19.781689 26781 net.cpp:105] Top shape: 750 8 2 2 (24000)
I0615 21:46:19.781693 26781 layer_factory.hpp:78] Creating layer 2_unpool
I0615 21:46:19.781698 26781 net.cpp:69] Creating Layer 2_unpool
I0615 21:46:19.781700 26781 net.cpp:396] 2_unpool <- middle_deconv
I0615 21:46:19.781704 26781 net.cpp:396] 2_unpool <- 2_pool_mask
I0615 21:46:19.781708 26781 net.cpp:358] 2_unpool -> 2_unpool
I0615 21:46:19.781711 26781 net.cpp:98] Setting up 2_unpool
I0615 21:46:19.781718 26781 net.cpp:105] Top shape: 750 8 8 8 (384000)
I0615 21:46:19.781720 26781 layer_factory.hpp:78] Creating layer 2_1_deconv
I0615 21:46:19.781724 26781 net.cpp:69] Creating Layer 2_1_deconv
I0615 21:46:19.781726 26781 net.cpp:396] 2_1_deconv <- 2_unpool
I0615 21:46:19.781731 26781 net.cpp:358] 2_1_deconv -> 2_1_deconv
I0615 21:46:19.781735 26781 net.cpp:98] Setting up 2_1_deconv
I0615 21:46:19.781744 26781 net.cpp:105] Top shape: 750 8 8 8 (384000)
I0615 21:46:19.781750 26781 layer_factory.hpp:78] Creating layer 2_1_deconv_ReLU
I0615 21:46:19.781756 26781 net.cpp:69] Creating Layer 2_1_deconv_ReLU
I0615 21:46:19.781759 26781 net.cpp:396] 2_1_deconv_ReLU <- 2_1_deconv
I0615 21:46:19.781762 26781 net.cpp:347] 2_1_deconv_ReLU -> 2_1_deconv (in-place)
I0615 21:46:19.781766 26781 net.cpp:98] Setting up 2_1_deconv_ReLU
I0615 21:46:19.781769 26781 net.cpp:105] Top shape: 750 8 8 8 (384000)
I0615 21:46:19.781771 26781 layer_factory.hpp:78] Creating layer 2_0_deconv
I0615 21:46:19.781776 26781 net.cpp:69] Creating Layer 2_0_deconv
I0615 21:46:19.781780 26781 net.cpp:396] 2_0_deconv <- 2_1_deconv
I0615 21:46:19.781783 26781 net.cpp:358] 2_0_deconv -> 2_0_deconv
I0615 21:46:19.781787 26781 net.cpp:98] Setting up 2_0_deconv
I0615 21:46:19.781800 26781 net.cpp:105] Top shape: 750 8 8 8 (384000)
I0615 21:46:19.781805 26781 layer_factory.hpp:78] Creating layer 2_0_deconv_ReLU
I0615 21:46:19.781808 26781 net.cpp:69] Creating Layer 2_0_deconv_ReLU
I0615 21:46:19.781810 26781 net.cpp:396] 2_0_deconv_ReLU <- 2_0_deconv
I0615 21:46:19.781813 26781 net.cpp:347] 2_0_deconv_ReLU -> 2_0_deconv (in-place)
I0615 21:46:19.781817 26781 net.cpp:98] Setting up 2_0_deconv_ReLU
I0615 21:46:19.781819 26781 net.cpp:105] Top shape: 750 8 8 8 (384000)
I0615 21:46:19.781822 26781 layer_factory.hpp:78] Creating layer 1_unpool
I0615 21:46:19.781826 26781 net.cpp:69] Creating Layer 1_unpool
I0615 21:46:19.781829 26781 net.cpp:396] 1_unpool <- 2_0_deconv
I0615 21:46:19.781833 26781 net.cpp:396] 1_unpool <- 1_pool_mask
I0615 21:46:19.781836 26781 net.cpp:358] 1_unpool -> 1_unpool
I0615 21:46:19.781841 26781 net.cpp:98] Setting up 1_unpool
I0615 21:46:19.781843 26781 net.cpp:105] Top shape: 750 8 16 16 (1536000)
I0615 21:46:19.781847 26781 layer_factory.hpp:78] Creating layer 1_1_deconv
I0615 21:46:19.781854 26781 net.cpp:69] Creating Layer 1_1_deconv
I0615 21:46:19.781857 26781 net.cpp:396] 1_1_deconv <- 1_unpool
I0615 21:46:19.781865 26781 net.cpp:358] 1_1_deconv -> 1_1_deconv
I0615 21:46:19.781869 26781 net.cpp:98] Setting up 1_1_deconv
I0615 21:46:19.781878 26781 net.cpp:105] Top shape: 750 8 16 16 (1536000)
I0615 21:46:19.781883 26781 layer_factory.hpp:78] Creating layer 1_1_deconv_ReLU
I0615 21:46:19.781886 26781 net.cpp:69] Creating Layer 1_1_deconv_ReLU
I0615 21:46:19.781889 26781 net.cpp:396] 1_1_deconv_ReLU <- 1_1_deconv
I0615 21:46:19.781893 26781 net.cpp:347] 1_1_deconv_ReLU -> 1_1_deconv (in-place)
I0615 21:46:19.781898 26781 net.cpp:98] Setting up 1_1_deconv_ReLU
I0615 21:46:19.781899 26781 net.cpp:105] Top shape: 750 8 16 16 (1536000)
I0615 21:46:19.781903 26781 layer_factory.hpp:78] Creating layer 1_0_deconv
I0615 21:46:19.781906 26781 net.cpp:69] Creating Layer 1_0_deconv
I0615 21:46:19.781908 26781 net.cpp:396] 1_0_deconv <- 1_1_deconv
I0615 21:46:19.781913 26781 net.cpp:358] 1_0_deconv -> 1_0_deconv
I0615 21:46:19.781916 26781 net.cpp:98] Setting up 1_0_deconv
I0615 21:46:19.781925 26781 net.cpp:105] Top shape: 750 8 16 16 (1536000)
I0615 21:46:19.781929 26781 layer_factory.hpp:78] Creating layer 1_0_deconv_ReLU
I0615 21:46:19.781932 26781 net.cpp:69] Creating Layer 1_0_deconv_ReLU
I0615 21:46:19.781935 26781 net.cpp:396] 1_0_deconv_ReLU <- 1_0_deconv
I0615 21:46:19.781939 26781 net.cpp:347] 1_0_deconv_ReLU -> 1_0_deconv (in-place)
I0615 21:46:19.781941 26781 net.cpp:98] Setting up 1_0_deconv_ReLU
I0615 21:46:19.781944 26781 net.cpp:105] Top shape: 750 8 16 16 (1536000)
I0615 21:46:19.781946 26781 layer_factory.hpp:78] Creating layer 0_unpool
I0615 21:46:19.781950 26781 net.cpp:69] Creating Layer 0_unpool
I0615 21:46:19.781952 26781 net.cpp:396] 0_unpool <- 1_0_deconv
I0615 21:46:19.781956 26781 net.cpp:396] 0_unpool <- 0_pool_mask
I0615 21:46:19.781960 26781 net.cpp:358] 0_unpool -> 0_unpool
I0615 21:46:19.781963 26781 net.cpp:98] Setting up 0_unpool
I0615 21:46:19.781966 26781 net.cpp:105] Top shape: 750 8 32 32 (6144000)
I0615 21:46:19.781970 26781 layer_factory.hpp:78] Creating layer 0_1_deconv
I0615 21:46:19.781972 26781 net.cpp:69] Creating Layer 0_1_deconv
I0615 21:46:19.781975 26781 net.cpp:396] 0_1_deconv <- 0_unpool
I0615 21:46:19.781978 26781 net.cpp:358] 0_1_deconv -> 0_1_deconv
I0615 21:46:19.781982 26781 net.cpp:98] Setting up 0_1_deconv
I0615 21:46:19.781991 26781 net.cpp:105] Top shape: 750 8 32 32 (6144000)
I0615 21:46:19.781996 26781 layer_factory.hpp:78] Creating layer 0_1_deconv_ReLU
I0615 21:46:19.781999 26781 net.cpp:69] Creating Layer 0_1_deconv_ReLU
I0615 21:46:19.782002 26781 net.cpp:396] 0_1_deconv_ReLU <- 0_1_deconv
I0615 21:46:19.782006 26781 net.cpp:347] 0_1_deconv_ReLU -> 0_1_deconv (in-place)
I0615 21:46:19.782008 26781 net.cpp:98] Setting up 0_1_deconv_ReLU
I0615 21:46:19.782011 26781 net.cpp:105] Top shape: 750 8 32 32 (6144000)
I0615 21:46:19.782013 26781 layer_factory.hpp:78] Creating layer 0_0_deconv
I0615 21:46:19.782019 26781 net.cpp:69] Creating Layer 0_0_deconv
I0615 21:46:19.782022 26781 net.cpp:396] 0_0_deconv <- 0_1_deconv
I0615 21:46:19.782027 26781 net.cpp:358] 0_0_deconv -> 0_0_deconv
I0615 21:46:19.782029 26781 net.cpp:98] Setting up 0_0_deconv
I0615 21:46:19.782038 26781 net.cpp:105] Top shape: 750 8 32 32 (6144000)
I0615 21:46:19.782042 26781 layer_factory.hpp:78] Creating layer 0_0_deconv_ReLU
I0615 21:46:19.782045 26781 net.cpp:69] Creating Layer 0_0_deconv_ReLU
I0615 21:46:19.782048 26781 net.cpp:396] 0_0_deconv_ReLU <- 0_0_deconv
I0615 21:46:19.782052 26781 net.cpp:347] 0_0_deconv_ReLU -> 0_0_deconv (in-place)
I0615 21:46:19.782054 26781 net.cpp:98] Setting up 0_0_deconv_ReLU
I0615 21:46:19.782058 26781 net.cpp:105] Top shape: 750 8 32 32 (6144000)
I0615 21:46:19.782059 26781 layer_factory.hpp:78] Creating layer reconstruct1
I0615 21:46:19.782066 26781 net.cpp:69] Creating Layer reconstruct1
I0615 21:46:19.782069 26781 net.cpp:396] reconstruct1 <- 0_0_deconv
I0615 21:46:19.782073 26781 net.cpp:358] reconstruct1 -> reconstruct1
I0615 21:46:19.782080 26781 net.cpp:98] Setting up reconstruct1
I0615 21:46:19.782212 26781 net.cpp:105] Top shape: 750 3 32 32 (2304000)
I0615 21:46:19.782222 26781 layer_factory.hpp:78] Creating layer reconstruct2
I0615 21:46:19.782227 26781 net.cpp:69] Creating Layer reconstruct2
I0615 21:46:19.782230 26781 net.cpp:396] reconstruct2 <- reconstruct1
I0615 21:46:19.782234 26781 net.cpp:358] reconstruct2 -> reconstruct2
I0615 21:46:19.782239 26781 net.cpp:98] Setting up reconstruct2
I0615 21:46:19.782290 26781 net.cpp:105] Top shape: 750 3 32 32 (2304000)
I0615 21:46:19.782295 26781 layer_factory.hpp:78] Creating layer L2_Loss
I0615 21:46:19.782299 26781 net.cpp:69] Creating Layer L2_Loss
I0615 21:46:19.782301 26781 net.cpp:396] L2_Loss <- data_data_0_split_1
I0615 21:46:19.782305 26781 net.cpp:396] L2_Loss <- reconstruct2
I0615 21:46:19.782310 26781 net.cpp:358] L2_Loss -> L2_Loss
I0615 21:46:19.782315 26781 net.cpp:98] Setting up L2_Loss
I0615 21:46:19.782320 26781 net.cpp:105] Top shape: 1 1 1 1 (1)
I0615 21:46:19.782322 26781 net.cpp:111]     with loss weight 1
I0615 21:46:19.782335 26781 net.cpp:172] L2_Loss needs backward computation.
I0615 21:46:19.782338 26781 net.cpp:172] reconstruct2 needs backward computation.
I0615 21:46:19.782341 26781 net.cpp:172] reconstruct1 needs backward computation.
I0615 21:46:19.782344 26781 net.cpp:172] 0_0_deconv_ReLU needs backward computation.
…
