…
I0614 16:34:30.477833 27179 solver.cpp:70] Creating training net from net file: prototxt/16-06-14_15h51m21s_0_30_reconstructIncremental2_net.sh
I0614 16:34:30.478322 27179 net.cpp:277] The NetState phase (0) differed from the phase (1) specified by a rule in layer data
I0614 16:34:30.478449 27179 net.cpp:39] Initializing net from parameters: 
layers {
  top: "data"
  name: "data"
  type: DATA
  data_param {
    source: "/dataset/cifar100_lmdb_lab/cifar100_train_lmdb"
    batch_size: 512
    backend: LMDB
  }
  include {
    phase: TRAIN
  }
  transform_param {
    mean_file: "/dataset/cifar100_lmdb_lab/mean.binaryproto"
  }
}
layers {
  bottom: "data"
  top: "0_0_conv"
  name: "0_0_conv"
  type: CONVOLUTION
  blobs_lr: 0
  blobs_lr: 0
  weight_decay: 0
  weight_decay: 0
  convolution_param {
    num_output: 16
    pad: 1
    kernel_size: 3
    stride: 1
    weight_filler {
      type: "xavier"
    }
    bias_filler {
      type: "constant"
      value: 0
    }
  }
}
layers {
  bottom: "0_0_conv"
  top: "0_0_conv"
  name: "0_0_conv_ReLU"
  type: RELU
}
layers {
  bottom: "0_0_conv"
  top: "0_1_conv"
  name: "0_1_conv"
  type: CONVOLUTION
  blobs_lr: 0
  blobs_lr: 0
  weight_decay: 0
  weight_decay: 0
  convolution_param {
    num_output: 16
    pad: 1
    kernel_size: 3
    stride: 1
    weight_filler {
      type: "xavier"
    }
    bias_filler {
      type: "constant"
      value: 0
    }
  }
}
layers {
  bottom: "0_1_conv"
  top: "0_1_conv"
  name: "0_1_conv_ReLU"
  type: RELU
}
layers {
  bottom: "0_1_conv"
  top: "0_pool"
  name: "0_pool"
  type: POOLING
  pooling_param {
    pool: MAX
    kernel_size: 2
    stride: 2
  }
}
layers {
  bottom: "0_pool"
  top: "1_0_conv"
  name: "1_0_conv"
  type: CONVOLUTION
  blobs_lr: 0
  blobs_lr: 0
  weight_decay: 0
  weight_decay: 0
  convolution_param {
    num_output: 16
    pad: 1
    kernel_size: 3
    stride: 1
    weight_filler {
      type: "xavier"
    }
    bias_filler {
      type: "constant"
      value: 0
    }
  }
}
layers {
  bottom: "1_0_conv"
  top: "1_0_conv"
  name: "1_0_conv_ReLU"
  type: RELU
}
layers {
  bottom: "1_0_conv"
  top: "1_1_conv"
  name: "1_1_conv"
  type: CONVOLUTION
  blobs_lr: 0
  blobs_lr: 0
  weight_decay: 0
  weight_decay: 0
  convolution_param {
    num_output: 16
    pad: 1
    kernel_size: 3
    stride: 1
    weight_filler {
      type: "xavier"
    }
    bias_filler {
      type: "constant"
      value: 0
    }
  }
}
layers {
  bottom: "1_1_conv"
  top: "1_1_conv"
  name: "1_1_conv_ReLU"
  type: RELU
}
layers {
  bottom: "1_1_conv"
  top: "1_pool"
  top: "1_pool_mask"
  name: "1_pool"
  type: POOLING
  pooling_param {
    pool: MAX
    kernel_size: 2
    stride: 2
  }
}
layers {
  bottom: "1_pool"
  top: "2_0_conv"
  name: "2_0_conv"
  type: CONVOLUTION
  blobs_lr: 0
  blobs_lr: 0
  weight_decay: 0
  weight_decay: 0
  convolution_param {
    num_output: 16
    pad: 1
    kernel_size: 3
    stride: 1
    weight_filler {
      type: "xavier"
    }
    bias_filler {
      type: "constant"
      value: 0
    }
  }
}
layers {
  bottom: "2_0_conv"
  top: "2_0_conv"
  name: "2_0_conv_ReLU"
  type: RELU
}
layers {
  bottom: "2_0_conv"
  top: "2_1_conv"
  name: "2_1_conv"
  type: CONVOLUTION
  blobs_lr: 0
  blobs_lr: 0
  weight_decay: 0
  weight_decay: 0
  convolution_param {
    num_output: 16
    pad: 1
    kernel_size: 3
    stride: 1
    weight_filler {
      type: "xavier"
    }
    bias_filler {
      type: "constant"
      value: 0
    }
  }
}
layers {
  bottom: "2_1_conv"
  top: "2_1_conv"
  name: "2_1_conv_ReLU"
  type: RELU
}
layers {
  bottom: "2_1_conv"
  top: "2_pool"
  top: "2_pool_mask"
  name: "2_pool"
  type: POOLING
  pooling_param {
    pool: MAX
    kernel_size: 2
    stride: 2
  }
}
layers {
  bottom: "2_pool"
  top: "middle_conv"
  name: "middle_conv"
  type: CONVOLUTION
  blobs_lr: 0
  blobs_lr: 0
  weight_decay: 0
  weight_decay: 0
  convolution_param {
    num_output: 50
    pad: 0
    kernel_size: 4
    stride: 1
    weight_filler {
      type: "xavier"
    }
    bias_filler {
      type: "constant"
      value: 0
    }
  }
}
layers {
  bottom: "middle_conv"
  top: "middle_deconv"
  name: "middle_deconv"
  type: DECONVOLUTION
  blobs_lr: 1
  blobs_lr: 2
  weight_decay: 0
  weight_decay: 0
  convolution_param {
    num_output: 16
    pad: 1
    kernel_size: 4
    stride: 1
    weight_filler {
      type: "xavier"
    }
    bias_filler {
      type: "constant"
      value: 0
    }
  }
}
layers {
  bottom: "middle_deconv"
  bottom: "2_pool_mask"
  top: "2_unpool"
  name: "2_unpool"
  type: UNPOOLING
  unpooling_param {
    unpool: MAX
    kernel_size: 2
    stride: 2
    unpool_size: 8
  }
}
layers {
  bottom: "2_unpool"
  top: "2_1_deconv"
  name: "2_1_deconv"
  type: DECONVOLUTION
  blobs_lr: 1
  blobs_lr: 2
  weight_decay: 0
  weight_decay: 0
  convolution_param {
    num_output: 16
    pad: 1
    kernel_size: 3
    stride: 1
    weight_filler {
      type: "xavier"
    }
    bias_filler {
      type: "constant"
      value: 0
    }
  }
}
layers {
  bottom: "2_1_deconv"
  top: "2_1_deconv"
  name: "2_1_deconv_ReLU"
  type: RELU
}
layers {
  bottom: "2_1_deconv"
  top: "2_0_deconv"
  name: "2_0_deconv"
  type: DECONVOLUTION
  blobs_lr: 1
  blobs_lr: 2
  weight_decay: 0
  weight_decay: 0
  convolution_param {
    num_output: 16
    pad: 1
    kernel_size: 3
    stride: 1
    weight_filler {
      type: "xavier"
    }
    bias_filler {
      type: "constant"
      value: 0
    }
  }
}
layers {
  bottom: "2_0_deconv"
  top: "2_0_deconv"
  name: "2_0_deconv_ReLU"
  type: RELU
}
layers {
  bottom: "2_0_deconv"
  bottom: "1_pool_mask"
  top: "1_unpool"
  name: "1_unpool"
  type: UNPOOLING
  unpooling_param {
    unpool: MAX
    kernel_size: 2
    stride: 2
    unpool_size: 16
  }
}
layers {
  bottom: "1_unpool"
  top: "1_1_deconv"
  name: "1_1_deconv"
  type: DECONVOLUTION
  blobs_lr: 1
  blobs_lr: 2
  weight_decay: 0
  weight_decay: 0
  convolution_param {
    num_output: 16
    pad: 1
    kernel_size: 3
    stride: 1
    weight_filler {
      type: "xavier"
    }
    bias_filler {
      type: "constant"
      value: 0
    }
  }
}
layers {
  bottom: "1_1_deconv"
  top: "1_1_deconv"
  name: "1_1_deconv_ReLU"
  type: RELU
}
layers {
  bottom: "1_1_deconv"
  top: "1_0_deconv"
  name: "1_0_deconv"
  type: DECONVOLUTION
  blobs_lr: 1
  blobs_lr: 2
  weight_decay: 0
  weight_decay: 0
  convolution_param {
    num_output: 16
    pad: 1
    kernel_size: 3
    stride: 1
    weight_filler {
      type: "xavier"
    }
    bias_filler {
      type: "constant"
      value: 0
    }
  }
}
layers {
  bottom: "1_0_deconv"
  top: "1_0_deconv"
  name: "1_0_deconv_ReLU"
  type: RELU
}
layers {
  bottom: "0_pool"
  bottom: "1_0_deconv"
  top: "L2_Loss"
  name: "L2_Loss"
  type: EUCLIDEAN_LOSS
}
state {
  phase: TRAIN
}
I0614 16:34:30.478544 27179 layer_factory.hpp:78] Creating layer data
I0614 16:34:30.478559 27179 data_transformer.cpp:25] Loading mean file from/dataset/cifar100_lmdb_lab/mean.binaryproto
I0614 16:34:30.478605 27179 net.cpp:69] Creating Layer data
I0614 16:34:30.478611 27179 net.cpp:358] data -> data
I0614 16:34:30.478620 27179 net.cpp:98] Setting up data
I0614 16:34:30.478623 27179 data_layer.cpp:32] Opening dataset /dataset/cifar100_lmdb_lab/cifar100_train_lmdb
I0614 16:34:30.478693 27179 data_layer.cpp:71] output data size: 512,3,32,32
I0614 16:34:30.479540 27179 net.cpp:105] Top shape: 512 3 32 32 (1572864)
I0614 16:34:30.479558 27179 layer_factory.hpp:78] Creating layer 0_0_conv
I0614 16:34:30.479567 27179 net.cpp:69] Creating Layer 0_0_conv
I0614 16:34:30.479569 27179 net.cpp:396] 0_0_conv <- data
I0614 16:34:30.479574 27179 net.cpp:358] 0_0_conv -> 0_0_conv
I0614 16:34:30.479588 27179 net.cpp:98] Setting up 0_0_conv
I0614 16:34:30.479876 27179 net.cpp:105] Top shape: 512 16 32 32 (8388608)
I0614 16:34:30.479895 27179 layer_factory.hpp:78] Creating layer 0_0_conv_ReLU
I0614 16:34:30.479900 27179 net.cpp:69] Creating Layer 0_0_conv_ReLU
I0614 16:34:30.479903 27179 net.cpp:396] 0_0_conv_ReLU <- 0_0_conv
I0614 16:34:30.479908 27179 net.cpp:347] 0_0_conv_ReLU -> 0_0_conv (in-place)
I0614 16:34:30.479912 27179 net.cpp:98] Setting up 0_0_conv_ReLU
I0614 16:34:30.479915 27179 net.cpp:105] Top shape: 512 16 32 32 (8388608)
I0614 16:34:30.479918 27179 layer_factory.hpp:78] Creating layer 0_1_conv
I0614 16:34:30.479923 27179 net.cpp:69] Creating Layer 0_1_conv
I0614 16:34:30.479924 27179 net.cpp:396] 0_1_conv <- 0_0_conv
I0614 16:34:30.479928 27179 net.cpp:358] 0_1_conv -> 0_1_conv
I0614 16:34:30.479933 27179 net.cpp:98] Setting up 0_1_conv
I0614 16:34:30.479953 27179 net.cpp:105] Top shape: 512 16 32 32 (8388608)
I0614 16:34:30.479957 27179 layer_factory.hpp:78] Creating layer 0_1_conv_ReLU
I0614 16:34:30.479961 27179 net.cpp:69] Creating Layer 0_1_conv_ReLU
I0614 16:34:30.479964 27179 net.cpp:396] 0_1_conv_ReLU <- 0_1_conv
I0614 16:34:30.479967 27179 net.cpp:347] 0_1_conv_ReLU -> 0_1_conv (in-place)
I0614 16:34:30.479971 27179 net.cpp:98] Setting up 0_1_conv_ReLU
I0614 16:34:30.479974 27179 net.cpp:105] Top shape: 512 16 32 32 (8388608)
I0614 16:34:30.479976 27179 layer_factory.hpp:78] Creating layer 0_pool
I0614 16:34:30.479980 27179 net.cpp:69] Creating Layer 0_pool
I0614 16:34:30.479984 27179 net.cpp:396] 0_pool <- 0_1_conv
I0614 16:34:30.479986 27179 net.cpp:358] 0_pool -> 0_pool
I0614 16:34:30.479990 27179 net.cpp:98] Setting up 0_pool
I0614 16:34:30.479996 27179 net.cpp:105] Top shape: 512 16 16 16 (2097152)
I0614 16:34:30.480000 27179 layer_factory.hpp:78] Creating layer 0_pool_0_pool_0_split
I0614 16:34:30.480003 27179 net.cpp:69] Creating Layer 0_pool_0_pool_0_split
I0614 16:34:30.480005 27179 net.cpp:396] 0_pool_0_pool_0_split <- 0_pool
I0614 16:34:30.480010 27179 net.cpp:358] 0_pool_0_pool_0_split -> 0_pool_0_pool_0_split_0
I0614 16:34:30.480015 27179 net.cpp:358] 0_pool_0_pool_0_split -> 0_pool_0_pool_0_split_1
I0614 16:34:30.480020 27179 net.cpp:98] Setting up 0_pool_0_pool_0_split
I0614 16:34:30.480022 27179 net.cpp:105] Top shape: 512 16 16 16 (2097152)
I0614 16:34:30.480026 27179 net.cpp:105] Top shape: 512 16 16 16 (2097152)
I0614 16:34:30.480028 27179 layer_factory.hpp:78] Creating layer 1_0_conv
I0614 16:34:30.480032 27179 net.cpp:69] Creating Layer 1_0_conv
I0614 16:34:30.480036 27179 net.cpp:396] 1_0_conv <- 0_pool_0_pool_0_split_0
I0614 16:34:30.480041 27179 net.cpp:358] 1_0_conv -> 1_0_conv
I0614 16:34:30.480046 27179 net.cpp:98] Setting up 1_0_conv
I0614 16:34:30.480062 27179 net.cpp:105] Top shape: 512 16 16 16 (2097152)
I0614 16:34:30.480067 27179 layer_factory.hpp:78] Creating layer 1_0_conv_ReLU
I0614 16:34:30.480072 27179 net.cpp:69] Creating Layer 1_0_conv_ReLU
I0614 16:34:30.480074 27179 net.cpp:396] 1_0_conv_ReLU <- 1_0_conv
I0614 16:34:30.480077 27179 net.cpp:347] 1_0_conv_ReLU -> 1_0_conv (in-place)
I0614 16:34:30.480082 27179 net.cpp:98] Setting up 1_0_conv_ReLU
I0614 16:34:30.480083 27179 net.cpp:105] Top shape: 512 16 16 16 (2097152)
I0614 16:34:30.480087 27179 layer_factory.hpp:78] Creating layer 1_1_conv
I0614 16:34:30.480092 27179 net.cpp:69] Creating Layer 1_1_conv
I0614 16:34:30.480094 27179 net.cpp:396] 1_1_conv <- 1_0_conv
I0614 16:34:30.480098 27179 net.cpp:358] 1_1_conv -> 1_1_conv
I0614 16:34:30.480101 27179 net.cpp:98] Setting up 1_1_conv
I0614 16:34:30.480118 27179 net.cpp:105] Top shape: 512 16 16 16 (2097152)
I0614 16:34:30.480123 27179 layer_factory.hpp:78] Creating layer 1_1_conv_ReLU
I0614 16:34:30.480126 27179 net.cpp:69] Creating Layer 1_1_conv_ReLU
I0614 16:34:30.480152 27179 net.cpp:396] 1_1_conv_ReLU <- 1_1_conv
I0614 16:34:30.480156 27179 net.cpp:347] 1_1_conv_ReLU -> 1_1_conv (in-place)
I0614 16:34:30.480170 27179 net.cpp:98] Setting up 1_1_conv_ReLU
I0614 16:34:30.480172 27179 net.cpp:105] Top shape: 512 16 16 16 (2097152)
I0614 16:34:30.480177 27179 layer_factory.hpp:78] Creating layer 1_pool
I0614 16:34:30.480186 27179 net.cpp:69] Creating Layer 1_pool
I0614 16:34:30.480190 27179 net.cpp:396] 1_pool <- 1_1_conv
I0614 16:34:30.480204 27179 net.cpp:358] 1_pool -> 1_pool
I0614 16:34:30.480209 27179 net.cpp:358] 1_pool -> 1_pool_mask
I0614 16:34:30.480222 27179 net.cpp:98] Setting up 1_pool
I0614 16:34:30.480226 27179 net.cpp:105] Top shape: 512 16 8 8 (524288)
I0614 16:34:30.480228 27179 net.cpp:105] Top shape: 512 16 8 8 (524288)
I0614 16:34:30.480232 27179 layer_factory.hpp:78] Creating layer 2_0_conv
I0614 16:34:30.480237 27179 net.cpp:69] Creating Layer 2_0_conv
I0614 16:34:30.480239 27179 net.cpp:396] 2_0_conv <- 1_pool
I0614 16:34:30.480243 27179 net.cpp:358] 2_0_conv -> 2_0_conv
I0614 16:34:30.480249 27179 net.cpp:98] Setting up 2_0_conv
I0614 16:34:30.480267 27179 net.cpp:105] Top shape: 512 16 8 8 (524288)
I0614 16:34:30.480271 27179 layer_factory.hpp:78] Creating layer 2_0_conv_ReLU
I0614 16:34:30.480276 27179 net.cpp:69] Creating Layer 2_0_conv_ReLU
I0614 16:34:30.480279 27179 net.cpp:396] 2_0_conv_ReLU <- 2_0_conv
I0614 16:34:30.480283 27179 net.cpp:347] 2_0_conv_ReLU -> 2_0_conv (in-place)
I0614 16:34:30.480286 27179 net.cpp:98] Setting up 2_0_conv_ReLU
I0614 16:34:30.480288 27179 net.cpp:105] Top shape: 512 16 8 8 (524288)
I0614 16:34:30.480291 27179 layer_factory.hpp:78] Creating layer 2_1_conv
I0614 16:34:30.480295 27179 net.cpp:69] Creating Layer 2_1_conv
I0614 16:34:30.480298 27179 net.cpp:396] 2_1_conv <- 2_0_conv
I0614 16:34:30.480303 27179 net.cpp:358] 2_1_conv -> 2_1_conv
I0614 16:34:30.480306 27179 net.cpp:98] Setting up 2_1_conv
I0614 16:34:30.480324 27179 net.cpp:105] Top shape: 512 16 8 8 (524288)
I0614 16:34:30.480329 27179 layer_factory.hpp:78] Creating layer 2_1_conv_ReLU
I0614 16:34:30.480332 27179 net.cpp:69] Creating Layer 2_1_conv_ReLU
I0614 16:34:30.480335 27179 net.cpp:396] 2_1_conv_ReLU <- 2_1_conv
I0614 16:34:30.480339 27179 net.cpp:347] 2_1_conv_ReLU -> 2_1_conv (in-place)
I0614 16:34:30.480341 27179 net.cpp:98] Setting up 2_1_conv_ReLU
I0614 16:34:30.480345 27179 net.cpp:105] Top shape: 512 16 8 8 (524288)
I0614 16:34:30.480346 27179 layer_factory.hpp:78] Creating layer 2_pool
I0614 16:34:30.480351 27179 net.cpp:69] Creating Layer 2_pool
I0614 16:34:30.480353 27179 net.cpp:396] 2_pool <- 2_1_conv
I0614 16:34:30.480357 27179 net.cpp:358] 2_pool -> 2_pool
I0614 16:34:30.480362 27179 net.cpp:358] 2_pool -> 2_pool_mask
I0614 16:34:30.480366 27179 net.cpp:98] Setting up 2_pool
I0614 16:34:30.480370 27179 net.cpp:105] Top shape: 512 16 4 4 (131072)
I0614 16:34:30.480372 27179 net.cpp:105] Top shape: 512 16 4 4 (131072)
I0614 16:34:30.480375 27179 layer_factory.hpp:78] Creating layer middle_conv
I0614 16:34:30.480378 27179 net.cpp:69] Creating Layer middle_conv
I0614 16:34:30.480381 27179 net.cpp:396] middle_conv <- 2_pool
I0614 16:34:30.480386 27179 net.cpp:358] middle_conv -> middle_conv
I0614 16:34:30.480389 27179 net.cpp:98] Setting up middle_conv
I0614 16:34:30.480455 27179 net.cpp:105] Top shape: 512 50 1 1 (25600)
I0614 16:34:30.480460 27179 layer_factory.hpp:78] Creating layer middle_deconv
I0614 16:34:30.480468 27179 net.cpp:69] Creating Layer middle_deconv
I0614 16:34:30.480470 27179 net.cpp:396] middle_deconv <- middle_conv
I0614 16:34:30.480473 27179 net.cpp:358] middle_deconv -> middle_deconv
I0614 16:34:30.480479 27179 net.cpp:98] Setting up middle_deconv
I0614 16:34:30.480553 27179 net.cpp:105] Top shape: 512 16 2 2 (32768)
I0614 16:34:30.480559 27179 layer_factory.hpp:78] Creating layer 2_unpool
I0614 16:34:30.480563 27179 net.cpp:69] Creating Layer 2_unpool
I0614 16:34:30.480566 27179 net.cpp:396] 2_unpool <- middle_deconv
I0614 16:34:30.480569 27179 net.cpp:396] 2_unpool <- 2_pool_mask
I0614 16:34:30.480574 27179 net.cpp:358] 2_unpool -> 2_unpool
I0614 16:34:30.480579 27179 net.cpp:98] Setting up 2_unpool
I0614 16:34:30.480586 27179 net.cpp:105] Top shape: 512 16 8 8 (524288)
I0614 16:34:30.480588 27179 layer_factory.hpp:78] Creating layer 2_1_deconv
I0614 16:34:30.480597 27179 net.cpp:69] Creating Layer 2_1_deconv
I0614 16:34:30.480599 27179 net.cpp:396] 2_1_deconv <- 2_unpool
I0614 16:34:30.480607 27179 net.cpp:358] 2_1_deconv -> 2_1_deconv
I0614 16:34:30.480612 27179 net.cpp:98] Setting up 2_1_deconv
I0614 16:34:30.480628 27179 net.cpp:105] Top shape: 512 16 8 8 (524288)
I0614 16:34:30.480634 27179 layer_factory.hpp:78] Creating layer 2_1_deconv_ReLU
I0614 16:34:30.480638 27179 net.cpp:69] Creating Layer 2_1_deconv_ReLU
I0614 16:34:30.480641 27179 net.cpp:396] 2_1_deconv_ReLU <- 2_1_deconv
I0614 16:34:30.480645 27179 net.cpp:347] 2_1_deconv_ReLU -> 2_1_deconv (in-place)
I0614 16:34:30.480648 27179 net.cpp:98] Setting up 2_1_deconv_ReLU
I0614 16:34:30.480651 27179 net.cpp:105] Top shape: 512 16 8 8 (524288)
I0614 16:34:30.480654 27179 layer_factory.hpp:78] Creating layer 2_0_deconv
I0614 16:34:30.480659 27179 net.cpp:69] Creating Layer 2_0_deconv
I0614 16:34:30.480660 27179 net.cpp:396] 2_0_deconv <- 2_1_deconv
I0614 16:34:30.480665 27179 net.cpp:358] 2_0_deconv -> 2_0_deconv
I0614 16:34:30.480669 27179 net.cpp:98] Setting up 2_0_deconv
I0614 16:34:30.480687 27179 net.cpp:105] Top shape: 512 16 8 8 (524288)
I0614 16:34:30.480692 27179 layer_factory.hpp:78] Creating layer 2_0_deconv_ReLU
I0614 16:34:30.480695 27179 net.cpp:69] Creating Layer 2_0_deconv_ReLU
I0614 16:34:30.480697 27179 net.cpp:396] 2_0_deconv_ReLU <- 2_0_deconv
I0614 16:34:30.480701 27179 net.cpp:347] 2_0_deconv_ReLU -> 2_0_deconv (in-place)
I0614 16:34:30.480705 27179 net.cpp:98] Setting up 2_0_deconv_ReLU
I0614 16:34:30.480707 27179 net.cpp:105] Top shape: 512 16 8 8 (524288)
I0614 16:34:30.480710 27179 layer_factory.hpp:78] Creating layer 1_unpool
I0614 16:34:30.480713 27179 net.cpp:69] Creating Layer 1_unpool
I0614 16:34:30.480716 27179 net.cpp:396] 1_unpool <- 2_0_deconv
I0614 16:34:30.480720 27179 net.cpp:396] 1_unpool <- 1_pool_mask
I0614 16:34:30.480723 27179 net.cpp:358] 1_unpool -> 1_unpool
I0614 16:34:30.480727 27179 net.cpp:98] Setting up 1_unpool
I0614 16:34:30.480729 27179 net.cpp:105] Top shape: 512 16 16 16 (2097152)
I0614 16:34:30.480732 27179 layer_factory.hpp:78] Creating layer 1_1_deconv
I0614 16:34:30.480736 27179 net.cpp:69] Creating Layer 1_1_deconv
I0614 16:34:30.480739 27179 net.cpp:396] 1_1_deconv <- 1_unpool
I0614 16:34:30.480742 27179 net.cpp:358] 1_1_deconv -> 1_1_deconv
I0614 16:34:30.480746 27179 net.cpp:98] Setting up 1_1_deconv
I0614 16:34:30.480764 27179 net.cpp:105] Top shape: 512 16 16 16 (2097152)
I0614 16:34:30.480768 27179 layer_factory.hpp:78] Creating layer 1_1_deconv_ReLU
I0614 16:34:30.480772 27179 net.cpp:69] Creating Layer 1_1_deconv_ReLU
I0614 16:34:30.480774 27179 net.cpp:396] 1_1_deconv_ReLU <- 1_1_deconv
I0614 16:34:30.480777 27179 net.cpp:347] 1_1_deconv_ReLU -> 1_1_deconv (in-place)
I0614 16:34:30.480782 27179 net.cpp:98] Setting up 1_1_deconv_ReLU
I0614 16:34:30.480783 27179 net.cpp:105] Top shape: 512 16 16 16 (2097152)
I0614 16:34:30.480787 27179 layer_factory.hpp:78] Creating layer 1_0_deconv
I0614 16:34:30.480790 27179 net.cpp:69] Creating Layer 1_0_deconv
I0614 16:34:30.480793 27179 net.cpp:396] 1_0_deconv <- 1_1_deconv
I0614 16:34:30.480798 27179 net.cpp:358] 1_0_deconv -> 1_0_deconv
I0614 16:34:30.480800 27179 net.cpp:98] Setting up 1_0_deconv
I0614 16:34:30.480818 27179 net.cpp:105] Top shape: 512 16 16 16 (2097152)
I0614 16:34:30.480821 27179 layer_factory.hpp:78] Creating layer 1_0_deconv_ReLU
I0614 16:34:30.480825 27179 net.cpp:69] Creating Layer 1_0_deconv_ReLU
I0614 16:34:30.480828 27179 net.cpp:396] 1_0_deconv_ReLU <- 1_0_deconv
I0614 16:34:30.480831 27179 net.cpp:347] 1_0_deconv_ReLU -> 1_0_deconv (in-place)
I0614 16:34:30.480834 27179 net.cpp:98] Setting up 1_0_deconv_ReLU
I0614 16:34:30.480837 27179 net.cpp:105] Top shape: 512 16 16 16 (2097152)
I0614 16:34:30.480839 27179 layer_factory.hpp:78] Creating layer L2_Loss
I0614 16:34:30.480844 27179 net.cpp:69] Creating Layer L2_Loss
I0614 16:34:30.480846 27179 net.cpp:396] L2_Loss <- 0_pool_0_pool_0_split_1
I0614 16:34:30.480849 27179 net.cpp:396] L2_Loss <- 1_0_deconv
I0614 16:34:30.480854 27179 net.cpp:358] L2_Loss -> L2_Loss
I0614 16:34:30.480859 27179 net.cpp:98] Setting up L2_Loss
I0614 16:34:30.480865 27179 net.cpp:105] Top shape: 1 1 1 1 (1)
I0614 16:34:30.480870 27179 net.cpp:111]     with loss weight 1
I0614 16:34:30.480883 27179 net.cpp:172] L2_Loss needs backward computation.
I0614 16:34:30.480886 27179 net.cpp:172] 1_0_deconv_ReLU needs backward computation.
I0614 16:34:30.480888 27179 net.cpp:172] 1_0_deconv needs backward computation.
I0614 16:34:30.480891 27179 net.cpp:172] 1_1_deconv_ReLU needs backward computation.
…
