…
I0623 12:51:25.607112 25175 solver.cpp:70] Creating training net from net file: prototxt/16-06-21_16h05m31s_0_20_reconstructIncremental1_net.sh
I0623 12:51:25.607528 25175 net.cpp:277] The NetState phase (0) differed from the phase (1) specified by a rule in layer data
I0623 12:51:25.607637 25175 net.cpp:39] Initializing net from parameters: 
layers {
  top: "data"
  name: "data"
  type: DATA
  data_param {
    source: "/dataset/cifar100_lmdb_lab/cifar100_train_lmdb"
    batch_size: 512
    backend: LMDB
  }
  include {
    phase: TRAIN
  }
  transform_param {
    mean_file: "/dataset/cifar100_lmdb_lab/mean.binaryproto"
  }
}
layers {
  bottom: "data"
  top: "0_0_conv"
  name: "0_0_conv"
  type: CONVOLUTION
  blobs_lr: 0
  blobs_lr: 0
  weight_decay: 0
  weight_decay: 0
  convolution_param {
    num_output: 32
    pad: 1
    kernel_size: 3
    stride: 1
    weight_filler {
      type: "xavier"
    }
    bias_filler {
      type: "constant"
      value: 0
    }
  }
}
layers {
  bottom: "0_0_conv"
  top: "0_0_conv"
  name: "0_0_conv_ReLU"
  type: RELU
}
layers {
  bottom: "0_0_conv"
  top: "0_1_conv"
  name: "0_1_conv"
  type: CONVOLUTION
  blobs_lr: 0
  blobs_lr: 0
  weight_decay: 0
  weight_decay: 0
  convolution_param {
    num_output: 32
    pad: 1
    kernel_size: 3
    stride: 1
    weight_filler {
      type: "xavier"
    }
    bias_filler {
      type: "constant"
      value: 0
    }
  }
}
layers {
  bottom: "0_1_conv"
  top: "0_1_conv"
  name: "0_1_conv_ReLU"
  type: RELU
}
layers {
  bottom: "0_1_conv"
  top: "0_pool"
  name: "0_pool"
  type: POOLING
  pooling_param {
    pool: MAX
    kernel_size: 2
    stride: 2
  }
}
layers {
  bottom: "0_pool"
  top: "1_0_conv"
  name: "1_0_conv"
  type: CONVOLUTION
  blobs_lr: 0
  blobs_lr: 0
  weight_decay: 0
  weight_decay: 0
  convolution_param {
    num_output: 32
    pad: 1
    kernel_size: 3
    stride: 1
    weight_filler {
      type: "xavier"
    }
    bias_filler {
      type: "constant"
      value: 0
    }
  }
}
layers {
  bottom: "1_0_conv"
  top: "1_0_conv"
  name: "1_0_conv_ReLU"
  type: RELU
}
layers {
  bottom: "1_0_conv"
  top: "1_1_conv"
  name: "1_1_conv"
  type: CONVOLUTION
  blobs_lr: 0
  blobs_lr: 0
  weight_decay: 0
  weight_decay: 0
  convolution_param {
    num_output: 32
    pad: 1
    kernel_size: 3
    stride: 1
    weight_filler {
      type: "xavier"
    }
    bias_filler {
      type: "constant"
      value: 0
    }
  }
}
layers {
  bottom: "1_1_conv"
  top: "1_1_conv"
  name: "1_1_conv_ReLU"
  type: RELU
}
layers {
  bottom: "1_1_conv"
  top: "1_pool"
  name: "1_pool"
  type: POOLING
  pooling_param {
    pool: MAX
    kernel_size: 2
    stride: 2
  }
}
layers {
  bottom: "1_pool"
  top: "2_0_conv"
  name: "2_0_conv"
  type: CONVOLUTION
  blobs_lr: 0
  blobs_lr: 0
  weight_decay: 0
  weight_decay: 0
  convolution_param {
    num_output: 32
    pad: 1
    kernel_size: 3
    stride: 1
    weight_filler {
      type: "xavier"
    }
    bias_filler {
      type: "constant"
      value: 0
    }
  }
}
layers {
  bottom: "2_0_conv"
  top: "2_0_conv"
  name: "2_0_conv_ReLU"
  type: RELU
}
layers {
  bottom: "2_0_conv"
  top: "2_1_conv"
  name: "2_1_conv"
  type: CONVOLUTION
  blobs_lr: 0
  blobs_lr: 0
  weight_decay: 0
  weight_decay: 0
  convolution_param {
    num_output: 32
    pad: 1
    kernel_size: 3
    stride: 1
    weight_filler {
      type: "xavier"
    }
    bias_filler {
      type: "constant"
      value: 0
    }
  }
}
layers {
  bottom: "2_1_conv"
  top: "2_1_conv"
  name: "2_1_conv_ReLU"
  type: RELU
}
layers {
  bottom: "2_1_conv"
  top: "2_pool"
  top: "2_pool_mask"
  name: "2_pool"
  type: POOLING
  pooling_param {
    pool: MAX
    kernel_size: 2
    stride: 2
  }
}
layers {
  bottom: "2_pool"
  top: "middle_conv"
  name: "middle_conv"
  type: CONVOLUTION
  blobs_lr: 0
  blobs_lr: 0
  weight_decay: 0
  weight_decay: 0
  convolution_param {
    num_output: 50
    pad: 0
    kernel_size: 4
    stride: 1
    weight_filler {
      type: "xavier"
    }
    bias_filler {
      type: "constant"
      value: 0
    }
  }
}
layers {
  bottom: "middle_conv"
  top: "middle_deconv"
  name: "middle_deconv"
  type: DECONVOLUTION
  blobs_lr: 1
  blobs_lr: 2
  weight_decay: 0
  weight_decay: 0
  convolution_param {
    num_output: 32
    pad: 1
    kernel_size: 4
    stride: 1
    weight_filler {
      type: "xavier"
    }
    bias_filler {
      type: "constant"
      value: 0
    }
  }
}
layers {
  bottom: "middle_deconv"
  bottom: "2_pool_mask"
  top: "2_unpool"
  name: "2_unpool"
  type: UNPOOLING
  unpooling_param {
    unpool: MAX
    kernel_size: 2
    stride: 2
    unpool_size: 8
  }
}
layers {
  bottom: "2_unpool"
  top: "2_1_deconv"
  name: "2_1_deconv"
  type: DECONVOLUTION
  blobs_lr: 1
  blobs_lr: 2
  weight_decay: 0
  weight_decay: 0
  convolution_param {
    num_output: 32
    pad: 1
    kernel_size: 3
    stride: 1
    weight_filler {
      type: "xavier"
    }
    bias_filler {
      type: "constant"
      value: 0
    }
  }
}
layers {
  bottom: "2_1_deconv"
  top: "2_1_deconv"
  name: "2_1_deconv_ReLU"
  type: RELU
}
layers {
  bottom: "2_1_deconv"
  top: "2_0_deconv"
  name: "2_0_deconv"
  type: DECONVOLUTION
  blobs_lr: 1
  blobs_lr: 2
  weight_decay: 0
  weight_decay: 0
  convolution_param {
    num_output: 32
    pad: 1
    kernel_size: 3
    stride: 1
    weight_filler {
      type: "xavier"
    }
    bias_filler {
      type: "constant"
      value: 0
    }
  }
}
layers {
  bottom: "2_0_deconv"
  top: "2_0_deconv"
  name: "2_0_deconv_ReLU"
  type: RELU
}
layers {
  bottom: "1_pool"
  bottom: "2_0_deconv"
  top: "L2_Loss"
  name: "L2_Loss"
  type: EUCLIDEAN_LOSS
}
state {
  phase: TRAIN
}
I0623 12:51:25.607722 25175 layer_factory.hpp:78] Creating layer data
I0623 12:51:25.607735 25175 data_transformer.cpp:25] Loading mean file from/dataset/cifar100_lmdb_lab/mean.binaryproto
I0623 12:51:25.607781 25175 net.cpp:69] Creating Layer data
I0623 12:51:25.607787 25175 net.cpp:358] data -> data
I0623 12:51:25.607795 25175 net.cpp:98] Setting up data
I0623 12:51:25.607800 25175 data_layer.cpp:32] Opening dataset /dataset/cifar100_lmdb_lab/cifar100_train_lmdb
I0623 12:51:25.607868 25175 data_layer.cpp:71] output data size: 512,3,32,32
I0623 12:51:25.608638 25175 net.cpp:105] Top shape: 512 3 32 32 (1572864)
I0623 12:51:25.608654 25175 layer_factory.hpp:78] Creating layer 0_0_conv
I0623 12:51:25.608660 25175 net.cpp:69] Creating Layer 0_0_conv
I0623 12:51:25.608664 25175 net.cpp:396] 0_0_conv <- data
I0623 12:51:25.608669 25175 net.cpp:358] 0_0_conv -> 0_0_conv
I0623 12:51:25.608676 25175 net.cpp:98] Setting up 0_0_conv
I0623 12:51:25.608961 25175 net.cpp:105] Top shape: 512 32 32 32 (16777216)
I0623 12:51:25.608973 25175 layer_factory.hpp:78] Creating layer 0_0_conv_ReLU
I0623 12:51:25.608978 25175 net.cpp:69] Creating Layer 0_0_conv_ReLU
I0623 12:51:25.608979 25175 net.cpp:396] 0_0_conv_ReLU <- 0_0_conv
I0623 12:51:25.608983 25175 net.cpp:347] 0_0_conv_ReLU -> 0_0_conv (in-place)
I0623 12:51:25.608989 25175 net.cpp:98] Setting up 0_0_conv_ReLU
I0623 12:51:25.608991 25175 net.cpp:105] Top shape: 512 32 32 32 (16777216)
I0623 12:51:25.608994 25175 layer_factory.hpp:78] Creating layer 0_1_conv
I0623 12:51:25.608999 25175 net.cpp:69] Creating Layer 0_1_conv
I0623 12:51:25.609001 25175 net.cpp:396] 0_1_conv <- 0_0_conv
I0623 12:51:25.609006 25175 net.cpp:358] 0_1_conv -> 0_1_conv
I0623 12:51:25.609012 25175 net.cpp:98] Setting up 0_1_conv
I0623 12:51:25.609067 25175 net.cpp:105] Top shape: 512 32 32 32 (16777216)
I0623 12:51:25.609073 25175 layer_factory.hpp:78] Creating layer 0_1_conv_ReLU
I0623 12:51:25.609081 25175 net.cpp:69] Creating Layer 0_1_conv_ReLU
I0623 12:51:25.609088 25175 net.cpp:396] 0_1_conv_ReLU <- 0_1_conv
I0623 12:51:25.609092 25175 net.cpp:347] 0_1_conv_ReLU -> 0_1_conv (in-place)
I0623 12:51:25.609105 25175 net.cpp:98] Setting up 0_1_conv_ReLU
I0623 12:51:25.609108 25175 net.cpp:105] Top shape: 512 32 32 32 (16777216)
I0623 12:51:25.609112 25175 layer_factory.hpp:78] Creating layer 0_pool
I0623 12:51:25.609114 25175 net.cpp:69] Creating Layer 0_pool
I0623 12:51:25.609117 25175 net.cpp:396] 0_pool <- 0_1_conv
I0623 12:51:25.609122 25175 net.cpp:358] 0_pool -> 0_pool
I0623 12:51:25.609125 25175 net.cpp:98] Setting up 0_pool
I0623 12:51:25.609133 25175 net.cpp:105] Top shape: 512 32 16 16 (4194304)
I0623 12:51:25.609135 25175 layer_factory.hpp:78] Creating layer 1_0_conv
I0623 12:51:25.609140 25175 net.cpp:69] Creating Layer 1_0_conv
I0623 12:51:25.609143 25175 net.cpp:396] 1_0_conv <- 0_pool
I0623 12:51:25.609148 25175 net.cpp:358] 1_0_conv -> 1_0_conv
I0623 12:51:25.609153 25175 net.cpp:98] Setting up 1_0_conv
I0623 12:51:25.609208 25175 net.cpp:105] Top shape: 512 32 16 16 (4194304)
I0623 12:51:25.609215 25175 layer_factory.hpp:78] Creating layer 1_0_conv_ReLU
I0623 12:51:25.609220 25175 net.cpp:69] Creating Layer 1_0_conv_ReLU
I0623 12:51:25.609223 25175 net.cpp:396] 1_0_conv_ReLU <- 1_0_conv
I0623 12:51:25.609226 25175 net.cpp:347] 1_0_conv_ReLU -> 1_0_conv (in-place)
I0623 12:51:25.609230 25175 net.cpp:98] Setting up 1_0_conv_ReLU
I0623 12:51:25.609233 25175 net.cpp:105] Top shape: 512 32 16 16 (4194304)
I0623 12:51:25.609236 25175 layer_factory.hpp:78] Creating layer 1_1_conv
I0623 12:51:25.609241 25175 net.cpp:69] Creating Layer 1_1_conv
I0623 12:51:25.609244 25175 net.cpp:396] 1_1_conv <- 1_0_conv
I0623 12:51:25.609248 25175 net.cpp:358] 1_1_conv -> 1_1_conv
I0623 12:51:25.609252 25175 net.cpp:98] Setting up 1_1_conv
I0623 12:51:25.609313 25175 net.cpp:105] Top shape: 512 32 16 16 (4194304)
I0623 12:51:25.609318 25175 layer_factory.hpp:78] Creating layer 1_1_conv_ReLU
I0623 12:51:25.609323 25175 net.cpp:69] Creating Layer 1_1_conv_ReLU
I0623 12:51:25.609325 25175 net.cpp:396] 1_1_conv_ReLU <- 1_1_conv
I0623 12:51:25.609328 25175 net.cpp:347] 1_1_conv_ReLU -> 1_1_conv (in-place)
I0623 12:51:25.609333 25175 net.cpp:98] Setting up 1_1_conv_ReLU
I0623 12:51:25.609335 25175 net.cpp:105] Top shape: 512 32 16 16 (4194304)
I0623 12:51:25.609338 25175 layer_factory.hpp:78] Creating layer 1_pool
I0623 12:51:25.609341 25175 net.cpp:69] Creating Layer 1_pool
I0623 12:51:25.609344 25175 net.cpp:396] 1_pool <- 1_1_conv
I0623 12:51:25.609349 25175 net.cpp:358] 1_pool -> 1_pool
I0623 12:51:25.609354 25175 net.cpp:98] Setting up 1_pool
I0623 12:51:25.609356 25175 net.cpp:105] Top shape: 512 32 8 8 (1048576)
I0623 12:51:25.609359 25175 layer_factory.hpp:78] Creating layer 1_pool_1_pool_0_split
I0623 12:51:25.609364 25175 net.cpp:69] Creating Layer 1_pool_1_pool_0_split
I0623 12:51:25.609366 25175 net.cpp:396] 1_pool_1_pool_0_split <- 1_pool
I0623 12:51:25.609370 25175 net.cpp:358] 1_pool_1_pool_0_split -> 1_pool_1_pool_0_split_0
I0623 12:51:25.609375 25175 net.cpp:358] 1_pool_1_pool_0_split -> 1_pool_1_pool_0_split_1
I0623 12:51:25.609380 25175 net.cpp:98] Setting up 1_pool_1_pool_0_split
I0623 12:51:25.609383 25175 net.cpp:105] Top shape: 512 32 8 8 (1048576)
I0623 12:51:25.609386 25175 net.cpp:105] Top shape: 512 32 8 8 (1048576)
I0623 12:51:25.609390 25175 layer_factory.hpp:78] Creating layer 2_0_conv
I0623 12:51:25.609393 25175 net.cpp:69] Creating Layer 2_0_conv
I0623 12:51:25.609396 25175 net.cpp:396] 2_0_conv <- 1_pool_1_pool_0_split_0
I0623 12:51:25.609403 25175 net.cpp:358] 2_0_conv -> 2_0_conv
I0623 12:51:25.609408 25175 net.cpp:98] Setting up 2_0_conv
I0623 12:51:25.609459 25175 net.cpp:105] Top shape: 512 32 8 8 (1048576)
I0623 12:51:25.609467 25175 layer_factory.hpp:78] Creating layer 2_0_conv_ReLU
I0623 12:51:25.609470 25175 net.cpp:69] Creating Layer 2_0_conv_ReLU
I0623 12:51:25.609472 25175 net.cpp:396] 2_0_conv_ReLU <- 2_0_conv
I0623 12:51:25.609477 25175 net.cpp:347] 2_0_conv_ReLU -> 2_0_conv (in-place)
I0623 12:51:25.609480 25175 net.cpp:98] Setting up 2_0_conv_ReLU
I0623 12:51:25.609485 25175 net.cpp:105] Top shape: 512 32 8 8 (1048576)
I0623 12:51:25.609493 25175 layer_factory.hpp:78] Creating layer 2_1_conv
I0623 12:51:25.609498 25175 net.cpp:69] Creating Layer 2_1_conv
I0623 12:51:25.609500 25175 net.cpp:396] 2_1_conv <- 2_0_conv
I0623 12:51:25.609505 25175 net.cpp:358] 2_1_conv -> 2_1_conv
I0623 12:51:25.609510 25175 net.cpp:98] Setting up 2_1_conv
I0623 12:51:25.609566 25175 net.cpp:105] Top shape: 512 32 8 8 (1048576)
I0623 12:51:25.609571 25175 layer_factory.hpp:78] Creating layer 2_1_conv_ReLU
I0623 12:51:25.609575 25175 net.cpp:69] Creating Layer 2_1_conv_ReLU
I0623 12:51:25.609578 25175 net.cpp:396] 2_1_conv_ReLU <- 2_1_conv
I0623 12:51:25.609581 25175 net.cpp:347] 2_1_conv_ReLU -> 2_1_conv (in-place)
I0623 12:51:25.609586 25175 net.cpp:98] Setting up 2_1_conv_ReLU
I0623 12:51:25.609588 25175 net.cpp:105] Top shape: 512 32 8 8 (1048576)
I0623 12:51:25.609591 25175 layer_factory.hpp:78] Creating layer 2_pool
I0623 12:51:25.609597 25175 net.cpp:69] Creating Layer 2_pool
I0623 12:51:25.609601 25175 net.cpp:396] 2_pool <- 2_1_conv
I0623 12:51:25.609604 25175 net.cpp:358] 2_pool -> 2_pool
I0623 12:51:25.609609 25175 net.cpp:358] 2_pool -> 2_pool_mask
I0623 12:51:25.609613 25175 net.cpp:98] Setting up 2_pool
I0623 12:51:25.609617 25175 net.cpp:105] Top shape: 512 32 4 4 (262144)
I0623 12:51:25.609621 25175 net.cpp:105] Top shape: 512 32 4 4 (262144)
I0623 12:51:25.609623 25175 layer_factory.hpp:78] Creating layer middle_conv
I0623 12:51:25.609627 25175 net.cpp:69] Creating Layer middle_conv
I0623 12:51:25.609630 25175 net.cpp:396] middle_conv <- 2_pool
I0623 12:51:25.609634 25175 net.cpp:358] middle_conv -> middle_conv
I0623 12:51:25.609639 25175 net.cpp:98] Setting up middle_conv
I0623 12:51:25.609774 25175 net.cpp:105] Top shape: 512 50 1 1 (25600)
I0623 12:51:25.609781 25175 layer_factory.hpp:78] Creating layer middle_deconv
I0623 12:51:25.609788 25175 net.cpp:69] Creating Layer middle_deconv
I0623 12:51:25.609792 25175 net.cpp:396] middle_deconv <- middle_conv
I0623 12:51:25.609797 25175 net.cpp:358] middle_deconv -> middle_deconv
I0623 12:51:25.609802 25175 net.cpp:98] Setting up middle_deconv
I0623 12:51:25.609942 25175 net.cpp:105] Top shape: 512 32 2 2 (65536)
I0623 12:51:25.609948 25175 layer_factory.hpp:78] Creating layer 2_unpool
I0623 12:51:25.609954 25175 net.cpp:69] Creating Layer 2_unpool
I0623 12:51:25.609957 25175 net.cpp:396] 2_unpool <- middle_deconv
I0623 12:51:25.609961 25175 net.cpp:396] 2_unpool <- 2_pool_mask
I0623 12:51:25.609966 25175 net.cpp:358] 2_unpool -> 2_unpool
I0623 12:51:25.609971 25175 net.cpp:98] Setting up 2_unpool
I0623 12:51:25.609977 25175 net.cpp:105] Top shape: 512 32 8 8 (1048576)
I0623 12:51:25.609980 25175 layer_factory.hpp:78] Creating layer 2_1_deconv
I0623 12:51:25.609987 25175 net.cpp:69] Creating Layer 2_1_deconv
I0623 12:51:25.609989 25175 net.cpp:396] 2_1_deconv <- 2_unpool
I0623 12:51:25.609993 25175 net.cpp:358] 2_1_deconv -> 2_1_deconv
I0623 12:51:25.609999 25175 net.cpp:98] Setting up 2_1_deconv
I0623 12:51:25.610070 25175 net.cpp:105] Top shape: 512 32 8 8 (1048576)
I0623 12:51:25.610076 25175 layer_factory.hpp:78] Creating layer 2_1_deconv_ReLU
I0623 12:51:25.610080 25175 net.cpp:69] Creating Layer 2_1_deconv_ReLU
I0623 12:51:25.610083 25175 net.cpp:396] 2_1_deconv_ReLU <- 2_1_deconv
I0623 12:51:25.610087 25175 net.cpp:347] 2_1_deconv_ReLU -> 2_1_deconv (in-place)
I0623 12:51:25.610091 25175 net.cpp:98] Setting up 2_1_deconv_ReLU
I0623 12:51:25.610095 25175 net.cpp:105] Top shape: 512 32 8 8 (1048576)
I0623 12:51:25.610097 25175 layer_factory.hpp:78] Creating layer 2_0_deconv
I0623 12:51:25.610101 25175 net.cpp:69] Creating Layer 2_0_deconv
I0623 12:51:25.610105 25175 net.cpp:396] 2_0_deconv <- 2_1_deconv
I0623 12:51:25.610110 25175 net.cpp:358] 2_0_deconv -> 2_0_deconv
I0623 12:51:25.610116 25175 net.cpp:98] Setting up 2_0_deconv
I0623 12:51:25.610165 25175 net.cpp:105] Top shape: 512 32 8 8 (1048576)
I0623 12:51:25.610172 25175 layer_factory.hpp:78] Creating layer 2_0_deconv_ReLU
I0623 12:51:25.610177 25175 net.cpp:69] Creating Layer 2_0_deconv_ReLU
I0623 12:51:25.610179 25175 net.cpp:396] 2_0_deconv_ReLU <- 2_0_deconv
I0623 12:51:25.610188 25175 net.cpp:347] 2_0_deconv_ReLU -> 2_0_deconv (in-place)
I0623 12:51:25.610191 25175 net.cpp:98] Setting up 2_0_deconv_ReLU
I0623 12:51:25.610194 25175 net.cpp:105] Top shape: 512 32 8 8 (1048576)
I0623 12:51:25.610198 25175 layer_factory.hpp:78] Creating layer L2_Loss
I0623 12:51:25.610201 25175 net.cpp:69] Creating Layer L2_Loss
I0623 12:51:25.610204 25175 net.cpp:396] L2_Loss <- 1_pool_1_pool_0_split_1
I0623 12:51:25.610208 25175 net.cpp:396] L2_Loss <- 2_0_deconv
I0623 12:51:25.610213 25175 net.cpp:358] L2_Loss -> L2_Loss
I0623 12:51:25.610216 25175 net.cpp:98] Setting up L2_Loss
I0623 12:51:25.610222 25175 net.cpp:105] Top shape: 1 1 1 1 (1)
I0623 12:51:25.610225 25175 net.cpp:111]     with loss weight 1
I0623 12:51:25.610239 25175 net.cpp:172] L2_Loss needs backward computation.
I0623 12:51:25.610242 25175 net.cpp:172] 2_0_deconv_ReLU needs backward computation.
I0623 12:51:25.610245 25175 net.cpp:172] 2_0_deconv needs backward computation.
I0623 12:51:25.610249 25175 net.cpp:172] 2_1_deconv_ReLU needs backward computation.
…
