…
I0614 16:29:29.849802 25174 solver.cpp:70] Creating training net from net file: prototxt/16-06-14_15h51m21s_0_20_reconstructIncremental1_net.sh
I0614 16:29:29.850211 25174 net.cpp:277] The NetState phase (0) differed from the phase (1) specified by a rule in layer data
I0614 16:29:29.850320 25174 net.cpp:39] Initializing net from parameters: 
layers {
  top: "data"
  name: "data"
  type: DATA
  data_param {
    source: "/dataset/cifar100_lmdb_lab/cifar100_train_lmdb"
    batch_size: 512
    backend: LMDB
  }
  include {
    phase: TRAIN
  }
  transform_param {
    mean_file: "/dataset/cifar100_lmdb_lab/mean.binaryproto"
  }
}
layers {
  bottom: "data"
  top: "0_0_conv"
  name: "0_0_conv"
  type: CONVOLUTION
  blobs_lr: 0
  blobs_lr: 0
  weight_decay: 0
  weight_decay: 0
  convolution_param {
    num_output: 16
    pad: 1
    kernel_size: 3
    stride: 1
    weight_filler {
      type: "xavier"
    }
    bias_filler {
      type: "constant"
      value: 0
    }
  }
}
layers {
  bottom: "0_0_conv"
  top: "0_0_conv"
  name: "0_0_conv_ReLU"
  type: RELU
}
layers {
  bottom: "0_0_conv"
  top: "0_1_conv"
  name: "0_1_conv"
  type: CONVOLUTION
  blobs_lr: 0
  blobs_lr: 0
  weight_decay: 0
  weight_decay: 0
  convolution_param {
    num_output: 16
    pad: 1
    kernel_size: 3
    stride: 1
    weight_filler {
      type: "xavier"
    }
    bias_filler {
      type: "constant"
      value: 0
    }
  }
}
layers {
  bottom: "0_1_conv"
  top: "0_1_conv"
  name: "0_1_conv_ReLU"
  type: RELU
}
layers {
  bottom: "0_1_conv"
  top: "0_pool"
  name: "0_pool"
  type: POOLING
  pooling_param {
    pool: MAX
    kernel_size: 2
    stride: 2
  }
}
layers {
  bottom: "0_pool"
  top: "1_0_conv"
  name: "1_0_conv"
  type: CONVOLUTION
  blobs_lr: 0
  blobs_lr: 0
  weight_decay: 0
  weight_decay: 0
  convolution_param {
    num_output: 16
    pad: 1
    kernel_size: 3
    stride: 1
    weight_filler {
      type: "xavier"
    }
    bias_filler {
      type: "constant"
      value: 0
    }
  }
}
layers {
  bottom: "1_0_conv"
  top: "1_0_conv"
  name: "1_0_conv_ReLU"
  type: RELU
}
layers {
  bottom: "1_0_conv"
  top: "1_1_conv"
  name: "1_1_conv"
  type: CONVOLUTION
  blobs_lr: 0
  blobs_lr: 0
  weight_decay: 0
  weight_decay: 0
  convolution_param {
    num_output: 16
    pad: 1
    kernel_size: 3
    stride: 1
    weight_filler {
      type: "xavier"
    }
    bias_filler {
      type: "constant"
      value: 0
    }
  }
}
layers {
  bottom: "1_1_conv"
  top: "1_1_conv"
  name: "1_1_conv_ReLU"
  type: RELU
}
layers {
  bottom: "1_1_conv"
  top: "1_pool"
  name: "1_pool"
  type: POOLING
  pooling_param {
    pool: MAX
    kernel_size: 2
    stride: 2
  }
}
layers {
  bottom: "1_pool"
  top: "2_0_conv"
  name: "2_0_conv"
  type: CONVOLUTION
  blobs_lr: 0
  blobs_lr: 0
  weight_decay: 0
  weight_decay: 0
  convolution_param {
    num_output: 16
    pad: 1
    kernel_size: 3
    stride: 1
    weight_filler {
      type: "xavier"
    }
    bias_filler {
      type: "constant"
      value: 0
    }
  }
}
layers {
  bottom: "2_0_conv"
  top: "2_0_conv"
  name: "2_0_conv_ReLU"
  type: RELU
}
layers {
  bottom: "2_0_conv"
  top: "2_1_conv"
  name: "2_1_conv"
  type: CONVOLUTION
  blobs_lr: 0
  blobs_lr: 0
  weight_decay: 0
  weight_decay: 0
  convolution_param {
    num_output: 16
    pad: 1
    kernel_size: 3
    stride: 1
    weight_filler {
      type: "xavier"
    }
    bias_filler {
      type: "constant"
      value: 0
    }
  }
}
layers {
  bottom: "2_1_conv"
  top: "2_1_conv"
  name: "2_1_conv_ReLU"
  type: RELU
}
layers {
  bottom: "2_1_conv"
  top: "2_pool"
  top: "2_pool_mask"
  name: "2_pool"
  type: POOLING
  pooling_param {
    pool: MAX
    kernel_size: 2
    stride: 2
  }
}
layers {
  bottom: "2_pool"
  top: "middle_conv"
  name: "middle_conv"
  type: CONVOLUTION
  blobs_lr: 0
  blobs_lr: 0
  weight_decay: 0
  weight_decay: 0
  convolution_param {
    num_output: 50
    pad: 0
    kernel_size: 4
    stride: 1
    weight_filler {
      type: "xavier"
    }
    bias_filler {
      type: "constant"
      value: 0
    }
  }
}
layers {
  bottom: "middle_conv"
  top: "middle_deconv"
  name: "middle_deconv"
  type: DECONVOLUTION
  blobs_lr: 1
  blobs_lr: 2
  weight_decay: 0
  weight_decay: 0
  convolution_param {
    num_output: 16
    pad: 1
    kernel_size: 4
    stride: 1
    weight_filler {
      type: "xavier"
    }
    bias_filler {
      type: "constant"
      value: 0
    }
  }
}
layers {
  bottom: "middle_deconv"
  bottom: "2_pool_mask"
  top: "2_unpool"
  name: "2_unpool"
  type: UNPOOLING
  unpooling_param {
    unpool: MAX
    kernel_size: 2
    stride: 2
    unpool_size: 8
  }
}
layers {
  bottom: "2_unpool"
  top: "2_1_deconv"
  name: "2_1_deconv"
  type: DECONVOLUTION
  blobs_lr: 1
  blobs_lr: 2
  weight_decay: 0
  weight_decay: 0
  convolution_param {
    num_output: 16
    pad: 1
    kernel_size: 3
    stride: 1
    weight_filler {
      type: "xavier"
    }
    bias_filler {
      type: "constant"
      value: 0
    }
  }
}
layers {
  bottom: "2_1_deconv"
  top: "2_1_deconv"
  name: "2_1_deconv_ReLU"
  type: RELU
}
layers {
  bottom: "2_1_deconv"
  top: "2_0_deconv"
  name: "2_0_deconv"
  type: DECONVOLUTION
  blobs_lr: 1
  blobs_lr: 2
  weight_decay: 0
  weight_decay: 0
  convolution_param {
    num_output: 16
    pad: 1
    kernel_size: 3
    stride: 1
    weight_filler {
      type: "xavier"
    }
    bias_filler {
      type: "constant"
      value: 0
    }
  }
}
layers {
  bottom: "2_0_deconv"
  top: "2_0_deconv"
  name: "2_0_deconv_ReLU"
  type: RELU
}
layers {
  bottom: "1_pool"
  bottom: "2_0_deconv"
  top: "L2_Loss"
  name: "L2_Loss"
  type: EUCLIDEAN_LOSS
}
state {
  phase: TRAIN
}
I0614 16:29:29.850406 25174 layer_factory.hpp:78] Creating layer data
I0614 16:29:29.850420 25174 data_transformer.cpp:25] Loading mean file from/dataset/cifar100_lmdb_lab/mean.binaryproto
I0614 16:29:29.850466 25174 net.cpp:69] Creating Layer data
I0614 16:29:29.850471 25174 net.cpp:358] data -> data
I0614 16:29:29.850478 25174 net.cpp:98] Setting up data
I0614 16:29:29.850482 25174 data_layer.cpp:32] Opening dataset /dataset/cifar100_lmdb_lab/cifar100_train_lmdb
I0614 16:29:29.850553 25174 data_layer.cpp:71] output data size: 512,3,32,32
I0614 16:29:29.851330 25174 net.cpp:105] Top shape: 512 3 32 32 (1572864)
I0614 16:29:29.851342 25174 layer_factory.hpp:78] Creating layer 0_0_conv
I0614 16:29:29.851351 25174 net.cpp:69] Creating Layer 0_0_conv
I0614 16:29:29.851353 25174 net.cpp:396] 0_0_conv <- data
I0614 16:29:29.851359 25174 net.cpp:358] 0_0_conv -> 0_0_conv
I0614 16:29:29.851366 25174 net.cpp:98] Setting up 0_0_conv
I0614 16:29:29.851642 25174 net.cpp:105] Top shape: 512 16 32 32 (8388608)
I0614 16:29:29.851652 25174 layer_factory.hpp:78] Creating layer 0_0_conv_ReLU
I0614 16:29:29.851657 25174 net.cpp:69] Creating Layer 0_0_conv_ReLU
I0614 16:29:29.851660 25174 net.cpp:396] 0_0_conv_ReLU <- 0_0_conv
I0614 16:29:29.851665 25174 net.cpp:347] 0_0_conv_ReLU -> 0_0_conv (in-place)
I0614 16:29:29.851668 25174 net.cpp:98] Setting up 0_0_conv_ReLU
I0614 16:29:29.851671 25174 net.cpp:105] Top shape: 512 16 32 32 (8388608)
I0614 16:29:29.851675 25174 layer_factory.hpp:78] Creating layer 0_1_conv
I0614 16:29:29.851678 25174 net.cpp:69] Creating Layer 0_1_conv
I0614 16:29:29.851681 25174 net.cpp:396] 0_1_conv <- 0_0_conv
I0614 16:29:29.851686 25174 net.cpp:358] 0_1_conv -> 0_1_conv
I0614 16:29:29.851689 25174 net.cpp:98] Setting up 0_1_conv
I0614 16:29:29.851712 25174 net.cpp:105] Top shape: 512 16 32 32 (8388608)
I0614 16:29:29.851717 25174 layer_factory.hpp:78] Creating layer 0_1_conv_ReLU
I0614 16:29:29.851722 25174 net.cpp:69] Creating Layer 0_1_conv_ReLU
I0614 16:29:29.851728 25174 net.cpp:396] 0_1_conv_ReLU <- 0_1_conv
I0614 16:29:29.851732 25174 net.cpp:347] 0_1_conv_ReLU -> 0_1_conv (in-place)
I0614 16:29:29.851745 25174 net.cpp:98] Setting up 0_1_conv_ReLU
I0614 16:29:29.851748 25174 net.cpp:105] Top shape: 512 16 32 32 (8388608)
I0614 16:29:29.851750 25174 layer_factory.hpp:78] Creating layer 0_pool
I0614 16:29:29.851755 25174 net.cpp:69] Creating Layer 0_pool
I0614 16:29:29.851758 25174 net.cpp:396] 0_pool <- 0_1_conv
I0614 16:29:29.851761 25174 net.cpp:358] 0_pool -> 0_pool
I0614 16:29:29.851765 25174 net.cpp:98] Setting up 0_pool
I0614 16:29:29.851771 25174 net.cpp:105] Top shape: 512 16 16 16 (2097152)
I0614 16:29:29.851774 25174 layer_factory.hpp:78] Creating layer 1_0_conv
I0614 16:29:29.851781 25174 net.cpp:69] Creating Layer 1_0_conv
I0614 16:29:29.851784 25174 net.cpp:396] 1_0_conv <- 0_pool
I0614 16:29:29.851789 25174 net.cpp:358] 1_0_conv -> 1_0_conv
I0614 16:29:29.851794 25174 net.cpp:98] Setting up 1_0_conv
I0614 16:29:29.851810 25174 net.cpp:105] Top shape: 512 16 16 16 (2097152)
I0614 16:29:29.851815 25174 layer_factory.hpp:78] Creating layer 1_0_conv_ReLU
I0614 16:29:29.851819 25174 net.cpp:69] Creating Layer 1_0_conv_ReLU
I0614 16:29:29.851822 25174 net.cpp:396] 1_0_conv_ReLU <- 1_0_conv
I0614 16:29:29.851825 25174 net.cpp:347] 1_0_conv_ReLU -> 1_0_conv (in-place)
I0614 16:29:29.851830 25174 net.cpp:98] Setting up 1_0_conv_ReLU
I0614 16:29:29.851831 25174 net.cpp:105] Top shape: 512 16 16 16 (2097152)
I0614 16:29:29.851835 25174 layer_factory.hpp:78] Creating layer 1_1_conv
I0614 16:29:29.851838 25174 net.cpp:69] Creating Layer 1_1_conv
I0614 16:29:29.851841 25174 net.cpp:396] 1_1_conv <- 1_0_conv
I0614 16:29:29.851845 25174 net.cpp:358] 1_1_conv -> 1_1_conv
I0614 16:29:29.851850 25174 net.cpp:98] Setting up 1_1_conv
I0614 16:29:29.851867 25174 net.cpp:105] Top shape: 512 16 16 16 (2097152)
I0614 16:29:29.851871 25174 layer_factory.hpp:78] Creating layer 1_1_conv_ReLU
I0614 16:29:29.851876 25174 net.cpp:69] Creating Layer 1_1_conv_ReLU
I0614 16:29:29.851877 25174 net.cpp:396] 1_1_conv_ReLU <- 1_1_conv
I0614 16:29:29.851881 25174 net.cpp:347] 1_1_conv_ReLU -> 1_1_conv (in-place)
I0614 16:29:29.851886 25174 net.cpp:98] Setting up 1_1_conv_ReLU
I0614 16:29:29.851887 25174 net.cpp:105] Top shape: 512 16 16 16 (2097152)
I0614 16:29:29.851891 25174 layer_factory.hpp:78] Creating layer 1_pool
I0614 16:29:29.851893 25174 net.cpp:69] Creating Layer 1_pool
I0614 16:29:29.851897 25174 net.cpp:396] 1_pool <- 1_1_conv
I0614 16:29:29.851900 25174 net.cpp:358] 1_pool -> 1_pool
I0614 16:29:29.851903 25174 net.cpp:98] Setting up 1_pool
I0614 16:29:29.851907 25174 net.cpp:105] Top shape: 512 16 8 8 (524288)
I0614 16:29:29.851909 25174 layer_factory.hpp:78] Creating layer 1_pool_1_pool_0_split
I0614 16:29:29.851913 25174 net.cpp:69] Creating Layer 1_pool_1_pool_0_split
I0614 16:29:29.851917 25174 net.cpp:396] 1_pool_1_pool_0_split <- 1_pool
I0614 16:29:29.851919 25174 net.cpp:358] 1_pool_1_pool_0_split -> 1_pool_1_pool_0_split_0
I0614 16:29:29.851923 25174 net.cpp:358] 1_pool_1_pool_0_split -> 1_pool_1_pool_0_split_1
I0614 16:29:29.851928 25174 net.cpp:98] Setting up 1_pool_1_pool_0_split
I0614 16:29:29.851932 25174 net.cpp:105] Top shape: 512 16 8 8 (524288)
I0614 16:29:29.851934 25174 net.cpp:105] Top shape: 512 16 8 8 (524288)
I0614 16:29:29.851938 25174 layer_factory.hpp:78] Creating layer 2_0_conv
I0614 16:29:29.851943 25174 net.cpp:69] Creating Layer 2_0_conv
I0614 16:29:29.851945 25174 net.cpp:396] 2_0_conv <- 1_pool_1_pool_0_split_0
I0614 16:29:29.851951 25174 net.cpp:358] 2_0_conv -> 2_0_conv
I0614 16:29:29.851955 25174 net.cpp:98] Setting up 2_0_conv
I0614 16:29:29.851972 25174 net.cpp:105] Top shape: 512 16 8 8 (524288)
I0614 16:29:29.851979 25174 layer_factory.hpp:78] Creating layer 2_0_conv_ReLU
I0614 16:29:29.851982 25174 net.cpp:69] Creating Layer 2_0_conv_ReLU
I0614 16:29:29.851985 25174 net.cpp:396] 2_0_conv_ReLU <- 2_0_conv
I0614 16:29:29.851989 25174 net.cpp:347] 2_0_conv_ReLU -> 2_0_conv (in-place)
I0614 16:29:29.851992 25174 net.cpp:98] Setting up 2_0_conv_ReLU
I0614 16:29:29.851996 25174 net.cpp:105] Top shape: 512 16 8 8 (524288)
I0614 16:29:29.851999 25174 layer_factory.hpp:78] Creating layer 2_1_conv
I0614 16:29:29.852007 25174 net.cpp:69] Creating Layer 2_1_conv
I0614 16:29:29.852010 25174 net.cpp:396] 2_1_conv <- 2_0_conv
I0614 16:29:29.852013 25174 net.cpp:358] 2_1_conv -> 2_1_conv
I0614 16:29:29.852017 25174 net.cpp:98] Setting up 2_1_conv
I0614 16:29:29.852036 25174 net.cpp:105] Top shape: 512 16 8 8 (524288)
I0614 16:29:29.852041 25174 layer_factory.hpp:78] Creating layer 2_1_conv_ReLU
I0614 16:29:29.852044 25174 net.cpp:69] Creating Layer 2_1_conv_ReLU
I0614 16:29:29.852047 25174 net.cpp:396] 2_1_conv_ReLU <- 2_1_conv
I0614 16:29:29.852051 25174 net.cpp:347] 2_1_conv_ReLU -> 2_1_conv (in-place)
I0614 16:29:29.852053 25174 net.cpp:98] Setting up 2_1_conv_ReLU
I0614 16:29:29.852056 25174 net.cpp:105] Top shape: 512 16 8 8 (524288)
I0614 16:29:29.852059 25174 layer_factory.hpp:78] Creating layer 2_pool
I0614 16:29:29.852064 25174 net.cpp:69] Creating Layer 2_pool
I0614 16:29:29.852067 25174 net.cpp:396] 2_pool <- 2_1_conv
I0614 16:29:29.852072 25174 net.cpp:358] 2_pool -> 2_pool
I0614 16:29:29.852075 25174 net.cpp:358] 2_pool -> 2_pool_mask
I0614 16:29:29.852079 25174 net.cpp:98] Setting up 2_pool
I0614 16:29:29.852083 25174 net.cpp:105] Top shape: 512 16 4 4 (131072)
I0614 16:29:29.852085 25174 net.cpp:105] Top shape: 512 16 4 4 (131072)
I0614 16:29:29.852088 25174 layer_factory.hpp:78] Creating layer middle_conv
I0614 16:29:29.852092 25174 net.cpp:69] Creating Layer middle_conv
I0614 16:29:29.852095 25174 net.cpp:396] middle_conv <- 2_pool
I0614 16:29:29.852099 25174 net.cpp:358] middle_conv -> middle_conv
I0614 16:29:29.852103 25174 net.cpp:98] Setting up middle_conv
I0614 16:29:29.852232 25174 net.cpp:105] Top shape: 512 50 1 1 (25600)
I0614 16:29:29.852247 25174 layer_factory.hpp:78] Creating layer middle_deconv
I0614 16:29:29.852255 25174 net.cpp:69] Creating Layer middle_deconv
I0614 16:29:29.852258 25174 net.cpp:396] middle_deconv <- middle_conv
I0614 16:29:29.852262 25174 net.cpp:358] middle_deconv -> middle_deconv
I0614 16:29:29.852267 25174 net.cpp:98] Setting up middle_deconv
I0614 16:29:29.852336 25174 net.cpp:105] Top shape: 512 16 2 2 (32768)
I0614 16:29:29.852340 25174 layer_factory.hpp:78] Creating layer 2_unpool
I0614 16:29:29.852345 25174 net.cpp:69] Creating Layer 2_unpool
I0614 16:29:29.852349 25174 net.cpp:396] 2_unpool <- middle_deconv
I0614 16:29:29.852352 25174 net.cpp:396] 2_unpool <- 2_pool_mask
I0614 16:29:29.852357 25174 net.cpp:358] 2_unpool -> 2_unpool
I0614 16:29:29.852361 25174 net.cpp:98] Setting up 2_unpool
I0614 16:29:29.852367 25174 net.cpp:105] Top shape: 512 16 8 8 (524288)
I0614 16:29:29.852370 25174 layer_factory.hpp:78] Creating layer 2_1_deconv
I0614 16:29:29.852375 25174 net.cpp:69] Creating Layer 2_1_deconv
I0614 16:29:29.852378 25174 net.cpp:396] 2_1_deconv <- 2_unpool
I0614 16:29:29.852381 25174 net.cpp:358] 2_1_deconv -> 2_1_deconv
I0614 16:29:29.852386 25174 net.cpp:98] Setting up 2_1_deconv
I0614 16:29:29.852404 25174 net.cpp:105] Top shape: 512 16 8 8 (524288)
I0614 16:29:29.852411 25174 layer_factory.hpp:78] Creating layer 2_1_deconv_ReLU
I0614 16:29:29.852414 25174 net.cpp:69] Creating Layer 2_1_deconv_ReLU
I0614 16:29:29.852416 25174 net.cpp:396] 2_1_deconv_ReLU <- 2_1_deconv
I0614 16:29:29.852421 25174 net.cpp:347] 2_1_deconv_ReLU -> 2_1_deconv (in-place)
I0614 16:29:29.852423 25174 net.cpp:98] Setting up 2_1_deconv_ReLU
I0614 16:29:29.852427 25174 net.cpp:105] Top shape: 512 16 8 8 (524288)
I0614 16:29:29.852429 25174 layer_factory.hpp:78] Creating layer 2_0_deconv
I0614 16:29:29.852433 25174 net.cpp:69] Creating Layer 2_0_deconv
I0614 16:29:29.852437 25174 net.cpp:396] 2_0_deconv <- 2_1_deconv
I0614 16:29:29.852440 25174 net.cpp:358] 2_0_deconv -> 2_0_deconv
I0614 16:29:29.852444 25174 net.cpp:98] Setting up 2_0_deconv
I0614 16:29:29.852473 25174 net.cpp:105] Top shape: 512 16 8 8 (524288)
I0614 16:29:29.852479 25174 layer_factory.hpp:78] Creating layer 2_0_deconv_ReLU
I0614 16:29:29.852483 25174 net.cpp:69] Creating Layer 2_0_deconv_ReLU
I0614 16:29:29.852488 25174 net.cpp:396] 2_0_deconv_ReLU <- 2_0_deconv
I0614 16:29:29.852496 25174 net.cpp:347] 2_0_deconv_ReLU -> 2_0_deconv (in-place)
I0614 16:29:29.852500 25174 net.cpp:98] Setting up 2_0_deconv_ReLU
I0614 16:29:29.852504 25174 net.cpp:105] Top shape: 512 16 8 8 (524288)
I0614 16:29:29.852506 25174 layer_factory.hpp:78] Creating layer L2_Loss
I0614 16:29:29.852509 25174 net.cpp:69] Creating Layer L2_Loss
I0614 16:29:29.852512 25174 net.cpp:396] L2_Loss <- 1_pool_1_pool_0_split_1
I0614 16:29:29.852515 25174 net.cpp:396] L2_Loss <- 2_0_deconv
I0614 16:29:29.852519 25174 net.cpp:358] L2_Loss -> L2_Loss
I0614 16:29:29.852524 25174 net.cpp:98] Setting up L2_Loss
I0614 16:29:29.852530 25174 net.cpp:105] Top shape: 1 1 1 1 (1)
I0614 16:29:29.852533 25174 net.cpp:111]     with loss weight 1
I0614 16:29:29.852545 25174 net.cpp:172] L2_Loss needs backward computation.
I0614 16:29:29.852548 25174 net.cpp:172] 2_0_deconv_ReLU needs backward computation.
I0614 16:29:29.852551 25174 net.cpp:172] 2_0_deconv needs backward computation.
I0614 16:29:29.852553 25174 net.cpp:172] 2_1_deconv_ReLU needs backward computation.
…
