…
I0614 15:55:54.318768     6 net.cpp:277] The NetState phase (0) differed from the phase (1) specified by a rule in layer accuracy_top_1
I0614 15:55:54.318773     6 net.cpp:277] The NetState phase (0) differed from the phase (1) specified by a rule in layer accuracy_top_5
I0614 15:55:54.318861     6 net.cpp:39] Initializing net from parameters: 
layers {
  top: "data"
  top: "label"
  name: "data"
  type: DATA
  data_param {
    source: "/dataset/cifar10/cifar10_train_lmdb"
    batch_size: 128
    backend: LMDB
  }
  include {
    phase: TRAIN
  }
  transform_param {
    mean_file: "/dataset/cifar10/mean.binaryproto"
  }
}
layers {
  bottom: "data"
  top: "0_0_conv"
  name: "0_0_conv"
  type: CONVOLUTION
  blobs_lr: 1
  blobs_lr: 2
  weight_decay: 0
  weight_decay: 0
  convolution_param {
    num_output: 16
    pad: 1
    kernel_size: 3
    stride: 1
    weight_filler {
      type: "xavier"
    }
    bias_filler {
      type: "constant"
      value: 0
    }
  }
}
layers {
  bottom: "0_0_conv"
  top: "0_0_conv"
  name: "0_0_conv_ReLU"
  type: RELU
}
layers {
  bottom: "0_0_conv"
  top: "0_1_conv"
  name: "0_1_conv"
  type: CONVOLUTION
  blobs_lr: 1
  blobs_lr: 2
  weight_decay: 0
  weight_decay: 0
  convolution_param {
    num_output: 16
    pad: 1
    kernel_size: 3
    stride: 1
    weight_filler {
      type: "xavier"
    }
    bias_filler {
      type: "constant"
      value: 0
    }
  }
}
layers {
  bottom: "0_1_conv"
  top: "0_1_conv"
  name: "0_1_conv_ReLU"
  type: RELU
}
layers {
  bottom: "0_1_conv"
  top: "0_pool"
  name: "0_pool"
  type: POOLING
  pooling_param {
    pool: MAX
    kernel_size: 2
    stride: 2
  }
}
layers {
  bottom: "0_pool"
  top: "1_0_conv"
  name: "1_0_conv"
  type: CONVOLUTION
  blobs_lr: 1
  blobs_lr: 2
  weight_decay: 0
  weight_decay: 0
  convolution_param {
    num_output: 16
    pad: 1
    kernel_size: 3
    stride: 1
    weight_filler {
      type: "xavier"
    }
    bias_filler {
      type: "constant"
      value: 0
    }
  }
}
layers {
  bottom: "1_0_conv"
  top: "1_0_conv"
  name: "1_0_conv_ReLU"
  type: RELU
}
layers {
  bottom: "1_0_conv"
  top: "1_1_conv"
  name: "1_1_conv"
  type: CONVOLUTION
  blobs_lr: 1
  blobs_lr: 2
  weight_decay: 0
  weight_decay: 0
  convolution_param {
    num_output: 16
    pad: 1
    kernel_size: 3
    stride: 1
    weight_filler {
      type: "xavier"
    }
    bias_filler {
      type: "constant"
      value: 0
    }
  }
}
layers {
  bottom: "1_1_conv"
  top: "1_1_conv"
  name: "1_1_conv_ReLU"
  type: RELU
}
layers {
  bottom: "1_1_conv"
  top: "1_pool"
  name: "1_pool"
  type: POOLING
  pooling_param {
    pool: MAX
    kernel_size: 2
    stride: 2
  }
}
layers {
  bottom: "1_pool"
  top: "2_0_conv"
  name: "2_0_conv"
  type: CONVOLUTION
  blobs_lr: 1
  blobs_lr: 2
  weight_decay: 0
  weight_decay: 0
  convolution_param {
    num_output: 16
    pad: 1
    kernel_size: 3
    stride: 1
    weight_filler {
      type: "xavier"
    }
    bias_filler {
      type: "constant"
      value: 0
    }
  }
}
layers {
  bottom: "2_0_conv"
  top: "2_0_conv"
  name: "2_0_conv_ReLU"
  type: RELU
}
layers {
  bottom: "2_0_conv"
  top: "2_1_conv"
  name: "2_1_conv"
  type: CONVOLUTION
  blobs_lr: 1
  blobs_lr: 2
  weight_decay: 0
  weight_decay: 0
  convolution_param {
    num_output: 16
    pad: 1
    kernel_size: 3
    stride: 1
    weight_filler {
      type: "xavier"
    }
    bias_filler {
      type: "constant"
      value: 0
    }
  }
}
layers {
  bottom: "2_1_conv"
  top: "2_1_conv"
  name: "2_1_conv_ReLU"
  type: RELU
}
layers {
  bottom: "2_1_conv"
  top: "2_pool"
  name: "2_pool"
  type: POOLING
  pooling_param {
    pool: MAX
    kernel_size: 2
    stride: 2
  }
}
layers {
  bottom: "2_pool"
  top: "middle_conv"
  name: "middle_conv"
  type: CONVOLUTION
  blobs_lr: 1
  blobs_lr: 2
  weight_decay: 0
  weight_decay: 0
  convolution_param {
    num_output: 50
    pad: 0
    kernel_size: 4
    stride: 1
    weight_filler {
      type: "xavier"
    }
    bias_filler {
      type: "constant"
      value: 0
    }
  }
}
layers {
  bottom: "middle_conv"
  top: "middle_conv"
  name: "middle_conv_ReLU"
  type: RELU
}
layers {
  bottom: "middle_conv"
  top: "fc1"
  name: "fc1"
  type: INNER_PRODUCT
  blobs_lr: 1
  blobs_lr: 2
  weight_decay: 0
  weight_decay: 0
  inner_product_param {
    num_output: 512
    weight_filler {
      type: "xavier"
    }
    bias_filler {
      type: "constant"
      value: 0
    }
  }
}
layers {
  bottom: "fc1"
  top: "fc1"
  name: "fc1_Dropout"
  type: DROPOUT
  dropout_param {
    dropout_ratio: 0.5
  }
  include {
    phase: TRAIN
  }
}
layers {
  bottom: "fc1"
  top: "fc1"
  name: "fc1_Dropout_ReLU"
  type: RELU
}
layers {
  bottom: "fc1"
  top: "fc2_10"
  name: "fc2_10"
  type: INNER_PRODUCT
  blobs_lr: 1
  blobs_lr: 2
  weight_decay: 0
  weight_decay: 0
  inner_product_param {
    num_output: 10
    weight_filler {
      type: "xavier"
    }
    bias_filler {
      type: "constant"
      value: 0
    }
  }
}
layers {
  bottom: "fc2_10"
  bottom: "label"
  top: "softmax"
  name: "softmax"
  type: SOFTMAX_LOSS
}
state {
  phase: TRAIN
}
I0614 15:55:54.318924     6 layer_factory.hpp:78] Creating layer data
I0614 15:55:54.318938     6 data_transformer.cpp:25] Loading mean file from/dataset/cifar10/mean.binaryproto
I0614 15:55:54.318979     6 net.cpp:69] Creating Layer data
I0614 15:55:54.318984     6 net.cpp:358] data -> data
I0614 15:55:54.318992     6 net.cpp:358] data -> label
I0614 15:55:54.318997     6 net.cpp:98] Setting up data
I0614 15:55:54.319001     6 data_layer.cpp:32] Opening dataset /dataset/cifar10/cifar10_train_lmdb
I0614 15:55:54.319072     6 data_layer.cpp:71] output data size: 128,3,32,32
I0614 15:55:54.319402     6 net.cpp:105] Top shape: 128 3 32 32 (393216)
I0614 15:55:54.319408     6 net.cpp:105] Top shape: 128 1 1 1 (128)
I0614 15:55:54.319411     6 layer_factory.hpp:78] Creating layer 0_0_conv
I0614 15:55:54.319418     6 net.cpp:69] Creating Layer 0_0_conv
I0614 15:55:54.319422     6 net.cpp:396] 0_0_conv <- data
I0614 15:55:54.319427     6 net.cpp:358] 0_0_conv -> 0_0_conv
I0614 15:55:54.319433     6 net.cpp:98] Setting up 0_0_conv
I0614 15:55:54.319700     6 net.cpp:105] Top shape: 128 16 32 32 (2097152)
I0614 15:55:54.319713     6 layer_factory.hpp:78] Creating layer 0_0_conv_ReLU
I0614 15:55:54.319717     6 net.cpp:69] Creating Layer 0_0_conv_ReLU
I0614 15:55:54.319720     6 net.cpp:396] 0_0_conv_ReLU <- 0_0_conv
I0614 15:55:54.319725     6 net.cpp:347] 0_0_conv_ReLU -> 0_0_conv (in-place)
I0614 15:55:54.319728     6 net.cpp:98] Setting up 0_0_conv_ReLU
I0614 15:55:54.319731     6 net.cpp:105] Top shape: 128 16 32 32 (2097152)
I0614 15:55:54.319733     6 layer_factory.hpp:78] Creating layer 0_1_conv
I0614 15:55:54.319738     6 net.cpp:69] Creating Layer 0_1_conv
I0614 15:55:54.319741     6 net.cpp:396] 0_1_conv <- 0_0_conv
I0614 15:55:54.319746     6 net.cpp:358] 0_1_conv -> 0_1_conv
I0614 15:55:54.319751     6 net.cpp:98] Setting up 0_1_conv
I0614 15:55:54.319769     6 net.cpp:105] Top shape: 128 16 32 32 (2097152)
I0614 15:55:54.319775     6 layer_factory.hpp:78] Creating layer 0_1_conv_ReLU
I0614 15:55:54.319782     6 net.cpp:69] Creating Layer 0_1_conv_ReLU
I0614 15:55:54.319784     6 net.cpp:396] 0_1_conv_ReLU <- 0_1_conv
I0614 15:55:54.319788     6 net.cpp:347] 0_1_conv_ReLU -> 0_1_conv (in-place)
I0614 15:55:54.319794     6 net.cpp:98] Setting up 0_1_conv_ReLU
I0614 15:55:54.319797     6 net.cpp:105] Top shape: 128 16 32 32 (2097152)
I0614 15:55:54.319808     6 layer_factory.hpp:78] Creating layer 0_pool
I0614 15:55:54.319811     6 net.cpp:69] Creating Layer 0_pool
I0614 15:55:54.319813     6 net.cpp:396] 0_pool <- 0_1_conv
I0614 15:55:54.319818     6 net.cpp:358] 0_pool -> 0_pool
I0614 15:55:54.319821     6 net.cpp:98] Setting up 0_pool
I0614 15:55:54.319828     6 net.cpp:105] Top shape: 128 16 16 16 (524288)
I0614 15:55:54.319830     6 layer_factory.hpp:78] Creating layer 1_0_conv
I0614 15:55:54.319834     6 net.cpp:69] Creating Layer 1_0_conv
I0614 15:55:54.319836     6 net.cpp:396] 1_0_conv <- 0_pool
I0614 15:55:54.319841     6 net.cpp:358] 1_0_conv -> 1_0_conv
I0614 15:55:54.319846     6 net.cpp:98] Setting up 1_0_conv
I0614 15:55:54.319864     6 net.cpp:105] Top shape: 128 16 16 16 (524288)
I0614 15:55:54.319869     6 layer_factory.hpp:78] Creating layer 1_0_conv_ReLU
I0614 15:55:54.319874     6 net.cpp:69] Creating Layer 1_0_conv_ReLU
I0614 15:55:54.319876     6 net.cpp:396] 1_0_conv_ReLU <- 1_0_conv
I0614 15:55:54.319880     6 net.cpp:347] 1_0_conv_ReLU -> 1_0_conv (in-place)
I0614 15:55:54.319883     6 net.cpp:98] Setting up 1_0_conv_ReLU
I0614 15:55:54.319885     6 net.cpp:105] Top shape: 128 16 16 16 (524288)
I0614 15:55:54.319888     6 layer_factory.hpp:78] Creating layer 1_1_conv
I0614 15:55:54.319893     6 net.cpp:69] Creating Layer 1_1_conv
I0614 15:55:54.319896     6 net.cpp:396] 1_1_conv <- 1_0_conv
I0614 15:55:54.319900     6 net.cpp:358] 1_1_conv -> 1_1_conv
I0614 15:55:54.319903     6 net.cpp:98] Setting up 1_1_conv
I0614 15:55:54.319921     6 net.cpp:105] Top shape: 128 16 16 16 (524288)
I0614 15:55:54.319924     6 layer_factory.hpp:78] Creating layer 1_1_conv_ReLU
I0614 15:55:54.319928     6 net.cpp:69] Creating Layer 1_1_conv_ReLU
I0614 15:55:54.319931     6 net.cpp:396] 1_1_conv_ReLU <- 1_1_conv
I0614 15:55:54.319933     6 net.cpp:347] 1_1_conv_ReLU -> 1_1_conv (in-place)
I0614 15:55:54.319937     6 net.cpp:98] Setting up 1_1_conv_ReLU
I0614 15:55:54.319939     6 net.cpp:105] Top shape: 128 16 16 16 (524288)
I0614 15:55:54.319942     6 layer_factory.hpp:78] Creating layer 1_pool
I0614 15:55:54.319946     6 net.cpp:69] Creating Layer 1_pool
I0614 15:55:54.319947     6 net.cpp:396] 1_pool <- 1_1_conv
I0614 15:55:54.319952     6 net.cpp:358] 1_pool -> 1_pool
I0614 15:55:54.319957     6 net.cpp:98] Setting up 1_pool
I0614 15:55:54.319959     6 net.cpp:105] Top shape: 128 16 8 8 (131072)
I0614 15:55:54.319962     6 layer_factory.hpp:78] Creating layer 2_0_conv
I0614 15:55:54.319965     6 net.cpp:69] Creating Layer 2_0_conv
I0614 15:55:54.319968     6 net.cpp:396] 2_0_conv <- 1_pool
I0614 15:55:54.319972     6 net.cpp:358] 2_0_conv -> 2_0_conv
I0614 15:55:54.319977     6 net.cpp:98] Setting up 2_0_conv
I0614 15:55:54.319996     6 net.cpp:105] Top shape: 128 16 8 8 (131072)
I0614 15:55:54.320003     6 layer_factory.hpp:78] Creating layer 2_0_conv_ReLU
I0614 15:55:54.320005     6 net.cpp:69] Creating Layer 2_0_conv_ReLU
I0614 15:55:54.320008     6 net.cpp:396] 2_0_conv_ReLU <- 2_0_conv
I0614 15:55:54.320011     6 net.cpp:347] 2_0_conv_ReLU -> 2_0_conv (in-place)
I0614 15:55:54.320015     6 net.cpp:98] Setting up 2_0_conv_ReLU
I0614 15:55:54.320017     6 net.cpp:105] Top shape: 128 16 8 8 (131072)
I0614 15:55:54.320020     6 layer_factory.hpp:78] Creating layer 2_1_conv
I0614 15:55:54.320024     6 net.cpp:69] Creating Layer 2_1_conv
I0614 15:55:54.320026     6 net.cpp:396] 2_1_conv <- 2_0_conv
I0614 15:55:54.320031     6 net.cpp:358] 2_1_conv -> 2_1_conv
I0614 15:55:54.320035     6 net.cpp:98] Setting up 2_1_conv
I0614 15:55:54.320053     6 net.cpp:105] Top shape: 128 16 8 8 (131072)
I0614 15:55:54.320057     6 layer_factory.hpp:78] Creating layer 2_1_conv_ReLU
I0614 15:55:54.320060     6 net.cpp:69] Creating Layer 2_1_conv_ReLU
I0614 15:55:54.320063     6 net.cpp:396] 2_1_conv_ReLU <- 2_1_conv
I0614 15:55:54.320066     6 net.cpp:347] 2_1_conv_ReLU -> 2_1_conv (in-place)
I0614 15:55:54.320070     6 net.cpp:98] Setting up 2_1_conv_ReLU
I0614 15:55:54.320075     6 net.cpp:105] Top shape: 128 16 8 8 (131072)
I0614 15:55:54.320077     6 layer_factory.hpp:78] Creating layer 2_pool
I0614 15:55:54.320086     6 net.cpp:69] Creating Layer 2_pool
I0614 15:55:54.320088     6 net.cpp:396] 2_pool <- 2_1_conv
I0614 15:55:54.320092     6 net.cpp:358] 2_pool -> 2_pool
I0614 15:55:54.320096     6 net.cpp:98] Setting up 2_pool
I0614 15:55:54.320099     6 net.cpp:105] Top shape: 128 16 4 4 (32768)
I0614 15:55:54.320101     6 layer_factory.hpp:78] Creating layer middle_conv
I0614 15:55:54.320106     6 net.cpp:69] Creating Layer middle_conv
I0614 15:55:54.320108     6 net.cpp:396] middle_conv <- 2_pool
I0614 15:55:54.320113     6 net.cpp:358] middle_conv -> middle_conv
I0614 15:55:54.320117     6 net.cpp:98] Setting up middle_conv
I0614 15:55:54.320236     6 net.cpp:105] Top shape: 128 50 1 1 (6400)
I0614 15:55:54.320243     6 layer_factory.hpp:78] Creating layer middle_conv_ReLU
I0614 15:55:54.320246     6 net.cpp:69] Creating Layer middle_conv_ReLU
I0614 15:55:54.320250     6 net.cpp:396] middle_conv_ReLU <- middle_conv
I0614 15:55:54.320255     6 net.cpp:347] middle_conv_ReLU -> middle_conv (in-place)
I0614 15:55:54.320257     6 net.cpp:98] Setting up middle_conv_ReLU
I0614 15:55:54.320261     6 net.cpp:105] Top shape: 128 50 1 1 (6400)
I0614 15:55:54.320263     6 layer_factory.hpp:78] Creating layer fc1
I0614 15:55:54.320267     6 net.cpp:69] Creating Layer fc1
I0614 15:55:54.320271     6 net.cpp:396] fc1 <- middle_conv
I0614 15:55:54.320276     6 net.cpp:358] fc1 -> fc1
I0614 15:55:54.320279     6 net.cpp:98] Setting up fc1
I0614 15:55:54.320425     6 net.cpp:105] Top shape: 128 512 1 1 (65536)
I0614 15:55:54.320432     6 layer_factory.hpp:78] Creating layer fc1_Dropout
I0614 15:55:54.320437     6 net.cpp:69] Creating Layer fc1_Dropout
I0614 15:55:54.320441     6 net.cpp:396] fc1_Dropout <- fc1
I0614 15:55:54.320444     6 net.cpp:347] fc1_Dropout -> fc1 (in-place)
I0614 15:55:54.320448     6 net.cpp:98] Setting up fc1_Dropout
I0614 15:55:54.320452     6 net.cpp:105] Top shape: 128 512 1 1 (65536)
I0614 15:55:54.320454     6 layer_factory.hpp:78] Creating layer fc1_Dropout_ReLU
I0614 15:55:54.320458     6 net.cpp:69] Creating Layer fc1_Dropout_ReLU
I0614 15:55:54.320461     6 net.cpp:396] fc1_Dropout_ReLU <- fc1
I0614 15:55:54.320463     6 net.cpp:347] fc1_Dropout_ReLU -> fc1 (in-place)
I0614 15:55:54.320467     6 net.cpp:98] Setting up fc1_Dropout_ReLU
I0614 15:55:54.320469     6 net.cpp:105] Top shape: 128 512 1 1 (65536)
I0614 15:55:54.320472     6 layer_factory.hpp:78] Creating layer fc2_10
I0614 15:55:54.320477     6 net.cpp:69] Creating Layer fc2_10
I0614 15:55:54.320479     6 net.cpp:396] fc2_10 <- fc1
I0614 15:55:54.320483     6 net.cpp:358] fc2_10 -> fc2_10
I0614 15:55:54.320487     6 net.cpp:98] Setting up fc2_10
I0614 15:55:54.320521     6 net.cpp:105] Top shape: 128 10 1 1 (1280)
I0614 15:55:54.320528     6 layer_factory.hpp:78] Creating layer softmax
I0614 15:55:54.320534     6 net.cpp:69] Creating Layer softmax
I0614 15:55:54.320538     6 net.cpp:396] softmax <- fc2_10
I0614 15:55:54.320540     6 net.cpp:396] softmax <- label
I0614 15:55:54.320544     6 net.cpp:358] softmax -> softmax
I0614 15:55:54.320549     6 net.cpp:98] Setting up softmax
I0614 15:55:54.320556     6 net.cpp:105] Top shape: 1 1 1 1 (1)
I0614 15:55:54.320559     6 net.cpp:111]     with loss weight 1
I0614 15:55:54.320570     6 net.cpp:172] softmax needs backward computation.
I0614 15:55:54.320572     6 net.cpp:172] fc2_10 needs backward computation.
I0614 15:55:54.320575     6 net.cpp:172] fc1_Dropout_ReLU needs backward computation.
I0614 15:55:54.320577     6 net.cpp:172] fc1_Dropout needs backward computation.
I0614 15:55:54.320580     6 net.cpp:172] fc1 needs backward computation.
…
I0614 15:55:54.321089     6 net.cpp:277] The NetState phase (1) differed from the phase (0) specified by a rule in layer data
I0614 15:55:54.321099     6 net.cpp:277] The NetState phase (1) differed from the phase (0) specified by a rule in layer fc1_Dropout
I0614 15:55:54.321189     6 net.cpp:39] Initializing net from parameters: 
layers {
  top: "data"
  top: "label"
  name: "data"
  type: DATA
  data_param {
    source: "/dataset/cifar10/cifar10_test_lmdb"
    batch_size: 128
    backend: LMDB
  }
  include {
    phase: TEST
  }
  transform_param {
    mean_file: "/dataset/cifar10/mean.binaryproto"
  }
}
layers {
  bottom: "data"
  top: "0_0_conv"
  name: "0_0_conv"
  type: CONVOLUTION
  blobs_lr: 1
  blobs_lr: 2
  weight_decay: 0
  weight_decay: 0
  convolution_param {
    num_output: 16
    pad: 1
    kernel_size: 3
    stride: 1
    weight_filler {
      type: "xavier"
    }
    bias_filler {
      type: "constant"
      value: 0
    }
  }
}
layers {
  bottom: "0_0_conv"
  top: "0_0_conv"
  name: "0_0_conv_ReLU"
  type: RELU
}
layers {
  bottom: "0_0_conv"
  top: "0_1_conv"
  name: "0_1_conv"
  type: CONVOLUTION
  blobs_lr: 1
  blobs_lr: 2
  weight_decay: 0
  weight_decay: 0
  convolution_param {
    num_output: 16
    pad: 1
    kernel_size: 3
    stride: 1
    weight_filler {
      type: "xavier"
    }
    bias_filler {
      type: "constant"
      value: 0
    }
  }
}
layers {
  bottom: "0_1_conv"
  top: "0_1_conv"
  name: "0_1_conv_ReLU"
  type: RELU
}
layers {
  bottom: "0_1_conv"
  top: "0_pool"
  name: "0_pool"
  type: POOLING
  pooling_param {
    pool: MAX
    kernel_size: 2
    stride: 2
  }
}
layers {
  bottom: "0_pool"
  top: "1_0_conv"
  name: "1_0_conv"
  type: CONVOLUTION
  blobs_lr: 1
  blobs_lr: 2
  weight_decay: 0
  weight_decay: 0
  convolution_param {
    num_output: 16
    pad: 1
    kernel_size: 3
    stride: 1
    weight_filler {
      type: "xavier"
    }
    bias_filler {
      type: "constant"
      value: 0
    }
  }
}
layers {
  bottom: "1_0_conv"
  top: "1_0_conv"
  name: "1_0_conv_ReLU"
  type: RELU
}
layers {
  bottom: "1_0_conv"
  top: "1_1_conv"
  name: "1_1_conv"
  type: CONVOLUTION
  blobs_lr: 1
  blobs_lr: 2
  weight_decay: 0
  weight_decay: 0
  convolution_param {
    num_output: 16
    pad: 1
    kernel_size: 3
    stride: 1
    weight_filler {
      type: "xavier"
    }
    bias_filler {
      type: "constant"
      value: 0
    }
  }
}
layers {
  bottom: "1_1_conv"
  top: "1_1_conv"
  name: "1_1_conv_ReLU"
  type: RELU
}
layers {
  bottom: "1_1_conv"
  top: "1_pool"
  name: "1_pool"
  type: POOLING
  pooling_param {
    pool: MAX
    kernel_size: 2
    stride: 2
  }
}
layers {
  bottom: "1_pool"
  top: "2_0_conv"
  name: "2_0_conv"
  type: CONVOLUTION
  blobs_lr: 1
  blobs_lr: 2
  weight_decay: 0
  weight_decay: 0
  convolution_param {
    num_output: 16
    pad: 1
    kernel_size: 3
    stride: 1
    weight_filler {
      type: "xavier"
    }
    bias_filler {
      type: "constant"
      value: 0
    }
  }
}
layers {
  bottom: "2_0_conv"
  top: "2_0_conv"
  name: "2_0_conv_ReLU"
  type: RELU
}
layers {
  bottom: "2_0_conv"
  top: "2_1_conv"
  name: "2_1_conv"
  type: CONVOLUTION
  blobs_lr: 1
  blobs_lr: 2
  weight_decay: 0
  weight_decay: 0
  convolution_param {
    num_output: 16
    pad: 1
    kernel_size: 3
    stride: 1
    weight_filler {
      type: "xavier"
    }
    bias_filler {
      type: "constant"
      value: 0
    }
  }
}
layers {
  bottom: "2_1_conv"
  top: "2_1_conv"
  name: "2_1_conv_ReLU"
  type: RELU
}
layers {
  bottom: "2_1_conv"
  top: "2_pool"
  name: "2_pool"
  type: POOLING
  pooling_param {
    pool: MAX
    kernel_size: 2
    stride: 2
  }
}
layers {
  bottom: "2_pool"
  top: "middle_conv"
  name: "middle_conv"
  type: CONVOLUTION
  blobs_lr: 1
  blobs_lr: 2
  weight_decay: 0
  weight_decay: 0
  convolution_param {
    num_output: 50
    pad: 0
    kernel_size: 4
    stride: 1
    weight_filler {
      type: "xavier"
    }
    bias_filler {
      type: "constant"
      value: 0
    }
  }
}
layers {
  bottom: "middle_conv"
  top: "middle_conv"
  name: "middle_conv_ReLU"
  type: RELU
}
layers {
  bottom: "middle_conv"
  top: "fc1"
  name: "fc1"
  type: INNER_PRODUCT
  blobs_lr: 1
  blobs_lr: 2
  weight_decay: 0
  weight_decay: 0
  inner_product_param {
    num_output: 512
    weight_filler {
      type: "xavier"
    }
    bias_filler {
      type: "constant"
      value: 0
    }
  }
}
layers {
  bottom: "fc1"
  top: "fc1"
  name: "fc1_Dropout_ReLU"
  type: RELU
}
layers {
  bottom: "fc1"
  top: "fc2_10"
  name: "fc2_10"
  type: INNER_PRODUCT
  blobs_lr: 1
  blobs_lr: 2
  weight_decay: 0
  weight_decay: 0
  inner_product_param {
    num_output: 10
    weight_filler {
      type: "xavier"
    }
    bias_filler {
      type: "constant"
      value: 0
    }
  }
}
layers {
  bottom: "fc2_10"
  bottom: "label"
  top: "softmax"
  name: "softmax"
  type: SOFTMAX_LOSS
}
layers {
  bottom: "fc2_10"
  bottom: "label"
  top: "accuracy_top_1"
  name: "accuracy_top_1"
  type: ACCURACY
  accuracy_param {
    top_k: 1
  }
  include {
    phase: TEST
  }
}
layers {
  bottom: "fc2_10"
  bottom: "label"
  top: "accuracy_top_5"
  name: "accuracy_top_5"
  type: ACCURACY
  accuracy_param {
    top_k: 5
  }
  include {
    phase: TEST
  }
}
state {
  phase: TEST
}
I0614 15:55:54.321275     6 layer_factory.hpp:78] Creating layer data
I0614 15:55:54.321282     6 data_transformer.cpp:25] Loading mean file from/dataset/cifar10/mean.binaryproto
I0614 15:55:54.321313     6 net.cpp:69] Creating Layer data
I0614 15:55:54.321319     6 net.cpp:358] data -> data
I0614 15:55:54.321326     6 net.cpp:358] data -> label
I0614 15:55:54.321329     6 net.cpp:98] Setting up data
I0614 15:55:54.321333     6 data_layer.cpp:32] Opening dataset /dataset/cifar10/cifar10_test_lmdb
I0614 15:55:54.321372     6 data_layer.cpp:71] output data size: 128,3,32,32
I0614 15:55:54.321725     6 net.cpp:105] Top shape: 128 3 32 32 (393216)
I0614 15:55:54.321743     6 net.cpp:105] Top shape: 128 1 1 1 (128)
I0614 15:55:54.321746     6 layer_factory.hpp:78] Creating layer label_data_1_split
I0614 15:55:54.321750     6 net.cpp:69] Creating Layer label_data_1_split
I0614 15:55:54.321753     6 net.cpp:396] label_data_1_split <- label
I0614 15:55:54.321776     6 net.cpp:358] label_data_1_split -> label_data_1_split_0
I0614 15:55:54.321794     6 net.cpp:358] label_data_1_split -> label_data_1_split_1
I0614 15:55:54.321799     6 net.cpp:358] label_data_1_split -> label_data_1_split_2
I0614 15:55:54.321804     6 net.cpp:98] Setting up label_data_1_split
I0614 15:55:54.321810     6 net.cpp:105] Top shape: 128 1 1 1 (128)
I0614 15:55:54.321813     6 net.cpp:105] Top shape: 128 1 1 1 (128)
I0614 15:55:54.321820     6 net.cpp:105] Top shape: 128 1 1 1 (128)
I0614 15:55:54.321823     6 layer_factory.hpp:78] Creating layer 0_0_conv
I0614 15:55:54.321828     6 net.cpp:69] Creating Layer 0_0_conv
I0614 15:55:54.321831     6 net.cpp:396] 0_0_conv <- data
I0614 15:55:54.321835     6 net.cpp:358] 0_0_conv -> 0_0_conv
I0614 15:55:54.321841     6 net.cpp:98] Setting up 0_0_conv
I0614 15:55:54.321853     6 net.cpp:105] Top shape: 128 16 32 32 (2097152)
I0614 15:55:54.321861     6 layer_factory.hpp:78] Creating layer 0_0_conv_ReLU
I0614 15:55:54.321864     6 net.cpp:69] Creating Layer 0_0_conv_ReLU
I0614 15:55:54.321867     6 net.cpp:396] 0_0_conv_ReLU <- 0_0_conv
I0614 15:55:54.321871     6 net.cpp:347] 0_0_conv_ReLU -> 0_0_conv (in-place)
I0614 15:55:54.321874     6 net.cpp:98] Setting up 0_0_conv_ReLU
I0614 15:55:54.321877     6 net.cpp:105] Top shape: 128 16 32 32 (2097152)
I0614 15:55:54.321880     6 layer_factory.hpp:78] Creating layer 0_1_conv
I0614 15:55:54.321885     6 net.cpp:69] Creating Layer 0_1_conv
I0614 15:55:54.321888     6 net.cpp:396] 0_1_conv <- 0_0_conv
I0614 15:55:54.321893     6 net.cpp:358] 0_1_conv -> 0_1_conv
I0614 15:55:54.321897     6 net.cpp:98] Setting up 0_1_conv
I0614 15:55:54.321916     6 net.cpp:105] Top shape: 128 16 32 32 (2097152)
I0614 15:55:54.321921     6 layer_factory.hpp:78] Creating layer 0_1_conv_ReLU
I0614 15:55:54.321925     6 net.cpp:69] Creating Layer 0_1_conv_ReLU
I0614 15:55:54.321928     6 net.cpp:396] 0_1_conv_ReLU <- 0_1_conv
I0614 15:55:54.321931     6 net.cpp:347] 0_1_conv_ReLU -> 0_1_conv (in-place)
I0614 15:55:54.321935     6 net.cpp:98] Setting up 0_1_conv_ReLU
I0614 15:55:54.321938     6 net.cpp:105] Top shape: 128 16 32 32 (2097152)
I0614 15:55:54.321940     6 layer_factory.hpp:78] Creating layer 0_pool
I0614 15:55:54.321943     6 net.cpp:69] Creating Layer 0_pool
I0614 15:55:54.321946     6 net.cpp:396] 0_pool <- 0_1_conv
I0614 15:55:54.321950     6 net.cpp:358] 0_pool -> 0_pool
I0614 15:55:54.321954     6 net.cpp:98] Setting up 0_pool
I0614 15:55:54.321957     6 net.cpp:105] Top shape: 128 16 16 16 (524288)
I0614 15:55:54.321960     6 layer_factory.hpp:78] Creating layer 1_0_conv
I0614 15:55:54.321964     6 net.cpp:69] Creating Layer 1_0_conv
I0614 15:55:54.321966     6 net.cpp:396] 1_0_conv <- 0_pool
I0614 15:55:54.321971     6 net.cpp:358] 1_0_conv -> 1_0_conv
I0614 15:55:54.321975     6 net.cpp:98] Setting up 1_0_conv
I0614 15:55:54.321993     6 net.cpp:105] Top shape: 128 16 16 16 (524288)
I0614 15:55:54.321998     6 layer_factory.hpp:78] Creating layer 1_0_conv_ReLU
I0614 15:55:54.322003     6 net.cpp:69] Creating Layer 1_0_conv_ReLU
I0614 15:55:54.322005     6 net.cpp:396] 1_0_conv_ReLU <- 1_0_conv
I0614 15:55:54.322010     6 net.cpp:347] 1_0_conv_ReLU -> 1_0_conv (in-place)
I0614 15:55:54.322012     6 net.cpp:98] Setting up 1_0_conv_ReLU
I0614 15:55:54.322016     6 net.cpp:105] Top shape: 128 16 16 16 (524288)
I0614 15:55:54.322017     6 layer_factory.hpp:78] Creating layer 1_1_conv
I0614 15:55:54.322022     6 net.cpp:69] Creating Layer 1_1_conv
I0614 15:55:54.322024     6 net.cpp:396] 1_1_conv <- 1_0_conv
I0614 15:55:54.322028     6 net.cpp:358] 1_1_conv -> 1_1_conv
I0614 15:55:54.322032     6 net.cpp:98] Setting up 1_1_conv
I0614 15:55:54.322051     6 net.cpp:105] Top shape: 128 16 16 16 (524288)
I0614 15:55:54.322054     6 layer_factory.hpp:78] Creating layer 1_1_conv_ReLU
I0614 15:55:54.322057     6 net.cpp:69] Creating Layer 1_1_conv_ReLU
I0614 15:55:54.322060     6 net.cpp:396] 1_1_conv_ReLU <- 1_1_conv
I0614 15:55:54.322063     6 net.cpp:347] 1_1_conv_ReLU -> 1_1_conv (in-place)
I0614 15:55:54.322067     6 net.cpp:98] Setting up 1_1_conv_ReLU
I0614 15:55:54.322069     6 net.cpp:105] Top shape: 128 16 16 16 (524288)
I0614 15:55:54.322072     6 layer_factory.hpp:78] Creating layer 1_pool
I0614 15:55:54.322075     6 net.cpp:69] Creating Layer 1_pool
I0614 15:55:54.322077     6 net.cpp:396] 1_pool <- 1_1_conv
I0614 15:55:54.322085     6 net.cpp:358] 1_pool -> 1_pool
I0614 15:55:54.322090     6 net.cpp:98] Setting up 1_pool
I0614 15:55:54.322098     6 net.cpp:105] Top shape: 128 16 8 8 (131072)
I0614 15:55:54.322100     6 layer_factory.hpp:78] Creating layer 2_0_conv
I0614 15:55:54.322104     6 net.cpp:69] Creating Layer 2_0_conv
I0614 15:55:54.322106     6 net.cpp:396] 2_0_conv <- 1_pool
I0614 15:55:54.322110     6 net.cpp:358] 2_0_conv -> 2_0_conv
I0614 15:55:54.322114     6 net.cpp:98] Setting up 2_0_conv
I0614 15:55:54.322132     6 net.cpp:105] Top shape: 128 16 8 8 (131072)
I0614 15:55:54.322137     6 layer_factory.hpp:78] Creating layer 2_0_conv_ReLU
I0614 15:55:54.322141     6 net.cpp:69] Creating Layer 2_0_conv_ReLU
I0614 15:55:54.322144     6 net.cpp:396] 2_0_conv_ReLU <- 2_0_conv
I0614 15:55:54.322147     6 net.cpp:347] 2_0_conv_ReLU -> 2_0_conv (in-place)
I0614 15:55:54.322150     6 net.cpp:98] Setting up 2_0_conv_ReLU
I0614 15:55:54.322154     6 net.cpp:105] Top shape: 128 16 8 8 (131072)
I0614 15:55:54.322155     6 layer_factory.hpp:78] Creating layer 2_1_conv
I0614 15:55:54.322160     6 net.cpp:69] Creating Layer 2_1_conv
I0614 15:55:54.322161     6 net.cpp:396] 2_1_conv <- 2_0_conv
I0614 15:55:54.322166     6 net.cpp:358] 2_1_conv -> 2_1_conv
I0614 15:55:54.322170     6 net.cpp:98] Setting up 2_1_conv
I0614 15:55:54.322188     6 net.cpp:105] Top shape: 128 16 8 8 (131072)
I0614 15:55:54.322192     6 layer_factory.hpp:78] Creating layer 2_1_conv_ReLU
I0614 15:55:54.322196     6 net.cpp:69] Creating Layer 2_1_conv_ReLU
I0614 15:55:54.322198     6 net.cpp:396] 2_1_conv_ReLU <- 2_1_conv
I0614 15:55:54.322201     6 net.cpp:347] 2_1_conv_ReLU -> 2_1_conv (in-place)
I0614 15:55:54.322206     6 net.cpp:98] Setting up 2_1_conv_ReLU
I0614 15:55:54.322207     6 net.cpp:105] Top shape: 128 16 8 8 (131072)
I0614 15:55:54.322211     6 layer_factory.hpp:78] Creating layer 2_pool
I0614 15:55:54.322214     6 net.cpp:69] Creating Layer 2_pool
I0614 15:55:54.322217     6 net.cpp:396] 2_pool <- 2_1_conv
I0614 15:55:54.322221     6 net.cpp:358] 2_pool -> 2_pool
I0614 15:55:54.322226     6 net.cpp:98] Setting up 2_pool
I0614 15:55:54.322228     6 net.cpp:105] Top shape: 128 16 4 4 (32768)
I0614 15:55:54.322230     6 layer_factory.hpp:78] Creating layer middle_conv
I0614 15:55:54.322234     6 net.cpp:69] Creating Layer middle_conv
I0614 15:55:54.322237     6 net.cpp:396] middle_conv <- 2_pool
I0614 15:55:54.322240     6 net.cpp:358] middle_conv -> middle_conv
I0614 15:55:54.322244     6 net.cpp:98] Setting up middle_conv
I0614 15:55:54.322320     6 net.cpp:105] Top shape: 128 50 1 1 (6400)
I0614 15:55:54.322326     6 layer_factory.hpp:78] Creating layer middle_conv_ReLU
I0614 15:55:54.322329     6 net.cpp:69] Creating Layer middle_conv_ReLU
I0614 15:55:54.322332     6 net.cpp:396] middle_conv_ReLU <- middle_conv
I0614 15:55:54.322336     6 net.cpp:347] middle_conv_ReLU -> middle_conv (in-place)
I0614 15:55:54.322340     6 net.cpp:98] Setting up middle_conv_ReLU
I0614 15:55:54.322342     6 net.cpp:105] Top shape: 128 50 1 1 (6400)
I0614 15:55:54.322345     6 layer_factory.hpp:78] Creating layer fc1
I0614 15:55:54.322350     6 net.cpp:69] Creating Layer fc1
I0614 15:55:54.322352     6 net.cpp:396] fc1 <- middle_conv
I0614 15:55:54.322357     6 net.cpp:358] fc1 -> fc1
I0614 15:55:54.322362     6 net.cpp:98] Setting up fc1
I0614 15:55:54.322504     6 net.cpp:105] Top shape: 128 512 1 1 (65536)
I0614 15:55:54.322510     6 layer_factory.hpp:78] Creating layer fc1_Dropout_ReLU
I0614 15:55:54.322513     6 net.cpp:69] Creating Layer fc1_Dropout_ReLU
I0614 15:55:54.322516     6 net.cpp:396] fc1_Dropout_ReLU <- fc1
I0614 15:55:54.322520     6 net.cpp:347] fc1_Dropout_ReLU -> fc1 (in-place)
I0614 15:55:54.322525     6 net.cpp:98] Setting up fc1_Dropout_ReLU
I0614 15:55:54.322527     6 net.cpp:105] Top shape: 128 512 1 1 (65536)
I0614 15:55:54.322530     6 layer_factory.hpp:78] Creating layer fc2_10
I0614 15:55:54.322533     6 net.cpp:69] Creating Layer fc2_10
I0614 15:55:54.322536     6 net.cpp:396] fc2_10 <- fc1
I0614 15:55:54.322540     6 net.cpp:358] fc2_10 -> fc2_10
I0614 15:55:54.322546     6 net.cpp:98] Setting up fc2_10
I0614 15:55:54.322587     6 net.cpp:105] Top shape: 128 10 1 1 (1280)
I0614 15:55:54.322599     6 layer_factory.hpp:78] Creating layer fc2_10_fc2_10_0_split
I0614 15:55:54.322603     6 net.cpp:69] Creating Layer fc2_10_fc2_10_0_split
I0614 15:55:54.322607     6 net.cpp:396] fc2_10_fc2_10_0_split <- fc2_10
I0614 15:55:54.322610     6 net.cpp:358] fc2_10_fc2_10_0_split -> fc2_10_fc2_10_0_split_0
I0614 15:55:54.322615     6 net.cpp:358] fc2_10_fc2_10_0_split -> fc2_10_fc2_10_0_split_1
I0614 15:55:54.322619     6 net.cpp:358] fc2_10_fc2_10_0_split -> fc2_10_fc2_10_0_split_2
I0614 15:55:54.322623     6 net.cpp:98] Setting up fc2_10_fc2_10_0_split
I0614 15:55:54.322626     6 net.cpp:105] Top shape: 128 10 1 1 (1280)
I0614 15:55:54.322629     6 net.cpp:105] Top shape: 128 10 1 1 (1280)
I0614 15:55:54.322633     6 net.cpp:105] Top shape: 128 10 1 1 (1280)
I0614 15:55:54.322634     6 layer_factory.hpp:78] Creating layer softmax
I0614 15:55:54.322639     6 net.cpp:69] Creating Layer softmax
I0614 15:55:54.322643     6 net.cpp:396] softmax <- fc2_10_fc2_10_0_split_0
I0614 15:55:54.322645     6 net.cpp:396] softmax <- label_data_1_split_0
I0614 15:55:54.322649     6 net.cpp:358] softmax -> softmax
I0614 15:55:54.322654     6 net.cpp:98] Setting up softmax
I0614 15:55:54.322657     6 net.cpp:105] Top shape: 1 1 1 1 (1)
I0614 15:55:54.322660     6 net.cpp:111]     with loss weight 1
I0614 15:55:54.322664     6 layer_factory.hpp:78] Creating layer accuracy_top_1
I0614 15:55:54.322669     6 net.cpp:69] Creating Layer accuracy_top_1
I0614 15:55:54.322672     6 net.cpp:396] accuracy_top_1 <- fc2_10_fc2_10_0_split_1
I0614 15:55:54.322676     6 net.cpp:396] accuracy_top_1 <- label_data_1_split_1
I0614 15:55:54.322680     6 net.cpp:358] accuracy_top_1 -> accuracy_top_1
I0614 15:55:54.322685     6 net.cpp:98] Setting up accuracy_top_1
I0614 15:55:54.322687     6 net.cpp:105] Top shape: 1 1 1 1 (1)
I0614 15:55:54.322690     6 layer_factory.hpp:78] Creating layer accuracy_top_5
I0614 15:55:54.322693     6 net.cpp:69] Creating Layer accuracy_top_5
I0614 15:55:54.322696     6 net.cpp:396] accuracy_top_5 <- fc2_10_fc2_10_0_split_2
I0614 15:55:54.322700     6 net.cpp:396] accuracy_top_5 <- label_data_1_split_2
I0614 15:55:54.322705     6 net.cpp:358] accuracy_top_5 -> accuracy_top_5
I0614 15:55:54.322708     6 net.cpp:98] Setting up accuracy_top_5
I0614 15:55:54.322710     6 net.cpp:105] Top shape: 1 1 1 1 (1)
I0614 15:55:54.322713     6 net.cpp:174] accuracy_top_5 does not need backward computation.
I0614 15:55:54.322716     6 net.cpp:174] accuracy_top_1 does not need backward computation.
I0614 15:55:54.322718     6 net.cpp:172] softmax needs backward computation.
I0614 15:55:54.322721     6 net.cpp:172] fc2_10_fc2_10_0_split needs backward computation.
I0614 15:55:54.322724     6 net.cpp:172] fc2_10 needs backward computation.
…
