…
I0623 12:17:20.733739  5064 net.cpp:277] The NetState phase (0) differed from the phase (1) specified by a rule in layer accuracy_top_1
I0623 12:17:20.733743  5064 net.cpp:277] The NetState phase (0) differed from the phase (1) specified by a rule in layer accuracy_top_5
I0623 12:17:20.733834  5064 net.cpp:39] Initializing net from parameters: 
layers {
  top: "data"
  top: "label"
  name: "data"
  type: DATA
  data_param {
    source: "/dataset/cifar100_lmdb_lab/cifar100_train_lmdb"
    batch_size: 128
    backend: LMDB
  }
  include {
    phase: TRAIN
  }
  transform_param {
    mean_file: "/dataset/cifar100_lmdb_lab/mean.binaryproto"
  }
}
layers {
  bottom: "data"
  top: "0_0_conv"
  name: "0_0_conv"
  type: CONVOLUTION
  blobs_lr: 1
  blobs_lr: 2
  weight_decay: 0
  weight_decay: 0
  convolution_param {
    num_output: 32
    pad: 1
    kernel_size: 3
    stride: 1
    weight_filler {
      type: "xavier"
    }
    bias_filler {
      type: "constant"
      value: 0
    }
  }
}
layers {
  bottom: "0_0_conv"
  top: "0_0_conv"
  name: "0_0_conv_ReLU"
  type: RELU
}
layers {
  bottom: "0_0_conv"
  top: "0_1_conv"
  name: "0_1_conv"
  type: CONVOLUTION
  blobs_lr: 1
  blobs_lr: 2
  weight_decay: 0
  weight_decay: 0
  convolution_param {
    num_output: 32
    pad: 1
    kernel_size: 3
    stride: 1
    weight_filler {
      type: "xavier"
    }
    bias_filler {
      type: "constant"
      value: 0
    }
  }
}
layers {
  bottom: "0_1_conv"
  top: "0_1_conv"
  name: "0_1_conv_ReLU"
  type: RELU
}
layers {
  bottom: "0_1_conv"
  top: "0_pool"
  name: "0_pool"
  type: POOLING
  pooling_param {
    pool: MAX
    kernel_size: 2
    stride: 2
  }
}
layers {
  bottom: "0_pool"
  top: "1_0_conv"
  name: "1_0_conv"
  type: CONVOLUTION
  blobs_lr: 1
  blobs_lr: 2
  weight_decay: 0
  weight_decay: 0
  convolution_param {
    num_output: 32
    pad: 1
    kernel_size: 3
    stride: 1
    weight_filler {
      type: "xavier"
    }
    bias_filler {
      type: "constant"
      value: 0
    }
  }
}
layers {
  bottom: "1_0_conv"
  top: "1_0_conv"
  name: "1_0_conv_ReLU"
  type: RELU
}
layers {
  bottom: "1_0_conv"
  top: "1_1_conv"
  name: "1_1_conv"
  type: CONVOLUTION
  blobs_lr: 1
  blobs_lr: 2
  weight_decay: 0
  weight_decay: 0
  convolution_param {
    num_output: 32
    pad: 1
    kernel_size: 3
    stride: 1
    weight_filler {
      type: "xavier"
    }
    bias_filler {
      type: "constant"
      value: 0
    }
  }
}
layers {
  bottom: "1_1_conv"
  top: "1_1_conv"
  name: "1_1_conv_ReLU"
  type: RELU
}
layers {
  bottom: "1_1_conv"
  top: "1_pool"
  name: "1_pool"
  type: POOLING
  pooling_param {
    pool: MAX
    kernel_size: 2
    stride: 2
  }
}
layers {
  bottom: "1_pool"
  top: "2_0_conv"
  name: "2_0_conv"
  type: CONVOLUTION
  blobs_lr: 1
  blobs_lr: 2
  weight_decay: 0
  weight_decay: 0
  convolution_param {
    num_output: 32
    pad: 1
    kernel_size: 3
    stride: 1
    weight_filler {
      type: "xavier"
    }
    bias_filler {
      type: "constant"
      value: 0
    }
  }
}
layers {
  bottom: "2_0_conv"
  top: "2_0_conv"
  name: "2_0_conv_ReLU"
  type: RELU
}
layers {
  bottom: "2_0_conv"
  top: "2_1_conv"
  name: "2_1_conv"
  type: CONVOLUTION
  blobs_lr: 1
  blobs_lr: 2
  weight_decay: 0
  weight_decay: 0
  convolution_param {
    num_output: 32
    pad: 1
    kernel_size: 3
    stride: 1
    weight_filler {
      type: "xavier"
    }
    bias_filler {
      type: "constant"
      value: 0
    }
  }
}
layers {
  bottom: "2_1_conv"
  top: "2_1_conv"
  name: "2_1_conv_ReLU"
  type: RELU
}
layers {
  bottom: "2_1_conv"
  top: "2_pool"
  name: "2_pool"
  type: POOLING
  pooling_param {
    pool: MAX
    kernel_size: 2
    stride: 2
  }
}
layers {
  bottom: "2_pool"
  top: "middle_conv"
  name: "middle_conv"
  type: CONVOLUTION
  blobs_lr: 1
  blobs_lr: 2
  weight_decay: 0
  weight_decay: 0
  convolution_param {
    num_output: 50
    pad: 0
    kernel_size: 4
    stride: 1
    weight_filler {
      type: "xavier"
    }
    bias_filler {
      type: "constant"
      value: 0
    }
  }
}
layers {
  bottom: "middle_conv"
  top: "middle_conv"
  name: "middle_conv_ReLU"
  type: RELU
}
layers {
  bottom: "middle_conv"
  top: "fc1"
  name: "fc1"
  type: INNER_PRODUCT
  blobs_lr: 1
  blobs_lr: 2
  weight_decay: 0
  weight_decay: 0
  inner_product_param {
    num_output: 512
    weight_filler {
      type: "xavier"
    }
    bias_filler {
      type: "constant"
      value: 0
    }
  }
}
layers {
  bottom: "fc1"
  top: "fc1"
  name: "fc1_Dropout"
  type: DROPOUT
  dropout_param {
    dropout_ratio: 0.5
  }
  include {
    phase: TRAIN
  }
}
layers {
  bottom: "fc1"
  top: "fc1"
  name: "fc1_Dropout_ReLU"
  type: RELU
}
layers {
  bottom: "fc1"
  top: "fc2"
  name: "fc2"
  type: INNER_PRODUCT
  blobs_lr: 1
  blobs_lr: 2
  weight_decay: 0
  weight_decay: 0
  inner_product_param {
    num_output: 100
    weight_filler {
      type: "xavier"
    }
    bias_filler {
      type: "constant"
      value: 0
    }
  }
}
layers {
  bottom: "fc2"
  bottom: "label"
  top: "softmax"
  name: "softmax"
  type: SOFTMAX_LOSS
}
state {
  phase: TRAIN
}
I0623 12:17:20.733901  5064 layer_factory.hpp:78] Creating layer data
I0623 12:17:20.733913  5064 data_transformer.cpp:25] Loading mean file from/dataset/cifar100_lmdb_lab/mean.binaryproto
I0623 12:17:20.733959  5064 net.cpp:69] Creating Layer data
I0623 12:17:20.733964  5064 net.cpp:358] data -> data
I0623 12:17:20.733973  5064 net.cpp:358] data -> label
I0623 12:17:20.733978  5064 net.cpp:98] Setting up data
I0623 12:17:20.733981  5064 data_layer.cpp:32] Opening dataset /dataset/cifar100_lmdb_lab/cifar100_train_lmdb
I0623 12:17:20.734050  5064 data_layer.cpp:71] output data size: 128,3,32,32
I0623 12:17:20.734360  5064 net.cpp:105] Top shape: 128 3 32 32 (393216)
I0623 12:17:20.734366  5064 net.cpp:105] Top shape: 128 1 1 1 (128)
I0623 12:17:20.734370  5064 layer_factory.hpp:78] Creating layer 0_0_conv
I0623 12:17:20.734375  5064 net.cpp:69] Creating Layer 0_0_conv
I0623 12:17:20.734378  5064 net.cpp:396] 0_0_conv <- data
I0623 12:17:20.734385  5064 net.cpp:358] 0_0_conv -> 0_0_conv
I0623 12:17:20.734391  5064 net.cpp:98] Setting up 0_0_conv
I0623 12:17:20.734668  5064 net.cpp:105] Top shape: 128 32 32 32 (4194304)
I0623 12:17:20.734681  5064 layer_factory.hpp:78] Creating layer 0_0_conv_ReLU
I0623 12:17:20.734688  5064 net.cpp:69] Creating Layer 0_0_conv_ReLU
I0623 12:17:20.734690  5064 net.cpp:396] 0_0_conv_ReLU <- 0_0_conv
I0623 12:17:20.734694  5064 net.cpp:347] 0_0_conv_ReLU -> 0_0_conv (in-place)
I0623 12:17:20.734699  5064 net.cpp:98] Setting up 0_0_conv_ReLU
I0623 12:17:20.734701  5064 net.cpp:105] Top shape: 128 32 32 32 (4194304)
I0623 12:17:20.734704  5064 layer_factory.hpp:78] Creating layer 0_1_conv
I0623 12:17:20.734709  5064 net.cpp:69] Creating Layer 0_1_conv
I0623 12:17:20.734712  5064 net.cpp:396] 0_1_conv <- 0_0_conv
I0623 12:17:20.734716  5064 net.cpp:358] 0_1_conv -> 0_1_conv
I0623 12:17:20.734720  5064 net.cpp:98] Setting up 0_1_conv
I0623 12:17:20.734778  5064 net.cpp:105] Top shape: 128 32 32 32 (4194304)
I0623 12:17:20.734786  5064 layer_factory.hpp:78] Creating layer 0_1_conv_ReLU
I0623 12:17:20.734791  5064 net.cpp:69] Creating Layer 0_1_conv_ReLU
I0623 12:17:20.734793  5064 net.cpp:396] 0_1_conv_ReLU <- 0_1_conv
I0623 12:17:20.734797  5064 net.cpp:347] 0_1_conv_ReLU -> 0_1_conv (in-place)
I0623 12:17:20.734803  5064 net.cpp:98] Setting up 0_1_conv_ReLU
I0623 12:17:20.734807  5064 net.cpp:105] Top shape: 128 32 32 32 (4194304)
I0623 12:17:20.734815  5064 layer_factory.hpp:78] Creating layer 0_pool
I0623 12:17:20.734820  5064 net.cpp:69] Creating Layer 0_pool
I0623 12:17:20.734823  5064 net.cpp:396] 0_pool <- 0_1_conv
I0623 12:17:20.734827  5064 net.cpp:358] 0_pool -> 0_pool
I0623 12:17:20.734832  5064 net.cpp:98] Setting up 0_pool
I0623 12:17:20.734838  5064 net.cpp:105] Top shape: 128 32 16 16 (1048576)
I0623 12:17:20.734840  5064 layer_factory.hpp:78] Creating layer 1_0_conv
I0623 12:17:20.734844  5064 net.cpp:69] Creating Layer 1_0_conv
I0623 12:17:20.734846  5064 net.cpp:396] 1_0_conv <- 0_pool
I0623 12:17:20.734851  5064 net.cpp:358] 1_0_conv -> 1_0_conv
I0623 12:17:20.734855  5064 net.cpp:98] Setting up 1_0_conv
I0623 12:17:20.734918  5064 net.cpp:105] Top shape: 128 32 16 16 (1048576)
I0623 12:17:20.734925  5064 layer_factory.hpp:78] Creating layer 1_0_conv_ReLU
I0623 12:17:20.734930  5064 net.cpp:69] Creating Layer 1_0_conv_ReLU
I0623 12:17:20.734932  5064 net.cpp:396] 1_0_conv_ReLU <- 1_0_conv
I0623 12:17:20.734937  5064 net.cpp:347] 1_0_conv_ReLU -> 1_0_conv (in-place)
I0623 12:17:20.734941  5064 net.cpp:98] Setting up 1_0_conv_ReLU
I0623 12:17:20.734944  5064 net.cpp:105] Top shape: 128 32 16 16 (1048576)
I0623 12:17:20.734947  5064 layer_factory.hpp:78] Creating layer 1_1_conv
I0623 12:17:20.734951  5064 net.cpp:69] Creating Layer 1_1_conv
I0623 12:17:20.734954  5064 net.cpp:396] 1_1_conv <- 1_0_conv
I0623 12:17:20.734959  5064 net.cpp:358] 1_1_conv -> 1_1_conv
I0623 12:17:20.734963  5064 net.cpp:98] Setting up 1_1_conv
I0623 12:17:20.735021  5064 net.cpp:105] Top shape: 128 32 16 16 (1048576)
I0623 12:17:20.735028  5064 layer_factory.hpp:78] Creating layer 1_1_conv_ReLU
I0623 12:17:20.735033  5064 net.cpp:69] Creating Layer 1_1_conv_ReLU
I0623 12:17:20.735035  5064 net.cpp:396] 1_1_conv_ReLU <- 1_1_conv
I0623 12:17:20.735039  5064 net.cpp:347] 1_1_conv_ReLU -> 1_1_conv (in-place)
I0623 12:17:20.735044  5064 net.cpp:98] Setting up 1_1_conv_ReLU
I0623 12:17:20.735046  5064 net.cpp:105] Top shape: 128 32 16 16 (1048576)
I0623 12:17:20.735049  5064 layer_factory.hpp:78] Creating layer 1_pool
I0623 12:17:20.735052  5064 net.cpp:69] Creating Layer 1_pool
I0623 12:17:20.735055  5064 net.cpp:396] 1_pool <- 1_1_conv
I0623 12:17:20.735059  5064 net.cpp:358] 1_pool -> 1_pool
I0623 12:17:20.735064  5064 net.cpp:98] Setting up 1_pool
I0623 12:17:20.735066  5064 net.cpp:105] Top shape: 128 32 8 8 (262144)
I0623 12:17:20.735069  5064 layer_factory.hpp:78] Creating layer 2_0_conv
I0623 12:17:20.735072  5064 net.cpp:69] Creating Layer 2_0_conv
I0623 12:17:20.735075  5064 net.cpp:396] 2_0_conv <- 1_pool
I0623 12:17:20.735080  5064 net.cpp:358] 2_0_conv -> 2_0_conv
I0623 12:17:20.735085  5064 net.cpp:98] Setting up 2_0_conv
I0623 12:17:20.735137  5064 net.cpp:105] Top shape: 128 32 8 8 (262144)
I0623 12:17:20.735144  5064 layer_factory.hpp:78] Creating layer 2_0_conv_ReLU
I0623 12:17:20.735147  5064 net.cpp:69] Creating Layer 2_0_conv_ReLU
I0623 12:17:20.735151  5064 net.cpp:396] 2_0_conv_ReLU <- 2_0_conv
I0623 12:17:20.735154  5064 net.cpp:347] 2_0_conv_ReLU -> 2_0_conv (in-place)
I0623 12:17:20.735158  5064 net.cpp:98] Setting up 2_0_conv_ReLU
I0623 12:17:20.735162  5064 net.cpp:105] Top shape: 128 32 8 8 (262144)
I0623 12:17:20.735163  5064 layer_factory.hpp:78] Creating layer 2_1_conv
I0623 12:17:20.735167  5064 net.cpp:69] Creating Layer 2_1_conv
I0623 12:17:20.735170  5064 net.cpp:396] 2_1_conv <- 2_0_conv
I0623 12:17:20.735174  5064 net.cpp:358] 2_1_conv -> 2_1_conv
I0623 12:17:20.735178  5064 net.cpp:98] Setting up 2_1_conv
I0623 12:17:20.735229  5064 net.cpp:105] Top shape: 128 32 8 8 (262144)
I0623 12:17:20.735234  5064 layer_factory.hpp:78] Creating layer 2_1_conv_ReLU
I0623 12:17:20.735237  5064 net.cpp:69] Creating Layer 2_1_conv_ReLU
I0623 12:17:20.735240  5064 net.cpp:396] 2_1_conv_ReLU <- 2_1_conv
I0623 12:17:20.735244  5064 net.cpp:347] 2_1_conv_ReLU -> 2_1_conv (in-place)
I0623 12:17:20.735249  5064 net.cpp:98] Setting up 2_1_conv_ReLU
I0623 12:17:20.735252  5064 net.cpp:105] Top shape: 128 32 8 8 (262144)
I0623 12:17:20.735260  5064 layer_factory.hpp:78] Creating layer 2_pool
I0623 12:17:20.735263  5064 net.cpp:69] Creating Layer 2_pool
I0623 12:17:20.735265  5064 net.cpp:396] 2_pool <- 2_1_conv
I0623 12:17:20.735270  5064 net.cpp:358] 2_pool -> 2_pool
I0623 12:17:20.735275  5064 net.cpp:98] Setting up 2_pool
I0623 12:17:20.735277  5064 net.cpp:105] Top shape: 128 32 4 4 (65536)
I0623 12:17:20.735280  5064 layer_factory.hpp:78] Creating layer middle_conv
I0623 12:17:20.735285  5064 net.cpp:69] Creating Layer middle_conv
I0623 12:17:20.735287  5064 net.cpp:396] middle_conv <- 2_pool
I0623 12:17:20.735293  5064 net.cpp:358] middle_conv -> middle_conv
I0623 12:17:20.735297  5064 net.cpp:98] Setting up middle_conv
I0623 12:17:20.735445  5064 net.cpp:105] Top shape: 128 50 1 1 (6400)
I0623 12:17:20.735452  5064 layer_factory.hpp:78] Creating layer middle_conv_ReLU
I0623 12:17:20.735456  5064 net.cpp:69] Creating Layer middle_conv_ReLU
I0623 12:17:20.735460  5064 net.cpp:396] middle_conv_ReLU <- middle_conv
I0623 12:17:20.735463  5064 net.cpp:347] middle_conv_ReLU -> middle_conv (in-place)
I0623 12:17:20.735466  5064 net.cpp:98] Setting up middle_conv_ReLU
I0623 12:17:20.735469  5064 net.cpp:105] Top shape: 128 50 1 1 (6400)
I0623 12:17:20.735472  5064 layer_factory.hpp:78] Creating layer fc1
I0623 12:17:20.735476  5064 net.cpp:69] Creating Layer fc1
I0623 12:17:20.735478  5064 net.cpp:396] fc1 <- middle_conv
I0623 12:17:20.735483  5064 net.cpp:358] fc1 -> fc1
I0623 12:17:20.735487  5064 net.cpp:98] Setting up fc1
I0623 12:17:20.735625  5064 net.cpp:105] Top shape: 128 512 1 1 (65536)
I0623 12:17:20.735630  5064 layer_factory.hpp:78] Creating layer fc1_Dropout
I0623 12:17:20.735637  5064 net.cpp:69] Creating Layer fc1_Dropout
I0623 12:17:20.735641  5064 net.cpp:396] fc1_Dropout <- fc1
I0623 12:17:20.735646  5064 net.cpp:347] fc1_Dropout -> fc1 (in-place)
I0623 12:17:20.735649  5064 net.cpp:98] Setting up fc1_Dropout
I0623 12:17:20.735652  5064 net.cpp:105] Top shape: 128 512 1 1 (65536)
I0623 12:17:20.735656  5064 layer_factory.hpp:78] Creating layer fc1_Dropout_ReLU
I0623 12:17:20.735658  5064 net.cpp:69] Creating Layer fc1_Dropout_ReLU
I0623 12:17:20.735661  5064 net.cpp:396] fc1_Dropout_ReLU <- fc1
I0623 12:17:20.735666  5064 net.cpp:347] fc1_Dropout_ReLU -> fc1 (in-place)
I0623 12:17:20.735669  5064 net.cpp:98] Setting up fc1_Dropout_ReLU
I0623 12:17:20.735671  5064 net.cpp:105] Top shape: 128 512 1 1 (65536)
I0623 12:17:20.735674  5064 layer_factory.hpp:78] Creating layer fc2
I0623 12:17:20.735677  5064 net.cpp:69] Creating Layer fc2
I0623 12:17:20.735680  5064 net.cpp:396] fc2 <- fc1
I0623 12:17:20.735684  5064 net.cpp:358] fc2 -> fc2
I0623 12:17:20.735688  5064 net.cpp:98] Setting up fc2
I0623 12:17:20.735942  5064 net.cpp:105] Top shape: 128 100 1 1 (12800)
I0623 12:17:20.735950  5064 layer_factory.hpp:78] Creating layer softmax
I0623 12:17:20.735957  5064 net.cpp:69] Creating Layer softmax
I0623 12:17:20.735960  5064 net.cpp:396] softmax <- fc2
I0623 12:17:20.735963  5064 net.cpp:396] softmax <- label
I0623 12:17:20.735967  5064 net.cpp:358] softmax -> softmax
I0623 12:17:20.735972  5064 net.cpp:98] Setting up softmax
I0623 12:17:20.735980  5064 net.cpp:105] Top shape: 1 1 1 1 (1)
I0623 12:17:20.735983  5064 net.cpp:111]     with loss weight 1
I0623 12:17:20.735993  5064 net.cpp:172] softmax needs backward computation.
I0623 12:17:20.735996  5064 net.cpp:172] fc2 needs backward computation.
I0623 12:17:20.735999  5064 net.cpp:172] fc1_Dropout_ReLU needs backward computation.
I0623 12:17:20.736002  5064 net.cpp:172] fc1_Dropout needs backward computation.
I0623 12:17:20.736004  5064 net.cpp:172] fc1 needs backward computation.
…
I0623 12:17:20.736536  5064 net.cpp:277] The NetState phase (1) differed from the phase (0) specified by a rule in layer data
I0623 12:17:20.736546  5064 net.cpp:277] The NetState phase (1) differed from the phase (0) specified by a rule in layer fc1_Dropout
I0623 12:17:20.736639  5064 net.cpp:39] Initializing net from parameters: 
layers {
  top: "data"
  top: "label"
  name: "data"
  type: DATA
  data_param {
    source: "/dataset/cifar100_lmdb_lab/cifar100_test_lmdb"
    batch_size: 128
    backend: LMDB
  }
  include {
    phase: TEST
  }
  transform_param {
    mean_file: "/dataset/cifar100_lmdb_lab/mean.binaryproto"
  }
}
layers {
  bottom: "data"
  top: "0_0_conv"
  name: "0_0_conv"
  type: CONVOLUTION
  blobs_lr: 1
  blobs_lr: 2
  weight_decay: 0
  weight_decay: 0
  convolution_param {
    num_output: 32
    pad: 1
    kernel_size: 3
    stride: 1
    weight_filler {
      type: "xavier"
    }
    bias_filler {
      type: "constant"
      value: 0
    }
  }
}
layers {
  bottom: "0_0_conv"
  top: "0_0_conv"
  name: "0_0_conv_ReLU"
  type: RELU
}
layers {
  bottom: "0_0_conv"
  top: "0_1_conv"
  name: "0_1_conv"
  type: CONVOLUTION
  blobs_lr: 1
  blobs_lr: 2
  weight_decay: 0
  weight_decay: 0
  convolution_param {
    num_output: 32
    pad: 1
    kernel_size: 3
    stride: 1
    weight_filler {
      type: "xavier"
    }
    bias_filler {
      type: "constant"
      value: 0
    }
  }
}
layers {
  bottom: "0_1_conv"
  top: "0_1_conv"
  name: "0_1_conv_ReLU"
  type: RELU
}
layers {
  bottom: "0_1_conv"
  top: "0_pool"
  name: "0_pool"
  type: POOLING
  pooling_param {
    pool: MAX
    kernel_size: 2
    stride: 2
  }
}
layers {
  bottom: "0_pool"
  top: "1_0_conv"
  name: "1_0_conv"
  type: CONVOLUTION
  blobs_lr: 1
  blobs_lr: 2
  weight_decay: 0
  weight_decay: 0
  convolution_param {
    num_output: 32
    pad: 1
    kernel_size: 3
    stride: 1
    weight_filler {
      type: "xavier"
    }
    bias_filler {
      type: "constant"
      value: 0
    }
  }
}
layers {
  bottom: "1_0_conv"
  top: "1_0_conv"
  name: "1_0_conv_ReLU"
  type: RELU
}
layers {
  bottom: "1_0_conv"
  top: "1_1_conv"
  name: "1_1_conv"
  type: CONVOLUTION
  blobs_lr: 1
  blobs_lr: 2
  weight_decay: 0
  weight_decay: 0
  convolution_param {
    num_output: 32
    pad: 1
    kernel_size: 3
    stride: 1
    weight_filler {
      type: "xavier"
    }
    bias_filler {
      type: "constant"
      value: 0
    }
  }
}
layers {
  bottom: "1_1_conv"
  top: "1_1_conv"
  name: "1_1_conv_ReLU"
  type: RELU
}
layers {
  bottom: "1_1_conv"
  top: "1_pool"
  name: "1_pool"
  type: POOLING
  pooling_param {
    pool: MAX
    kernel_size: 2
    stride: 2
  }
}
layers {
  bottom: "1_pool"
  top: "2_0_conv"
  name: "2_0_conv"
  type: CONVOLUTION
  blobs_lr: 1
  blobs_lr: 2
  weight_decay: 0
  weight_decay: 0
  convolution_param {
    num_output: 32
    pad: 1
    kernel_size: 3
    stride: 1
    weight_filler {
      type: "xavier"
    }
    bias_filler {
      type: "constant"
      value: 0
    }
  }
}
layers {
  bottom: "2_0_conv"
  top: "2_0_conv"
  name: "2_0_conv_ReLU"
  type: RELU
}
layers {
  bottom: "2_0_conv"
  top: "2_1_conv"
  name: "2_1_conv"
  type: CONVOLUTION
  blobs_lr: 1
  blobs_lr: 2
  weight_decay: 0
  weight_decay: 0
  convolution_param {
    num_output: 32
    pad: 1
    kernel_size: 3
    stride: 1
    weight_filler {
      type: "xavier"
    }
    bias_filler {
      type: "constant"
      value: 0
    }
  }
}
layers {
  bottom: "2_1_conv"
  top: "2_1_conv"
  name: "2_1_conv_ReLU"
  type: RELU
}
layers {
  bottom: "2_1_conv"
  top: "2_pool"
  name: "2_pool"
  type: POOLING
  pooling_param {
    pool: MAX
    kernel_size: 2
    stride: 2
  }
}
layers {
  bottom: "2_pool"
  top: "middle_conv"
  name: "middle_conv"
  type: CONVOLUTION
  blobs_lr: 1
  blobs_lr: 2
  weight_decay: 0
  weight_decay: 0
  convolution_param {
    num_output: 50
    pad: 0
    kernel_size: 4
    stride: 1
    weight_filler {
      type: "xavier"
    }
    bias_filler {
      type: "constant"
      value: 0
    }
  }
}
layers {
  bottom: "middle_conv"
  top: "middle_conv"
  name: "middle_conv_ReLU"
  type: RELU
}
layers {
  bottom: "middle_conv"
  top: "fc1"
  name: "fc1"
  type: INNER_PRODUCT
  blobs_lr: 1
  blobs_lr: 2
  weight_decay: 0
  weight_decay: 0
  inner_product_param {
    num_output: 512
    weight_filler {
      type: "xavier"
    }
    bias_filler {
      type: "constant"
      value: 0
    }
  }
}
layers {
  bottom: "fc1"
  top: "fc1"
  name: "fc1_Dropout_ReLU"
  type: RELU
}
layers {
  bottom: "fc1"
  top: "fc2"
  name: "fc2"
  type: INNER_PRODUCT
  blobs_lr: 1
  blobs_lr: 2
  weight_decay: 0
  weight_decay: 0
  inner_product_param {
    num_output: 100
    weight_filler {
      type: "xavier"
    }
    bias_filler {
      type: "constant"
      value: 0
    }
  }
}
layers {
  bottom: "fc2"
  bottom: "label"
  top: "softmax"
  name: "softmax"
  type: SOFTMAX_LOSS
}
layers {
  bottom: "fc2"
  bottom: "label"
  top: "accuracy_top_1"
  name: "accuracy_top_1"
  type: ACCURACY
  accuracy_param {
    top_k: 1
  }
  include {
    phase: TEST
  }
}
layers {
  bottom: "fc2"
  bottom: "label"
  top: "accuracy_top_5"
  name: "accuracy_top_5"
  type: ACCURACY
  accuracy_param {
    top_k: 5
  }
  include {
    phase: TEST
  }
}
state {
  phase: TEST
}
I0623 12:17:20.736721  5064 layer_factory.hpp:78] Creating layer data
I0623 12:17:20.736726  5064 data_transformer.cpp:25] Loading mean file from/dataset/cifar100_lmdb_lab/mean.binaryproto
I0623 12:17:20.736757  5064 net.cpp:69] Creating Layer data
I0623 12:17:20.736763  5064 net.cpp:358] data -> data
I0623 12:17:20.736768  5064 net.cpp:358] data -> label
I0623 12:17:20.736773  5064 net.cpp:98] Setting up data
I0623 12:17:20.736776  5064 data_layer.cpp:32] Opening dataset /dataset/cifar100_lmdb_lab/cifar100_test_lmdb
I0623 12:17:20.736812  5064 data_layer.cpp:71] output data size: 128,3,32,32
I0623 12:17:20.737149  5064 net.cpp:105] Top shape: 128 3 32 32 (393216)
I0623 12:17:20.737156  5064 net.cpp:105] Top shape: 128 1 1 1 (128)
I0623 12:17:20.737160  5064 layer_factory.hpp:78] Creating layer label_data_1_split
I0623 12:17:20.737165  5064 net.cpp:69] Creating Layer label_data_1_split
I0623 12:17:20.737169  5064 net.cpp:396] label_data_1_split <- label
I0623 12:17:20.737172  5064 net.cpp:358] label_data_1_split -> label_data_1_split_0
I0623 12:17:20.737179  5064 net.cpp:358] label_data_1_split -> label_data_1_split_1
I0623 12:17:20.737185  5064 net.cpp:358] label_data_1_split -> label_data_1_split_2
I0623 12:17:20.737200  5064 net.cpp:98] Setting up label_data_1_split
I0623 12:17:20.737205  5064 net.cpp:105] Top shape: 128 1 1 1 (128)
I0623 12:17:20.737211  5064 net.cpp:105] Top shape: 128 1 1 1 (128)
I0623 12:17:20.737215  5064 net.cpp:105] Top shape: 128 1 1 1 (128)
I0623 12:17:20.737217  5064 layer_factory.hpp:78] Creating layer 0_0_conv
I0623 12:17:20.737222  5064 net.cpp:69] Creating Layer 0_0_conv
I0623 12:17:20.737226  5064 net.cpp:396] 0_0_conv <- data
I0623 12:17:20.737231  5064 net.cpp:358] 0_0_conv -> 0_0_conv
I0623 12:17:20.737236  5064 net.cpp:98] Setting up 0_0_conv
I0623 12:17:20.737249  5064 net.cpp:105] Top shape: 128 32 32 32 (4194304)
I0623 12:17:20.737257  5064 layer_factory.hpp:78] Creating layer 0_0_conv_ReLU
I0623 12:17:20.737259  5064 net.cpp:69] Creating Layer 0_0_conv_ReLU
I0623 12:17:20.737262  5064 net.cpp:396] 0_0_conv_ReLU <- 0_0_conv
I0623 12:17:20.737267  5064 net.cpp:347] 0_0_conv_ReLU -> 0_0_conv (in-place)
I0623 12:17:20.737270  5064 net.cpp:98] Setting up 0_0_conv_ReLU
I0623 12:17:20.737273  5064 net.cpp:105] Top shape: 128 32 32 32 (4194304)
I0623 12:17:20.737277  5064 layer_factory.hpp:78] Creating layer 0_1_conv
I0623 12:17:20.737280  5064 net.cpp:69] Creating Layer 0_1_conv
I0623 12:17:20.737282  5064 net.cpp:396] 0_1_conv <- 0_0_conv
I0623 12:17:20.737287  5064 net.cpp:358] 0_1_conv -> 0_1_conv
I0623 12:17:20.737292  5064 net.cpp:98] Setting up 0_1_conv
I0623 12:17:20.737342  5064 net.cpp:105] Top shape: 128 32 32 32 (4194304)
I0623 12:17:20.737349  5064 layer_factory.hpp:78] Creating layer 0_1_conv_ReLU
I0623 12:17:20.737351  5064 net.cpp:69] Creating Layer 0_1_conv_ReLU
I0623 12:17:20.737354  5064 net.cpp:396] 0_1_conv_ReLU <- 0_1_conv
I0623 12:17:20.737360  5064 net.cpp:347] 0_1_conv_ReLU -> 0_1_conv (in-place)
I0623 12:17:20.737365  5064 net.cpp:98] Setting up 0_1_conv_ReLU
I0623 12:17:20.737367  5064 net.cpp:105] Top shape: 128 32 32 32 (4194304)
I0623 12:17:20.737370  5064 layer_factory.hpp:78] Creating layer 0_pool
I0623 12:17:20.737373  5064 net.cpp:69] Creating Layer 0_pool
I0623 12:17:20.737376  5064 net.cpp:396] 0_pool <- 0_1_conv
I0623 12:17:20.737380  5064 net.cpp:358] 0_pool -> 0_pool
I0623 12:17:20.737385  5064 net.cpp:98] Setting up 0_pool
I0623 12:17:20.737388  5064 net.cpp:105] Top shape: 128 32 16 16 (1048576)
I0623 12:17:20.737391  5064 layer_factory.hpp:78] Creating layer 1_0_conv
I0623 12:17:20.737395  5064 net.cpp:69] Creating Layer 1_0_conv
I0623 12:17:20.737397  5064 net.cpp:396] 1_0_conv <- 0_pool
I0623 12:17:20.737401  5064 net.cpp:358] 1_0_conv -> 1_0_conv
I0623 12:17:20.737406  5064 net.cpp:98] Setting up 1_0_conv
I0623 12:17:20.737458  5064 net.cpp:105] Top shape: 128 32 16 16 (1048576)
I0623 12:17:20.737464  5064 layer_factory.hpp:78] Creating layer 1_0_conv_ReLU
I0623 12:17:20.737468  5064 net.cpp:69] Creating Layer 1_0_conv_ReLU
I0623 12:17:20.737471  5064 net.cpp:396] 1_0_conv_ReLU <- 1_0_conv
I0623 12:17:20.737478  5064 net.cpp:347] 1_0_conv_ReLU -> 1_0_conv (in-place)
I0623 12:17:20.737483  5064 net.cpp:98] Setting up 1_0_conv_ReLU
I0623 12:17:20.737485  5064 net.cpp:105] Top shape: 128 32 16 16 (1048576)
I0623 12:17:20.737488  5064 layer_factory.hpp:78] Creating layer 1_1_conv
I0623 12:17:20.737491  5064 net.cpp:69] Creating Layer 1_1_conv
I0623 12:17:20.737494  5064 net.cpp:396] 1_1_conv <- 1_0_conv
I0623 12:17:20.737498  5064 net.cpp:358] 1_1_conv -> 1_1_conv
I0623 12:17:20.737503  5064 net.cpp:98] Setting up 1_1_conv
I0623 12:17:20.737553  5064 net.cpp:105] Top shape: 128 32 16 16 (1048576)
I0623 12:17:20.737558  5064 layer_factory.hpp:78] Creating layer 1_1_conv_ReLU
I0623 12:17:20.737562  5064 net.cpp:69] Creating Layer 1_1_conv_ReLU
I0623 12:17:20.737565  5064 net.cpp:396] 1_1_conv_ReLU <- 1_1_conv
I0623 12:17:20.737568  5064 net.cpp:347] 1_1_conv_ReLU -> 1_1_conv (in-place)
I0623 12:17:20.737571  5064 net.cpp:98] Setting up 1_1_conv_ReLU
I0623 12:17:20.737574  5064 net.cpp:105] Top shape: 128 32 16 16 (1048576)
I0623 12:17:20.737577  5064 layer_factory.hpp:78] Creating layer 1_pool
I0623 12:17:20.737581  5064 net.cpp:69] Creating Layer 1_pool
I0623 12:17:20.737586  5064 net.cpp:396] 1_pool <- 1_1_conv
I0623 12:17:20.737591  5064 net.cpp:358] 1_pool -> 1_pool
I0623 12:17:20.737598  5064 net.cpp:98] Setting up 1_pool
I0623 12:17:20.737602  5064 net.cpp:105] Top shape: 128 32 8 8 (262144)
I0623 12:17:20.737606  5064 layer_factory.hpp:78] Creating layer 2_0_conv
I0623 12:17:20.737608  5064 net.cpp:69] Creating Layer 2_0_conv
I0623 12:17:20.737612  5064 net.cpp:396] 2_0_conv <- 1_pool
I0623 12:17:20.737617  5064 net.cpp:358] 2_0_conv -> 2_0_conv
I0623 12:17:20.737620  5064 net.cpp:98] Setting up 2_0_conv
I0623 12:17:20.737670  5064 net.cpp:105] Top shape: 128 32 8 8 (262144)
I0623 12:17:20.737676  5064 layer_factory.hpp:78] Creating layer 2_0_conv_ReLU
I0623 12:17:20.737680  5064 net.cpp:69] Creating Layer 2_0_conv_ReLU
I0623 12:17:20.737682  5064 net.cpp:396] 2_0_conv_ReLU <- 2_0_conv
I0623 12:17:20.737686  5064 net.cpp:347] 2_0_conv_ReLU -> 2_0_conv (in-place)
I0623 12:17:20.737690  5064 net.cpp:98] Setting up 2_0_conv_ReLU
I0623 12:17:20.737692  5064 net.cpp:105] Top shape: 128 32 8 8 (262144)
I0623 12:17:20.737695  5064 layer_factory.hpp:78] Creating layer 2_1_conv
I0623 12:17:20.737699  5064 net.cpp:69] Creating Layer 2_1_conv
I0623 12:17:20.737702  5064 net.cpp:396] 2_1_conv <- 2_0_conv
I0623 12:17:20.737706  5064 net.cpp:358] 2_1_conv -> 2_1_conv
I0623 12:17:20.737710  5064 net.cpp:98] Setting up 2_1_conv
I0623 12:17:20.737778  5064 net.cpp:105] Top shape: 128 32 8 8 (262144)
I0623 12:17:20.737784  5064 layer_factory.hpp:78] Creating layer 2_1_conv_ReLU
I0623 12:17:20.737802  5064 net.cpp:69] Creating Layer 2_1_conv_ReLU
I0623 12:17:20.737805  5064 net.cpp:396] 2_1_conv_ReLU <- 2_1_conv
I0623 12:17:20.737809  5064 net.cpp:347] 2_1_conv_ReLU -> 2_1_conv (in-place)
I0623 12:17:20.737813  5064 net.cpp:98] Setting up 2_1_conv_ReLU
I0623 12:17:20.737815  5064 net.cpp:105] Top shape: 128 32 8 8 (262144)
I0623 12:17:20.737819  5064 layer_factory.hpp:78] Creating layer 2_pool
I0623 12:17:20.737824  5064 net.cpp:69] Creating Layer 2_pool
I0623 12:17:20.737830  5064 net.cpp:396] 2_pool <- 2_1_conv
I0623 12:17:20.737838  5064 net.cpp:358] 2_pool -> 2_pool
I0623 12:17:20.737844  5064 net.cpp:98] Setting up 2_pool
I0623 12:17:20.737848  5064 net.cpp:105] Top shape: 128 32 4 4 (65536)
I0623 12:17:20.737851  5064 layer_factory.hpp:78] Creating layer middle_conv
I0623 12:17:20.737856  5064 net.cpp:69] Creating Layer middle_conv
I0623 12:17:20.737859  5064 net.cpp:396] middle_conv <- 2_pool
I0623 12:17:20.737862  5064 net.cpp:358] middle_conv -> middle_conv
I0623 12:17:20.737866  5064 net.cpp:98] Setting up middle_conv
I0623 12:17:20.738000  5064 net.cpp:105] Top shape: 128 50 1 1 (6400)
I0623 12:17:20.738005  5064 layer_factory.hpp:78] Creating layer middle_conv_ReLU
I0623 12:17:20.738009  5064 net.cpp:69] Creating Layer middle_conv_ReLU
I0623 12:17:20.738013  5064 net.cpp:396] middle_conv_ReLU <- middle_conv
I0623 12:17:20.738016  5064 net.cpp:347] middle_conv_ReLU -> middle_conv (in-place)
I0623 12:17:20.738020  5064 net.cpp:98] Setting up middle_conv_ReLU
I0623 12:17:20.738023  5064 net.cpp:105] Top shape: 128 50 1 1 (6400)
I0623 12:17:20.738028  5064 layer_factory.hpp:78] Creating layer fc1
I0623 12:17:20.738031  5064 net.cpp:69] Creating Layer fc1
I0623 12:17:20.738034  5064 net.cpp:396] fc1 <- middle_conv
I0623 12:17:20.738039  5064 net.cpp:358] fc1 -> fc1
I0623 12:17:20.738044  5064 net.cpp:98] Setting up fc1
I0623 12:17:20.738178  5064 net.cpp:105] Top shape: 128 512 1 1 (65536)
I0623 12:17:20.738186  5064 layer_factory.hpp:78] Creating layer fc1_Dropout_ReLU
I0623 12:17:20.738190  5064 net.cpp:69] Creating Layer fc1_Dropout_ReLU
I0623 12:17:20.738193  5064 net.cpp:396] fc1_Dropout_ReLU <- fc1
I0623 12:17:20.738198  5064 net.cpp:347] fc1_Dropout_ReLU -> fc1 (in-place)
I0623 12:17:20.738201  5064 net.cpp:98] Setting up fc1_Dropout_ReLU
I0623 12:17:20.738204  5064 net.cpp:105] Top shape: 128 512 1 1 (65536)
I0623 12:17:20.738207  5064 layer_factory.hpp:78] Creating layer fc2
I0623 12:17:20.738212  5064 net.cpp:69] Creating Layer fc2
I0623 12:17:20.738215  5064 net.cpp:396] fc2 <- fc1
I0623 12:17:20.738224  5064 net.cpp:358] fc2 -> fc2
I0623 12:17:20.738229  5064 net.cpp:98] Setting up fc2
I0623 12:17:20.738497  5064 net.cpp:105] Top shape: 128 100 1 1 (12800)
I0623 12:17:20.738507  5064 layer_factory.hpp:78] Creating layer fc2_fc2_0_split
I0623 12:17:20.738512  5064 net.cpp:69] Creating Layer fc2_fc2_0_split
I0623 12:17:20.738514  5064 net.cpp:396] fc2_fc2_0_split <- fc2
I0623 12:17:20.738519  5064 net.cpp:358] fc2_fc2_0_split -> fc2_fc2_0_split_0
I0623 12:17:20.738525  5064 net.cpp:358] fc2_fc2_0_split -> fc2_fc2_0_split_1
I0623 12:17:20.738530  5064 net.cpp:358] fc2_fc2_0_split -> fc2_fc2_0_split_2
I0623 12:17:20.738534  5064 net.cpp:98] Setting up fc2_fc2_0_split
I0623 12:17:20.738538  5064 net.cpp:105] Top shape: 128 100 1 1 (12800)
I0623 12:17:20.738541  5064 net.cpp:105] Top shape: 128 100 1 1 (12800)
I0623 12:17:20.738544  5064 net.cpp:105] Top shape: 128 100 1 1 (12800)
I0623 12:17:20.738548  5064 layer_factory.hpp:78] Creating layer softmax
I0623 12:17:20.738554  5064 net.cpp:69] Creating Layer softmax
I0623 12:17:20.738557  5064 net.cpp:396] softmax <- fc2_fc2_0_split_0
I0623 12:17:20.738560  5064 net.cpp:396] softmax <- label_data_1_split_0
I0623 12:17:20.738566  5064 net.cpp:358] softmax -> softmax
I0623 12:17:20.738572  5064 net.cpp:98] Setting up softmax
I0623 12:17:20.738579  5064 net.cpp:105] Top shape: 1 1 1 1 (1)
I0623 12:17:20.738581  5064 net.cpp:111]     with loss weight 1
I0623 12:17:20.738586  5064 layer_factory.hpp:78] Creating layer accuracy_top_1
I0623 12:17:20.738591  5064 net.cpp:69] Creating Layer accuracy_top_1
I0623 12:17:20.738595  5064 net.cpp:396] accuracy_top_1 <- fc2_fc2_0_split_1
I0623 12:17:20.738597  5064 net.cpp:396] accuracy_top_1 <- label_data_1_split_1
I0623 12:17:20.738602  5064 net.cpp:358] accuracy_top_1 -> accuracy_top_1
I0623 12:17:20.738606  5064 net.cpp:98] Setting up accuracy_top_1
I0623 12:17:20.738610  5064 net.cpp:105] Top shape: 1 1 1 1 (1)
I0623 12:17:20.738613  5064 layer_factory.hpp:78] Creating layer accuracy_top_5
I0623 12:17:20.738617  5064 net.cpp:69] Creating Layer accuracy_top_5
I0623 12:17:20.738621  5064 net.cpp:396] accuracy_top_5 <- fc2_fc2_0_split_2
I0623 12:17:20.738626  5064 net.cpp:396] accuracy_top_5 <- label_data_1_split_2
I0623 12:17:20.738628  5064 net.cpp:358] accuracy_top_5 -> accuracy_top_5
I0623 12:17:20.738633  5064 net.cpp:98] Setting up accuracy_top_5
I0623 12:17:20.738638  5064 net.cpp:105] Top shape: 1 1 1 1 (1)
I0623 12:17:20.738646  5064 net.cpp:174] accuracy_top_5 does not need backward computation.
I0623 12:17:20.738651  5064 net.cpp:174] accuracy_top_1 does not need backward computation.
I0623 12:17:20.738652  5064 net.cpp:172] softmax needs backward computation.
I0623 12:17:20.738656  5064 net.cpp:172] fc2_fc2_0_split needs backward computation.
I0623 12:17:20.738658  5064 net.cpp:172] fc2 needs backward computation.
…
