…
I0614 16:42:39.171445 29190 solver.cpp:70] Creating training net from net file: prototxt/16-06-14_15h51m21s_0_40_reconstructFull_net.sh
I0614 16:42:39.172036 29190 net.cpp:277] The NetState phase (0) differed from the phase (1) specified by a rule in layer data
I0614 16:42:39.172206 29190 net.cpp:39] Initializing net from parameters: 
layers {
  top: "data"
  name: "data"
  type: DATA
  data_param {
    source: "/dataset/cifar100_lmdb_lab/cifar100_train_lmdb"
    batch_size: 750
    backend: LMDB
  }
  include {
    phase: TRAIN
  }
  transform_param {
    mean_file: "/dataset/cifar100_lmdb_lab/mean.binaryproto"
  }
}
layers {
  bottom: "data"
  top: "0_0_conv"
  name: "0_0_conv"
  type: CONVOLUTION
  blobs_lr: 0
  blobs_lr: 0
  weight_decay: 0
  weight_decay: 0
  convolution_param {
    num_output: 16
    pad: 1
    kernel_size: 3
    stride: 1
    weight_filler {
      type: "xavier"
    }
    bias_filler {
      type: "constant"
      value: 0
    }
  }
}
layers {
  bottom: "0_0_conv"
  top: "0_0_conv"
  name: "0_0_conv_ReLU"
  type: RELU
}
layers {
  bottom: "0_0_conv"
  top: "0_1_conv"
  name: "0_1_conv"
  type: CONVOLUTION
  blobs_lr: 0
  blobs_lr: 0
  weight_decay: 0
  weight_decay: 0
  convolution_param {
    num_output: 16
    pad: 1
    kernel_size: 3
    stride: 1
    weight_filler {
      type: "xavier"
    }
    bias_filler {
      type: "constant"
      value: 0
    }
  }
}
layers {
  bottom: "0_1_conv"
  top: "0_1_conv"
  name: "0_1_conv_ReLU"
  type: RELU
}
layers {
  bottom: "0_1_conv"
  top: "0_pool"
  top: "0_pool_mask"
  name: "0_pool"
  type: POOLING
  pooling_param {
    pool: MAX
    kernel_size: 2
    stride: 2
  }
}
layers {
  bottom: "0_pool"
  top: "1_0_conv"
  name: "1_0_conv"
  type: CONVOLUTION
  blobs_lr: 0
  blobs_lr: 0
  weight_decay: 0
  weight_decay: 0
  convolution_param {
    num_output: 16
    pad: 1
    kernel_size: 3
    stride: 1
    weight_filler {
      type: "xavier"
    }
    bias_filler {
      type: "constant"
      value: 0
    }
  }
}
layers {
  bottom: "1_0_conv"
  top: "1_0_conv"
  name: "1_0_conv_ReLU"
  type: RELU
}
layers {
  bottom: "1_0_conv"
  top: "1_1_conv"
  name: "1_1_conv"
  type: CONVOLUTION
  blobs_lr: 0
  blobs_lr: 0
  weight_decay: 0
  weight_decay: 0
  convolution_param {
    num_output: 16
    pad: 1
    kernel_size: 3
    stride: 1
    weight_filler {
      type: "xavier"
    }
    bias_filler {
      type: "constant"
      value: 0
    }
  }
}
layers {
  bottom: "1_1_conv"
  top: "1_1_conv"
  name: "1_1_conv_ReLU"
  type: RELU
}
layers {
  bottom: "1_1_conv"
  top: "1_pool"
  top: "1_pool_mask"
  name: "1_pool"
  type: POOLING
  pooling_param {
    pool: MAX
    kernel_size: 2
    stride: 2
  }
}
layers {
  bottom: "1_pool"
  top: "2_0_conv"
  name: "2_0_conv"
  type: CONVOLUTION
  blobs_lr: 0
  blobs_lr: 0
  weight_decay: 0
  weight_decay: 0
  convolution_param {
    num_output: 16
    pad: 1
    kernel_size: 3
    stride: 1
    weight_filler {
      type: "xavier"
    }
    bias_filler {
      type: "constant"
      value: 0
    }
  }
}
layers {
  bottom: "2_0_conv"
  top: "2_0_conv"
  name: "2_0_conv_ReLU"
  type: RELU
}
layers {
  bottom: "2_0_conv"
  top: "2_1_conv"
  name: "2_1_conv"
  type: CONVOLUTION
  blobs_lr: 0
  blobs_lr: 0
  weight_decay: 0
  weight_decay: 0
  convolution_param {
    num_output: 16
    pad: 1
    kernel_size: 3
    stride: 1
    weight_filler {
      type: "xavier"
    }
    bias_filler {
      type: "constant"
      value: 0
    }
  }
}
layers {
  bottom: "2_1_conv"
  top: "2_1_conv"
  name: "2_1_conv_ReLU"
  type: RELU
}
layers {
  bottom: "2_1_conv"
  top: "2_pool"
  top: "2_pool_mask"
  name: "2_pool"
  type: POOLING
  pooling_param {
    pool: MAX
    kernel_size: 2
    stride: 2
  }
}
layers {
  bottom: "2_pool"
  top: "middle_conv"
  name: "middle_conv"
  type: CONVOLUTION
  blobs_lr: 0
  blobs_lr: 0
  weight_decay: 0
  weight_decay: 0
  convolution_param {
    num_output: 50
    pad: 0
    kernel_size: 4
    stride: 1
    weight_filler {
      type: "xavier"
    }
    bias_filler {
      type: "constant"
      value: 0
    }
  }
}
layers {
  bottom: "middle_conv"
  top: "middle_deconv"
  name: "middle_deconv"
  type: DECONVOLUTION
  blobs_lr: 1
  blobs_lr: 2
  weight_decay: 0
  weight_decay: 0
  convolution_param {
    num_output: 16
    pad: 1
    kernel_size: 4
    stride: 1
    weight_filler {
      type: "xavier"
    }
    bias_filler {
      type: "constant"
      value: 0
    }
  }
}
layers {
  bottom: "middle_deconv"
  bottom: "2_pool_mask"
  top: "2_unpool"
  name: "2_unpool"
  type: UNPOOLING
  unpooling_param {
    unpool: MAX
    kernel_size: 2
    stride: 2
    unpool_size: 8
  }
}
layers {
  bottom: "2_unpool"
  top: "2_1_deconv"
  name: "2_1_deconv"
  type: DECONVOLUTION
  blobs_lr: 1
  blobs_lr: 2
  weight_decay: 0
  weight_decay: 0
  convolution_param {
    num_output: 16
    pad: 1
    kernel_size: 3
    stride: 1
    weight_filler {
      type: "xavier"
    }
    bias_filler {
      type: "constant"
      value: 0
    }
  }
}
layers {
  bottom: "2_1_deconv"
  top: "2_1_deconv"
  name: "2_1_deconv_ReLU"
  type: RELU
}
layers {
  bottom: "2_1_deconv"
  top: "2_0_deconv"
  name: "2_0_deconv"
  type: DECONVOLUTION
  blobs_lr: 1
  blobs_lr: 2
  weight_decay: 0
  weight_decay: 0
  convolution_param {
    num_output: 16
    pad: 1
    kernel_size: 3
    stride: 1
    weight_filler {
      type: "xavier"
    }
    bias_filler {
      type: "constant"
      value: 0
    }
  }
}
layers {
  bottom: "2_0_deconv"
  top: "2_0_deconv"
  name: "2_0_deconv_ReLU"
  type: RELU
}
layers {
  bottom: "2_0_deconv"
  bottom: "1_pool_mask"
  top: "1_unpool"
  name: "1_unpool"
  type: UNPOOLING
  unpooling_param {
    unpool: MAX
    kernel_size: 2
    stride: 2
    unpool_size: 16
  }
}
layers {
  bottom: "1_unpool"
  top: "1_1_deconv"
  name: "1_1_deconv"
  type: DECONVOLUTION
  blobs_lr: 1
  blobs_lr: 2
  weight_decay: 0
  weight_decay: 0
  convolution_param {
    num_output: 16
    pad: 1
    kernel_size: 3
    stride: 1
    weight_filler {
      type: "xavier"
    }
    bias_filler {
      type: "constant"
      value: 0
    }
  }
}
layers {
  bottom: "1_1_deconv"
  top: "1_1_deconv"
  name: "1_1_deconv_ReLU"
  type: RELU
}
layers {
  bottom: "1_1_deconv"
  top: "1_0_deconv"
  name: "1_0_deconv"
  type: DECONVOLUTION
  blobs_lr: 1
  blobs_lr: 2
  weight_decay: 0
  weight_decay: 0
  convolution_param {
    num_output: 16
    pad: 1
    kernel_size: 3
    stride: 1
    weight_filler {
      type: "xavier"
    }
    bias_filler {
      type: "constant"
      value: 0
    }
  }
}
layers {
  bottom: "1_0_deconv"
  top: "1_0_deconv"
  name: "1_0_deconv_ReLU"
  type: RELU
}
layers {
  bottom: "1_0_deconv"
  bottom: "0_pool_mask"
  top: "0_unpool"
  name: "0_unpool"
  type: UNPOOLING
  unpooling_param {
    unpool: MAX
    kernel_size: 2
    stride: 2
    unpool_size: 32
  }
}
layers {
  bottom: "0_unpool"
  top: "0_1_deconv"
  name: "0_1_deconv"
  type: DECONVOLUTION
  blobs_lr: 1
  blobs_lr: 2
  weight_decay: 0
  weight_decay: 0
  convolution_param {
    num_output: 16
    pad: 1
    kernel_size: 3
    stride: 1
    weight_filler {
      type: "xavier"
    }
    bias_filler {
      type: "constant"
      value: 0
    }
  }
}
layers {
  bottom: "0_1_deconv"
  top: "0_1_deconv"
  name: "0_1_deconv_ReLU"
  type: RELU
}
layers {
  bottom: "0_1_deconv"
  top: "0_0_deconv"
  name: "0_0_deconv"
  type: DECONVOLUTION
  blobs_lr: 1
  blobs_lr: 2
  weight_decay: 0
  weight_decay: 0
  convolution_param {
    num_output: 16
    pad: 1
    kernel_size: 3
    stride: 1
    weight_filler {
      type: "xavier"
    }
    bias_filler {
      type: "constant"
      value: 0
    }
  }
}
layers {
  bottom: "0_0_deconv"
  top: "0_0_deconv"
  name: "0_0_deconv_ReLU"
  type: RELU
}
layers {
  bottom: "0_0_deconv"
  top: "reconstruct1"
  name: "reconstruct1"
  type: LOCAL
  blobs_lr: 1
  blobs_lr: 2
  weight_decay: 0
  weight_decay: 0
  local_param {
    num_output: 3
    pad: 0
    kernel_size: 1
    stride: 1
    weight_filler {
      type: "xavier"
    }
    bias_filler {
      type: "constant"
      value: 0
    }
  }
}
layers {
  bottom: "reconstruct1"
  top: "reconstruct2"
  name: "reconstruct2"
  type: LOCAL
  blobs_lr: 1
  blobs_lr: 2
  weight_decay: 0
  weight_decay: 0
  local_param {
    num_output: 3
    pad: 0
    kernel_size: 1
    stride: 1
    weight_filler {
      type: "xavier"
    }
    bias_filler {
      type: "constant"
      value: 0
    }
  }
}
layers {
  bottom: "data"
  bottom: "reconstruct2"
  top: "L2_Loss"
  name: "L2_Loss"
  type: EUCLIDEAN_LOSS
}
state {
  phase: TRAIN
}
I0614 16:42:39.172324 29190 layer_factory.hpp:78] Creating layer data
I0614 16:42:39.172338 29190 data_transformer.cpp:25] Loading mean file from/dataset/cifar100_lmdb_lab/mean.binaryproto
I0614 16:42:39.172384 29190 net.cpp:69] Creating Layer data
I0614 16:42:39.172390 29190 net.cpp:358] data -> data
I0614 16:42:39.172399 29190 net.cpp:98] Setting up data
I0614 16:42:39.172402 29190 data_layer.cpp:32] Opening dataset /dataset/cifar100_lmdb_lab/cifar100_train_lmdb
I0614 16:42:39.172473 29190 data_layer.cpp:71] output data size: 750,3,32,32
I0614 16:42:39.173586 29190 net.cpp:105] Top shape: 750 3 32 32 (2304000)
I0614 16:42:39.173607 29190 layer_factory.hpp:78] Creating layer data_data_0_split
I0614 16:42:39.173616 29190 net.cpp:69] Creating Layer data_data_0_split
I0614 16:42:39.173619 29190 net.cpp:396] data_data_0_split <- data
I0614 16:42:39.173624 29190 net.cpp:358] data_data_0_split -> data_data_0_split_0
I0614 16:42:39.173632 29190 net.cpp:358] data_data_0_split -> data_data_0_split_1
I0614 16:42:39.173638 29190 net.cpp:98] Setting up data_data_0_split
I0614 16:42:39.173643 29190 net.cpp:105] Top shape: 750 3 32 32 (2304000)
I0614 16:42:39.173647 29190 net.cpp:105] Top shape: 750 3 32 32 (2304000)
I0614 16:42:39.173650 29190 layer_factory.hpp:78] Creating layer 0_0_conv
I0614 16:42:39.173656 29190 net.cpp:69] Creating Layer 0_0_conv
I0614 16:42:39.173660 29190 net.cpp:396] 0_0_conv <- data_data_0_split_0
I0614 16:42:39.173666 29190 net.cpp:358] 0_0_conv -> 0_0_conv
I0614 16:42:39.173671 29190 net.cpp:98] Setting up 0_0_conv
I0614 16:42:39.173954 29190 net.cpp:105] Top shape: 750 16 32 32 (12288000)
I0614 16:42:39.173964 29190 layer_factory.hpp:78] Creating layer 0_0_conv_ReLU
I0614 16:42:39.173969 29190 net.cpp:69] Creating Layer 0_0_conv_ReLU
I0614 16:42:39.173971 29190 net.cpp:396] 0_0_conv_ReLU <- 0_0_conv
I0614 16:42:39.173976 29190 net.cpp:347] 0_0_conv_ReLU -> 0_0_conv (in-place)
I0614 16:42:39.173981 29190 net.cpp:98] Setting up 0_0_conv_ReLU
I0614 16:42:39.173985 29190 net.cpp:105] Top shape: 750 16 32 32 (12288000)
I0614 16:42:39.173987 29190 layer_factory.hpp:78] Creating layer 0_1_conv
I0614 16:42:39.173993 29190 net.cpp:69] Creating Layer 0_1_conv
I0614 16:42:39.173995 29190 net.cpp:396] 0_1_conv <- 0_0_conv
I0614 16:42:39.174000 29190 net.cpp:358] 0_1_conv -> 0_1_conv
I0614 16:42:39.174005 29190 net.cpp:98] Setting up 0_1_conv
I0614 16:42:39.174026 29190 net.cpp:105] Top shape: 750 16 32 32 (12288000)
I0614 16:42:39.174031 29190 layer_factory.hpp:78] Creating layer 0_1_conv_ReLU
I0614 16:42:39.174036 29190 net.cpp:69] Creating Layer 0_1_conv_ReLU
I0614 16:42:39.174038 29190 net.cpp:396] 0_1_conv_ReLU <- 0_1_conv
I0614 16:42:39.174042 29190 net.cpp:347] 0_1_conv_ReLU -> 0_1_conv (in-place)
I0614 16:42:39.174046 29190 net.cpp:98] Setting up 0_1_conv_ReLU
I0614 16:42:39.174049 29190 net.cpp:105] Top shape: 750 16 32 32 (12288000)
I0614 16:42:39.174052 29190 layer_factory.hpp:78] Creating layer 0_pool
I0614 16:42:39.174057 29190 net.cpp:69] Creating Layer 0_pool
I0614 16:42:39.174059 29190 net.cpp:396] 0_pool <- 0_1_conv
I0614 16:42:39.174063 29190 net.cpp:358] 0_pool -> 0_pool
I0614 16:42:39.174074 29190 net.cpp:358] 0_pool -> 0_pool_mask
I0614 16:42:39.174079 29190 net.cpp:98] Setting up 0_pool
I0614 16:42:39.174094 29190 net.cpp:105] Top shape: 750 16 16 16 (3072000)
I0614 16:42:39.174098 29190 net.cpp:105] Top shape: 750 16 16 16 (3072000)
I0614 16:42:39.174101 29190 layer_factory.hpp:78] Creating layer 1_0_conv
I0614 16:42:39.174106 29190 net.cpp:69] Creating Layer 1_0_conv
I0614 16:42:39.174109 29190 net.cpp:396] 1_0_conv <- 0_pool
I0614 16:42:39.174114 29190 net.cpp:358] 1_0_conv -> 1_0_conv
I0614 16:42:39.174119 29190 net.cpp:98] Setting up 1_0_conv
I0614 16:42:39.174137 29190 net.cpp:105] Top shape: 750 16 16 16 (3072000)
I0614 16:42:39.174142 29190 layer_factory.hpp:78] Creating layer 1_0_conv_ReLU
I0614 16:42:39.174147 29190 net.cpp:69] Creating Layer 1_0_conv_ReLU
I0614 16:42:39.174150 29190 net.cpp:396] 1_0_conv_ReLU <- 1_0_conv
I0614 16:42:39.174154 29190 net.cpp:347] 1_0_conv_ReLU -> 1_0_conv (in-place)
I0614 16:42:39.174159 29190 net.cpp:98] Setting up 1_0_conv_ReLU
I0614 16:42:39.174161 29190 net.cpp:105] Top shape: 750 16 16 16 (3072000)
I0614 16:42:39.174165 29190 layer_factory.hpp:78] Creating layer 1_1_conv
I0614 16:42:39.174168 29190 net.cpp:69] Creating Layer 1_1_conv
I0614 16:42:39.174171 29190 net.cpp:396] 1_1_conv <- 1_0_conv
I0614 16:42:39.174176 29190 net.cpp:358] 1_1_conv -> 1_1_conv
I0614 16:42:39.174181 29190 net.cpp:98] Setting up 1_1_conv
I0614 16:42:39.174198 29190 net.cpp:105] Top shape: 750 16 16 16 (3072000)
I0614 16:42:39.174203 29190 layer_factory.hpp:78] Creating layer 1_1_conv_ReLU
I0614 16:42:39.174206 29190 net.cpp:69] Creating Layer 1_1_conv_ReLU
I0614 16:42:39.174209 29190 net.cpp:396] 1_1_conv_ReLU <- 1_1_conv
I0614 16:42:39.174214 29190 net.cpp:347] 1_1_conv_ReLU -> 1_1_conv (in-place)
I0614 16:42:39.174218 29190 net.cpp:98] Setting up 1_1_conv_ReLU
I0614 16:42:39.174221 29190 net.cpp:105] Top shape: 750 16 16 16 (3072000)
I0614 16:42:39.174223 29190 layer_factory.hpp:78] Creating layer 1_pool
I0614 16:42:39.174227 29190 net.cpp:69] Creating Layer 1_pool
I0614 16:42:39.174231 29190 net.cpp:396] 1_pool <- 1_1_conv
I0614 16:42:39.174234 29190 net.cpp:358] 1_pool -> 1_pool
I0614 16:42:39.174238 29190 net.cpp:358] 1_pool -> 1_pool_mask
I0614 16:42:39.174243 29190 net.cpp:98] Setting up 1_pool
I0614 16:42:39.174247 29190 net.cpp:105] Top shape: 750 16 8 8 (768000)
I0614 16:42:39.174249 29190 net.cpp:105] Top shape: 750 16 8 8 (768000)
I0614 16:42:39.174252 29190 layer_factory.hpp:78] Creating layer 2_0_conv
I0614 16:42:39.174257 29190 net.cpp:69] Creating Layer 2_0_conv
I0614 16:42:39.174259 29190 net.cpp:396] 2_0_conv <- 1_pool
I0614 16:42:39.174264 29190 net.cpp:358] 2_0_conv -> 2_0_conv
I0614 16:42:39.174268 29190 net.cpp:98] Setting up 2_0_conv
I0614 16:42:39.174291 29190 net.cpp:105] Top shape: 750 16 8 8 (768000)
I0614 16:42:39.174298 29190 layer_factory.hpp:78] Creating layer 2_0_conv_ReLU
I0614 16:42:39.174301 29190 net.cpp:69] Creating Layer 2_0_conv_ReLU
I0614 16:42:39.174304 29190 net.cpp:396] 2_0_conv_ReLU <- 2_0_conv
I0614 16:42:39.174309 29190 net.cpp:347] 2_0_conv_ReLU -> 2_0_conv (in-place)
I0614 16:42:39.174312 29190 net.cpp:98] Setting up 2_0_conv_ReLU
I0614 16:42:39.174315 29190 net.cpp:105] Top shape: 750 16 8 8 (768000)
I0614 16:42:39.174319 29190 layer_factory.hpp:78] Creating layer 2_1_conv
I0614 16:42:39.174324 29190 net.cpp:69] Creating Layer 2_1_conv
I0614 16:42:39.174327 29190 net.cpp:396] 2_1_conv <- 2_0_conv
I0614 16:42:39.174331 29190 net.cpp:358] 2_1_conv -> 2_1_conv
I0614 16:42:39.174335 29190 net.cpp:98] Setting up 2_1_conv
I0614 16:42:39.174352 29190 net.cpp:105] Top shape: 750 16 8 8 (768000)
I0614 16:42:39.174357 29190 layer_factory.hpp:78] Creating layer 2_1_conv_ReLU
I0614 16:42:39.174361 29190 net.cpp:69] Creating Layer 2_1_conv_ReLU
I0614 16:42:39.174365 29190 net.cpp:396] 2_1_conv_ReLU <- 2_1_conv
I0614 16:42:39.174368 29190 net.cpp:347] 2_1_conv_ReLU -> 2_1_conv (in-place)
I0614 16:42:39.174372 29190 net.cpp:98] Setting up 2_1_conv_ReLU
I0614 16:42:39.174376 29190 net.cpp:105] Top shape: 750 16 8 8 (768000)
I0614 16:42:39.174381 29190 layer_factory.hpp:78] Creating layer 2_pool
I0614 16:42:39.174386 29190 net.cpp:69] Creating Layer 2_pool
I0614 16:42:39.174392 29190 net.cpp:396] 2_pool <- 2_1_conv
I0614 16:42:39.174396 29190 net.cpp:358] 2_pool -> 2_pool
I0614 16:42:39.174401 29190 net.cpp:358] 2_pool -> 2_pool_mask
I0614 16:42:39.174406 29190 net.cpp:98] Setting up 2_pool
I0614 16:42:39.174408 29190 net.cpp:105] Top shape: 750 16 4 4 (192000)
I0614 16:42:39.174412 29190 net.cpp:105] Top shape: 750 16 4 4 (192000)
I0614 16:42:39.174414 29190 layer_factory.hpp:78] Creating layer middle_conv
I0614 16:42:39.174419 29190 net.cpp:69] Creating Layer middle_conv
I0614 16:42:39.174422 29190 net.cpp:396] middle_conv <- 2_pool
I0614 16:42:39.174427 29190 net.cpp:358] middle_conv -> middle_conv
I0614 16:42:39.174432 29190 net.cpp:98] Setting up middle_conv
I0614 16:42:39.174497 29190 net.cpp:105] Top shape: 750 50 1 1 (37500)
I0614 16:42:39.174502 29190 layer_factory.hpp:78] Creating layer middle_deconv
I0614 16:42:39.174510 29190 net.cpp:69] Creating Layer middle_deconv
I0614 16:42:39.174512 29190 net.cpp:396] middle_deconv <- middle_conv
I0614 16:42:39.174517 29190 net.cpp:358] middle_deconv -> middle_deconv
I0614 16:42:39.174523 29190 net.cpp:98] Setting up middle_deconv
I0614 16:42:39.174592 29190 net.cpp:105] Top shape: 750 16 2 2 (48000)
I0614 16:42:39.174598 29190 layer_factory.hpp:78] Creating layer 2_unpool
I0614 16:42:39.174603 29190 net.cpp:69] Creating Layer 2_unpool
I0614 16:42:39.174607 29190 net.cpp:396] 2_unpool <- middle_deconv
I0614 16:42:39.174610 29190 net.cpp:396] 2_unpool <- 2_pool_mask
I0614 16:42:39.174614 29190 net.cpp:358] 2_unpool -> 2_unpool
I0614 16:42:39.174618 29190 net.cpp:98] Setting up 2_unpool
I0614 16:42:39.174625 29190 net.cpp:105] Top shape: 750 16 8 8 (768000)
I0614 16:42:39.174628 29190 layer_factory.hpp:78] Creating layer 2_1_deconv
I0614 16:42:39.174636 29190 net.cpp:69] Creating Layer 2_1_deconv
I0614 16:42:39.174639 29190 net.cpp:396] 2_1_deconv <- 2_unpool
I0614 16:42:39.174644 29190 net.cpp:358] 2_1_deconv -> 2_1_deconv
I0614 16:42:39.174649 29190 net.cpp:98] Setting up 2_1_deconv
I0614 16:42:39.174671 29190 net.cpp:105] Top shape: 750 16 8 8 (768000)
I0614 16:42:39.174679 29190 layer_factory.hpp:78] Creating layer 2_1_deconv_ReLU
I0614 16:42:39.174684 29190 net.cpp:69] Creating Layer 2_1_deconv_ReLU
I0614 16:42:39.174686 29190 net.cpp:396] 2_1_deconv_ReLU <- 2_1_deconv
I0614 16:42:39.174690 29190 net.cpp:347] 2_1_deconv_ReLU -> 2_1_deconv (in-place)
I0614 16:42:39.174693 29190 net.cpp:98] Setting up 2_1_deconv_ReLU
I0614 16:42:39.174696 29190 net.cpp:105] Top shape: 750 16 8 8 (768000)
I0614 16:42:39.174700 29190 layer_factory.hpp:78] Creating layer 2_0_deconv
I0614 16:42:39.174705 29190 net.cpp:69] Creating Layer 2_0_deconv
I0614 16:42:39.174707 29190 net.cpp:396] 2_0_deconv <- 2_1_deconv
I0614 16:42:39.174711 29190 net.cpp:358] 2_0_deconv -> 2_0_deconv
I0614 16:42:39.174716 29190 net.cpp:98] Setting up 2_0_deconv
I0614 16:42:39.174736 29190 net.cpp:105] Top shape: 750 16 8 8 (768000)
I0614 16:42:39.174741 29190 layer_factory.hpp:78] Creating layer 2_0_deconv_ReLU
I0614 16:42:39.174744 29190 net.cpp:69] Creating Layer 2_0_deconv_ReLU
I0614 16:42:39.174747 29190 net.cpp:396] 2_0_deconv_ReLU <- 2_0_deconv
I0614 16:42:39.174751 29190 net.cpp:347] 2_0_deconv_ReLU -> 2_0_deconv (in-place)
I0614 16:42:39.174754 29190 net.cpp:98] Setting up 2_0_deconv_ReLU
I0614 16:42:39.174757 29190 net.cpp:105] Top shape: 750 16 8 8 (768000)
I0614 16:42:39.174760 29190 layer_factory.hpp:78] Creating layer 1_unpool
I0614 16:42:39.174764 29190 net.cpp:69] Creating Layer 1_unpool
I0614 16:42:39.174767 29190 net.cpp:396] 1_unpool <- 2_0_deconv
I0614 16:42:39.174770 29190 net.cpp:396] 1_unpool <- 1_pool_mask
I0614 16:42:39.174773 29190 net.cpp:358] 1_unpool -> 1_unpool
I0614 16:42:39.174777 29190 net.cpp:98] Setting up 1_unpool
I0614 16:42:39.174782 29190 net.cpp:105] Top shape: 750 16 16 16 (3072000)
I0614 16:42:39.174784 29190 layer_factory.hpp:78] Creating layer 1_1_deconv
I0614 16:42:39.174789 29190 net.cpp:69] Creating Layer 1_1_deconv
I0614 16:42:39.174794 29190 net.cpp:396] 1_1_deconv <- 1_unpool
I0614 16:42:39.174799 29190 net.cpp:358] 1_1_deconv -> 1_1_deconv
I0614 16:42:39.174808 29190 net.cpp:98] Setting up 1_1_deconv
I0614 16:42:39.174825 29190 net.cpp:105] Top shape: 750 16 16 16 (3072000)
I0614 16:42:39.174830 29190 layer_factory.hpp:78] Creating layer 1_1_deconv_ReLU
I0614 16:42:39.174834 29190 net.cpp:69] Creating Layer 1_1_deconv_ReLU
I0614 16:42:39.174836 29190 net.cpp:396] 1_1_deconv_ReLU <- 1_1_deconv
I0614 16:42:39.174840 29190 net.cpp:347] 1_1_deconv_ReLU -> 1_1_deconv (in-place)
I0614 16:42:39.174844 29190 net.cpp:98] Setting up 1_1_deconv_ReLU
I0614 16:42:39.174847 29190 net.cpp:105] Top shape: 750 16 16 16 (3072000)
I0614 16:42:39.174850 29190 layer_factory.hpp:78] Creating layer 1_0_deconv
I0614 16:42:39.174854 29190 net.cpp:69] Creating Layer 1_0_deconv
I0614 16:42:39.174857 29190 net.cpp:396] 1_0_deconv <- 1_1_deconv
I0614 16:42:39.174861 29190 net.cpp:358] 1_0_deconv -> 1_0_deconv
I0614 16:42:39.174866 29190 net.cpp:98] Setting up 1_0_deconv
I0614 16:42:39.174883 29190 net.cpp:105] Top shape: 750 16 16 16 (3072000)
I0614 16:42:39.174887 29190 layer_factory.hpp:78] Creating layer 1_0_deconv_ReLU
I0614 16:42:39.174891 29190 net.cpp:69] Creating Layer 1_0_deconv_ReLU
I0614 16:42:39.174895 29190 net.cpp:396] 1_0_deconv_ReLU <- 1_0_deconv
I0614 16:42:39.174898 29190 net.cpp:347] 1_0_deconv_ReLU -> 1_0_deconv (in-place)
I0614 16:42:39.174902 29190 net.cpp:98] Setting up 1_0_deconv_ReLU
I0614 16:42:39.174906 29190 net.cpp:105] Top shape: 750 16 16 16 (3072000)
I0614 16:42:39.174908 29190 layer_factory.hpp:78] Creating layer 0_unpool
I0614 16:42:39.174912 29190 net.cpp:69] Creating Layer 0_unpool
I0614 16:42:39.174914 29190 net.cpp:396] 0_unpool <- 1_0_deconv
I0614 16:42:39.174918 29190 net.cpp:396] 0_unpool <- 0_pool_mask
I0614 16:42:39.174921 29190 net.cpp:358] 0_unpool -> 0_unpool
I0614 16:42:39.174926 29190 net.cpp:98] Setting up 0_unpool
I0614 16:42:39.174928 29190 net.cpp:105] Top shape: 750 16 32 32 (12288000)
I0614 16:42:39.174932 29190 layer_factory.hpp:78] Creating layer 0_1_deconv
I0614 16:42:39.174935 29190 net.cpp:69] Creating Layer 0_1_deconv
I0614 16:42:39.174938 29190 net.cpp:396] 0_1_deconv <- 0_unpool
I0614 16:42:39.174942 29190 net.cpp:358] 0_1_deconv -> 0_1_deconv
I0614 16:42:39.174947 29190 net.cpp:98] Setting up 0_1_deconv
I0614 16:42:39.174968 29190 net.cpp:105] Top shape: 750 16 32 32 (12288000)
I0614 16:42:39.174971 29190 layer_factory.hpp:78] Creating layer 0_1_deconv_ReLU
I0614 16:42:39.174975 29190 net.cpp:69] Creating Layer 0_1_deconv_ReLU
I0614 16:42:39.174978 29190 net.cpp:396] 0_1_deconv_ReLU <- 0_1_deconv
I0614 16:42:39.174983 29190 net.cpp:347] 0_1_deconv_ReLU -> 0_1_deconv (in-place)
I0614 16:42:39.174985 29190 net.cpp:98] Setting up 0_1_deconv_ReLU
I0614 16:42:39.174988 29190 net.cpp:105] Top shape: 750 16 32 32 (12288000)
I0614 16:42:39.174991 29190 layer_factory.hpp:78] Creating layer 0_0_deconv
I0614 16:42:39.174998 29190 net.cpp:69] Creating Layer 0_0_deconv
I0614 16:42:39.175001 29190 net.cpp:396] 0_0_deconv <- 0_1_deconv
I0614 16:42:39.175005 29190 net.cpp:358] 0_0_deconv -> 0_0_deconv
I0614 16:42:39.175009 29190 net.cpp:98] Setting up 0_0_deconv
I0614 16:42:39.175027 29190 net.cpp:105] Top shape: 750 16 32 32 (12288000)
I0614 16:42:39.175031 29190 layer_factory.hpp:78] Creating layer 0_0_deconv_ReLU
I0614 16:42:39.175035 29190 net.cpp:69] Creating Layer 0_0_deconv_ReLU
I0614 16:42:39.175038 29190 net.cpp:396] 0_0_deconv_ReLU <- 0_0_deconv
I0614 16:42:39.175048 29190 net.cpp:347] 0_0_deconv_ReLU -> 0_0_deconv (in-place)
I0614 16:42:39.175052 29190 net.cpp:98] Setting up 0_0_deconv_ReLU
I0614 16:42:39.175055 29190 net.cpp:105] Top shape: 750 16 32 32 (12288000)
I0614 16:42:39.175058 29190 layer_factory.hpp:78] Creating layer reconstruct1
I0614 16:42:39.175065 29190 net.cpp:69] Creating Layer reconstruct1
I0614 16:42:39.175068 29190 net.cpp:396] reconstruct1 <- 0_0_deconv
I0614 16:42:39.175076 29190 net.cpp:358] reconstruct1 -> reconstruct1
I0614 16:42:39.175079 29190 net.cpp:98] Setting up reconstruct1
I0614 16:42:39.175336 29190 net.cpp:105] Top shape: 750 3 32 32 (2304000)
I0614 16:42:39.175348 29190 layer_factory.hpp:78] Creating layer reconstruct2
I0614 16:42:39.175354 29190 net.cpp:69] Creating Layer reconstruct2
I0614 16:42:39.175356 29190 net.cpp:396] reconstruct2 <- reconstruct1
I0614 16:42:39.175361 29190 net.cpp:358] reconstruct2 -> reconstruct2
I0614 16:42:39.175366 29190 net.cpp:98] Setting up reconstruct2
I0614 16:42:39.175423 29190 net.cpp:105] Top shape: 750 3 32 32 (2304000)
I0614 16:42:39.175429 29190 layer_factory.hpp:78] Creating layer L2_Loss
I0614 16:42:39.175434 29190 net.cpp:69] Creating Layer L2_Loss
I0614 16:42:39.175437 29190 net.cpp:396] L2_Loss <- data_data_0_split_1
I0614 16:42:39.175441 29190 net.cpp:396] L2_Loss <- reconstruct2
I0614 16:42:39.175444 29190 net.cpp:358] L2_Loss -> L2_Loss
I0614 16:42:39.175449 29190 net.cpp:98] Setting up L2_Loss
I0614 16:42:39.175456 29190 net.cpp:105] Top shape: 1 1 1 1 (1)
I0614 16:42:39.175458 29190 net.cpp:111]     with loss weight 1
I0614 16:42:39.175472 29190 net.cpp:172] L2_Loss needs backward computation.
I0614 16:42:39.175475 29190 net.cpp:172] reconstruct2 needs backward computation.
I0614 16:42:39.175478 29190 net.cpp:172] reconstruct1 needs backward computation.
I0614 16:42:39.175482 29190 net.cpp:172] 0_0_deconv_ReLU needs backward computation.
…
