…
I0615 16:20:27.894354 25174 solver.cpp:70] Creating training net from net file: prototxt/16-06-15_15h49m18s_0_20_reconstructIncremental1_net.sh
I0615 16:20:27.894778 25174 net.cpp:277] The NetState phase (0) differed from the phase (1) specified by a rule in layer data
I0615 16:20:27.894887 25174 net.cpp:39] Initializing net from parameters: 
layers {
  top: "data"
  name: "data"
  type: DATA
  data_param {
    source: "/dataset/cifar100_lmdb_lab/cifar100_train_lmdb"
    batch_size: 512
    backend: LMDB
  }
  include {
    phase: TRAIN
  }
  transform_param {
    mean_file: "/dataset/cifar100_lmdb_lab/mean.binaryproto"
  }
}
layers {
  bottom: "data"
  top: "0_0_conv"
  name: "0_0_conv"
  type: CONVOLUTION
  blobs_lr: 0
  blobs_lr: 0
  weight_decay: 0
  weight_decay: 0
  convolution_param {
    num_output: 8
    pad: 1
    kernel_size: 3
    stride: 1
    weight_filler {
      type: "xavier"
    }
    bias_filler {
      type: "constant"
      value: 0
    }
  }
}
layers {
  bottom: "0_0_conv"
  top: "0_0_conv"
  name: "0_0_conv_ReLU"
  type: RELU
}
layers {
  bottom: "0_0_conv"
  top: "0_1_conv"
  name: "0_1_conv"
  type: CONVOLUTION
  blobs_lr: 0
  blobs_lr: 0
  weight_decay: 0
  weight_decay: 0
  convolution_param {
    num_output: 8
    pad: 1
    kernel_size: 3
    stride: 1
    weight_filler {
      type: "xavier"
    }
    bias_filler {
      type: "constant"
      value: 0
    }
  }
}
layers {
  bottom: "0_1_conv"
  top: "0_1_conv"
  name: "0_1_conv_ReLU"
  type: RELU
}
layers {
  bottom: "0_1_conv"
  top: "0_pool"
  name: "0_pool"
  type: POOLING
  pooling_param {
    pool: MAX
    kernel_size: 2
    stride: 2
  }
}
layers {
  bottom: "0_pool"
  top: "1_0_conv"
  name: "1_0_conv"
  type: CONVOLUTION
  blobs_lr: 0
  blobs_lr: 0
  weight_decay: 0
  weight_decay: 0
  convolution_param {
    num_output: 8
    pad: 1
    kernel_size: 3
    stride: 1
    weight_filler {
      type: "xavier"
    }
    bias_filler {
      type: "constant"
      value: 0
    }
  }
}
layers {
  bottom: "1_0_conv"
  top: "1_0_conv"
  name: "1_0_conv_ReLU"
  type: RELU
}
layers {
  bottom: "1_0_conv"
  top: "1_1_conv"
  name: "1_1_conv"
  type: CONVOLUTION
  blobs_lr: 0
  blobs_lr: 0
  weight_decay: 0
  weight_decay: 0
  convolution_param {
    num_output: 8
    pad: 1
    kernel_size: 3
    stride: 1
    weight_filler {
      type: "xavier"
    }
    bias_filler {
      type: "constant"
      value: 0
    }
  }
}
layers {
  bottom: "1_1_conv"
  top: "1_1_conv"
  name: "1_1_conv_ReLU"
  type: RELU
}
layers {
  bottom: "1_1_conv"
  top: "1_pool"
  name: "1_pool"
  type: POOLING
  pooling_param {
    pool: MAX
    kernel_size: 2
    stride: 2
  }
}
layers {
  bottom: "1_pool"
  top: "2_0_conv"
  name: "2_0_conv"
  type: CONVOLUTION
  blobs_lr: 0
  blobs_lr: 0
  weight_decay: 0
  weight_decay: 0
  convolution_param {
    num_output: 8
    pad: 1
    kernel_size: 3
    stride: 1
    weight_filler {
      type: "xavier"
    }
    bias_filler {
      type: "constant"
      value: 0
    }
  }
}
layers {
  bottom: "2_0_conv"
  top: "2_0_conv"
  name: "2_0_conv_ReLU"
  type: RELU
}
layers {
  bottom: "2_0_conv"
  top: "2_1_conv"
  name: "2_1_conv"
  type: CONVOLUTION
  blobs_lr: 0
  blobs_lr: 0
  weight_decay: 0
  weight_decay: 0
  convolution_param {
    num_output: 8
    pad: 1
    kernel_size: 3
    stride: 1
    weight_filler {
      type: "xavier"
    }
    bias_filler {
      type: "constant"
      value: 0
    }
  }
}
layers {
  bottom: "2_1_conv"
  top: "2_1_conv"
  name: "2_1_conv_ReLU"
  type: RELU
}
layers {
  bottom: "2_1_conv"
  top: "2_pool"
  top: "2_pool_mask"
  name: "2_pool"
  type: POOLING
  pooling_param {
    pool: MAX
    kernel_size: 2
    stride: 2
  }
}
layers {
  bottom: "2_pool"
  top: "middle_conv"
  name: "middle_conv"
  type: CONVOLUTION
  blobs_lr: 0
  blobs_lr: 0
  weight_decay: 0
  weight_decay: 0
  convolution_param {
    num_output: 50
    pad: 0
    kernel_size: 4
    stride: 1
    weight_filler {
      type: "xavier"
    }
    bias_filler {
      type: "constant"
      value: 0
    }
  }
}
layers {
  bottom: "middle_conv"
  top: "middle_deconv"
  name: "middle_deconv"
  type: DECONVOLUTION
  blobs_lr: 1
  blobs_lr: 2
  weight_decay: 0
  weight_decay: 0
  convolution_param {
    num_output: 8
    pad: 1
    kernel_size: 4
    stride: 1
    weight_filler {
      type: "xavier"
    }
    bias_filler {
      type: "constant"
      value: 0
    }
  }
}
layers {
  bottom: "middle_deconv"
  bottom: "2_pool_mask"
  top: "2_unpool"
  name: "2_unpool"
  type: UNPOOLING
  unpooling_param {
    unpool: MAX
    kernel_size: 2
    stride: 2
    unpool_size: 8
  }
}
layers {
  bottom: "2_unpool"
  top: "2_1_deconv"
  name: "2_1_deconv"
  type: DECONVOLUTION
  blobs_lr: 1
  blobs_lr: 2
  weight_decay: 0
  weight_decay: 0
  convolution_param {
    num_output: 8
    pad: 1
    kernel_size: 3
    stride: 1
    weight_filler {
      type: "xavier"
    }
    bias_filler {
      type: "constant"
      value: 0
    }
  }
}
layers {
  bottom: "2_1_deconv"
  top: "2_1_deconv"
  name: "2_1_deconv_ReLU"
  type: RELU
}
layers {
  bottom: "2_1_deconv"
  top: "2_0_deconv"
  name: "2_0_deconv"
  type: DECONVOLUTION
  blobs_lr: 1
  blobs_lr: 2
  weight_decay: 0
  weight_decay: 0
  convolution_param {
    num_output: 8
    pad: 1
    kernel_size: 3
    stride: 1
    weight_filler {
      type: "xavier"
    }
    bias_filler {
      type: "constant"
      value: 0
    }
  }
}
layers {
  bottom: "2_0_deconv"
  top: "2_0_deconv"
  name: "2_0_deconv_ReLU"
  type: RELU
}
layers {
  bottom: "1_pool"
  bottom: "2_0_deconv"
  top: "L2_Loss"
  name: "L2_Loss"
  type: EUCLIDEAN_LOSS
}
state {
  phase: TRAIN
}
I0615 16:20:27.894973 25174 layer_factory.hpp:78] Creating layer data
I0615 16:20:27.894986 25174 data_transformer.cpp:25] Loading mean file from/dataset/cifar100_lmdb_lab/mean.binaryproto
I0615 16:20:27.895032 25174 net.cpp:69] Creating Layer data
I0615 16:20:27.895038 25174 net.cpp:358] data -> data
I0615 16:20:27.895046 25174 net.cpp:98] Setting up data
I0615 16:20:27.895051 25174 data_layer.cpp:32] Opening dataset /dataset/cifar100_lmdb_lab/cifar100_train_lmdb
I0615 16:20:27.895120 25174 data_layer.cpp:71] output data size: 512,3,32,32
I0615 16:20:27.895889 25174 net.cpp:105] Top shape: 512 3 32 32 (1572864)
I0615 16:20:27.895898 25174 layer_factory.hpp:78] Creating layer 0_0_conv
I0615 16:20:27.895905 25174 net.cpp:69] Creating Layer 0_0_conv
I0615 16:20:27.895910 25174 net.cpp:396] 0_0_conv <- data
I0615 16:20:27.895915 25174 net.cpp:358] 0_0_conv -> 0_0_conv
I0615 16:20:27.895922 25174 net.cpp:98] Setting up 0_0_conv
I0615 16:20:27.896271 25174 net.cpp:105] Top shape: 512 8 32 32 (4194304)
I0615 16:20:27.896282 25174 layer_factory.hpp:78] Creating layer 0_0_conv_ReLU
I0615 16:20:27.896287 25174 net.cpp:69] Creating Layer 0_0_conv_ReLU
I0615 16:20:27.896291 25174 net.cpp:396] 0_0_conv_ReLU <- 0_0_conv
I0615 16:20:27.896294 25174 net.cpp:347] 0_0_conv_ReLU -> 0_0_conv (in-place)
I0615 16:20:27.896299 25174 net.cpp:98] Setting up 0_0_conv_ReLU
I0615 16:20:27.896303 25174 net.cpp:105] Top shape: 512 8 32 32 (4194304)
I0615 16:20:27.896306 25174 layer_factory.hpp:78] Creating layer 0_1_conv
I0615 16:20:27.896312 25174 net.cpp:69] Creating Layer 0_1_conv
I0615 16:20:27.896317 25174 net.cpp:396] 0_1_conv <- 0_0_conv
I0615 16:20:27.896320 25174 net.cpp:358] 0_1_conv -> 0_1_conv
I0615 16:20:27.896327 25174 net.cpp:98] Setting up 0_1_conv
I0615 16:20:27.896337 25174 net.cpp:105] Top shape: 512 8 32 32 (4194304)
I0615 16:20:27.896342 25174 layer_factory.hpp:78] Creating layer 0_1_conv_ReLU
I0615 16:20:27.896347 25174 net.cpp:69] Creating Layer 0_1_conv_ReLU
I0615 16:20:27.896354 25174 net.cpp:396] 0_1_conv_ReLU <- 0_1_conv
I0615 16:20:27.896358 25174 net.cpp:347] 0_1_conv_ReLU -> 0_1_conv (in-place)
I0615 16:20:27.896371 25174 net.cpp:98] Setting up 0_1_conv_ReLU
I0615 16:20:27.896374 25174 net.cpp:105] Top shape: 512 8 32 32 (4194304)
I0615 16:20:27.896378 25174 layer_factory.hpp:78] Creating layer 0_pool
I0615 16:20:27.896383 25174 net.cpp:69] Creating Layer 0_pool
I0615 16:20:27.896385 25174 net.cpp:396] 0_pool <- 0_1_conv
I0615 16:20:27.896389 25174 net.cpp:358] 0_pool -> 0_pool
I0615 16:20:27.896394 25174 net.cpp:98] Setting up 0_pool
I0615 16:20:27.896400 25174 net.cpp:105] Top shape: 512 8 16 16 (1048576)
I0615 16:20:27.896404 25174 layer_factory.hpp:78] Creating layer 1_0_conv
I0615 16:20:27.896409 25174 net.cpp:69] Creating Layer 1_0_conv
I0615 16:20:27.896414 25174 net.cpp:396] 1_0_conv <- 0_pool
I0615 16:20:27.896417 25174 net.cpp:358] 1_0_conv -> 1_0_conv
I0615 16:20:27.896422 25174 net.cpp:98] Setting up 1_0_conv
I0615 16:20:27.896435 25174 net.cpp:105] Top shape: 512 8 16 16 (1048576)
I0615 16:20:27.896440 25174 layer_factory.hpp:78] Creating layer 1_0_conv_ReLU
I0615 16:20:27.896445 25174 net.cpp:69] Creating Layer 1_0_conv_ReLU
I0615 16:20:27.896447 25174 net.cpp:396] 1_0_conv_ReLU <- 1_0_conv
I0615 16:20:27.896451 25174 net.cpp:347] 1_0_conv_ReLU -> 1_0_conv (in-place)
I0615 16:20:27.896456 25174 net.cpp:98] Setting up 1_0_conv_ReLU
I0615 16:20:27.896458 25174 net.cpp:105] Top shape: 512 8 16 16 (1048576)
I0615 16:20:27.896461 25174 layer_factory.hpp:78] Creating layer 1_1_conv
I0615 16:20:27.896467 25174 net.cpp:69] Creating Layer 1_1_conv
I0615 16:20:27.896471 25174 net.cpp:396] 1_1_conv <- 1_0_conv
I0615 16:20:27.896476 25174 net.cpp:358] 1_1_conv -> 1_1_conv
I0615 16:20:27.896482 25174 net.cpp:98] Setting up 1_1_conv
I0615 16:20:27.896492 25174 net.cpp:105] Top shape: 512 8 16 16 (1048576)
I0615 16:20:27.896497 25174 layer_factory.hpp:78] Creating layer 1_1_conv_ReLU
I0615 16:20:27.896500 25174 net.cpp:69] Creating Layer 1_1_conv_ReLU
I0615 16:20:27.896503 25174 net.cpp:396] 1_1_conv_ReLU <- 1_1_conv
I0615 16:20:27.896507 25174 net.cpp:347] 1_1_conv_ReLU -> 1_1_conv (in-place)
I0615 16:20:27.896512 25174 net.cpp:98] Setting up 1_1_conv_ReLU
I0615 16:20:27.896514 25174 net.cpp:105] Top shape: 512 8 16 16 (1048576)
I0615 16:20:27.896517 25174 layer_factory.hpp:78] Creating layer 1_pool
I0615 16:20:27.896522 25174 net.cpp:69] Creating Layer 1_pool
I0615 16:20:27.896524 25174 net.cpp:396] 1_pool <- 1_1_conv
I0615 16:20:27.896529 25174 net.cpp:358] 1_pool -> 1_pool
I0615 16:20:27.896533 25174 net.cpp:98] Setting up 1_pool
I0615 16:20:27.896538 25174 net.cpp:105] Top shape: 512 8 8 8 (262144)
I0615 16:20:27.896540 25174 layer_factory.hpp:78] Creating layer 1_pool_1_pool_0_split
I0615 16:20:27.896544 25174 net.cpp:69] Creating Layer 1_pool_1_pool_0_split
I0615 16:20:27.896548 25174 net.cpp:396] 1_pool_1_pool_0_split <- 1_pool
I0615 16:20:27.896551 25174 net.cpp:358] 1_pool_1_pool_0_split -> 1_pool_1_pool_0_split_0
I0615 16:20:27.896556 25174 net.cpp:358] 1_pool_1_pool_0_split -> 1_pool_1_pool_0_split_1
I0615 16:20:27.896561 25174 net.cpp:98] Setting up 1_pool_1_pool_0_split
I0615 16:20:27.896565 25174 net.cpp:105] Top shape: 512 8 8 8 (262144)
I0615 16:20:27.896569 25174 net.cpp:105] Top shape: 512 8 8 8 (262144)
I0615 16:20:27.896571 25174 layer_factory.hpp:78] Creating layer 2_0_conv
I0615 16:20:27.896575 25174 net.cpp:69] Creating Layer 2_0_conv
I0615 16:20:27.896579 25174 net.cpp:396] 2_0_conv <- 1_pool_1_pool_0_split_0
I0615 16:20:27.896585 25174 net.cpp:358] 2_0_conv -> 2_0_conv
I0615 16:20:27.896590 25174 net.cpp:98] Setting up 2_0_conv
I0615 16:20:27.896600 25174 net.cpp:105] Top shape: 512 8 8 8 (262144)
I0615 16:20:27.896610 25174 layer_factory.hpp:78] Creating layer 2_0_conv_ReLU
I0615 16:20:27.896613 25174 net.cpp:69] Creating Layer 2_0_conv_ReLU
I0615 16:20:27.896617 25174 net.cpp:396] 2_0_conv_ReLU <- 2_0_conv
I0615 16:20:27.896621 25174 net.cpp:347] 2_0_conv_ReLU -> 2_0_conv (in-place)
I0615 16:20:27.896625 25174 net.cpp:98] Setting up 2_0_conv_ReLU
I0615 16:20:27.896631 25174 net.cpp:105] Top shape: 512 8 8 8 (262144)
I0615 16:20:27.896634 25174 layer_factory.hpp:78] Creating layer 2_1_conv
I0615 16:20:27.896641 25174 net.cpp:69] Creating Layer 2_1_conv
I0615 16:20:27.896646 25174 net.cpp:396] 2_1_conv <- 2_0_conv
I0615 16:20:27.896649 25174 net.cpp:358] 2_1_conv -> 2_1_conv
I0615 16:20:27.896654 25174 net.cpp:98] Setting up 2_1_conv
I0615 16:20:27.896663 25174 net.cpp:105] Top shape: 512 8 8 8 (262144)
I0615 16:20:27.896668 25174 layer_factory.hpp:78] Creating layer 2_1_conv_ReLU
I0615 16:20:27.896672 25174 net.cpp:69] Creating Layer 2_1_conv_ReLU
I0615 16:20:27.896675 25174 net.cpp:396] 2_1_conv_ReLU <- 2_1_conv
I0615 16:20:27.896678 25174 net.cpp:347] 2_1_conv_ReLU -> 2_1_conv (in-place)
I0615 16:20:27.896682 25174 net.cpp:98] Setting up 2_1_conv_ReLU
I0615 16:20:27.896687 25174 net.cpp:105] Top shape: 512 8 8 8 (262144)
I0615 16:20:27.896689 25174 layer_factory.hpp:78] Creating layer 2_pool
I0615 16:20:27.896694 25174 net.cpp:69] Creating Layer 2_pool
I0615 16:20:27.896697 25174 net.cpp:396] 2_pool <- 2_1_conv
I0615 16:20:27.896703 25174 net.cpp:358] 2_pool -> 2_pool
I0615 16:20:27.896708 25174 net.cpp:358] 2_pool -> 2_pool_mask
I0615 16:20:27.896711 25174 net.cpp:98] Setting up 2_pool
I0615 16:20:27.896715 25174 net.cpp:105] Top shape: 512 8 4 4 (65536)
I0615 16:20:27.896718 25174 net.cpp:105] Top shape: 512 8 4 4 (65536)
I0615 16:20:27.896721 25174 layer_factory.hpp:78] Creating layer middle_conv
I0615 16:20:27.896726 25174 net.cpp:69] Creating Layer middle_conv
I0615 16:20:27.896729 25174 net.cpp:396] middle_conv <- 2_pool
I0615 16:20:27.896734 25174 net.cpp:358] middle_conv -> middle_conv
I0615 16:20:27.896739 25174 net.cpp:98] Setting up middle_conv
I0615 16:20:27.896775 25174 net.cpp:105] Top shape: 512 50 1 1 (25600)
I0615 16:20:27.896780 25174 layer_factory.hpp:78] Creating layer middle_deconv
I0615 16:20:27.896786 25174 net.cpp:69] Creating Layer middle_deconv
I0615 16:20:27.896790 25174 net.cpp:396] middle_deconv <- middle_conv
I0615 16:20:27.896795 25174 net.cpp:358] middle_deconv -> middle_deconv
I0615 16:20:27.896800 25174 net.cpp:98] Setting up middle_deconv
I0615 16:20:27.896836 25174 net.cpp:105] Top shape: 512 8 2 2 (16384)
I0615 16:20:27.896842 25174 layer_factory.hpp:78] Creating layer 2_unpool
I0615 16:20:27.896847 25174 net.cpp:69] Creating Layer 2_unpool
I0615 16:20:27.896849 25174 net.cpp:396] 2_unpool <- middle_deconv
I0615 16:20:27.896853 25174 net.cpp:396] 2_unpool <- 2_pool_mask
I0615 16:20:27.896857 25174 net.cpp:358] 2_unpool -> 2_unpool
I0615 16:20:27.896862 25174 net.cpp:98] Setting up 2_unpool
I0615 16:20:27.896869 25174 net.cpp:105] Top shape: 512 8 8 8 (262144)
I0615 16:20:27.896873 25174 layer_factory.hpp:78] Creating layer 2_1_deconv
I0615 16:20:27.896880 25174 net.cpp:69] Creating Layer 2_1_deconv
I0615 16:20:27.896883 25174 net.cpp:396] 2_1_deconv <- 2_unpool
I0615 16:20:27.896888 25174 net.cpp:358] 2_1_deconv -> 2_1_deconv
I0615 16:20:27.896893 25174 net.cpp:98] Setting up 2_1_deconv
I0615 16:20:27.896904 25174 net.cpp:105] Top shape: 512 8 8 8 (262144)
I0615 16:20:27.896913 25174 layer_factory.hpp:78] Creating layer 2_1_deconv_ReLU
I0615 16:20:27.896917 25174 net.cpp:69] Creating Layer 2_1_deconv_ReLU
I0615 16:20:27.896920 25174 net.cpp:396] 2_1_deconv_ReLU <- 2_1_deconv
I0615 16:20:27.896924 25174 net.cpp:347] 2_1_deconv_ReLU -> 2_1_deconv (in-place)
I0615 16:20:27.896929 25174 net.cpp:98] Setting up 2_1_deconv_ReLU
I0615 16:20:27.896931 25174 net.cpp:105] Top shape: 512 8 8 8 (262144)
I0615 16:20:27.896934 25174 layer_factory.hpp:78] Creating layer 2_0_deconv
I0615 16:20:27.896941 25174 net.cpp:69] Creating Layer 2_0_deconv
I0615 16:20:27.896945 25174 net.cpp:396] 2_0_deconv <- 2_1_deconv
I0615 16:20:27.896950 25174 net.cpp:358] 2_0_deconv -> 2_0_deconv
I0615 16:20:27.896955 25174 net.cpp:98] Setting up 2_0_deconv
I0615 16:20:27.896965 25174 net.cpp:105] Top shape: 512 8 8 8 (262144)
I0615 16:20:27.896968 25174 layer_factory.hpp:78] Creating layer 2_0_deconv_ReLU
I0615 16:20:27.896972 25174 net.cpp:69] Creating Layer 2_0_deconv_ReLU
I0615 16:20:27.896977 25174 net.cpp:396] 2_0_deconv_ReLU <- 2_0_deconv
I0615 16:20:27.896982 25174 net.cpp:347] 2_0_deconv_ReLU -> 2_0_deconv (in-place)
I0615 16:20:27.896991 25174 net.cpp:98] Setting up 2_0_deconv_ReLU
I0615 16:20:27.896993 25174 net.cpp:105] Top shape: 512 8 8 8 (262144)
I0615 16:20:27.896996 25174 layer_factory.hpp:78] Creating layer L2_Loss
I0615 16:20:27.897001 25174 net.cpp:69] Creating Layer L2_Loss
I0615 16:20:27.897004 25174 net.cpp:396] L2_Loss <- 1_pool_1_pool_0_split_1
I0615 16:20:27.897008 25174 net.cpp:396] L2_Loss <- 2_0_deconv
I0615 16:20:27.897012 25174 net.cpp:358] L2_Loss -> L2_Loss
I0615 16:20:27.897017 25174 net.cpp:98] Setting up L2_Loss
I0615 16:20:27.897023 25174 net.cpp:105] Top shape: 1 1 1 1 (1)
I0615 16:20:27.897027 25174 net.cpp:111]     with loss weight 1
I0615 16:20:27.897038 25174 net.cpp:172] L2_Loss needs backward computation.
I0615 16:20:27.897042 25174 net.cpp:172] 2_0_deconv_ReLU needs backward computation.
I0615 16:20:27.897045 25174 net.cpp:172] 2_0_deconv needs backward computation.
I0615 16:20:27.897048 25174 net.cpp:172] 2_1_deconv_ReLU needs backward computation.
…
