…
I0614 15:58:51.832818  2037 net.cpp:277] The NetState phase (0) differed from the phase (1) specified by a rule in layer accuracy_top_1
I0614 15:58:51.832823  2037 net.cpp:277] The NetState phase (0) differed from the phase (1) specified by a rule in layer accuracy_top_5
I0614 15:58:51.832913  2037 net.cpp:39] Initializing net from parameters: 
layers {
  top: "data"
  top: "label"
  name: "data"
  type: DATA
  data_param {
    source: "/dataset/cifar100_lmdb_lab/cifar100_train_lmdb"
    batch_size: 128
    backend: LMDB
  }
  include {
    phase: TRAIN
  }
  transform_param {
    mean_file: "/dataset/cifar100_lmdb_lab/mean.binaryproto"
  }
}
layers {
  bottom: "data"
  top: "0_0_conv"
  name: "0_0_conv"
  type: CONVOLUTION
  blobs_lr: 0
  blobs_lr: 0
  weight_decay: 0
  weight_decay: 0
  convolution_param {
    num_output: 16
    pad: 1
    kernel_size: 3
    stride: 1
    weight_filler {
      type: "xavier"
    }
    bias_filler {
      type: "constant"
      value: 0
    }
  }
}
layers {
  bottom: "0_0_conv"
  top: "0_0_conv"
  name: "0_0_conv_ReLU"
  type: RELU
}
layers {
  bottom: "0_0_conv"
  top: "0_1_conv"
  name: "0_1_conv"
  type: CONVOLUTION
  blobs_lr: 0
  blobs_lr: 0
  weight_decay: 0
  weight_decay: 0
  convolution_param {
    num_output: 16
    pad: 1
    kernel_size: 3
    stride: 1
    weight_filler {
      type: "xavier"
    }
    bias_filler {
      type: "constant"
      value: 0
    }
  }
}
layers {
  bottom: "0_1_conv"
  top: "0_1_conv"
  name: "0_1_conv_ReLU"
  type: RELU
}
layers {
  bottom: "0_1_conv"
  top: "0_pool"
  name: "0_pool"
  type: POOLING
  pooling_param {
    pool: MAX
    kernel_size: 2
    stride: 2
  }
}
layers {
  bottom: "0_pool"
  top: "1_0_conv"
  name: "1_0_conv"
  type: CONVOLUTION
  blobs_lr: 0
  blobs_lr: 0
  weight_decay: 0
  weight_decay: 0
  convolution_param {
    num_output: 16
    pad: 1
    kernel_size: 3
    stride: 1
    weight_filler {
      type: "xavier"
    }
    bias_filler {
      type: "constant"
      value: 0
    }
  }
}
layers {
  bottom: "1_0_conv"
  top: "1_0_conv"
  name: "1_0_conv_ReLU"
  type: RELU
}
layers {
  bottom: "1_0_conv"
  top: "1_1_conv"
  name: "1_1_conv"
  type: CONVOLUTION
  blobs_lr: 0
  blobs_lr: 0
  weight_decay: 0
  weight_decay: 0
  convolution_param {
    num_output: 16
    pad: 1
    kernel_size: 3
    stride: 1
    weight_filler {
      type: "xavier"
    }
    bias_filler {
      type: "constant"
      value: 0
    }
  }
}
layers {
  bottom: "1_1_conv"
  top: "1_1_conv"
  name: "1_1_conv_ReLU"
  type: RELU
}
layers {
  bottom: "1_1_conv"
  top: "1_pool"
  name: "1_pool"
  type: POOLING
  pooling_param {
    pool: MAX
    kernel_size: 2
    stride: 2
  }
}
layers {
  bottom: "1_pool"
  top: "2_0_conv"
  name: "2_0_conv"
  type: CONVOLUTION
  blobs_lr: 0
  blobs_lr: 0
  weight_decay: 0
  weight_decay: 0
  convolution_param {
    num_output: 16
    pad: 1
    kernel_size: 3
    stride: 1
    weight_filler {
      type: "xavier"
    }
    bias_filler {
      type: "constant"
      value: 0
    }
  }
}
layers {
  bottom: "2_0_conv"
  top: "2_0_conv"
  name: "2_0_conv_ReLU"
  type: RELU
}
layers {
  bottom: "2_0_conv"
  top: "2_1_conv"
  name: "2_1_conv"
  type: CONVOLUTION
  blobs_lr: 0
  blobs_lr: 0
  weight_decay: 0
  weight_decay: 0
  convolution_param {
    num_output: 16
    pad: 1
    kernel_size: 3
    stride: 1
    weight_filler {
      type: "xavier"
    }
    bias_filler {
      type: "constant"
      value: 0
    }
  }
}
layers {
  bottom: "2_1_conv"
  top: "2_1_conv"
  name: "2_1_conv_ReLU"
  type: RELU
}
layers {
  bottom: "2_1_conv"
  top: "2_pool"
  name: "2_pool"
  type: POOLING
  pooling_param {
    pool: MAX
    kernel_size: 2
    stride: 2
  }
}
layers {
  bottom: "2_pool"
  top: "middle_conv"
  name: "middle_conv"
  type: CONVOLUTION
  blobs_lr: 0
  blobs_lr: 0
  weight_decay: 0
  weight_decay: 0
  convolution_param {
    num_output: 50
    pad: 0
    kernel_size: 4
    stride: 1
    weight_filler {
      type: "xavier"
    }
    bias_filler {
      type: "constant"
      value: 0
    }
  }
}
layers {
  bottom: "middle_conv"
  top: "middle_conv"
  name: "middle_conv_ReLU"
  type: RELU
}
layers {
  bottom: "middle_conv"
  top: "fc1"
  name: "fc1"
  type: INNER_PRODUCT
  blobs_lr: 0
  blobs_lr: 0
  weight_decay: 0
  weight_decay: 0
  inner_product_param {
    num_output: 512
    weight_filler {
      type: "xavier"
    }
    bias_filler {
      type: "constant"
      value: 0
    }
  }
}
layers {
  bottom: "fc1"
  top: "fc1"
  name: "fc1_Dropout"
  type: DROPOUT
  dropout_param {
    dropout_ratio: 0.5
  }
  include {
    phase: TRAIN
  }
}
layers {
  bottom: "fc1"
  top: "fc1"
  name: "fc1_Dropout_ReLU"
  type: RELU
}
layers {
  bottom: "fc1"
  top: "fc2"
  name: "fc2"
  type: INNER_PRODUCT
  blobs_lr: 1
  blobs_lr: 2
  weight_decay: 0
  weight_decay: 0
  inner_product_param {
    num_output: 100
    weight_filler {
      type: "xavier"
    }
    bias_filler {
      type: "constant"
      value: 0
    }
  }
}
layers {
  bottom: "fc2"
  bottom: "label"
  top: "softmax"
  name: "softmax"
  type: SOFTMAX_LOSS
}
state {
  phase: TRAIN
}
I0614 15:58:51.832983  2037 layer_factory.hpp:78] Creating layer data
I0614 15:58:51.832995  2037 data_transformer.cpp:25] Loading mean file from/dataset/cifar100_lmdb_lab/mean.binaryproto
I0614 15:58:51.833041  2037 net.cpp:69] Creating Layer data
I0614 15:58:51.833046  2037 net.cpp:358] data -> data
I0614 15:58:51.833055  2037 net.cpp:358] data -> label
I0614 15:58:51.833060  2037 net.cpp:98] Setting up data
I0614 15:58:51.833063  2037 data_layer.cpp:32] Opening dataset /dataset/cifar100_lmdb_lab/cifar100_train_lmdb
I0614 15:58:51.833132  2037 data_layer.cpp:71] output data size: 128,3,32,32
I0614 15:58:51.833448  2037 net.cpp:105] Top shape: 128 3 32 32 (393216)
I0614 15:58:51.833456  2037 net.cpp:105] Top shape: 128 1 1 1 (128)
I0614 15:58:51.833458  2037 layer_factory.hpp:78] Creating layer 0_0_conv
I0614 15:58:51.833463  2037 net.cpp:69] Creating Layer 0_0_conv
I0614 15:58:51.833467  2037 net.cpp:396] 0_0_conv <- data
I0614 15:58:51.833475  2037 net.cpp:358] 0_0_conv -> 0_0_conv
I0614 15:58:51.833482  2037 net.cpp:98] Setting up 0_0_conv
I0614 15:58:51.833745  2037 net.cpp:105] Top shape: 128 16 32 32 (2097152)
I0614 15:58:51.833760  2037 layer_factory.hpp:78] Creating layer 0_0_conv_ReLU
I0614 15:58:51.833765  2037 net.cpp:69] Creating Layer 0_0_conv_ReLU
I0614 15:58:51.833767  2037 net.cpp:396] 0_0_conv_ReLU <- 0_0_conv
I0614 15:58:51.833771  2037 net.cpp:347] 0_0_conv_ReLU -> 0_0_conv (in-place)
I0614 15:58:51.833775  2037 net.cpp:98] Setting up 0_0_conv_ReLU
I0614 15:58:51.833778  2037 net.cpp:105] Top shape: 128 16 32 32 (2097152)
I0614 15:58:51.833781  2037 layer_factory.hpp:78] Creating layer 0_1_conv
I0614 15:58:51.833786  2037 net.cpp:69] Creating Layer 0_1_conv
I0614 15:58:51.833787  2037 net.cpp:396] 0_1_conv <- 0_0_conv
I0614 15:58:51.833792  2037 net.cpp:358] 0_1_conv -> 0_1_conv
I0614 15:58:51.833797  2037 net.cpp:98] Setting up 0_1_conv
I0614 15:58:51.833822  2037 net.cpp:105] Top shape: 128 16 32 32 (2097152)
I0614 15:58:51.833827  2037 layer_factory.hpp:78] Creating layer 0_1_conv_ReLU
I0614 15:58:51.833830  2037 net.cpp:69] Creating Layer 0_1_conv_ReLU
I0614 15:58:51.833833  2037 net.cpp:396] 0_1_conv_ReLU <- 0_1_conv
I0614 15:58:51.833838  2037 net.cpp:347] 0_1_conv_ReLU -> 0_1_conv (in-place)
I0614 15:58:51.833844  2037 net.cpp:98] Setting up 0_1_conv_ReLU
I0614 15:58:51.833853  2037 net.cpp:105] Top shape: 128 16 32 32 (2097152)
I0614 15:58:51.833855  2037 layer_factory.hpp:78] Creating layer 0_pool
I0614 15:58:51.833858  2037 net.cpp:69] Creating Layer 0_pool
I0614 15:58:51.833861  2037 net.cpp:396] 0_pool <- 0_1_conv
I0614 15:58:51.833865  2037 net.cpp:358] 0_pool -> 0_pool
I0614 15:58:51.833870  2037 net.cpp:98] Setting up 0_pool
I0614 15:58:51.833876  2037 net.cpp:105] Top shape: 128 16 16 16 (524288)
I0614 15:58:51.833879  2037 layer_factory.hpp:78] Creating layer 1_0_conv
I0614 15:58:51.833883  2037 net.cpp:69] Creating Layer 1_0_conv
I0614 15:58:51.833885  2037 net.cpp:396] 1_0_conv <- 0_pool
I0614 15:58:51.833889  2037 net.cpp:358] 1_0_conv -> 1_0_conv
I0614 15:58:51.833894  2037 net.cpp:98] Setting up 1_0_conv
I0614 15:58:51.833914  2037 net.cpp:105] Top shape: 128 16 16 16 (524288)
I0614 15:58:51.833920  2037 layer_factory.hpp:78] Creating layer 1_0_conv_ReLU
I0614 15:58:51.833922  2037 net.cpp:69] Creating Layer 1_0_conv_ReLU
I0614 15:58:51.833925  2037 net.cpp:396] 1_0_conv_ReLU <- 1_0_conv
I0614 15:58:51.833930  2037 net.cpp:347] 1_0_conv_ReLU -> 1_0_conv (in-place)
I0614 15:58:51.833933  2037 net.cpp:98] Setting up 1_0_conv_ReLU
I0614 15:58:51.833935  2037 net.cpp:105] Top shape: 128 16 16 16 (524288)
I0614 15:58:51.833938  2037 layer_factory.hpp:78] Creating layer 1_1_conv
I0614 15:58:51.833942  2037 net.cpp:69] Creating Layer 1_1_conv
I0614 15:58:51.833945  2037 net.cpp:396] 1_1_conv <- 1_0_conv
I0614 15:58:51.833950  2037 net.cpp:358] 1_1_conv -> 1_1_conv
I0614 15:58:51.833955  2037 net.cpp:98] Setting up 1_1_conv
I0614 15:58:51.833971  2037 net.cpp:105] Top shape: 128 16 16 16 (524288)
I0614 15:58:51.833976  2037 layer_factory.hpp:78] Creating layer 1_1_conv_ReLU
I0614 15:58:51.833978  2037 net.cpp:69] Creating Layer 1_1_conv_ReLU
I0614 15:58:51.833981  2037 net.cpp:396] 1_1_conv_ReLU <- 1_1_conv
I0614 15:58:51.833984  2037 net.cpp:347] 1_1_conv_ReLU -> 1_1_conv (in-place)
I0614 15:58:51.833988  2037 net.cpp:98] Setting up 1_1_conv_ReLU
I0614 15:58:51.833991  2037 net.cpp:105] Top shape: 128 16 16 16 (524288)
I0614 15:58:51.833993  2037 layer_factory.hpp:78] Creating layer 1_pool
I0614 15:58:51.833997  2037 net.cpp:69] Creating Layer 1_pool
I0614 15:58:51.833999  2037 net.cpp:396] 1_pool <- 1_1_conv
I0614 15:58:51.834002  2037 net.cpp:358] 1_pool -> 1_pool
I0614 15:58:51.834007  2037 net.cpp:98] Setting up 1_pool
I0614 15:58:51.834009  2037 net.cpp:105] Top shape: 128 16 8 8 (131072)
I0614 15:58:51.834012  2037 layer_factory.hpp:78] Creating layer 2_0_conv
I0614 15:58:51.834017  2037 net.cpp:69] Creating Layer 2_0_conv
I0614 15:58:51.834019  2037 net.cpp:396] 2_0_conv <- 1_pool
I0614 15:58:51.834024  2037 net.cpp:358] 2_0_conv -> 2_0_conv
I0614 15:58:51.834028  2037 net.cpp:98] Setting up 2_0_conv
I0614 15:58:51.834046  2037 net.cpp:105] Top shape: 128 16 8 8 (131072)
I0614 15:58:51.834053  2037 layer_factory.hpp:78] Creating layer 2_0_conv_ReLU
I0614 15:58:51.834055  2037 net.cpp:69] Creating Layer 2_0_conv_ReLU
I0614 15:58:51.834059  2037 net.cpp:396] 2_0_conv_ReLU <- 2_0_conv
I0614 15:58:51.834062  2037 net.cpp:347] 2_0_conv_ReLU -> 2_0_conv (in-place)
I0614 15:58:51.834065  2037 net.cpp:98] Setting up 2_0_conv_ReLU
I0614 15:58:51.834069  2037 net.cpp:105] Top shape: 128 16 8 8 (131072)
I0614 15:58:51.834070  2037 layer_factory.hpp:78] Creating layer 2_1_conv
I0614 15:58:51.834074  2037 net.cpp:69] Creating Layer 2_1_conv
I0614 15:58:51.834076  2037 net.cpp:396] 2_1_conv <- 2_0_conv
I0614 15:58:51.834080  2037 net.cpp:358] 2_1_conv -> 2_1_conv
I0614 15:58:51.834084  2037 net.cpp:98] Setting up 2_1_conv
I0614 15:58:51.834102  2037 net.cpp:105] Top shape: 128 16 8 8 (131072)
I0614 15:58:51.834107  2037 layer_factory.hpp:78] Creating layer 2_1_conv_ReLU
I0614 15:58:51.834110  2037 net.cpp:69] Creating Layer 2_1_conv_ReLU
I0614 15:58:51.834112  2037 net.cpp:396] 2_1_conv_ReLU <- 2_1_conv
I0614 15:58:51.834116  2037 net.cpp:347] 2_1_conv_ReLU -> 2_1_conv (in-place)
I0614 15:58:51.834121  2037 net.cpp:98] Setting up 2_1_conv_ReLU
I0614 15:58:51.834125  2037 net.cpp:105] Top shape: 128 16 8 8 (131072)
I0614 15:58:51.834131  2037 layer_factory.hpp:78] Creating layer 2_pool
I0614 15:58:51.834136  2037 net.cpp:69] Creating Layer 2_pool
I0614 15:58:51.834137  2037 net.cpp:396] 2_pool <- 2_1_conv
I0614 15:58:51.834142  2037 net.cpp:358] 2_pool -> 2_pool
I0614 15:58:51.834146  2037 net.cpp:98] Setting up 2_pool
I0614 15:58:51.834149  2037 net.cpp:105] Top shape: 128 16 4 4 (32768)
I0614 15:58:51.834152  2037 layer_factory.hpp:78] Creating layer middle_conv
I0614 15:58:51.834156  2037 net.cpp:69] Creating Layer middle_conv
I0614 15:58:51.834159  2037 net.cpp:396] middle_conv <- 2_pool
I0614 15:58:51.834162  2037 net.cpp:358] middle_conv -> middle_conv
I0614 15:58:51.834167  2037 net.cpp:98] Setting up middle_conv
I0614 15:58:51.834234  2037 net.cpp:105] Top shape: 128 50 1 1 (6400)
I0614 15:58:51.834239  2037 layer_factory.hpp:78] Creating layer middle_conv_ReLU
I0614 15:58:51.834244  2037 net.cpp:69] Creating Layer middle_conv_ReLU
I0614 15:58:51.834245  2037 net.cpp:396] middle_conv_ReLU <- middle_conv
I0614 15:58:51.834249  2037 net.cpp:347] middle_conv_ReLU -> middle_conv (in-place)
I0614 15:58:51.834252  2037 net.cpp:98] Setting up middle_conv_ReLU
I0614 15:58:51.834255  2037 net.cpp:105] Top shape: 128 50 1 1 (6400)
I0614 15:58:51.834259  2037 layer_factory.hpp:78] Creating layer fc1
I0614 15:58:51.834261  2037 net.cpp:69] Creating Layer fc1
I0614 15:58:51.834264  2037 net.cpp:396] fc1 <- middle_conv
I0614 15:58:51.834270  2037 net.cpp:358] fc1 -> fc1
I0614 15:58:51.834275  2037 net.cpp:98] Setting up fc1
I0614 15:58:51.834406  2037 net.cpp:105] Top shape: 128 512 1 1 (65536)
I0614 15:58:51.834411  2037 layer_factory.hpp:78] Creating layer fc1_Dropout
I0614 15:58:51.834416  2037 net.cpp:69] Creating Layer fc1_Dropout
I0614 15:58:51.834419  2037 net.cpp:396] fc1_Dropout <- fc1
I0614 15:58:51.834424  2037 net.cpp:347] fc1_Dropout -> fc1 (in-place)
I0614 15:58:51.834429  2037 net.cpp:98] Setting up fc1_Dropout
I0614 15:58:51.834431  2037 net.cpp:105] Top shape: 128 512 1 1 (65536)
I0614 15:58:51.834434  2037 layer_factory.hpp:78] Creating layer fc1_Dropout_ReLU
I0614 15:58:51.834437  2037 net.cpp:69] Creating Layer fc1_Dropout_ReLU
I0614 15:58:51.834439  2037 net.cpp:396] fc1_Dropout_ReLU <- fc1
I0614 15:58:51.834444  2037 net.cpp:347] fc1_Dropout_ReLU -> fc1 (in-place)
I0614 15:58:51.834446  2037 net.cpp:98] Setting up fc1_Dropout_ReLU
I0614 15:58:51.834450  2037 net.cpp:105] Top shape: 128 512 1 1 (65536)
I0614 15:58:51.834451  2037 layer_factory.hpp:78] Creating layer fc2
I0614 15:58:51.834455  2037 net.cpp:69] Creating Layer fc2
I0614 15:58:51.834457  2037 net.cpp:396] fc2 <- fc1
I0614 15:58:51.834462  2037 net.cpp:358] fc2 -> fc2
I0614 15:58:51.834466  2037 net.cpp:98] Setting up fc2
I0614 15:58:51.834727  2037 net.cpp:105] Top shape: 128 100 1 1 (12800)
I0614 15:58:51.834733  2037 layer_factory.hpp:78] Creating layer softmax
I0614 15:58:51.834740  2037 net.cpp:69] Creating Layer softmax
I0614 15:58:51.834743  2037 net.cpp:396] softmax <- fc2
I0614 15:58:51.834748  2037 net.cpp:396] softmax <- label
I0614 15:58:51.834751  2037 net.cpp:358] softmax -> softmax
I0614 15:58:51.834755  2037 net.cpp:98] Setting up softmax
I0614 15:58:51.834770  2037 net.cpp:105] Top shape: 1 1 1 1 (1)
I0614 15:58:51.834774  2037 net.cpp:111]     with loss weight 1
I0614 15:58:51.834785  2037 net.cpp:172] softmax needs backward computation.
I0614 15:58:51.834789  2037 net.cpp:172] fc2 needs backward computation.
I0614 15:58:51.834790  2037 net.cpp:174] fc1_Dropout_ReLU does not need backward computation.
I0614 15:58:51.834794  2037 net.cpp:174] fc1_Dropout does not need backward computation.
…
I0614 15:58:51.835304  2037 net.cpp:277] The NetState phase (1) differed from the phase (0) specified by a rule in layer data
I0614 15:58:51.835314  2037 net.cpp:277] The NetState phase (1) differed from the phase (0) specified by a rule in layer fc1_Dropout
I0614 15:58:51.835402  2037 net.cpp:39] Initializing net from parameters: 
layers {
  top: "data"
  top: "label"
  name: "data"
  type: DATA
  data_param {
    source: "/dataset/cifar100_lmdb_lab/cifar100_test_lmdb"
    batch_size: 128
    backend: LMDB
  }
  include {
    phase: TEST
  }
  transform_param {
    mean_file: "/dataset/cifar100_lmdb_lab/mean.binaryproto"
  }
}
layers {
  bottom: "data"
  top: "0_0_conv"
  name: "0_0_conv"
  type: CONVOLUTION
  blobs_lr: 0
  blobs_lr: 0
  weight_decay: 0
  weight_decay: 0
  convolution_param {
    num_output: 16
    pad: 1
    kernel_size: 3
    stride: 1
    weight_filler {
      type: "xavier"
    }
    bias_filler {
      type: "constant"
      value: 0
    }
  }
}
layers {
  bottom: "0_0_conv"
  top: "0_0_conv"
  name: "0_0_conv_ReLU"
  type: RELU
}
layers {
  bottom: "0_0_conv"
  top: "0_1_conv"
  name: "0_1_conv"
  type: CONVOLUTION
  blobs_lr: 0
  blobs_lr: 0
  weight_decay: 0
  weight_decay: 0
  convolution_param {
    num_output: 16
    pad: 1
    kernel_size: 3
    stride: 1
    weight_filler {
      type: "xavier"
    }
    bias_filler {
      type: "constant"
      value: 0
    }
  }
}
layers {
  bottom: "0_1_conv"
  top: "0_1_conv"
  name: "0_1_conv_ReLU"
  type: RELU
}
layers {
  bottom: "0_1_conv"
  top: "0_pool"
  name: "0_pool"
  type: POOLING
  pooling_param {
    pool: MAX
    kernel_size: 2
    stride: 2
  }
}
layers {
  bottom: "0_pool"
  top: "1_0_conv"
  name: "1_0_conv"
  type: CONVOLUTION
  blobs_lr: 0
  blobs_lr: 0
  weight_decay: 0
  weight_decay: 0
  convolution_param {
    num_output: 16
    pad: 1
    kernel_size: 3
    stride: 1
    weight_filler {
      type: "xavier"
    }
    bias_filler {
      type: "constant"
      value: 0
    }
  }
}
layers {
  bottom: "1_0_conv"
  top: "1_0_conv"
  name: "1_0_conv_ReLU"
  type: RELU
}
layers {
  bottom: "1_0_conv"
  top: "1_1_conv"
  name: "1_1_conv"
  type: CONVOLUTION
  blobs_lr: 0
  blobs_lr: 0
  weight_decay: 0
  weight_decay: 0
  convolution_param {
    num_output: 16
    pad: 1
    kernel_size: 3
    stride: 1
    weight_filler {
      type: "xavier"
    }
    bias_filler {
      type: "constant"
      value: 0
    }
  }
}
layers {
  bottom: "1_1_conv"
  top: "1_1_conv"
  name: "1_1_conv_ReLU"
  type: RELU
}
layers {
  bottom: "1_1_conv"
  top: "1_pool"
  name: "1_pool"
  type: POOLING
  pooling_param {
    pool: MAX
    kernel_size: 2
    stride: 2
  }
}
layers {
  bottom: "1_pool"
  top: "2_0_conv"
  name: "2_0_conv"
  type: CONVOLUTION
  blobs_lr: 0
  blobs_lr: 0
  weight_decay: 0
  weight_decay: 0
  convolution_param {
    num_output: 16
    pad: 1
    kernel_size: 3
    stride: 1
    weight_filler {
      type: "xavier"
    }
    bias_filler {
      type: "constant"
      value: 0
    }
  }
}
layers {
  bottom: "2_0_conv"
  top: "2_0_conv"
  name: "2_0_conv_ReLU"
  type: RELU
}
layers {
  bottom: "2_0_conv"
  top: "2_1_conv"
  name: "2_1_conv"
  type: CONVOLUTION
  blobs_lr: 0
  blobs_lr: 0
  weight_decay: 0
  weight_decay: 0
  convolution_param {
    num_output: 16
    pad: 1
    kernel_size: 3
    stride: 1
    weight_filler {
      type: "xavier"
    }
    bias_filler {
      type: "constant"
      value: 0
    }
  }
}
layers {
  bottom: "2_1_conv"
  top: "2_1_conv"
  name: "2_1_conv_ReLU"
  type: RELU
}
layers {
  bottom: "2_1_conv"
  top: "2_pool"
  name: "2_pool"
  type: POOLING
  pooling_param {
    pool: MAX
    kernel_size: 2
    stride: 2
  }
}
layers {
  bottom: "2_pool"
  top: "middle_conv"
  name: "middle_conv"
  type: CONVOLUTION
  blobs_lr: 0
  blobs_lr: 0
  weight_decay: 0
  weight_decay: 0
  convolution_param {
    num_output: 50
    pad: 0
    kernel_size: 4
    stride: 1
    weight_filler {
      type: "xavier"
    }
    bias_filler {
      type: "constant"
      value: 0
    }
  }
}
layers {
  bottom: "middle_conv"
  top: "middle_conv"
  name: "middle_conv_ReLU"
  type: RELU
}
layers {
  bottom: "middle_conv"
  top: "fc1"
  name: "fc1"
  type: INNER_PRODUCT
  blobs_lr: 0
  blobs_lr: 0
  weight_decay: 0
  weight_decay: 0
  inner_product_param {
    num_output: 512
    weight_filler {
      type: "xavier"
    }
    bias_filler {
      type: "constant"
      value: 0
    }
  }
}
layers {
  bottom: "fc1"
  top: "fc1"
  name: "fc1_Dropout_ReLU"
  type: RELU
}
layers {
  bottom: "fc1"
  top: "fc2"
  name: "fc2"
  type: INNER_PRODUCT
  blobs_lr: 1
  blobs_lr: 2
  weight_decay: 0
  weight_decay: 0
  inner_product_param {
    num_output: 100
    weight_filler {
      type: "xavier"
    }
    bias_filler {
      type: "constant"
      value: 0
    }
  }
}
layers {
  bottom: "fc2"
  bottom: "label"
  top: "softmax"
  name: "softmax"
  type: SOFTMAX_LOSS
}
layers {
  bottom: "fc2"
  bottom: "label"
  top: "accuracy_top_1"
  name: "accuracy_top_1"
  type: ACCURACY
  accuracy_param {
    top_k: 1
  }
  include {
    phase: TEST
  }
}
layers {
  bottom: "fc2"
  bottom: "label"
  top: "accuracy_top_5"
  name: "accuracy_top_5"
  type: ACCURACY
  accuracy_param {
    top_k: 5
  }
  include {
    phase: TEST
  }
}
state {
  phase: TEST
}
I0614 15:58:51.835479  2037 layer_factory.hpp:78] Creating layer data
I0614 15:58:51.835485  2037 data_transformer.cpp:25] Loading mean file from/dataset/cifar100_lmdb_lab/mean.binaryproto
I0614 15:58:51.835515  2037 net.cpp:69] Creating Layer data
I0614 15:58:51.835520  2037 net.cpp:358] data -> data
I0614 15:58:51.835525  2037 net.cpp:358] data -> label
I0614 15:58:51.835530  2037 net.cpp:98] Setting up data
I0614 15:58:51.835533  2037 data_layer.cpp:32] Opening dataset /dataset/cifar100_lmdb_lab/cifar100_test_lmdb
I0614 15:58:51.835575  2037 data_layer.cpp:71] output data size: 128,3,32,32
I0614 15:58:51.835924  2037 net.cpp:105] Top shape: 128 3 32 32 (393216)
I0614 15:58:51.835942  2037 net.cpp:105] Top shape: 128 1 1 1 (128)
I0614 15:58:51.835947  2037 layer_factory.hpp:78] Creating layer label_data_1_split
I0614 15:58:51.835952  2037 net.cpp:69] Creating Layer label_data_1_split
I0614 15:58:51.835955  2037 net.cpp:396] label_data_1_split <- label
I0614 15:58:51.835964  2037 net.cpp:358] label_data_1_split -> label_data_1_split_0
I0614 15:58:51.835974  2037 net.cpp:358] label_data_1_split -> label_data_1_split_1
I0614 15:58:51.835988  2037 net.cpp:358] label_data_1_split -> label_data_1_split_2
I0614 15:58:51.835997  2037 net.cpp:98] Setting up label_data_1_split
I0614 15:58:51.836001  2037 net.cpp:105] Top shape: 128 1 1 1 (128)
I0614 15:58:51.836004  2037 net.cpp:105] Top shape: 128 1 1 1 (128)
I0614 15:58:51.836007  2037 net.cpp:105] Top shape: 128 1 1 1 (128)
I0614 15:58:51.836010  2037 layer_factory.hpp:78] Creating layer 0_0_conv
I0614 15:58:51.836015  2037 net.cpp:69] Creating Layer 0_0_conv
I0614 15:58:51.836019  2037 net.cpp:396] 0_0_conv <- data
I0614 15:58:51.836024  2037 net.cpp:358] 0_0_conv -> 0_0_conv
I0614 15:58:51.836027  2037 net.cpp:98] Setting up 0_0_conv
I0614 15:58:51.836045  2037 net.cpp:105] Top shape: 128 16 32 32 (2097152)
I0614 15:58:51.836051  2037 layer_factory.hpp:78] Creating layer 0_0_conv_ReLU
I0614 15:58:51.836055  2037 net.cpp:69] Creating Layer 0_0_conv_ReLU
I0614 15:58:51.836057  2037 net.cpp:396] 0_0_conv_ReLU <- 0_0_conv
I0614 15:58:51.836061  2037 net.cpp:347] 0_0_conv_ReLU -> 0_0_conv (in-place)
I0614 15:58:51.836066  2037 net.cpp:98] Setting up 0_0_conv_ReLU
I0614 15:58:51.836068  2037 net.cpp:105] Top shape: 128 16 32 32 (2097152)
I0614 15:58:51.836071  2037 layer_factory.hpp:78] Creating layer 0_1_conv
I0614 15:58:51.836076  2037 net.cpp:69] Creating Layer 0_1_conv
I0614 15:58:51.836078  2037 net.cpp:396] 0_1_conv <- 0_0_conv
I0614 15:58:51.836082  2037 net.cpp:358] 0_1_conv -> 0_1_conv
I0614 15:58:51.836087  2037 net.cpp:98] Setting up 0_1_conv
I0614 15:58:51.836107  2037 net.cpp:105] Top shape: 128 16 32 32 (2097152)
I0614 15:58:51.836112  2037 layer_factory.hpp:78] Creating layer 0_1_conv_ReLU
I0614 15:58:51.836115  2037 net.cpp:69] Creating Layer 0_1_conv_ReLU
I0614 15:58:51.836118  2037 net.cpp:396] 0_1_conv_ReLU <- 0_1_conv
I0614 15:58:51.836124  2037 net.cpp:347] 0_1_conv_ReLU -> 0_1_conv (in-place)
I0614 15:58:51.836145  2037 net.cpp:98] Setting up 0_1_conv_ReLU
I0614 15:58:51.836149  2037 net.cpp:105] Top shape: 128 16 32 32 (2097152)
I0614 15:58:51.836153  2037 layer_factory.hpp:78] Creating layer 0_pool
I0614 15:58:51.836165  2037 net.cpp:69] Creating Layer 0_pool
I0614 15:58:51.836169  2037 net.cpp:396] 0_pool <- 0_1_conv
I0614 15:58:51.836174  2037 net.cpp:358] 0_pool -> 0_pool
I0614 15:58:51.836187  2037 net.cpp:98] Setting up 0_pool
I0614 15:58:51.836190  2037 net.cpp:105] Top shape: 128 16 16 16 (524288)
I0614 15:58:51.836194  2037 layer_factory.hpp:78] Creating layer 1_0_conv
I0614 15:58:51.836207  2037 net.cpp:69] Creating Layer 1_0_conv
I0614 15:58:51.836210  2037 net.cpp:396] 1_0_conv <- 0_pool
I0614 15:58:51.836225  2037 net.cpp:358] 1_0_conv -> 1_0_conv
I0614 15:58:51.836230  2037 net.cpp:98] Setting up 1_0_conv
I0614 15:58:51.836256  2037 net.cpp:105] Top shape: 128 16 16 16 (524288)
I0614 15:58:51.836261  2037 layer_factory.hpp:78] Creating layer 1_0_conv_ReLU
I0614 15:58:51.836266  2037 net.cpp:69] Creating Layer 1_0_conv_ReLU
I0614 15:58:51.836269  2037 net.cpp:396] 1_0_conv_ReLU <- 1_0_conv
I0614 15:58:51.836272  2037 net.cpp:347] 1_0_conv_ReLU -> 1_0_conv (in-place)
I0614 15:58:51.836277  2037 net.cpp:98] Setting up 1_0_conv_ReLU
I0614 15:58:51.836278  2037 net.cpp:105] Top shape: 128 16 16 16 (524288)
I0614 15:58:51.836282  2037 layer_factory.hpp:78] Creating layer 1_1_conv
I0614 15:58:51.836285  2037 net.cpp:69] Creating Layer 1_1_conv
I0614 15:58:51.836288  2037 net.cpp:396] 1_1_conv <- 1_0_conv
I0614 15:58:51.836292  2037 net.cpp:358] 1_1_conv -> 1_1_conv
I0614 15:58:51.836297  2037 net.cpp:98] Setting up 1_1_conv
I0614 15:58:51.836313  2037 net.cpp:105] Top shape: 128 16 16 16 (524288)
I0614 15:58:51.836318  2037 layer_factory.hpp:78] Creating layer 1_1_conv_ReLU
I0614 15:58:51.836321  2037 net.cpp:69] Creating Layer 1_1_conv_ReLU
I0614 15:58:51.836324  2037 net.cpp:396] 1_1_conv_ReLU <- 1_1_conv
I0614 15:58:51.836328  2037 net.cpp:347] 1_1_conv_ReLU -> 1_1_conv (in-place)
I0614 15:58:51.836330  2037 net.cpp:98] Setting up 1_1_conv_ReLU
I0614 15:58:51.836333  2037 net.cpp:105] Top shape: 128 16 16 16 (524288)
I0614 15:58:51.836338  2037 layer_factory.hpp:78] Creating layer 1_pool
I0614 15:58:51.836345  2037 net.cpp:69] Creating Layer 1_pool
I0614 15:58:51.836349  2037 net.cpp:396] 1_pool <- 1_1_conv
I0614 15:58:51.836354  2037 net.cpp:358] 1_pool -> 1_pool
I0614 15:58:51.836357  2037 net.cpp:98] Setting up 1_pool
I0614 15:58:51.836360  2037 net.cpp:105] Top shape: 128 16 8 8 (131072)
I0614 15:58:51.836364  2037 layer_factory.hpp:78] Creating layer 2_0_conv
I0614 15:58:51.836366  2037 net.cpp:69] Creating Layer 2_0_conv
I0614 15:58:51.836369  2037 net.cpp:396] 2_0_conv <- 1_pool
I0614 15:58:51.836374  2037 net.cpp:358] 2_0_conv -> 2_0_conv
I0614 15:58:51.836377  2037 net.cpp:98] Setting up 2_0_conv
I0614 15:58:51.836395  2037 net.cpp:105] Top shape: 128 16 8 8 (131072)
I0614 15:58:51.836400  2037 layer_factory.hpp:78] Creating layer 2_0_conv_ReLU
I0614 15:58:51.836403  2037 net.cpp:69] Creating Layer 2_0_conv_ReLU
I0614 15:58:51.836405  2037 net.cpp:396] 2_0_conv_ReLU <- 2_0_conv
I0614 15:58:51.836410  2037 net.cpp:347] 2_0_conv_ReLU -> 2_0_conv (in-place)
I0614 15:58:51.836412  2037 net.cpp:98] Setting up 2_0_conv_ReLU
I0614 15:58:51.836416  2037 net.cpp:105] Top shape: 128 16 8 8 (131072)
I0614 15:58:51.836418  2037 layer_factory.hpp:78] Creating layer 2_1_conv
I0614 15:58:51.836421  2037 net.cpp:69] Creating Layer 2_1_conv
I0614 15:58:51.836424  2037 net.cpp:396] 2_1_conv <- 2_0_conv
I0614 15:58:51.836429  2037 net.cpp:358] 2_1_conv -> 2_1_conv
I0614 15:58:51.836433  2037 net.cpp:98] Setting up 2_1_conv
I0614 15:58:51.836449  2037 net.cpp:105] Top shape: 128 16 8 8 (131072)
I0614 15:58:51.836454  2037 layer_factory.hpp:78] Creating layer 2_1_conv_ReLU
I0614 15:58:51.836457  2037 net.cpp:69] Creating Layer 2_1_conv_ReLU
I0614 15:58:51.836459  2037 net.cpp:396] 2_1_conv_ReLU <- 2_1_conv
I0614 15:58:51.836463  2037 net.cpp:347] 2_1_conv_ReLU -> 2_1_conv (in-place)
I0614 15:58:51.836467  2037 net.cpp:98] Setting up 2_1_conv_ReLU
I0614 15:58:51.836469  2037 net.cpp:105] Top shape: 128 16 8 8 (131072)
I0614 15:58:51.836472  2037 layer_factory.hpp:78] Creating layer 2_pool
I0614 15:58:51.836477  2037 net.cpp:69] Creating Layer 2_pool
I0614 15:58:51.836479  2037 net.cpp:396] 2_pool <- 2_1_conv
I0614 15:58:51.836483  2037 net.cpp:358] 2_pool -> 2_pool
I0614 15:58:51.836486  2037 net.cpp:98] Setting up 2_pool
I0614 15:58:51.836489  2037 net.cpp:105] Top shape: 128 16 4 4 (32768)
I0614 15:58:51.836493  2037 layer_factory.hpp:78] Creating layer middle_conv
I0614 15:58:51.836496  2037 net.cpp:69] Creating Layer middle_conv
I0614 15:58:51.836498  2037 net.cpp:396] middle_conv <- 2_pool
I0614 15:58:51.836503  2037 net.cpp:358] middle_conv -> middle_conv
I0614 15:58:51.836506  2037 net.cpp:98] Setting up middle_conv
I0614 15:58:51.836576  2037 net.cpp:105] Top shape: 128 50 1 1 (6400)
I0614 15:58:51.836580  2037 layer_factory.hpp:78] Creating layer middle_conv_ReLU
I0614 15:58:51.836585  2037 net.cpp:69] Creating Layer middle_conv_ReLU
I0614 15:58:51.836586  2037 net.cpp:396] middle_conv_ReLU <- middle_conv
I0614 15:58:51.836591  2037 net.cpp:347] middle_conv_ReLU -> middle_conv (in-place)
I0614 15:58:51.836593  2037 net.cpp:98] Setting up middle_conv_ReLU
I0614 15:58:51.836596  2037 net.cpp:105] Top shape: 128 50 1 1 (6400)
I0614 15:58:51.836599  2037 layer_factory.hpp:78] Creating layer fc1
I0614 15:58:51.836603  2037 net.cpp:69] Creating Layer fc1
I0614 15:58:51.836606  2037 net.cpp:396] fc1 <- middle_conv
I0614 15:58:51.836611  2037 net.cpp:358] fc1 -> fc1
I0614 15:58:51.836614  2037 net.cpp:98] Setting up fc1
I0614 15:58:51.836755  2037 net.cpp:105] Top shape: 128 512 1 1 (65536)
I0614 15:58:51.836761  2037 layer_factory.hpp:78] Creating layer fc1_Dropout_ReLU
I0614 15:58:51.836765  2037 net.cpp:69] Creating Layer fc1_Dropout_ReLU
I0614 15:58:51.836767  2037 net.cpp:396] fc1_Dropout_ReLU <- fc1
I0614 15:58:51.836772  2037 net.cpp:347] fc1_Dropout_ReLU -> fc1 (in-place)
I0614 15:58:51.836776  2037 net.cpp:98] Setting up fc1_Dropout_ReLU
I0614 15:58:51.836778  2037 net.cpp:105] Top shape: 128 512 1 1 (65536)
I0614 15:58:51.836783  2037 layer_factory.hpp:78] Creating layer fc2
I0614 15:58:51.836787  2037 net.cpp:69] Creating Layer fc2
I0614 15:58:51.836793  2037 net.cpp:396] fc2 <- fc1
I0614 15:58:51.836797  2037 net.cpp:358] fc2 -> fc2
I0614 15:58:51.836802  2037 net.cpp:98] Setting up fc2
I0614 15:58:51.837093  2037 net.cpp:105] Top shape: 128 100 1 1 (12800)
I0614 15:58:51.837102  2037 layer_factory.hpp:78] Creating layer fc2_fc2_0_split
I0614 15:58:51.837106  2037 net.cpp:69] Creating Layer fc2_fc2_0_split
I0614 15:58:51.837110  2037 net.cpp:396] fc2_fc2_0_split <- fc2
I0614 15:58:51.837113  2037 net.cpp:358] fc2_fc2_0_split -> fc2_fc2_0_split_0
I0614 15:58:51.837118  2037 net.cpp:358] fc2_fc2_0_split -> fc2_fc2_0_split_1
I0614 15:58:51.837122  2037 net.cpp:358] fc2_fc2_0_split -> fc2_fc2_0_split_2
I0614 15:58:51.837131  2037 net.cpp:98] Setting up fc2_fc2_0_split
I0614 15:58:51.837134  2037 net.cpp:105] Top shape: 128 100 1 1 (12800)
I0614 15:58:51.837137  2037 net.cpp:105] Top shape: 128 100 1 1 (12800)
I0614 15:58:51.837141  2037 net.cpp:105] Top shape: 128 100 1 1 (12800)
I0614 15:58:51.837142  2037 layer_factory.hpp:78] Creating layer softmax
I0614 15:58:51.837148  2037 net.cpp:69] Creating Layer softmax
I0614 15:58:51.837152  2037 net.cpp:396] softmax <- fc2_fc2_0_split_0
I0614 15:58:51.837155  2037 net.cpp:396] softmax <- label_data_1_split_0
I0614 15:58:51.837159  2037 net.cpp:358] softmax -> softmax
I0614 15:58:51.837167  2037 net.cpp:98] Setting up softmax
I0614 15:58:51.837172  2037 net.cpp:105] Top shape: 1 1 1 1 (1)
I0614 15:58:51.837175  2037 net.cpp:111]     with loss weight 1
I0614 15:58:51.837182  2037 layer_factory.hpp:78] Creating layer accuracy_top_1
I0614 15:58:51.837188  2037 net.cpp:69] Creating Layer accuracy_top_1
I0614 15:58:51.837190  2037 net.cpp:396] accuracy_top_1 <- fc2_fc2_0_split_1
I0614 15:58:51.837194  2037 net.cpp:396] accuracy_top_1 <- label_data_1_split_1
I0614 15:58:51.837198  2037 net.cpp:358] accuracy_top_1 -> accuracy_top_1
I0614 15:58:51.837203  2037 net.cpp:98] Setting up accuracy_top_1
I0614 15:58:51.837206  2037 net.cpp:105] Top shape: 1 1 1 1 (1)
I0614 15:58:51.837209  2037 layer_factory.hpp:78] Creating layer accuracy_top_5
I0614 15:58:51.837213  2037 net.cpp:69] Creating Layer accuracy_top_5
I0614 15:58:51.837216  2037 net.cpp:396] accuracy_top_5 <- fc2_fc2_0_split_2
I0614 15:58:51.837220  2037 net.cpp:396] accuracy_top_5 <- label_data_1_split_2
I0614 15:58:51.837224  2037 net.cpp:358] accuracy_top_5 -> accuracy_top_5
I0614 15:58:51.837229  2037 net.cpp:98] Setting up accuracy_top_5
I0614 15:58:51.837231  2037 net.cpp:105] Top shape: 1 1 1 1 (1)
I0614 15:58:51.837234  2037 net.cpp:174] accuracy_top_5 does not need backward computation.
I0614 15:58:51.837237  2037 net.cpp:174] accuracy_top_1 does not need backward computation.
I0614 15:58:51.837240  2037 net.cpp:172] softmax needs backward computation.
I0614 15:58:51.837244  2037 net.cpp:172] fc2_fc2_0_split needs backward computation.
I0614 15:58:51.837245  2037 net.cpp:172] fc2 needs backward computation.
…
