…
I0615 16:24:55.112293 27179 solver.cpp:70] Creating training net from net file: prototxt/16-06-15_15h49m18s_0_30_reconstructIncremental2_net.sh
I0615 16:24:55.112779 27179 net.cpp:277] The NetState phase (0) differed from the phase (1) specified by a rule in layer data
I0615 16:24:55.112906 27179 net.cpp:39] Initializing net from parameters: 
layers {
  top: "data"
  name: "data"
  type: DATA
  data_param {
    source: "/dataset/cifar100_lmdb_lab/cifar100_train_lmdb"
    batch_size: 512
    backend: LMDB
  }
  include {
    phase: TRAIN
  }
  transform_param {
    mean_file: "/dataset/cifar100_lmdb_lab/mean.binaryproto"
  }
}
layers {
  bottom: "data"
  top: "0_0_conv"
  name: "0_0_conv"
  type: CONVOLUTION
  blobs_lr: 0
  blobs_lr: 0
  weight_decay: 0
  weight_decay: 0
  convolution_param {
    num_output: 8
    pad: 1
    kernel_size: 3
    stride: 1
    weight_filler {
      type: "xavier"
    }
    bias_filler {
      type: "constant"
      value: 0
    }
  }
}
layers {
  bottom: "0_0_conv"
  top: "0_0_conv"
  name: "0_0_conv_ReLU"
  type: RELU
}
layers {
  bottom: "0_0_conv"
  top: "0_1_conv"
  name: "0_1_conv"
  type: CONVOLUTION
  blobs_lr: 0
  blobs_lr: 0
  weight_decay: 0
  weight_decay: 0
  convolution_param {
    num_output: 8
    pad: 1
    kernel_size: 3
    stride: 1
    weight_filler {
      type: "xavier"
    }
    bias_filler {
      type: "constant"
      value: 0
    }
  }
}
layers {
  bottom: "0_1_conv"
  top: "0_1_conv"
  name: "0_1_conv_ReLU"
  type: RELU
}
layers {
  bottom: "0_1_conv"
  top: "0_pool"
  name: "0_pool"
  type: POOLING
  pooling_param {
    pool: MAX
    kernel_size: 2
    stride: 2
  }
}
layers {
  bottom: "0_pool"
  top: "1_0_conv"
  name: "1_0_conv"
  type: CONVOLUTION
  blobs_lr: 0
  blobs_lr: 0
  weight_decay: 0
  weight_decay: 0
  convolution_param {
    num_output: 8
    pad: 1
    kernel_size: 3
    stride: 1
    weight_filler {
      type: "xavier"
    }
    bias_filler {
      type: "constant"
      value: 0
    }
  }
}
layers {
  bottom: "1_0_conv"
  top: "1_0_conv"
  name: "1_0_conv_ReLU"
  type: RELU
}
layers {
  bottom: "1_0_conv"
  top: "1_1_conv"
  name: "1_1_conv"
  type: CONVOLUTION
  blobs_lr: 0
  blobs_lr: 0
  weight_decay: 0
  weight_decay: 0
  convolution_param {
    num_output: 8
    pad: 1
    kernel_size: 3
    stride: 1
    weight_filler {
      type: "xavier"
    }
    bias_filler {
      type: "constant"
      value: 0
    }
  }
}
layers {
  bottom: "1_1_conv"
  top: "1_1_conv"
  name: "1_1_conv_ReLU"
  type: RELU
}
layers {
  bottom: "1_1_conv"
  top: "1_pool"
  top: "1_pool_mask"
  name: "1_pool"
  type: POOLING
  pooling_param {
    pool: MAX
    kernel_size: 2
    stride: 2
  }
}
layers {
  bottom: "1_pool"
  top: "2_0_conv"
  name: "2_0_conv"
  type: CONVOLUTION
  blobs_lr: 0
  blobs_lr: 0
  weight_decay: 0
  weight_decay: 0
  convolution_param {
    num_output: 8
    pad: 1
    kernel_size: 3
    stride: 1
    weight_filler {
      type: "xavier"
    }
    bias_filler {
      type: "constant"
      value: 0
    }
  }
}
layers {
  bottom: "2_0_conv"
  top: "2_0_conv"
  name: "2_0_conv_ReLU"
  type: RELU
}
layers {
  bottom: "2_0_conv"
  top: "2_1_conv"
  name: "2_1_conv"
  type: CONVOLUTION
  blobs_lr: 0
  blobs_lr: 0
  weight_decay: 0
  weight_decay: 0
  convolution_param {
    num_output: 8
    pad: 1
    kernel_size: 3
    stride: 1
    weight_filler {
      type: "xavier"
    }
    bias_filler {
      type: "constant"
      value: 0
    }
  }
}
layers {
  bottom: "2_1_conv"
  top: "2_1_conv"
  name: "2_1_conv_ReLU"
  type: RELU
}
layers {
  bottom: "2_1_conv"
  top: "2_pool"
  top: "2_pool_mask"
  name: "2_pool"
  type: POOLING
  pooling_param {
    pool: MAX
    kernel_size: 2
    stride: 2
  }
}
layers {
  bottom: "2_pool"
  top: "middle_conv"
  name: "middle_conv"
  type: CONVOLUTION
  blobs_lr: 0
  blobs_lr: 0
  weight_decay: 0
  weight_decay: 0
  convolution_param {
    num_output: 50
    pad: 0
    kernel_size: 4
    stride: 1
    weight_filler {
      type: "xavier"
    }
    bias_filler {
      type: "constant"
      value: 0
    }
  }
}
layers {
  bottom: "middle_conv"
  top: "middle_deconv"
  name: "middle_deconv"
  type: DECONVOLUTION
  blobs_lr: 1
  blobs_lr: 2
  weight_decay: 0
  weight_decay: 0
  convolution_param {
    num_output: 8
    pad: 1
    kernel_size: 4
    stride: 1
    weight_filler {
      type: "xavier"
    }
    bias_filler {
      type: "constant"
      value: 0
    }
  }
}
layers {
  bottom: "middle_deconv"
  bottom: "2_pool_mask"
  top: "2_unpool"
  name: "2_unpool"
  type: UNPOOLING
  unpooling_param {
    unpool: MAX
    kernel_size: 2
    stride: 2
    unpool_size: 8
  }
}
layers {
  bottom: "2_unpool"
  top: "2_1_deconv"
  name: "2_1_deconv"
  type: DECONVOLUTION
  blobs_lr: 1
  blobs_lr: 2
  weight_decay: 0
  weight_decay: 0
  convolution_param {
    num_output: 8
    pad: 1
    kernel_size: 3
    stride: 1
    weight_filler {
      type: "xavier"
    }
    bias_filler {
      type: "constant"
      value: 0
    }
  }
}
layers {
  bottom: "2_1_deconv"
  top: "2_1_deconv"
  name: "2_1_deconv_ReLU"
  type: RELU
}
layers {
  bottom: "2_1_deconv"
  top: "2_0_deconv"
  name: "2_0_deconv"
  type: DECONVOLUTION
  blobs_lr: 1
  blobs_lr: 2
  weight_decay: 0
  weight_decay: 0
  convolution_param {
    num_output: 8
    pad: 1
    kernel_size: 3
    stride: 1
    weight_filler {
      type: "xavier"
    }
    bias_filler {
      type: "constant"
      value: 0
    }
  }
}
layers {
  bottom: "2_0_deconv"
  top: "2_0_deconv"
  name: "2_0_deconv_ReLU"
  type: RELU
}
layers {
  bottom: "2_0_deconv"
  bottom: "1_pool_mask"
  top: "1_unpool"
  name: "1_unpool"
  type: UNPOOLING
  unpooling_param {
    unpool: MAX
    kernel_size: 2
    stride: 2
    unpool_size: 16
  }
}
layers {
  bottom: "1_unpool"
  top: "1_1_deconv"
  name: "1_1_deconv"
  type: DECONVOLUTION
  blobs_lr: 1
  blobs_lr: 2
  weight_decay: 0
  weight_decay: 0
  convolution_param {
    num_output: 8
    pad: 1
    kernel_size: 3
    stride: 1
    weight_filler {
      type: "xavier"
    }
    bias_filler {
      type: "constant"
      value: 0
    }
  }
}
layers {
  bottom: "1_1_deconv"
  top: "1_1_deconv"
  name: "1_1_deconv_ReLU"
  type: RELU
}
layers {
  bottom: "1_1_deconv"
  top: "1_0_deconv"
  name: "1_0_deconv"
  type: DECONVOLUTION
  blobs_lr: 1
  blobs_lr: 2
  weight_decay: 0
  weight_decay: 0
  convolution_param {
    num_output: 8
    pad: 1
    kernel_size: 3
    stride: 1
    weight_filler {
      type: "xavier"
    }
    bias_filler {
      type: "constant"
      value: 0
    }
  }
}
layers {
  bottom: "1_0_deconv"
  top: "1_0_deconv"
  name: "1_0_deconv_ReLU"
  type: RELU
}
layers {
  bottom: "0_pool"
  bottom: "1_0_deconv"
  top: "L2_Loss"
  name: "L2_Loss"
  type: EUCLIDEAN_LOSS
}
state {
  phase: TRAIN
}
I0615 16:24:55.113003 27179 layer_factory.hpp:78] Creating layer data
I0615 16:24:55.113016 27179 data_transformer.cpp:25] Loading mean file from/dataset/cifar100_lmdb_lab/mean.binaryproto
I0615 16:24:55.113064 27179 net.cpp:69] Creating Layer data
I0615 16:24:55.113070 27179 net.cpp:358] data -> data
I0615 16:24:55.113077 27179 net.cpp:98] Setting up data
I0615 16:24:55.113081 27179 data_layer.cpp:32] Opening dataset /dataset/cifar100_lmdb_lab/cifar100_train_lmdb
I0615 16:24:55.113153 27179 data_layer.cpp:71] output data size: 512,3,32,32
I0615 16:24:55.113934 27179 net.cpp:105] Top shape: 512 3 32 32 (1572864)
I0615 16:24:55.113946 27179 layer_factory.hpp:78] Creating layer 0_0_conv
I0615 16:24:55.113952 27179 net.cpp:69] Creating Layer 0_0_conv
I0615 16:24:55.113956 27179 net.cpp:396] 0_0_conv <- data
I0615 16:24:55.113963 27179 net.cpp:358] 0_0_conv -> 0_0_conv
I0615 16:24:55.113975 27179 net.cpp:98] Setting up 0_0_conv
I0615 16:24:55.114260 27179 net.cpp:105] Top shape: 512 8 32 32 (4194304)
I0615 16:24:55.114280 27179 layer_factory.hpp:78] Creating layer 0_0_conv_ReLU
I0615 16:24:55.114285 27179 net.cpp:69] Creating Layer 0_0_conv_ReLU
I0615 16:24:55.114289 27179 net.cpp:396] 0_0_conv_ReLU <- 0_0_conv
I0615 16:24:55.114292 27179 net.cpp:347] 0_0_conv_ReLU -> 0_0_conv (in-place)
I0615 16:24:55.114296 27179 net.cpp:98] Setting up 0_0_conv_ReLU
I0615 16:24:55.114300 27179 net.cpp:105] Top shape: 512 8 32 32 (4194304)
I0615 16:24:55.114302 27179 layer_factory.hpp:78] Creating layer 0_1_conv
I0615 16:24:55.114307 27179 net.cpp:69] Creating Layer 0_1_conv
I0615 16:24:55.114310 27179 net.cpp:396] 0_1_conv <- 0_0_conv
I0615 16:24:55.114315 27179 net.cpp:358] 0_1_conv -> 0_1_conv
I0615 16:24:55.114318 27179 net.cpp:98] Setting up 0_1_conv
I0615 16:24:55.114329 27179 net.cpp:105] Top shape: 512 8 32 32 (4194304)
I0615 16:24:55.114334 27179 layer_factory.hpp:78] Creating layer 0_1_conv_ReLU
I0615 16:24:55.114338 27179 net.cpp:69] Creating Layer 0_1_conv_ReLU
I0615 16:24:55.114341 27179 net.cpp:396] 0_1_conv_ReLU <- 0_1_conv
I0615 16:24:55.114346 27179 net.cpp:347] 0_1_conv_ReLU -> 0_1_conv (in-place)
I0615 16:24:55.114349 27179 net.cpp:98] Setting up 0_1_conv_ReLU
I0615 16:24:55.114352 27179 net.cpp:105] Top shape: 512 8 32 32 (4194304)
I0615 16:24:55.114354 27179 layer_factory.hpp:78] Creating layer 0_pool
I0615 16:24:55.114358 27179 net.cpp:69] Creating Layer 0_pool
I0615 16:24:55.114362 27179 net.cpp:396] 0_pool <- 0_1_conv
I0615 16:24:55.114365 27179 net.cpp:358] 0_pool -> 0_pool
I0615 16:24:55.114369 27179 net.cpp:98] Setting up 0_pool
I0615 16:24:55.114375 27179 net.cpp:105] Top shape: 512 8 16 16 (1048576)
I0615 16:24:55.114378 27179 layer_factory.hpp:78] Creating layer 0_pool_0_pool_0_split
I0615 16:24:55.114382 27179 net.cpp:69] Creating Layer 0_pool_0_pool_0_split
I0615 16:24:55.114385 27179 net.cpp:396] 0_pool_0_pool_0_split <- 0_pool
I0615 16:24:55.114389 27179 net.cpp:358] 0_pool_0_pool_0_split -> 0_pool_0_pool_0_split_0
I0615 16:24:55.114393 27179 net.cpp:358] 0_pool_0_pool_0_split -> 0_pool_0_pool_0_split_1
I0615 16:24:55.114398 27179 net.cpp:98] Setting up 0_pool_0_pool_0_split
I0615 16:24:55.114401 27179 net.cpp:105] Top shape: 512 8 16 16 (1048576)
I0615 16:24:55.114404 27179 net.cpp:105] Top shape: 512 8 16 16 (1048576)
I0615 16:24:55.114408 27179 layer_factory.hpp:78] Creating layer 1_0_conv
I0615 16:24:55.114413 27179 net.cpp:69] Creating Layer 1_0_conv
I0615 16:24:55.114415 27179 net.cpp:396] 1_0_conv <- 0_pool_0_pool_0_split_0
I0615 16:24:55.114420 27179 net.cpp:358] 1_0_conv -> 1_0_conv
I0615 16:24:55.114425 27179 net.cpp:98] Setting up 1_0_conv
I0615 16:24:55.114435 27179 net.cpp:105] Top shape: 512 8 16 16 (1048576)
I0615 16:24:55.114441 27179 layer_factory.hpp:78] Creating layer 1_0_conv_ReLU
I0615 16:24:55.114445 27179 net.cpp:69] Creating Layer 1_0_conv_ReLU
I0615 16:24:55.114447 27179 net.cpp:396] 1_0_conv_ReLU <- 1_0_conv
I0615 16:24:55.114451 27179 net.cpp:347] 1_0_conv_ReLU -> 1_0_conv (in-place)
I0615 16:24:55.114455 27179 net.cpp:98] Setting up 1_0_conv_ReLU
I0615 16:24:55.114457 27179 net.cpp:105] Top shape: 512 8 16 16 (1048576)
I0615 16:24:55.114460 27179 layer_factory.hpp:78] Creating layer 1_1_conv
I0615 16:24:55.114465 27179 net.cpp:69] Creating Layer 1_1_conv
I0615 16:24:55.114469 27179 net.cpp:396] 1_1_conv <- 1_0_conv
I0615 16:24:55.114472 27179 net.cpp:358] 1_1_conv -> 1_1_conv
I0615 16:24:55.114476 27179 net.cpp:98] Setting up 1_1_conv
I0615 16:24:55.114485 27179 net.cpp:105] Top shape: 512 8 16 16 (1048576)
I0615 16:24:55.114490 27179 layer_factory.hpp:78] Creating layer 1_1_conv_ReLU
I0615 16:24:55.114492 27179 net.cpp:69] Creating Layer 1_1_conv_ReLU
I0615 16:24:55.114495 27179 net.cpp:396] 1_1_conv_ReLU <- 1_1_conv
I0615 16:24:55.114500 27179 net.cpp:347] 1_1_conv_ReLU -> 1_1_conv (in-place)
I0615 16:24:55.114502 27179 net.cpp:98] Setting up 1_1_conv_ReLU
I0615 16:24:55.114506 27179 net.cpp:105] Top shape: 512 8 16 16 (1048576)
I0615 16:24:55.114511 27179 layer_factory.hpp:78] Creating layer 1_pool
I0615 16:24:55.114514 27179 net.cpp:69] Creating Layer 1_pool
I0615 16:24:55.114521 27179 net.cpp:396] 1_pool <- 1_1_conv
I0615 16:24:55.114526 27179 net.cpp:358] 1_pool -> 1_pool
I0615 16:24:55.114531 27179 net.cpp:358] 1_pool -> 1_pool_mask
I0615 16:24:55.114534 27179 net.cpp:98] Setting up 1_pool
I0615 16:24:55.114538 27179 net.cpp:105] Top shape: 512 8 8 8 (262144)
I0615 16:24:55.114542 27179 net.cpp:105] Top shape: 512 8 8 8 (262144)
I0615 16:24:55.114544 27179 layer_factory.hpp:78] Creating layer 2_0_conv
I0615 16:24:55.114547 27179 net.cpp:69] Creating Layer 2_0_conv
I0615 16:24:55.114550 27179 net.cpp:396] 2_0_conv <- 1_pool
I0615 16:24:55.114555 27179 net.cpp:358] 2_0_conv -> 2_0_conv
I0615 16:24:55.114559 27179 net.cpp:98] Setting up 2_0_conv
I0615 16:24:55.114568 27179 net.cpp:105] Top shape: 512 8 8 8 (262144)
I0615 16:24:55.114574 27179 layer_factory.hpp:78] Creating layer 2_0_conv_ReLU
I0615 16:24:55.114578 27179 net.cpp:69] Creating Layer 2_0_conv_ReLU
I0615 16:24:55.114580 27179 net.cpp:396] 2_0_conv_ReLU <- 2_0_conv
I0615 16:24:55.114584 27179 net.cpp:347] 2_0_conv_ReLU -> 2_0_conv (in-place)
I0615 16:24:55.114588 27179 net.cpp:98] Setting up 2_0_conv_ReLU
I0615 16:24:55.114590 27179 net.cpp:105] Top shape: 512 8 8 8 (262144)
I0615 16:24:55.114593 27179 layer_factory.hpp:78] Creating layer 2_1_conv
I0615 16:24:55.114598 27179 net.cpp:69] Creating Layer 2_1_conv
I0615 16:24:55.114600 27179 net.cpp:396] 2_1_conv <- 2_0_conv
I0615 16:24:55.114604 27179 net.cpp:358] 2_1_conv -> 2_1_conv
I0615 16:24:55.114609 27179 net.cpp:98] Setting up 2_1_conv
I0615 16:24:55.114616 27179 net.cpp:105] Top shape: 512 8 8 8 (262144)
I0615 16:24:55.114621 27179 layer_factory.hpp:78] Creating layer 2_1_conv_ReLU
I0615 16:24:55.114624 27179 net.cpp:69] Creating Layer 2_1_conv_ReLU
I0615 16:24:55.114627 27179 net.cpp:396] 2_1_conv_ReLU <- 2_1_conv
I0615 16:24:55.114630 27179 net.cpp:347] 2_1_conv_ReLU -> 2_1_conv (in-place)
I0615 16:24:55.114634 27179 net.cpp:98] Setting up 2_1_conv_ReLU
I0615 16:24:55.114636 27179 net.cpp:105] Top shape: 512 8 8 8 (262144)
I0615 16:24:55.114639 27179 layer_factory.hpp:78] Creating layer 2_pool
I0615 16:24:55.114645 27179 net.cpp:69] Creating Layer 2_pool
I0615 16:24:55.114646 27179 net.cpp:396] 2_pool <- 2_1_conv
I0615 16:24:55.114650 27179 net.cpp:358] 2_pool -> 2_pool
I0615 16:24:55.114655 27179 net.cpp:358] 2_pool -> 2_pool_mask
I0615 16:24:55.114658 27179 net.cpp:98] Setting up 2_pool
I0615 16:24:55.114661 27179 net.cpp:105] Top shape: 512 8 4 4 (65536)
I0615 16:24:55.114665 27179 net.cpp:105] Top shape: 512 8 4 4 (65536)
I0615 16:24:55.114667 27179 layer_factory.hpp:78] Creating layer middle_conv
I0615 16:24:55.114672 27179 net.cpp:69] Creating Layer middle_conv
I0615 16:24:55.114675 27179 net.cpp:396] middle_conv <- 2_pool
I0615 16:24:55.114680 27179 net.cpp:358] middle_conv -> middle_conv
I0615 16:24:55.114682 27179 net.cpp:98] Setting up middle_conv
I0615 16:24:55.114717 27179 net.cpp:105] Top shape: 512 50 1 1 (25600)
I0615 16:24:55.114722 27179 layer_factory.hpp:78] Creating layer middle_deconv
I0615 16:24:55.114732 27179 net.cpp:69] Creating Layer middle_deconv
I0615 16:24:55.114735 27179 net.cpp:396] middle_deconv <- middle_conv
I0615 16:24:55.114739 27179 net.cpp:358] middle_deconv -> middle_deconv
I0615 16:24:55.114743 27179 net.cpp:98] Setting up middle_deconv
I0615 16:24:55.114780 27179 net.cpp:105] Top shape: 512 8 2 2 (16384)
I0615 16:24:55.114785 27179 layer_factory.hpp:78] Creating layer 2_unpool
I0615 16:24:55.114790 27179 net.cpp:69] Creating Layer 2_unpool
I0615 16:24:55.114794 27179 net.cpp:396] 2_unpool <- middle_deconv
I0615 16:24:55.114796 27179 net.cpp:396] 2_unpool <- 2_pool_mask
I0615 16:24:55.114800 27179 net.cpp:358] 2_unpool -> 2_unpool
I0615 16:24:55.114805 27179 net.cpp:98] Setting up 2_unpool
I0615 16:24:55.114810 27179 net.cpp:105] Top shape: 512 8 8 8 (262144)
I0615 16:24:55.114814 27179 layer_factory.hpp:78] Creating layer 2_1_deconv
I0615 16:24:55.114819 27179 net.cpp:69] Creating Layer 2_1_deconv
I0615 16:24:55.114822 27179 net.cpp:396] 2_1_deconv <- 2_unpool
I0615 16:24:55.114828 27179 net.cpp:358] 2_1_deconv -> 2_1_deconv
I0615 16:24:55.114836 27179 net.cpp:98] Setting up 2_1_deconv
I0615 16:24:55.114846 27179 net.cpp:105] Top shape: 512 8 8 8 (262144)
I0615 16:24:55.114852 27179 layer_factory.hpp:78] Creating layer 2_1_deconv_ReLU
I0615 16:24:55.114856 27179 net.cpp:69] Creating Layer 2_1_deconv_ReLU
I0615 16:24:55.114859 27179 net.cpp:396] 2_1_deconv_ReLU <- 2_1_deconv
I0615 16:24:55.114863 27179 net.cpp:347] 2_1_deconv_ReLU -> 2_1_deconv (in-place)
I0615 16:24:55.114866 27179 net.cpp:98] Setting up 2_1_deconv_ReLU
I0615 16:24:55.114869 27179 net.cpp:105] Top shape: 512 8 8 8 (262144)
I0615 16:24:55.114872 27179 layer_factory.hpp:78] Creating layer 2_0_deconv
I0615 16:24:55.114876 27179 net.cpp:69] Creating Layer 2_0_deconv
I0615 16:24:55.114879 27179 net.cpp:396] 2_0_deconv <- 2_1_deconv
I0615 16:24:55.114883 27179 net.cpp:358] 2_0_deconv -> 2_0_deconv
I0615 16:24:55.114887 27179 net.cpp:98] Setting up 2_0_deconv
I0615 16:24:55.114897 27179 net.cpp:105] Top shape: 512 8 8 8 (262144)
I0615 16:24:55.114902 27179 layer_factory.hpp:78] Creating layer 2_0_deconv_ReLU
I0615 16:24:55.114904 27179 net.cpp:69] Creating Layer 2_0_deconv_ReLU
I0615 16:24:55.114907 27179 net.cpp:396] 2_0_deconv_ReLU <- 2_0_deconv
I0615 16:24:55.114910 27179 net.cpp:347] 2_0_deconv_ReLU -> 2_0_deconv (in-place)
I0615 16:24:55.114913 27179 net.cpp:98] Setting up 2_0_deconv_ReLU
I0615 16:24:55.114917 27179 net.cpp:105] Top shape: 512 8 8 8 (262144)
I0615 16:24:55.114919 27179 layer_factory.hpp:78] Creating layer 1_unpool
I0615 16:24:55.114923 27179 net.cpp:69] Creating Layer 1_unpool
I0615 16:24:55.114926 27179 net.cpp:396] 1_unpool <- 2_0_deconv
I0615 16:24:55.114929 27179 net.cpp:396] 1_unpool <- 1_pool_mask
I0615 16:24:55.114933 27179 net.cpp:358] 1_unpool -> 1_unpool
I0615 16:24:55.114938 27179 net.cpp:98] Setting up 1_unpool
I0615 16:24:55.114940 27179 net.cpp:105] Top shape: 512 8 16 16 (1048576)
I0615 16:24:55.114943 27179 layer_factory.hpp:78] Creating layer 1_1_deconv
I0615 16:24:55.114950 27179 net.cpp:69] Creating Layer 1_1_deconv
I0615 16:24:55.114953 27179 net.cpp:396] 1_1_deconv <- 1_unpool
I0615 16:24:55.114958 27179 net.cpp:358] 1_1_deconv -> 1_1_deconv
I0615 16:24:55.114961 27179 net.cpp:98] Setting up 1_1_deconv
I0615 16:24:55.114974 27179 net.cpp:105] Top shape: 512 8 16 16 (1048576)
I0615 16:24:55.114977 27179 layer_factory.hpp:78] Creating layer 1_1_deconv_ReLU
I0615 16:24:55.114981 27179 net.cpp:69] Creating Layer 1_1_deconv_ReLU
I0615 16:24:55.114984 27179 net.cpp:396] 1_1_deconv_ReLU <- 1_1_deconv
I0615 16:24:55.114989 27179 net.cpp:347] 1_1_deconv_ReLU -> 1_1_deconv (in-place)
I0615 16:24:55.114991 27179 net.cpp:98] Setting up 1_1_deconv_ReLU
I0615 16:24:55.114995 27179 net.cpp:105] Top shape: 512 8 16 16 (1048576)
I0615 16:24:55.114997 27179 layer_factory.hpp:78] Creating layer 1_0_deconv
I0615 16:24:55.115001 27179 net.cpp:69] Creating Layer 1_0_deconv
I0615 16:24:55.115005 27179 net.cpp:396] 1_0_deconv <- 1_1_deconv
I0615 16:24:55.115008 27179 net.cpp:358] 1_0_deconv -> 1_0_deconv
I0615 16:24:55.115011 27179 net.cpp:98] Setting up 1_0_deconv
I0615 16:24:55.115021 27179 net.cpp:105] Top shape: 512 8 16 16 (1048576)
I0615 16:24:55.115025 27179 layer_factory.hpp:78] Creating layer 1_0_deconv_ReLU
I0615 16:24:55.115028 27179 net.cpp:69] Creating Layer 1_0_deconv_ReLU
I0615 16:24:55.115031 27179 net.cpp:396] 1_0_deconv_ReLU <- 1_0_deconv
I0615 16:24:55.115034 27179 net.cpp:347] 1_0_deconv_ReLU -> 1_0_deconv (in-place)
I0615 16:24:55.115038 27179 net.cpp:98] Setting up 1_0_deconv_ReLU
I0615 16:24:55.115041 27179 net.cpp:105] Top shape: 512 8 16 16 (1048576)
I0615 16:24:55.115043 27179 layer_factory.hpp:78] Creating layer L2_Loss
I0615 16:24:55.115048 27179 net.cpp:69] Creating Layer L2_Loss
I0615 16:24:55.115051 27179 net.cpp:396] L2_Loss <- 0_pool_0_pool_0_split_1
I0615 16:24:55.115054 27179 net.cpp:396] L2_Loss <- 1_0_deconv
I0615 16:24:55.115057 27179 net.cpp:358] L2_Loss -> L2_Loss
I0615 16:24:55.115064 27179 net.cpp:98] Setting up L2_Loss
I0615 16:24:55.115070 27179 net.cpp:105] Top shape: 1 1 1 1 (1)
I0615 16:24:55.115077 27179 net.cpp:111]     with loss weight 1
I0615 16:24:55.115090 27179 net.cpp:172] L2_Loss needs backward computation.
I0615 16:24:55.115093 27179 net.cpp:172] 1_0_deconv_ReLU needs backward computation.
I0615 16:24:55.115095 27179 net.cpp:172] 1_0_deconv needs backward computation.
I0615 16:24:55.115098 27179 net.cpp:172] 1_1_deconv_ReLU needs backward computation.
…
