…
ror: Failed to initialize libdc1394
I0616 03:01:04.596930 24318 caffe.cpp:134] Use GPU with device ID 0
I0616 03:01:04.716625 24318 net.cpp:277] The NetState phase (1) differed from the phase (0) specified by a rule in layer data
I0616 03:01:04.716810 24318 net.cpp:39] Initializing net from parameters: 
layers {
  top: "data"
  name: "data"
  type: DATA
  data_param {
    source: "/dataset/cifar100_lmdb_lab/cifar100_test_lmdb"
    batch_size: 750
    backend: LMDB
  }
  include {
    phase: TEST
  }
  transform_param {
    mean_file: "/dataset/cifar100_lmdb_lab/mean.binaryproto"
  }
}
layers {
  bottom: "data"
  top: "0_0_conv"
  name: "0_0_conv"
  type: CONVOLUTION
  blobs_lr: 0
  blobs_lr: 0
  weight_decay: 0
  weight_decay: 0
  convolution_param {
    num_output: 8
    pad: 1
    kernel_size: 3
    stride: 1
    weight_filler {
      type: "xavier"
    }
    bias_filler {
      type: "constant"
      value: 0
    }
  }
}
layers {
  bottom: "0_0_conv"
  top: "0_0_conv"
  name: "0_0_conv_ReLU"
  type: RELU
}
layers {
  bottom: "0_0_conv"
  top: "0_1_conv"
  name: "0_1_conv"
  type: CONVOLUTION
  blobs_lr: 0
  blobs_lr: 0
  weight_decay: 0
  weight_decay: 0
  convolution_param {
    num_output: 8
    pad: 1
    kernel_size: 3
    stride: 1
    weight_filler {
      type: "xavier"
    }
    bias_filler {
      type: "constant"
      value: 0
    }
  }
}
layers {
  bottom: "0_1_conv"
  top: "0_1_conv"
  name: "0_1_conv_ReLU"
  type: RELU
}
layers {
  bottom: "0_1_conv"
  top: "0_pool"
  top: "0_pool_mask"
  name: "0_pool"
  type: POOLING
  pooling_param {
    pool: MAX
    kernel_size: 2
    stride: 2
  }
}
layers {
  bottom: "0_pool"
  top: "1_0_conv"
  name: "1_0_conv"
  type: CONVOLUTION
  blobs_lr: 0
  blobs_lr: 0
  weight_decay: 0
  weight_decay: 0
  convolution_param {
    num_output: 8
    pad: 1
    kernel_size: 3
    stride: 1
    weight_filler {
      type: "xavier"
    }
    bias_filler {
      type: "constant"
      value: 0
    }
  }
}
layers {
  bottom: "1_0_conv"
  top: "1_0_conv"
  name: "1_0_conv_ReLU"
  type: RELU
}
layers {
  bottom: "1_0_conv"
  top: "1_1_conv"
  name: "1_1_conv"
  type: CONVOLUTION
  blobs_lr: 0
  blobs_lr: 0
  weight_decay: 0
  weight_decay: 0
  convolution_param {
    num_output: 8
    pad: 1
    kernel_size: 3
    stride: 1
    weight_filler {
      type: "xavier"
    }
    bias_filler {
      type: "constant"
      value: 0
    }
  }
}
layers {
  bottom: "1_1_conv"
  top: "1_1_conv"
  name: "1_1_conv_ReLU"
  type: RELU
}
layers {
  bottom: "1_1_conv"
  top: "1_pool"
  top: "1_pool_mask"
  name: "1_pool"
  type: POOLING
  pooling_param {
    pool: MAX
    kernel_size: 2
    stride: 2
  }
}
layers {
  bottom: "1_pool"
  top: "2_0_conv"
  name: "2_0_conv"
  type: CONVOLUTION
  blobs_lr: 0
  blobs_lr: 0
  weight_decay: 0
  weight_decay: 0
  convolution_param {
    num_output: 8
    pad: 1
    kernel_size: 3
    stride: 1
    weight_filler {
      type: "xavier"
    }
    bias_filler {
      type: "constant"
      value: 0
    }
  }
}
layers {
  bottom: "2_0_conv"
  top: "2_0_conv"
  name: "2_0_conv_ReLU"
  type: RELU
}
layers {
  bottom: "2_0_conv"
  top: "2_1_conv"
  name: "2_1_conv"
  type: CONVOLUTION
  blobs_lr: 0
  blobs_lr: 0
  weight_decay: 0
  weight_decay: 0
  convolution_param {
    num_output: 8
    pad: 1
    kernel_size: 3
    stride: 1
    weight_filler {
      type: "xavier"
    }
    bias_filler {
      type: "constant"
      value: 0
    }
  }
}
layers {
  bottom: "2_1_conv"
  top: "2_1_conv"
  name: "2_1_conv_ReLU"
  type: RELU
}
layers {
  bottom: "2_1_conv"
  top: "2_pool"
  top: "2_pool_mask"
  name: "2_pool"
  type: POOLING
  pooling_param {
    pool: MAX
    kernel_size: 2
    stride: 2
  }
}
layers {
  bottom: "2_pool"
  top: "middle_conv_zeros"
  name: "middle_conv_zeros"
  type: CONVOLUTION
  blobs_lr: 0
  blobs_lr: 0
  weight_decay: 0
  weight_decay: 0
  convolution_param {
    num_output: 50
    pad: 0
    kernel_size: 4
    stride: 1
    weight_filler {
      type: "constant"
      value: 0
    }
    bias_filler {
      type: "constant"
      value: 0
    }
  }
}
layers {
  bottom: "middle_conv_zeros"
  top: "middle_deconv"
  name: "middle_deconv"
  type: DECONVOLUTION
  blobs_lr: 1
  blobs_lr: 2
  weight_decay: 0
  weight_decay: 0
  convolution_param {
    num_output: 8
    pad: 1
    kernel_size: 4
    stride: 1
    weight_filler {
      type: "xavier"
    }
    bias_filler {
      type: "constant"
      value: 0
    }
  }
}
layers {
  bottom: "middle_deconv"
  bottom: "2_pool_mask"
  top: "2_unpool"
  name: "2_unpool"
  type: UNPOOLING
  unpooling_param {
    unpool: MAX
    kernel_size: 2
    stride: 2
    unpool_size: 8
  }
}
layers {
  bottom: "2_unpool"
  top: "2_1_deconv"
  name: "2_1_deconv"
  type: DECONVOLUTION
  blobs_lr: 1
  blobs_lr: 2
  weight_decay: 0
  weight_decay: 0
  convolution_param {
    num_output: 8
    pad: 1
    kernel_size: 3
    stride: 1
    weight_filler {
      type: "xavier"
    }
    bias_filler {
      type: "constant"
      value: 0
    }
  }
}
layers {
  bottom: "2_1_deconv"
  top: "2_1_deconv"
  name: "2_1_deconv_ReLU"
  type: RELU
}
layers {
  bottom: "2_1_deconv"
  top: "2_0_deconv"
  name: "2_0_deconv"
  type: DECONVOLUTION
  blobs_lr: 1
  blobs_lr: 2
  weight_decay: 0
  weight_decay: 0
  convolution_param {
    num_output: 8
    pad: 1
    kernel_size: 3
    stride: 1
    weight_filler {
      type: "xavier"
    }
    bias_filler {
      type: "constant"
      value: 0
    }
  }
}
layers {
  bottom: "2_0_deconv"
  top: "2_0_deconv"
  name: "2_0_deconv_ReLU"
  type: RELU
}
layers {
  bottom: "2_0_deconv"
  bottom: "1_pool_mask"
  top: "1_unpool"
  name: "1_unpool"
  type: UNPOOLING
  unpooling_param {
    unpool: MAX
    kernel_size: 2
    stride: 2
    unpool_size: 16
  }
}
layers {
  bottom: "1_unpool"
  top: "1_1_deconv"
  name: "1_1_deconv"
  type: DECONVOLUTION
  blobs_lr: 1
  blobs_lr: 2
  weight_decay: 0
  weight_decay: 0
  convolution_param {
    num_output: 8
    pad: 1
    kernel_size: 3
    stride: 1
    weight_filler {
      type: "xavier"
    }
    bias_filler {
      type: "constant"
      value: 0
    }
  }
}
layers {
  bottom: "1_1_deconv"
  top: "1_1_deconv"
  name: "1_1_deconv_ReLU"
  type: RELU
}
layers {
  bottom: "1_1_deconv"
  top: "1_0_deconv"
  name: "1_0_deconv"
  type: DECONVOLUTION
  blobs_lr: 1
  blobs_lr: 2
  weight_decay: 0
  weight_decay: 0
  convolution_param {
    num_output: 8
    pad: 1
    kernel_size: 3
    stride: 1
    weight_filler {
      type: "xavier"
    }
    bias_filler {
      type: "constant"
      value: 0
    }
  }
}
layers {
  bottom: "1_0_deconv"
  top: "1_0_deconv"
  name: "1_0_deconv_ReLU"
  type: RELU
}
layers {
  bottom: "1_0_deconv"
  bottom: "0_pool_mask"
  top: "0_unpool"
  name: "0_unpool"
  type: UNPOOLING
  unpooling_param {
    unpool: MAX
    kernel_size: 2
    stride: 2
    unpool_size: 32
  }
}
layers {
  bottom: "0_unpool"
  top: "0_1_deconv"
  name: "0_1_deconv"
  type: DECONVOLUTION
  blobs_lr: 1
  blobs_lr: 2
  weight_decay: 0
  weight_decay: 0
  convolution_param {
    num_output: 8
    pad: 1
    kernel_size: 3
    stride: 1
    weight_filler {
      type: "xavier"
    }
    bias_filler {
      type: "constant"
      value: 0
    }
  }
}
layers {
  bottom: "0_1_deconv"
  top: "0_1_deconv"
  name: "0_1_deconv_ReLU"
  type: RELU
}
layers {
  bottom: "0_1_deconv"
  top: "0_0_deconv"
  name: "0_0_deconv"
  type: DECONVOLUTION
  blobs_lr: 1
  blobs_lr: 2
  weight_decay: 0
  weight_decay: 0
  convolution_param {
    num_output: 8
    pad: 1
    kernel_size: 3
    stride: 1
    weight_filler {
      type: "xavier"
    }
    bias_filler {
      type: "constant"
      value: 0
    }
  }
}
layers {
  bottom: "0_0_deconv"
  top: "0_0_deconv"
  name: "0_0_deconv_ReLU"
  type: RELU
}
layers {
  bottom: "0_0_deconv"
  top: "reconstruct1"
  name: "reconstruct1"
  type: LOCAL
  blobs_lr: 1
  blobs_lr: 2
  weight_decay: 0
  weight_decay: 0
  local_param {
    num_output: 3
    pad: 0
    kernel_size: 1
    stride: 1
    weight_filler {
      type: "xavier"
    }
    bias_filler {
      type: "constant"
      value: 0
    }
  }
}
layers {
  bottom: "reconstruct1"
  top: "reconstruct2"
  name: "reconstruct2"
  type: LOCAL
  blobs_lr: 1
  blobs_lr: 2
  weight_decay: 0
  weight_decay: 0
  local_param {
    num_output: 3
    pad: 0
    kernel_size: 1
    stride: 1
    weight_filler {
      type: "xavier"
    }
    bias_filler {
      type: "constant"
      value: 0
    }
  }
}
layers {
  bottom: "data"
  bottom: "reconstruct2"
  top: "L2_Loss"
  name: "L2_Loss"
  type: EUCLIDEAN_LOSS
}
I0616 03:01:04.716927 24318 layer_factory.hpp:78] Creating layer data
I0616 03:01:04.716940 24318 data_transformer.cpp:25] Loading mean file from/dataset/cifar100_lmdb_lab/mean.binaryproto
I0616 03:01:04.716985 24318 net.cpp:69] Creating Layer data
I0616 03:01:04.716991 24318 net.cpp:358] data -> data
I0616 03:01:04.717000 24318 net.cpp:98] Setting up data
I0616 03:01:04.717002 24318 data_layer.cpp:32] Opening dataset /dataset/cifar100_lmdb_lab/cifar100_test_lmdb
I0616 03:01:04.717069 24318 data_layer.cpp:71] output data size: 750,3,32,32
I0616 03:01:04.717977 24318 net.cpp:105] Top shape: 750 3 32 32 (2304000)
I0616 03:01:04.717998 24318 layer_factory.hpp:78] Creating layer data_data_0_split
I0616 03:01:04.718006 24318 net.cpp:69] Creating Layer data_data_0_split
I0616 03:01:04.718010 24318 net.cpp:396] data_data_0_split <- data
I0616 03:01:04.718016 24318 net.cpp:358] data_data_0_split -> data_data_0_split_0
I0616 03:01:04.718024 24318 net.cpp:358] data_data_0_split -> data_data_0_split_1
I0616 03:01:04.718029 24318 net.cpp:98] Setting up data_data_0_split
I0616 03:01:04.718034 24318 net.cpp:105] Top shape: 750 3 32 32 (2304000)
I0616 03:01:04.718039 24318 net.cpp:105] Top shape: 750 3 32 32 (2304000)
I0616 03:01:04.718041 24318 layer_factory.hpp:78] Creating layer 0_0_conv
I0616 03:01:04.718047 24318 net.cpp:69] Creating Layer 0_0_conv
I0616 03:01:04.718050 24318 net.cpp:396] 0_0_conv <- data_data_0_split_0
I0616 03:01:04.718056 24318 net.cpp:358] 0_0_conv -> 0_0_conv
I0616 03:01:04.718061 24318 net.cpp:98] Setting up 0_0_conv
I0616 03:01:04.718341 24318 net.cpp:105] Top shape: 750 8 32 32 (6144000)
I0616 03:01:04.718351 24318 layer_factory.hpp:78] Creating layer 0_0_conv_ReLU
I0616 03:01:04.718356 24318 net.cpp:69] Creating Layer 0_0_conv_ReLU
I0616 03:01:04.718359 24318 net.cpp:396] 0_0_conv_ReLU <- 0_0_conv
I0616 03:01:04.718364 24318 net.cpp:347] 0_0_conv_ReLU -> 0_0_conv (in-place)
I0616 03:01:04.718367 24318 net.cpp:98] Setting up 0_0_conv_ReLU
I0616 03:01:04.718370 24318 net.cpp:105] Top shape: 750 8 32 32 (6144000)
I0616 03:01:04.718374 24318 layer_factory.hpp:78] Creating layer 0_1_conv
I0616 03:01:04.718379 24318 net.cpp:69] Creating Layer 0_1_conv
I0616 03:01:04.718382 24318 net.cpp:396] 0_1_conv <- 0_0_conv
I0616 03:01:04.718386 24318 net.cpp:358] 0_1_conv -> 0_1_conv
I0616 03:01:04.718391 24318 net.cpp:98] Setting up 0_1_conv
I0616 03:01:04.718401 24318 net.cpp:105] Top shape: 750 8 32 32 (6144000)
I0616 03:01:04.718406 24318 layer_factory.hpp:78] Creating layer 0_1_conv_ReLU
I0616 03:01:04.718410 24318 net.cpp:69] Creating Layer 0_1_conv_ReLU
I0616 03:01:04.718413 24318 net.cpp:396] 0_1_conv_ReLU <- 0_1_conv
I0616 03:01:04.718416 24318 net.cpp:347] 0_1_conv_ReLU -> 0_1_conv (in-place)
I0616 03:01:04.718420 24318 net.cpp:98] Setting up 0_1_conv_ReLU
I0616 03:01:04.718422 24318 net.cpp:105] Top shape: 750 8 32 32 (6144000)
I0616 03:01:04.718425 24318 layer_factory.hpp:78] Creating layer 0_pool
I0616 03:01:04.718430 24318 net.cpp:69] Creating Layer 0_pool
I0616 03:01:04.718432 24318 net.cpp:396] 0_pool <- 0_1_conv
I0616 03:01:04.718436 24318 net.cpp:358] 0_pool -> 0_pool
I0616 03:01:04.718441 24318 net.cpp:358] 0_pool -> 0_pool_mask
I0616 03:01:04.718446 24318 net.cpp:98] Setting up 0_pool
I0616 03:01:04.718452 24318 net.cpp:105] Top shape: 750 8 16 16 (1536000)
I0616 03:01:04.718454 24318 net.cpp:105] Top shape: 750 8 16 16 (1536000)
I0616 03:01:04.718457 24318 layer_factory.hpp:78] Creating layer 1_0_conv
I0616 03:01:04.718461 24318 net.cpp:69] Creating Layer 1_0_conv
I0616 03:01:04.718464 24318 net.cpp:396] 1_0_conv <- 0_pool
I0616 03:01:04.718468 24318 net.cpp:358] 1_0_conv -> 1_0_conv
I0616 03:01:04.718472 24318 net.cpp:98] Setting up 1_0_conv
I0616 03:01:04.718490 24318 net.cpp:105] Top shape: 750 8 16 16 (1536000)
I0616 03:01:04.718507 24318 layer_factory.hpp:78] Creating layer 1_0_conv_ReLU
I0616 03:01:04.718510 24318 net.cpp:69] Creating Layer 1_0_conv_ReLU
I0616 03:01:04.718513 24318 net.cpp:396] 1_0_conv_ReLU <- 1_0_conv
I0616 03:01:04.718518 24318 net.cpp:347] 1_0_conv_ReLU -> 1_0_conv (in-place)
I0616 03:01:04.718520 24318 net.cpp:98] Setting up 1_0_conv_ReLU
I0616 03:01:04.718523 24318 net.cpp:105] Top shape: 750 8 16 16 (1536000)
I0616 03:01:04.718526 24318 layer_factory.hpp:78] Creating layer 1_1_conv
I0616 03:01:04.718531 24318 net.cpp:69] Creating Layer 1_1_conv
I0616 03:01:04.718533 24318 net.cpp:396] 1_1_conv <- 1_0_conv
I0616 03:01:04.718538 24318 net.cpp:358] 1_1_conv -> 1_1_conv
I0616 03:01:04.718544 24318 net.cpp:98] Setting up 1_1_conv
I0616 03:01:04.718552 24318 net.cpp:105] Top shape: 750 8 16 16 (1536000)
I0616 03:01:04.718557 24318 layer_factory.hpp:78] Creating layer 1_1_conv_ReLU
I0616 03:01:04.718560 24318 net.cpp:69] Creating Layer 1_1_conv_ReLU
I0616 03:01:04.718564 24318 net.cpp:396] 1_1_conv_ReLU <- 1_1_conv
I0616 03:01:04.718566 24318 net.cpp:347] 1_1_conv_ReLU -> 1_1_conv (in-place)
I0616 03:01:04.718569 24318 net.cpp:98] Setting up 1_1_conv_ReLU
I0616 03:01:04.718572 24318 net.cpp:105] Top shape: 750 8 16 16 (1536000)
I0616 03:01:04.718575 24318 layer_factory.hpp:78] Creating layer 1_pool
I0616 03:01:04.718580 24318 net.cpp:69] Creating Layer 1_pool
I0616 03:01:04.718582 24318 net.cpp:396] 1_pool <- 1_1_conv
I0616 03:01:04.718586 24318 net.cpp:358] 1_pool -> 1_pool
I0616 03:01:04.718590 24318 net.cpp:358] 1_pool -> 1_pool_mask
I0616 03:01:04.718595 24318 net.cpp:98] Setting up 1_pool
I0616 03:01:04.718597 24318 net.cpp:105] Top shape: 750 8 8 8 (384000)
I0616 03:01:04.718600 24318 net.cpp:105] Top shape: 750 8 8 8 (384000)
I0616 03:01:04.718603 24318 layer_factory.hpp:78] Creating layer 2_0_conv
I0616 03:01:04.718606 24318 net.cpp:69] Creating Layer 2_0_conv
I0616 03:01:04.718610 24318 net.cpp:396] 2_0_conv <- 1_pool
I0616 03:01:04.718613 24318 net.cpp:358] 2_0_conv -> 2_0_conv
I0616 03:01:04.718617 24318 net.cpp:98] Setting up 2_0_conv
I0616 03:01:04.718627 24318 net.cpp:105] Top shape: 750 8 8 8 (384000)
I0616 03:01:04.718632 24318 layer_factory.hpp:78] Creating layer 2_0_conv_ReLU
I0616 03:01:04.718636 24318 net.cpp:69] Creating Layer 2_0_conv_ReLU
I0616 03:01:04.718638 24318 net.cpp:396] 2_0_conv_ReLU <- 2_0_conv
I0616 03:01:04.718647 24318 net.cpp:347] 2_0_conv_ReLU -> 2_0_conv (in-place)
I0616 03:01:04.718652 24318 net.cpp:98] Setting up 2_0_conv_ReLU
I0616 03:01:04.718653 24318 net.cpp:105] Top shape: 750 8 8 8 (384000)
I0616 03:01:04.718657 24318 layer_factory.hpp:78] Creating layer 2_1_conv
I0616 03:01:04.718660 24318 net.cpp:69] Creating Layer 2_1_conv
I0616 03:01:04.718663 24318 net.cpp:396] 2_1_conv <- 2_0_conv
I0616 03:01:04.718667 24318 net.cpp:358] 2_1_conv -> 2_1_conv
I0616 03:01:04.718672 24318 net.cpp:98] Setting up 2_1_conv
I0616 03:01:04.718679 24318 net.cpp:105] Top shape: 750 8 8 8 (384000)
I0616 03:01:04.718684 24318 layer_factory.hpp:78] Creating layer 2_1_conv_ReLU
I0616 03:01:04.718688 24318 net.cpp:69] Creating Layer 2_1_conv_ReLU
I0616 03:01:04.718690 24318 net.cpp:396] 2_1_conv_ReLU <- 2_1_conv
I0616 03:01:04.718694 24318 net.cpp:347] 2_1_conv_ReLU -> 2_1_conv (in-place)
I0616 03:01:04.718698 24318 net.cpp:98] Setting up 2_1_conv_ReLU
I0616 03:01:04.718700 24318 net.cpp:105] Top shape: 750 8 8 8 (384000)
I0616 03:01:04.718703 24318 layer_factory.hpp:78] Creating layer 2_pool
I0616 03:01:04.718708 24318 net.cpp:69] Creating Layer 2_pool
I0616 03:01:04.718710 24318 net.cpp:396] 2_pool <- 2_1_conv
I0616 03:01:04.718714 24318 net.cpp:358] 2_pool -> 2_pool
I0616 03:01:04.718719 24318 net.cpp:358] 2_pool -> 2_pool_mask
I0616 03:01:04.718724 24318 net.cpp:98] Setting up 2_pool
I0616 03:01:04.718726 24318 net.cpp:105] Top shape: 750 8 4 4 (96000)
I0616 03:01:04.718729 24318 net.cpp:105] Top shape: 750 8 4 4 (96000)
I0616 03:01:04.718731 24318 layer_factory.hpp:78] Creating layer middle_conv_zeros
I0616 03:01:04.718737 24318 net.cpp:69] Creating Layer middle_conv_zeros
I0616 03:01:04.718744 24318 net.cpp:396] middle_conv_zeros <- 2_pool
I0616 03:01:04.718749 24318 net.cpp:358] middle_conv_zeros -> middle_conv_zeros
I0616 03:01:04.718752 24318 net.cpp:98] Setting up middle_conv_zeros
I0616 03:01:04.718761 24318 net.cpp:105] Top shape: 750 50 1 1 (37500)
I0616 03:01:04.718766 24318 layer_factory.hpp:78] Creating layer middle_deconv
I0616 03:01:04.718772 24318 net.cpp:69] Creating Layer middle_deconv
I0616 03:01:04.718775 24318 net.cpp:396] middle_deconv <- middle_conv_zeros
I0616 03:01:04.718780 24318 net.cpp:358] middle_deconv -> middle_deconv
I0616 03:01:04.718785 24318 net.cpp:98] Setting up middle_deconv
I0616 03:01:04.718825 24318 net.cpp:105] Top shape: 750 8 2 2 (24000)
I0616 03:01:04.718830 24318 layer_factory.hpp:78] Creating layer 2_unpool
I0616 03:01:04.718835 24318 net.cpp:69] Creating Layer 2_unpool
I0616 03:01:04.718838 24318 net.cpp:396] 2_unpool <- middle_deconv
I0616 03:01:04.718842 24318 net.cpp:396] 2_unpool <- 2_pool_mask
I0616 03:01:04.718845 24318 net.cpp:358] 2_unpool -> 2_unpool
I0616 03:01:04.718849 24318 net.cpp:98] Setting up 2_unpool
I0616 03:01:04.718855 24318 net.cpp:105] Top shape: 750 8 8 8 (384000)
I0616 03:01:04.718858 24318 layer_factory.hpp:78] Creating layer 2_1_deconv
I0616 03:01:04.718863 24318 net.cpp:69] Creating Layer 2_1_deconv
I0616 03:01:04.718864 24318 net.cpp:396] 2_1_deconv <- 2_unpool
I0616 03:01:04.718869 24318 net.cpp:358] 2_1_deconv -> 2_1_deconv
I0616 03:01:04.718874 24318 net.cpp:98] Setting up 2_1_deconv
I0616 03:01:04.718883 24318 net.cpp:105] Top shape: 750 8 8 8 (384000)
I0616 03:01:04.718889 24318 layer_factory.hpp:78] Creating layer 2_1_deconv_ReLU
I0616 03:01:04.718894 24318 net.cpp:69] Creating Layer 2_1_deconv_ReLU
I0616 03:01:04.718896 24318 net.cpp:396] 2_1_deconv_ReLU <- 2_1_deconv
I0616 03:01:04.718900 24318 net.cpp:347] 2_1_deconv_ReLU -> 2_1_deconv (in-place)
I0616 03:01:04.718904 24318 net.cpp:98] Setting up 2_1_deconv_ReLU
I0616 03:01:04.718906 24318 net.cpp:105] Top shape: 750 8 8 8 (384000)
I0616 03:01:04.718909 24318 layer_factory.hpp:78] Creating layer 2_0_deconv
I0616 03:01:04.718914 24318 net.cpp:69] Creating Layer 2_0_deconv
I0616 03:01:04.718916 24318 net.cpp:396] 2_0_deconv <- 2_1_deconv
I0616 03:01:04.718920 24318 net.cpp:358] 2_0_deconv -> 2_0_deconv
I0616 03:01:04.718924 24318 net.cpp:98] Setting up 2_0_deconv
I0616 03:01:04.718933 24318 net.cpp:105] Top shape: 750 8 8 8 (384000)
I0616 03:01:04.718937 24318 layer_factory.hpp:78] Creating layer 2_0_deconv_ReLU
I0616 03:01:04.718941 24318 net.cpp:69] Creating Layer 2_0_deconv_ReLU
I0616 03:01:04.718945 24318 net.cpp:396] 2_0_deconv_ReLU <- 2_0_deconv
I0616 03:01:04.718948 24318 net.cpp:347] 2_0_deconv_ReLU -> 2_0_deconv (in-place)
I0616 03:01:04.718951 24318 net.cpp:98] Setting up 2_0_deconv_ReLU
I0616 03:01:04.718955 24318 net.cpp:105] Top shape: 750 8 8 8 (384000)
I0616 03:01:04.718957 24318 layer_factory.hpp:78] Creating layer 1_unpool
I0616 03:01:04.718961 24318 net.cpp:69] Creating Layer 1_unpool
I0616 03:01:04.718963 24318 net.cpp:396] 1_unpool <- 2_0_deconv
I0616 03:01:04.718966 24318 net.cpp:396] 1_unpool <- 1_pool_mask
I0616 03:01:04.718971 24318 net.cpp:358] 1_unpool -> 1_unpool
I0616 03:01:04.718974 24318 net.cpp:98] Setting up 1_unpool
I0616 03:01:04.718977 24318 net.cpp:105] Top shape: 750 8 16 16 (1536000)
I0616 03:01:04.718981 24318 layer_factory.hpp:78] Creating layer 1_1_deconv
I0616 03:01:04.718984 24318 net.cpp:69] Creating Layer 1_1_deconv
I0616 03:01:04.718986 24318 net.cpp:396] 1_1_deconv <- 1_unpool
I0616 03:01:04.718991 24318 net.cpp:358] 1_1_deconv -> 1_1_deconv
I0616 03:01:04.718994 24318 net.cpp:98] Setting up 1_1_deconv
I0616 03:01:04.719003 24318 net.cpp:105] Top shape: 750 8 16 16 (1536000)
I0616 03:01:04.719007 24318 layer_factory.hpp:78] Creating layer 1_1_deconv_ReLU
I0616 03:01:04.719012 24318 net.cpp:69] Creating Layer 1_1_deconv_ReLU
I0616 03:01:04.719014 24318 net.cpp:396] 1_1_deconv_ReLU <- 1_1_deconv
I0616 03:01:04.719019 24318 net.cpp:347] 1_1_deconv_ReLU -> 1_1_deconv (in-place)
I0616 03:01:04.719023 24318 net.cpp:98] Setting up 1_1_deconv_ReLU
I0616 03:01:04.719030 24318 net.cpp:105] Top shape: 750 8 16 16 (1536000)
I0616 03:01:04.719033 24318 layer_factory.hpp:78] Creating layer 1_0_deconv
I0616 03:01:04.719038 24318 net.cpp:69] Creating Layer 1_0_deconv
I0616 03:01:04.719040 24318 net.cpp:396] 1_0_deconv <- 1_1_deconv
I0616 03:01:04.719044 24318 net.cpp:358] 1_0_deconv -> 1_0_deconv
I0616 03:01:04.719048 24318 net.cpp:98] Setting up 1_0_deconv
I0616 03:01:04.719058 24318 net.cpp:105] Top shape: 750 8 16 16 (1536000)
I0616 03:01:04.719061 24318 layer_factory.hpp:78] Creating layer 1_0_deconv_ReLU
I0616 03:01:04.719064 24318 net.cpp:69] Creating Layer 1_0_deconv_ReLU
I0616 03:01:04.719068 24318 net.cpp:396] 1_0_deconv_ReLU <- 1_0_deconv
I0616 03:01:04.719071 24318 net.cpp:347] 1_0_deconv_ReLU -> 1_0_deconv (in-place)
I0616 03:01:04.719074 24318 net.cpp:98] Setting up 1_0_deconv_ReLU
I0616 03:01:04.719077 24318 net.cpp:105] Top shape: 750 8 16 16 (1536000)
I0616 03:01:04.719080 24318 layer_factory.hpp:78] Creating layer 0_unpool
I0616 03:01:04.719084 24318 net.cpp:69] Creating Layer 0_unpool
I0616 03:01:04.719086 24318 net.cpp:396] 0_unpool <- 1_0_deconv
I0616 03:01:04.719089 24318 net.cpp:396] 0_unpool <- 0_pool_mask
I0616 03:01:04.719092 24318 net.cpp:358] 0_unpool -> 0_unpool
I0616 03:01:04.719096 24318 net.cpp:98] Setting up 0_unpool
I0616 03:01:04.719099 24318 net.cpp:105] Top shape: 750 8 32 32 (6144000)
I0616 03:01:04.719102 24318 layer_factory.hpp:78] Creating layer 0_1_deconv
I0616 03:01:04.719106 24318 net.cpp:69] Creating Layer 0_1_deconv
I0616 03:01:04.719108 24318 net.cpp:396] 0_1_deconv <- 0_unpool
I0616 03:01:04.719112 24318 net.cpp:358] 0_1_deconv -> 0_1_deconv
I0616 03:01:04.719116 24318 net.cpp:98] Setting up 0_1_deconv
I0616 03:01:04.719125 24318 net.cpp:105] Top shape: 750 8 32 32 (6144000)
I0616 03:01:04.719130 24318 layer_factory.hpp:78] Creating layer 0_1_deconv_ReLU
I0616 03:01:04.719133 24318 net.cpp:69] Creating Layer 0_1_deconv_ReLU
I0616 03:01:04.719135 24318 net.cpp:396] 0_1_deconv_ReLU <- 0_1_deconv
I0616 03:01:04.719140 24318 net.cpp:347] 0_1_deconv_ReLU -> 0_1_deconv (in-place)
I0616 03:01:04.719143 24318 net.cpp:98] Setting up 0_1_deconv_ReLU
I0616 03:01:04.719146 24318 net.cpp:105] Top shape: 750 8 32 32 (6144000)
I0616 03:01:04.719148 24318 layer_factory.hpp:78] Creating layer 0_0_deconv
I0616 03:01:04.719153 24318 net.cpp:69] Creating Layer 0_0_deconv
I0616 03:01:04.719156 24318 net.cpp:396] 0_0_deconv <- 0_1_deconv
I0616 03:01:04.719161 24318 net.cpp:358] 0_0_deconv -> 0_0_deconv
I0616 03:01:04.719164 24318 net.cpp:98] Setting up 0_0_deconv
I0616 03:01:04.719173 24318 net.cpp:105] Top shape: 750 8 32 32 (6144000)
I0616 03:01:04.719177 24318 layer_factory.hpp:78] Creating layer 0_0_deconv_ReLU
I0616 03:01:04.719182 24318 net.cpp:69] Creating Layer 0_0_deconv_ReLU
I0616 03:01:04.719183 24318 net.cpp:396] 0_0_deconv_ReLU <- 0_0_deconv
I0616 03:01:04.719187 24318 net.cpp:347] 0_0_deconv_ReLU -> 0_0_deconv (in-place)
I0616 03:01:04.719190 24318 net.cpp:98] Setting up 0_0_deconv_ReLU
I0616 03:01:04.719192 24318 net.cpp:105] Top shape: 750 8 32 32 (6144000)
I0616 03:01:04.719195 24318 layer_factory.hpp:78] Creating layer reconstruct1
I0616 03:01:04.719202 24318 net.cpp:69] Creating Layer reconstruct1
I0616 03:01:04.719204 24318 net.cpp:396] reconstruct1 <- 0_0_deconv
I0616 03:01:04.719209 24318 net.cpp:358] reconstruct1 -> reconstruct1
I0616 03:01:04.719214 24318 net.cpp:98] Setting up reconstruct1
I0616 03:01:04.719357 24318 net.cpp:105] Top shape: 750 3 32 32 (2304000)
I0616 03:01:04.719363 24318 layer_factory.hpp:78] Creating layer reconstruct2
I0616 03:01:04.719368 24318 net.cpp:69] Creating Layer reconstruct2
I0616 03:01:04.719372 24318 net.cpp:396] reconstruct2 <- reconstruct1
I0616 03:01:04.719375 24318 net.cpp:358] reconstruct2 -> reconstruct2
I0616 03:01:04.719380 24318 net.cpp:98] Setting up reconstruct2
I0616 03:01:04.719444 24318 net.cpp:105] Top shape: 750 3 32 32 (2304000)
I0616 03:01:04.719452 24318 layer_factory.hpp:78] Creating layer L2_Loss
I0616 03:01:04.719458 24318 net.cpp:69] Creating Layer L2_Loss
I0616 03:01:04.719465 24318 net.cpp:396] L2_Loss <- data_data_0_split_1
I0616 03:01:04.719470 24318 net.cpp:396] L2_Loss <- reconstruct2
I0616 03:01:04.719472 24318 net.cpp:358] L2_Loss -> L2_Loss
I0616 03:01:04.719477 24318 net.cpp:98] Setting up L2_Loss
I0616 03:01:04.719482 24318 net.cpp:105] Top shape: 1 1 1 1 (1)
I0616 03:01:04.719485 24318 net.cpp:111]     with loss weight 1
I0616 03:01:04.719498 24318 net.cpp:172] L2_Loss needs backward computation.
I0616 03:01:04.719501 24318 net.cpp:172] reconstruct2 needs backward computation.
I0616 03:01:04.719504 24318 net.cpp:172] reconstruct1 needs backward computation.
I0616 03:01:04.719507 24318 net.cpp:172] 0_0_deconv_ReLU needs backward computation.
…
