…
ror: Failed to initialize libdc1394
I0615 15:19:48.585798 21918 caffe.cpp:134] Use GPU with device ID 0
I0615 15:19:48.705340 21918 net.cpp:277] The NetState phase (1) differed from the phase (0) specified by a rule in layer data
I0615 15:19:48.705523 21918 net.cpp:39] Initializing net from parameters: 
layers {
  top: "data"
  name: "data"
  type: DATA
  data_param {
    source: "/dataset/cifar100_lmdb_lab/cifar100_test_lmdb"
    batch_size: 750
    backend: LMDB
  }
  include {
    phase: TEST
  }
  transform_param {
    mean_file: "/dataset/cifar100_lmdb_lab/mean.binaryproto"
  }
}
layers {
  bottom: "data"
  top: "0_0_conv"
  name: "0_0_conv"
  type: CONVOLUTION
  blobs_lr: 1
  blobs_lr: 2
  weight_decay: 0
  weight_decay: 0
  convolution_param {
    num_output: 16
    pad: 1
    kernel_size: 3
    stride: 1
    weight_filler {
      type: "xavier"
    }
    bias_filler {
      type: "constant"
      value: 0
    }
  }
}
layers {
  bottom: "0_0_conv"
  top: "0_0_conv"
  name: "0_0_conv_ReLU"
  type: RELU
}
layers {
  bottom: "0_0_conv"
  top: "0_1_conv"
  name: "0_1_conv"
  type: CONVOLUTION
  blobs_lr: 1
  blobs_lr: 2
  weight_decay: 0
  weight_decay: 0
  convolution_param {
    num_output: 16
    pad: 1
    kernel_size: 3
    stride: 1
    weight_filler {
      type: "xavier"
    }
    bias_filler {
      type: "constant"
      value: 0
    }
  }
}
layers {
  bottom: "0_1_conv"
  top: "0_1_conv"
  name: "0_1_conv_ReLU"
  type: RELU
}
layers {
  bottom: "0_1_conv"
  top: "0_pool"
  top: "0_pool_mask"
  name: "0_pool"
  type: POOLING
  pooling_param {
    pool: MAX
    kernel_size: 2
    stride: 2
  }
}
layers {
  bottom: "0_pool"
  top: "1_0_conv"
  name: "1_0_conv"
  type: CONVOLUTION
  blobs_lr: 1
  blobs_lr: 2
  weight_decay: 0
  weight_decay: 0
  convolution_param {
    num_output: 16
    pad: 1
    kernel_size: 3
    stride: 1
    weight_filler {
      type: "xavier"
    }
    bias_filler {
      type: "constant"
      value: 0
    }
  }
}
layers {
  bottom: "1_0_conv"
  top: "1_0_conv"
  name: "1_0_conv_ReLU"
  type: RELU
}
layers {
  bottom: "1_0_conv"
  top: "1_1_conv"
  name: "1_1_conv"
  type: CONVOLUTION
  blobs_lr: 1
  blobs_lr: 2
  weight_decay: 0
  weight_decay: 0
  convolution_param {
    num_output: 16
    pad: 1
    kernel_size: 3
    stride: 1
    weight_filler {
      type: "xavier"
    }
    bias_filler {
      type: "constant"
      value: 0
    }
  }
}
layers {
  bottom: "1_1_conv"
  top: "1_1_conv"
  name: "1_1_conv_ReLU"
  type: RELU
}
layers {
  bottom: "1_1_conv"
  top: "1_pool"
  top: "1_pool_mask"
  name: "1_pool"
  type: POOLING
  pooling_param {
    pool: MAX
    kernel_size: 2
    stride: 2
  }
}
layers {
  bottom: "1_pool"
  top: "2_0_conv"
  name: "2_0_conv"
  type: CONVOLUTION
  blobs_lr: 1
  blobs_lr: 2
  weight_decay: 0
  weight_decay: 0
  convolution_param {
    num_output: 16
    pad: 1
    kernel_size: 3
    stride: 1
    weight_filler {
      type: "xavier"
    }
    bias_filler {
      type: "constant"
      value: 0
    }
  }
}
layers {
  bottom: "2_0_conv"
  top: "2_0_conv"
  name: "2_0_conv_ReLU"
  type: RELU
}
layers {
  bottom: "2_0_conv"
  top: "2_1_conv"
  name: "2_1_conv"
  type: CONVOLUTION
  blobs_lr: 1
  blobs_lr: 2
  weight_decay: 0
  weight_decay: 0
  convolution_param {
    num_output: 16
    pad: 1
    kernel_size: 3
    stride: 1
    weight_filler {
      type: "xavier"
    }
    bias_filler {
      type: "constant"
      value: 0
    }
  }
}
layers {
  bottom: "2_1_conv"
  top: "2_1_conv"
  name: "2_1_conv_ReLU"
  type: RELU
}
layers {
  bottom: "2_1_conv"
  top: "2_pool"
  top: "2_pool_mask"
  name: "2_pool"
  type: POOLING
  pooling_param {
    pool: MAX
    kernel_size: 2
    stride: 2
  }
}
layers {
  bottom: "2_pool"
  top: "middle_conv_zeros"
  name: "middle_conv_zeros"
  type: CONVOLUTION
  blobs_lr: 1
  blobs_lr: 2
  weight_decay: 0
  weight_decay: 0
  convolution_param {
    num_output: 50
    pad: 0
    kernel_size: 4
    stride: 1
    weight_filler {
      type: "constant"
      value: 0
    }
    bias_filler {
      type: "constant"
      value: 0
    }
  }
}
layers {
  bottom: "middle_conv_zeros"
  top: "middle_deconv"
  name: "middle_deconv"
  type: DECONVOLUTION
  blobs_lr: 1
  blobs_lr: 2
  weight_decay: 0
  weight_decay: 0
  convolution_param {
    num_output: 16
    pad: 1
    kernel_size: 4
    stride: 1
    weight_filler {
      type: "xavier"
    }
    bias_filler {
      type: "constant"
      value: 0
    }
  }
}
layers {
  bottom: "middle_deconv"
  bottom: "2_pool_mask"
  top: "2_unpool"
  name: "2_unpool"
  type: UNPOOLING
  unpooling_param {
    unpool: MAX
    kernel_size: 2
    stride: 2
    unpool_size: 8
  }
}
layers {
  bottom: "2_unpool"
  top: "2_1_deconv"
  name: "2_1_deconv"
  type: DECONVOLUTION
  blobs_lr: 1
  blobs_lr: 2
  weight_decay: 0
  weight_decay: 0
  convolution_param {
    num_output: 16
    pad: 1
    kernel_size: 3
    stride: 1
    weight_filler {
      type: "xavier"
    }
    bias_filler {
      type: "constant"
      value: 0
    }
  }
}
layers {
  bottom: "2_1_deconv"
  top: "2_1_deconv"
  name: "2_1_deconv_ReLU"
  type: RELU
}
layers {
  bottom: "2_1_deconv"
  top: "2_0_deconv"
  name: "2_0_deconv"
  type: DECONVOLUTION
  blobs_lr: 1
  blobs_lr: 2
  weight_decay: 0
  weight_decay: 0
  convolution_param {
    num_output: 16
    pad: 1
    kernel_size: 3
    stride: 1
    weight_filler {
      type: "xavier"
    }
    bias_filler {
      type: "constant"
      value: 0
    }
  }
}
layers {
  bottom: "2_0_deconv"
  top: "2_0_deconv"
  name: "2_0_deconv_ReLU"
  type: RELU
}
layers {
  bottom: "2_0_deconv"
  bottom: "1_pool_mask"
  top: "1_unpool"
  name: "1_unpool"
  type: UNPOOLING
  unpooling_param {
    unpool: MAX
    kernel_size: 2
    stride: 2
    unpool_size: 16
  }
}
layers {
  bottom: "1_unpool"
  top: "1_1_deconv"
  name: "1_1_deconv"
  type: DECONVOLUTION
  blobs_lr: 1
  blobs_lr: 2
  weight_decay: 0
  weight_decay: 0
  convolution_param {
    num_output: 16
    pad: 1
    kernel_size: 3
    stride: 1
    weight_filler {
      type: "xavier"
    }
    bias_filler {
      type: "constant"
      value: 0
    }
  }
}
layers {
  bottom: "1_1_deconv"
  top: "1_1_deconv"
  name: "1_1_deconv_ReLU"
  type: RELU
}
layers {
  bottom: "1_1_deconv"
  top: "1_0_deconv"
  name: "1_0_deconv"
  type: DECONVOLUTION
  blobs_lr: 1
  blobs_lr: 2
  weight_decay: 0
  weight_decay: 0
  convolution_param {
    num_output: 16
    pad: 1
    kernel_size: 3
    stride: 1
    weight_filler {
      type: "xavier"
    }
    bias_filler {
      type: "constant"
      value: 0
    }
  }
}
layers {
  bottom: "1_0_deconv"
  top: "1_0_deconv"
  name: "1_0_deconv_ReLU"
  type: RELU
}
layers {
  bottom: "1_0_deconv"
  bottom: "0_pool_mask"
  top: "0_unpool"
  name: "0_unpool"
  type: UNPOOLING
  unpooling_param {
    unpool: MAX
    kernel_size: 2
    stride: 2
    unpool_size: 32
  }
}
layers {
  bottom: "0_unpool"
  top: "0_1_deconv"
  name: "0_1_deconv"
  type: DECONVOLUTION
  blobs_lr: 1
  blobs_lr: 2
  weight_decay: 0
  weight_decay: 0
  convolution_param {
    num_output: 16
    pad: 1
    kernel_size: 3
    stride: 1
    weight_filler {
      type: "xavier"
    }
    bias_filler {
      type: "constant"
      value: 0
    }
  }
}
layers {
  bottom: "0_1_deconv"
  top: "0_1_deconv"
  name: "0_1_deconv_ReLU"
  type: RELU
}
layers {
  bottom: "0_1_deconv"
  top: "0_0_deconv"
  name: "0_0_deconv"
  type: DECONVOLUTION
  blobs_lr: 1
  blobs_lr: 2
  weight_decay: 0
  weight_decay: 0
  convolution_param {
    num_output: 16
    pad: 1
    kernel_size: 3
    stride: 1
    weight_filler {
      type: "xavier"
    }
    bias_filler {
      type: "constant"
      value: 0
    }
  }
}
layers {
  bottom: "0_0_deconv"
  top: "0_0_deconv"
  name: "0_0_deconv_ReLU"
  type: RELU
}
layers {
  bottom: "0_0_deconv"
  top: "reconstruct1"
  name: "reconstruct1"
  type: LOCAL
  blobs_lr: 1
  blobs_lr: 2
  weight_decay: 0
  weight_decay: 0
  local_param {
    num_output: 3
    pad: 0
    kernel_size: 1
    stride: 1
    weight_filler {
      type: "xavier"
    }
    bias_filler {
      type: "constant"
      value: 0
    }
  }
}
layers {
  bottom: "reconstruct1"
  top: "reconstruct2"
  name: "reconstruct2"
  type: LOCAL
  blobs_lr: 1
  blobs_lr: 2
  weight_decay: 0
  weight_decay: 0
  local_param {
    num_output: 3
    pad: 0
    kernel_size: 1
    stride: 1
    weight_filler {
      type: "xavier"
    }
    bias_filler {
      type: "constant"
      value: 0
    }
  }
}
layers {
  bottom: "data"
  bottom: "reconstruct2"
  top: "L2_Loss"
  name: "L2_Loss"
  type: EUCLIDEAN_LOSS
}
I0615 15:19:48.705644 21918 layer_factory.hpp:78] Creating layer data
I0615 15:19:48.705657 21918 data_transformer.cpp:25] Loading mean file from/dataset/cifar100_lmdb_lab/mean.binaryproto
I0615 15:19:48.705708 21918 net.cpp:69] Creating Layer data
I0615 15:19:48.705713 21918 net.cpp:358] data -> data
I0615 15:19:48.705721 21918 net.cpp:98] Setting up data
I0615 15:19:48.705724 21918 data_layer.cpp:32] Opening dataset /dataset/cifar100_lmdb_lab/cifar100_test_lmdb
I0615 15:19:48.705790 21918 data_layer.cpp:71] output data size: 750,3,32,32
I0615 15:19:48.706702 21918 net.cpp:105] Top shape: 750 3 32 32 (2304000)
I0615 15:19:48.706725 21918 layer_factory.hpp:78] Creating layer data_data_0_split
I0615 15:19:48.706735 21918 net.cpp:69] Creating Layer data_data_0_split
I0615 15:19:48.706738 21918 net.cpp:396] data_data_0_split <- data
I0615 15:19:48.706743 21918 net.cpp:358] data_data_0_split -> data_data_0_split_0
I0615 15:19:48.706751 21918 net.cpp:358] data_data_0_split -> data_data_0_split_1
I0615 15:19:48.706756 21918 net.cpp:98] Setting up data_data_0_split
I0615 15:19:48.706763 21918 net.cpp:105] Top shape: 750 3 32 32 (2304000)
I0615 15:19:48.706765 21918 net.cpp:105] Top shape: 750 3 32 32 (2304000)
I0615 15:19:48.706768 21918 layer_factory.hpp:78] Creating layer 0_0_conv
I0615 15:19:48.706774 21918 net.cpp:69] Creating Layer 0_0_conv
I0615 15:19:48.706776 21918 net.cpp:396] 0_0_conv <- data_data_0_split_0
I0615 15:19:48.706784 21918 net.cpp:358] 0_0_conv -> 0_0_conv
I0615 15:19:48.706789 21918 net.cpp:98] Setting up 0_0_conv
I0615 15:19:48.707069 21918 net.cpp:105] Top shape: 750 16 32 32 (12288000)
I0615 15:19:48.707080 21918 layer_factory.hpp:78] Creating layer 0_0_conv_ReLU
I0615 15:19:48.707084 21918 net.cpp:69] Creating Layer 0_0_conv_ReLU
I0615 15:19:48.707087 21918 net.cpp:396] 0_0_conv_ReLU <- 0_0_conv
I0615 15:19:48.707092 21918 net.cpp:347] 0_0_conv_ReLU -> 0_0_conv (in-place)
I0615 15:19:48.707095 21918 net.cpp:98] Setting up 0_0_conv_ReLU
I0615 15:19:48.707098 21918 net.cpp:105] Top shape: 750 16 32 32 (12288000)
I0615 15:19:48.707101 21918 layer_factory.hpp:78] Creating layer 0_1_conv
I0615 15:19:48.707106 21918 net.cpp:69] Creating Layer 0_1_conv
I0615 15:19:48.707109 21918 net.cpp:396] 0_1_conv <- 0_0_conv
I0615 15:19:48.707113 21918 net.cpp:358] 0_1_conv -> 0_1_conv
I0615 15:19:48.707118 21918 net.cpp:98] Setting up 0_1_conv
I0615 15:19:48.707137 21918 net.cpp:105] Top shape: 750 16 32 32 (12288000)
I0615 15:19:48.707144 21918 layer_factory.hpp:78] Creating layer 0_1_conv_ReLU
I0615 15:19:48.707146 21918 net.cpp:69] Creating Layer 0_1_conv_ReLU
I0615 15:19:48.707149 21918 net.cpp:396] 0_1_conv_ReLU <- 0_1_conv
I0615 15:19:48.707152 21918 net.cpp:347] 0_1_conv_ReLU -> 0_1_conv (in-place)
I0615 15:19:48.707156 21918 net.cpp:98] Setting up 0_1_conv_ReLU
I0615 15:19:48.707159 21918 net.cpp:105] Top shape: 750 16 32 32 (12288000)
I0615 15:19:48.707161 21918 layer_factory.hpp:78] Creating layer 0_pool
I0615 15:19:48.707166 21918 net.cpp:69] Creating Layer 0_pool
I0615 15:19:48.707170 21918 net.cpp:396] 0_pool <- 0_1_conv
I0615 15:19:48.707173 21918 net.cpp:358] 0_pool -> 0_pool
I0615 15:19:48.707177 21918 net.cpp:358] 0_pool -> 0_pool_mask
I0615 15:19:48.707182 21918 net.cpp:98] Setting up 0_pool
I0615 15:19:48.707188 21918 net.cpp:105] Top shape: 750 16 16 16 (3072000)
I0615 15:19:48.707191 21918 net.cpp:105] Top shape: 750 16 16 16 (3072000)
I0615 15:19:48.707193 21918 layer_factory.hpp:78] Creating layer 1_0_conv
I0615 15:19:48.707198 21918 net.cpp:69] Creating Layer 1_0_conv
I0615 15:19:48.707201 21918 net.cpp:396] 1_0_conv <- 0_pool
I0615 15:19:48.707206 21918 net.cpp:358] 1_0_conv -> 1_0_conv
I0615 15:19:48.707216 21918 net.cpp:98] Setting up 1_0_conv
I0615 15:19:48.707232 21918 net.cpp:105] Top shape: 750 16 16 16 (3072000)
I0615 15:19:48.707247 21918 layer_factory.hpp:78] Creating layer 1_0_conv_ReLU
I0615 15:19:48.707252 21918 net.cpp:69] Creating Layer 1_0_conv_ReLU
I0615 15:19:48.707254 21918 net.cpp:396] 1_0_conv_ReLU <- 1_0_conv
I0615 15:19:48.707258 21918 net.cpp:347] 1_0_conv_ReLU -> 1_0_conv (in-place)
I0615 15:19:48.707262 21918 net.cpp:98] Setting up 1_0_conv_ReLU
I0615 15:19:48.707264 21918 net.cpp:105] Top shape: 750 16 16 16 (3072000)
I0615 15:19:48.707267 21918 layer_factory.hpp:78] Creating layer 1_1_conv
I0615 15:19:48.707273 21918 net.cpp:69] Creating Layer 1_1_conv
I0615 15:19:48.707275 21918 net.cpp:396] 1_1_conv <- 1_0_conv
I0615 15:19:48.707279 21918 net.cpp:358] 1_1_conv -> 1_1_conv
I0615 15:19:48.707284 21918 net.cpp:98] Setting up 1_1_conv
I0615 15:19:48.707303 21918 net.cpp:105] Top shape: 750 16 16 16 (3072000)
I0615 15:19:48.707307 21918 layer_factory.hpp:78] Creating layer 1_1_conv_ReLU
I0615 15:19:48.707310 21918 net.cpp:69] Creating Layer 1_1_conv_ReLU
I0615 15:19:48.707314 21918 net.cpp:396] 1_1_conv_ReLU <- 1_1_conv
I0615 15:19:48.707316 21918 net.cpp:347] 1_1_conv_ReLU -> 1_1_conv (in-place)
I0615 15:19:48.707320 21918 net.cpp:98] Setting up 1_1_conv_ReLU
I0615 15:19:48.707322 21918 net.cpp:105] Top shape: 750 16 16 16 (3072000)
I0615 15:19:48.707325 21918 layer_factory.hpp:78] Creating layer 1_pool
I0615 15:19:48.707329 21918 net.cpp:69] Creating Layer 1_pool
I0615 15:19:48.707331 21918 net.cpp:396] 1_pool <- 1_1_conv
I0615 15:19:48.707335 21918 net.cpp:358] 1_pool -> 1_pool
I0615 15:19:48.707340 21918 net.cpp:358] 1_pool -> 1_pool_mask
I0615 15:19:48.707343 21918 net.cpp:98] Setting up 1_pool
I0615 15:19:48.707346 21918 net.cpp:105] Top shape: 750 16 8 8 (768000)
I0615 15:19:48.707350 21918 net.cpp:105] Top shape: 750 16 8 8 (768000)
I0615 15:19:48.707352 21918 layer_factory.hpp:78] Creating layer 2_0_conv
I0615 15:19:48.707361 21918 net.cpp:69] Creating Layer 2_0_conv
I0615 15:19:48.707365 21918 net.cpp:396] 2_0_conv <- 1_pool
I0615 15:19:48.707370 21918 net.cpp:358] 2_0_conv -> 2_0_conv
I0615 15:19:48.707375 21918 net.cpp:98] Setting up 2_0_conv
I0615 15:19:48.707392 21918 net.cpp:105] Top shape: 750 16 8 8 (768000)
I0615 15:19:48.707398 21918 layer_factory.hpp:78] Creating layer 2_0_conv_ReLU
I0615 15:19:48.707402 21918 net.cpp:69] Creating Layer 2_0_conv_ReLU
I0615 15:19:48.707404 21918 net.cpp:396] 2_0_conv_ReLU <- 2_0_conv
I0615 15:19:48.707408 21918 net.cpp:347] 2_0_conv_ReLU -> 2_0_conv (in-place)
I0615 15:19:48.707412 21918 net.cpp:98] Setting up 2_0_conv_ReLU
I0615 15:19:48.707414 21918 net.cpp:105] Top shape: 750 16 8 8 (768000)
I0615 15:19:48.707417 21918 layer_factory.hpp:78] Creating layer 2_1_conv
I0615 15:19:48.707422 21918 net.cpp:69] Creating Layer 2_1_conv
I0615 15:19:48.707424 21918 net.cpp:396] 2_1_conv <- 2_0_conv
I0615 15:19:48.707427 21918 net.cpp:358] 2_1_conv -> 2_1_conv
I0615 15:19:48.707432 21918 net.cpp:98] Setting up 2_1_conv
I0615 15:19:48.707450 21918 net.cpp:105] Top shape: 750 16 8 8 (768000)
I0615 15:19:48.707454 21918 layer_factory.hpp:78] Creating layer 2_1_conv_ReLU
I0615 15:19:48.707458 21918 net.cpp:69] Creating Layer 2_1_conv_ReLU
I0615 15:19:48.707460 21918 net.cpp:396] 2_1_conv_ReLU <- 2_1_conv
I0615 15:19:48.707464 21918 net.cpp:347] 2_1_conv_ReLU -> 2_1_conv (in-place)
I0615 15:19:48.707468 21918 net.cpp:98] Setting up 2_1_conv_ReLU
I0615 15:19:48.707470 21918 net.cpp:105] Top shape: 750 16 8 8 (768000)
I0615 15:19:48.707473 21918 layer_factory.hpp:78] Creating layer 2_pool
I0615 15:19:48.707478 21918 net.cpp:69] Creating Layer 2_pool
I0615 15:19:48.707479 21918 net.cpp:396] 2_pool <- 2_1_conv
I0615 15:19:48.707484 21918 net.cpp:358] 2_pool -> 2_pool
I0615 15:19:48.707489 21918 net.cpp:358] 2_pool -> 2_pool_mask
I0615 15:19:48.707494 21918 net.cpp:98] Setting up 2_pool
I0615 15:19:48.707496 21918 net.cpp:105] Top shape: 750 16 4 4 (192000)
I0615 15:19:48.707499 21918 net.cpp:105] Top shape: 750 16 4 4 (192000)
I0615 15:19:48.707504 21918 layer_factory.hpp:78] Creating layer middle_conv_zeros
I0615 15:19:48.707509 21918 net.cpp:69] Creating Layer middle_conv_zeros
I0615 15:19:48.707515 21918 net.cpp:396] middle_conv_zeros <- 2_pool
I0615 15:19:48.707518 21918 net.cpp:358] middle_conv_zeros -> middle_conv_zeros
I0615 15:19:48.707522 21918 net.cpp:98] Setting up middle_conv_zeros
I0615 15:19:48.707541 21918 net.cpp:105] Top shape: 750 50 1 1 (37500)
I0615 15:19:48.707547 21918 layer_factory.hpp:78] Creating layer middle_deconv
I0615 15:19:48.707554 21918 net.cpp:69] Creating Layer middle_deconv
I0615 15:19:48.707557 21918 net.cpp:396] middle_deconv <- middle_conv_zeros
I0615 15:19:48.707561 21918 net.cpp:358] middle_deconv -> middle_deconv
I0615 15:19:48.707566 21918 net.cpp:98] Setting up middle_deconv
I0615 15:19:48.707643 21918 net.cpp:105] Top shape: 750 16 2 2 (48000)
I0615 15:19:48.707648 21918 layer_factory.hpp:78] Creating layer 2_unpool
I0615 15:19:48.707653 21918 net.cpp:69] Creating Layer 2_unpool
I0615 15:19:48.707655 21918 net.cpp:396] 2_unpool <- middle_deconv
I0615 15:19:48.707659 21918 net.cpp:396] 2_unpool <- 2_pool_mask
I0615 15:19:48.707664 21918 net.cpp:358] 2_unpool -> 2_unpool
I0615 15:19:48.707669 21918 net.cpp:98] Setting up 2_unpool
I0615 15:19:48.707674 21918 net.cpp:105] Top shape: 750 16 8 8 (768000)
I0615 15:19:48.707676 21918 layer_factory.hpp:78] Creating layer 2_1_deconv
I0615 15:19:48.707684 21918 net.cpp:69] Creating Layer 2_1_deconv
I0615 15:19:48.707686 21918 net.cpp:396] 2_1_deconv <- 2_unpool
I0615 15:19:48.707690 21918 net.cpp:358] 2_1_deconv -> 2_1_deconv
I0615 15:19:48.707695 21918 net.cpp:98] Setting up 2_1_deconv
I0615 15:19:48.707711 21918 net.cpp:105] Top shape: 750 16 8 8 (768000)
I0615 15:19:48.707718 21918 layer_factory.hpp:78] Creating layer 2_1_deconv_ReLU
I0615 15:19:48.707721 21918 net.cpp:69] Creating Layer 2_1_deconv_ReLU
I0615 15:19:48.707725 21918 net.cpp:396] 2_1_deconv_ReLU <- 2_1_deconv
I0615 15:19:48.707728 21918 net.cpp:347] 2_1_deconv_ReLU -> 2_1_deconv (in-place)
I0615 15:19:48.707732 21918 net.cpp:98] Setting up 2_1_deconv_ReLU
I0615 15:19:48.707734 21918 net.cpp:105] Top shape: 750 16 8 8 (768000)
I0615 15:19:48.707737 21918 layer_factory.hpp:78] Creating layer 2_0_deconv
I0615 15:19:48.707741 21918 net.cpp:69] Creating Layer 2_0_deconv
I0615 15:19:48.707743 21918 net.cpp:396] 2_0_deconv <- 2_1_deconv
I0615 15:19:48.707748 21918 net.cpp:358] 2_0_deconv -> 2_0_deconv
I0615 15:19:48.707753 21918 net.cpp:98] Setting up 2_0_deconv
I0615 15:19:48.707772 21918 net.cpp:105] Top shape: 750 16 8 8 (768000)
I0615 15:19:48.707777 21918 layer_factory.hpp:78] Creating layer 2_0_deconv_ReLU
I0615 15:19:48.707779 21918 net.cpp:69] Creating Layer 2_0_deconv_ReLU
I0615 15:19:48.707782 21918 net.cpp:396] 2_0_deconv_ReLU <- 2_0_deconv
I0615 15:19:48.707787 21918 net.cpp:347] 2_0_deconv_ReLU -> 2_0_deconv (in-place)
I0615 15:19:48.707790 21918 net.cpp:98] Setting up 2_0_deconv_ReLU
I0615 15:19:48.707792 21918 net.cpp:105] Top shape: 750 16 8 8 (768000)
I0615 15:19:48.707795 21918 layer_factory.hpp:78] Creating layer 1_unpool
I0615 15:19:48.707798 21918 net.cpp:69] Creating Layer 1_unpool
I0615 15:19:48.707801 21918 net.cpp:396] 1_unpool <- 2_0_deconv
I0615 15:19:48.707804 21918 net.cpp:396] 1_unpool <- 1_pool_mask
I0615 15:19:48.707808 21918 net.cpp:358] 1_unpool -> 1_unpool
I0615 15:19:48.707811 21918 net.cpp:98] Setting up 1_unpool
I0615 15:19:48.707814 21918 net.cpp:105] Top shape: 750 16 16 16 (3072000)
I0615 15:19:48.707818 21918 layer_factory.hpp:78] Creating layer 1_1_deconv
I0615 15:19:48.707821 21918 net.cpp:69] Creating Layer 1_1_deconv
I0615 15:19:48.707824 21918 net.cpp:396] 1_1_deconv <- 1_unpool
I0615 15:19:48.707828 21918 net.cpp:358] 1_1_deconv -> 1_1_deconv
I0615 15:19:48.707831 21918 net.cpp:98] Setting up 1_1_deconv
I0615 15:19:48.707849 21918 net.cpp:105] Top shape: 750 16 16 16 (3072000)
I0615 15:19:48.707854 21918 layer_factory.hpp:78] Creating layer 1_1_deconv_ReLU
I0615 15:19:48.707856 21918 net.cpp:69] Creating Layer 1_1_deconv_ReLU
I0615 15:19:48.707859 21918 net.cpp:396] 1_1_deconv_ReLU <- 1_1_deconv
I0615 15:19:48.707864 21918 net.cpp:347] 1_1_deconv_ReLU -> 1_1_deconv (in-place)
I0615 15:19:48.707872 21918 net.cpp:98] Setting up 1_1_deconv_ReLU
I0615 15:19:48.707875 21918 net.cpp:105] Top shape: 750 16 16 16 (3072000)
I0615 15:19:48.707877 21918 layer_factory.hpp:78] Creating layer 1_0_deconv
I0615 15:19:48.707882 21918 net.cpp:69] Creating Layer 1_0_deconv
I0615 15:19:48.707885 21918 net.cpp:396] 1_0_deconv <- 1_1_deconv
I0615 15:19:48.707890 21918 net.cpp:358] 1_0_deconv -> 1_0_deconv
I0615 15:19:48.707893 21918 net.cpp:98] Setting up 1_0_deconv
I0615 15:19:48.707917 21918 net.cpp:105] Top shape: 750 16 16 16 (3072000)
I0615 15:19:48.707922 21918 layer_factory.hpp:78] Creating layer 1_0_deconv_ReLU
I0615 15:19:48.707926 21918 net.cpp:69] Creating Layer 1_0_deconv_ReLU
I0615 15:19:48.707928 21918 net.cpp:396] 1_0_deconv_ReLU <- 1_0_deconv
I0615 15:19:48.707932 21918 net.cpp:347] 1_0_deconv_ReLU -> 1_0_deconv (in-place)
I0615 15:19:48.707937 21918 net.cpp:98] Setting up 1_0_deconv_ReLU
I0615 15:19:48.707938 21918 net.cpp:105] Top shape: 750 16 16 16 (3072000)
I0615 15:19:48.707942 21918 layer_factory.hpp:78] Creating layer 0_unpool
I0615 15:19:48.707945 21918 net.cpp:69] Creating Layer 0_unpool
I0615 15:19:48.707947 21918 net.cpp:396] 0_unpool <- 1_0_deconv
I0615 15:19:48.707950 21918 net.cpp:396] 0_unpool <- 0_pool_mask
I0615 15:19:48.707954 21918 net.cpp:358] 0_unpool -> 0_unpool
I0615 15:19:48.707958 21918 net.cpp:98] Setting up 0_unpool
I0615 15:19:48.707962 21918 net.cpp:105] Top shape: 750 16 32 32 (12288000)
I0615 15:19:48.707963 21918 layer_factory.hpp:78] Creating layer 0_1_deconv
I0615 15:19:48.707967 21918 net.cpp:69] Creating Layer 0_1_deconv
I0615 15:19:48.707969 21918 net.cpp:396] 0_1_deconv <- 0_unpool
I0615 15:19:48.707974 21918 net.cpp:358] 0_1_deconv -> 0_1_deconv
I0615 15:19:48.707978 21918 net.cpp:98] Setting up 0_1_deconv
I0615 15:19:48.707998 21918 net.cpp:105] Top shape: 750 16 32 32 (12288000)
I0615 15:19:48.708001 21918 layer_factory.hpp:78] Creating layer 0_1_deconv_ReLU
I0615 15:19:48.708005 21918 net.cpp:69] Creating Layer 0_1_deconv_ReLU
I0615 15:19:48.708008 21918 net.cpp:396] 0_1_deconv_ReLU <- 0_1_deconv
I0615 15:19:48.708017 21918 net.cpp:347] 0_1_deconv_ReLU -> 0_1_deconv (in-place)
I0615 15:19:48.708021 21918 net.cpp:98] Setting up 0_1_deconv_ReLU
I0615 15:19:48.708024 21918 net.cpp:105] Top shape: 750 16 32 32 (12288000)
I0615 15:19:48.708026 21918 layer_factory.hpp:78] Creating layer 0_0_deconv
I0615 15:19:48.708034 21918 net.cpp:69] Creating Layer 0_0_deconv
I0615 15:19:48.708037 21918 net.cpp:396] 0_0_deconv <- 0_1_deconv
I0615 15:19:48.708041 21918 net.cpp:358] 0_0_deconv -> 0_0_deconv
I0615 15:19:48.708045 21918 net.cpp:98] Setting up 0_0_deconv
I0615 15:19:48.708061 21918 net.cpp:105] Top shape: 750 16 32 32 (12288000)
I0615 15:19:48.708065 21918 layer_factory.hpp:78] Creating layer 0_0_deconv_ReLU
I0615 15:19:48.708070 21918 net.cpp:69] Creating Layer 0_0_deconv_ReLU
I0615 15:19:48.708071 21918 net.cpp:396] 0_0_deconv_ReLU <- 0_0_deconv
I0615 15:19:48.708076 21918 net.cpp:347] 0_0_deconv_ReLU -> 0_0_deconv (in-place)
I0615 15:19:48.708079 21918 net.cpp:98] Setting up 0_0_deconv_ReLU
I0615 15:19:48.708081 21918 net.cpp:105] Top shape: 750 16 32 32 (12288000)
I0615 15:19:48.708084 21918 layer_factory.hpp:78] Creating layer reconstruct1
I0615 15:19:48.708091 21918 net.cpp:69] Creating Layer reconstruct1
I0615 15:19:48.708093 21918 net.cpp:396] reconstruct1 <- 0_0_deconv
I0615 15:19:48.708097 21918 net.cpp:358] reconstruct1 -> reconstruct1
I0615 15:19:48.708102 21918 net.cpp:98] Setting up reconstruct1
I0615 15:19:48.708438 21918 net.cpp:105] Top shape: 750 3 32 32 (2304000)
I0615 15:19:48.708446 21918 layer_factory.hpp:78] Creating layer reconstruct2
I0615 15:19:48.708451 21918 net.cpp:69] Creating Layer reconstruct2
I0615 15:19:48.708453 21918 net.cpp:396] reconstruct2 <- reconstruct1
I0615 15:19:48.708458 21918 net.cpp:358] reconstruct2 -> reconstruct2
I0615 15:19:48.708463 21918 net.cpp:98] Setting up reconstruct2
I0615 15:19:48.708524 21918 net.cpp:105] Top shape: 750 3 32 32 (2304000)
I0615 15:19:48.708534 21918 layer_factory.hpp:78] Creating layer L2_Loss
I0615 15:19:48.708544 21918 net.cpp:69] Creating Layer L2_Loss
I0615 15:19:48.708546 21918 net.cpp:396] L2_Loss <- data_data_0_split_1
I0615 15:19:48.708549 21918 net.cpp:396] L2_Loss <- reconstruct2
I0615 15:19:48.708555 21918 net.cpp:358] L2_Loss -> L2_Loss
I0615 15:19:48.708560 21918 net.cpp:98] Setting up L2_Loss
I0615 15:19:48.708565 21918 net.cpp:105] Top shape: 1 1 1 1 (1)
I0615 15:19:48.708569 21918 net.cpp:111]     with loss weight 1
I0615 15:19:48.708582 21918 net.cpp:172] L2_Loss needs backward computation.
I0615 15:19:48.708585 21918 net.cpp:172] reconstruct2 needs backward computation.
I0615 15:19:48.708588 21918 net.cpp:172] reconstruct1 needs backward computation.
I0615 15:19:48.708590 21918 net.cpp:172] 0_0_deconv_ReLU needs backward computation.
…
