…
I0615 16:32:23.458456 29190 solver.cpp:70] Creating training net from net file: prototxt/16-06-15_15h49m18s_0_40_reconstructFull_net.sh
I0615 16:32:23.459048 29190 net.cpp:277] The NetState phase (0) differed from the phase (1) specified by a rule in layer data
I0615 16:32:23.459206 29190 net.cpp:39] Initializing net from parameters: 
layers {
  top: "data"
  name: "data"
  type: DATA
  data_param {
    source: "/dataset/cifar100_lmdb_lab/cifar100_train_lmdb"
    batch_size: 750
    backend: LMDB
  }
  include {
    phase: TRAIN
  }
  transform_param {
    mean_file: "/dataset/cifar100_lmdb_lab/mean.binaryproto"
  }
}
layers {
  bottom: "data"
  top: "0_0_conv"
  name: "0_0_conv"
  type: CONVOLUTION
  blobs_lr: 0
  blobs_lr: 0
  weight_decay: 0
  weight_decay: 0
  convolution_param {
    num_output: 8
    pad: 1
    kernel_size: 3
    stride: 1
    weight_filler {
      type: "xavier"
    }
    bias_filler {
      type: "constant"
      value: 0
    }
  }
}
layers {
  bottom: "0_0_conv"
  top: "0_0_conv"
  name: "0_0_conv_ReLU"
  type: RELU
}
layers {
  bottom: "0_0_conv"
  top: "0_1_conv"
  name: "0_1_conv"
  type: CONVOLUTION
  blobs_lr: 0
  blobs_lr: 0
  weight_decay: 0
  weight_decay: 0
  convolution_param {
    num_output: 8
    pad: 1
    kernel_size: 3
    stride: 1
    weight_filler {
      type: "xavier"
    }
    bias_filler {
      type: "constant"
      value: 0
    }
  }
}
layers {
  bottom: "0_1_conv"
  top: "0_1_conv"
  name: "0_1_conv_ReLU"
  type: RELU
}
layers {
  bottom: "0_1_conv"
  top: "0_pool"
  top: "0_pool_mask"
  name: "0_pool"
  type: POOLING
  pooling_param {
    pool: MAX
    kernel_size: 2
    stride: 2
  }
}
layers {
  bottom: "0_pool"
  top: "1_0_conv"
  name: "1_0_conv"
  type: CONVOLUTION
  blobs_lr: 0
  blobs_lr: 0
  weight_decay: 0
  weight_decay: 0
  convolution_param {
    num_output: 8
    pad: 1
    kernel_size: 3
    stride: 1
    weight_filler {
      type: "xavier"
    }
    bias_filler {
      type: "constant"
      value: 0
    }
  }
}
layers {
  bottom: "1_0_conv"
  top: "1_0_conv"
  name: "1_0_conv_ReLU"
  type: RELU
}
layers {
  bottom: "1_0_conv"
  top: "1_1_conv"
  name: "1_1_conv"
  type: CONVOLUTION
  blobs_lr: 0
  blobs_lr: 0
  weight_decay: 0
  weight_decay: 0
  convolution_param {
    num_output: 8
    pad: 1
    kernel_size: 3
    stride: 1
    weight_filler {
      type: "xavier"
    }
    bias_filler {
      type: "constant"
      value: 0
    }
  }
}
layers {
  bottom: "1_1_conv"
  top: "1_1_conv"
  name: "1_1_conv_ReLU"
  type: RELU
}
layers {
  bottom: "1_1_conv"
  top: "1_pool"
  top: "1_pool_mask"
  name: "1_pool"
  type: POOLING
  pooling_param {
    pool: MAX
    kernel_size: 2
    stride: 2
  }
}
layers {
  bottom: "1_pool"
  top: "2_0_conv"
  name: "2_0_conv"
  type: CONVOLUTION
  blobs_lr: 0
  blobs_lr: 0
  weight_decay: 0
  weight_decay: 0
  convolution_param {
    num_output: 8
    pad: 1
    kernel_size: 3
    stride: 1
    weight_filler {
      type: "xavier"
    }
    bias_filler {
      type: "constant"
      value: 0
    }
  }
}
layers {
  bottom: "2_0_conv"
  top: "2_0_conv"
  name: "2_0_conv_ReLU"
  type: RELU
}
layers {
  bottom: "2_0_conv"
  top: "2_1_conv"
  name: "2_1_conv"
  type: CONVOLUTION
  blobs_lr: 0
  blobs_lr: 0
  weight_decay: 0
  weight_decay: 0
  convolution_param {
    num_output: 8
    pad: 1
    kernel_size: 3
    stride: 1
    weight_filler {
      type: "xavier"
    }
    bias_filler {
      type: "constant"
      value: 0
    }
  }
}
layers {
  bottom: "2_1_conv"
  top: "2_1_conv"
  name: "2_1_conv_ReLU"
  type: RELU
}
layers {
  bottom: "2_1_conv"
  top: "2_pool"
  top: "2_pool_mask"
  name: "2_pool"
  type: POOLING
  pooling_param {
    pool: MAX
    kernel_size: 2
    stride: 2
  }
}
layers {
  bottom: "2_pool"
  top: "middle_conv"
  name: "middle_conv"
  type: CONVOLUTION
  blobs_lr: 0
  blobs_lr: 0
  weight_decay: 0
  weight_decay: 0
  convolution_param {
    num_output: 50
    pad: 0
    kernel_size: 4
    stride: 1
    weight_filler {
      type: "xavier"
    }
    bias_filler {
      type: "constant"
      value: 0
    }
  }
}
layers {
  bottom: "middle_conv"
  top: "middle_deconv"
  name: "middle_deconv"
  type: DECONVOLUTION
  blobs_lr: 1
  blobs_lr: 2
  weight_decay: 0
  weight_decay: 0
  convolution_param {
    num_output: 8
    pad: 1
    kernel_size: 4
    stride: 1
    weight_filler {
      type: "xavier"
    }
    bias_filler {
      type: "constant"
      value: 0
    }
  }
}
layers {
  bottom: "middle_deconv"
  bottom: "2_pool_mask"
  top: "2_unpool"
  name: "2_unpool"
  type: UNPOOLING
  unpooling_param {
    unpool: MAX
    kernel_size: 2
    stride: 2
    unpool_size: 8
  }
}
layers {
  bottom: "2_unpool"
  top: "2_1_deconv"
  name: "2_1_deconv"
  type: DECONVOLUTION
  blobs_lr: 1
  blobs_lr: 2
  weight_decay: 0
  weight_decay: 0
  convolution_param {
    num_output: 8
    pad: 1
    kernel_size: 3
    stride: 1
    weight_filler {
      type: "xavier"
    }
    bias_filler {
      type: "constant"
      value: 0
    }
  }
}
layers {
  bottom: "2_1_deconv"
  top: "2_1_deconv"
  name: "2_1_deconv_ReLU"
  type: RELU
}
layers {
  bottom: "2_1_deconv"
  top: "2_0_deconv"
  name: "2_0_deconv"
  type: DECONVOLUTION
  blobs_lr: 1
  blobs_lr: 2
  weight_decay: 0
  weight_decay: 0
  convolution_param {
    num_output: 8
    pad: 1
    kernel_size: 3
    stride: 1
    weight_filler {
      type: "xavier"
    }
    bias_filler {
      type: "constant"
      value: 0
    }
  }
}
layers {
  bottom: "2_0_deconv"
  top: "2_0_deconv"
  name: "2_0_deconv_ReLU"
  type: RELU
}
layers {
  bottom: "2_0_deconv"
  bottom: "1_pool_mask"
  top: "1_unpool"
  name: "1_unpool"
  type: UNPOOLING
  unpooling_param {
    unpool: MAX
    kernel_size: 2
    stride: 2
    unpool_size: 16
  }
}
layers {
  bottom: "1_unpool"
  top: "1_1_deconv"
  name: "1_1_deconv"
  type: DECONVOLUTION
  blobs_lr: 1
  blobs_lr: 2
  weight_decay: 0
  weight_decay: 0
  convolution_param {
    num_output: 8
    pad: 1
    kernel_size: 3
    stride: 1
    weight_filler {
      type: "xavier"
    }
    bias_filler {
      type: "constant"
      value: 0
    }
  }
}
layers {
  bottom: "1_1_deconv"
  top: "1_1_deconv"
  name: "1_1_deconv_ReLU"
  type: RELU
}
layers {
  bottom: "1_1_deconv"
  top: "1_0_deconv"
  name: "1_0_deconv"
  type: DECONVOLUTION
  blobs_lr: 1
  blobs_lr: 2
  weight_decay: 0
  weight_decay: 0
  convolution_param {
    num_output: 8
    pad: 1
    kernel_size: 3
    stride: 1
    weight_filler {
      type: "xavier"
    }
    bias_filler {
      type: "constant"
      value: 0
    }
  }
}
layers {
  bottom: "1_0_deconv"
  top: "1_0_deconv"
  name: "1_0_deconv_ReLU"
  type: RELU
}
layers {
  bottom: "1_0_deconv"
  bottom: "0_pool_mask"
  top: "0_unpool"
  name: "0_unpool"
  type: UNPOOLING
  unpooling_param {
    unpool: MAX
    kernel_size: 2
    stride: 2
    unpool_size: 32
  }
}
layers {
  bottom: "0_unpool"
  top: "0_1_deconv"
  name: "0_1_deconv"
  type: DECONVOLUTION
  blobs_lr: 1
  blobs_lr: 2
  weight_decay: 0
  weight_decay: 0
  convolution_param {
    num_output: 8
    pad: 1
    kernel_size: 3
    stride: 1
    weight_filler {
      type: "xavier"
    }
    bias_filler {
      type: "constant"
      value: 0
    }
  }
}
layers {
  bottom: "0_1_deconv"
  top: "0_1_deconv"
  name: "0_1_deconv_ReLU"
  type: RELU
}
layers {
  bottom: "0_1_deconv"
  top: "0_0_deconv"
  name: "0_0_deconv"
  type: DECONVOLUTION
  blobs_lr: 1
  blobs_lr: 2
  weight_decay: 0
  weight_decay: 0
  convolution_param {
    num_output: 8
    pad: 1
    kernel_size: 3
    stride: 1
    weight_filler {
      type: "xavier"
    }
    bias_filler {
      type: "constant"
      value: 0
    }
  }
}
layers {
  bottom: "0_0_deconv"
  top: "0_0_deconv"
  name: "0_0_deconv_ReLU"
  type: RELU
}
layers {
  bottom: "0_0_deconv"
  top: "reconstruct1"
  name: "reconstruct1"
  type: LOCAL
  blobs_lr: 1
  blobs_lr: 2
  weight_decay: 0
  weight_decay: 0
  local_param {
    num_output: 3
    pad: 0
    kernel_size: 1
    stride: 1
    weight_filler {
      type: "xavier"
    }
    bias_filler {
      type: "constant"
      value: 0
    }
  }
}
layers {
  bottom: "reconstruct1"
  top: "reconstruct2"
  name: "reconstruct2"
  type: LOCAL
  blobs_lr: 1
  blobs_lr: 2
  weight_decay: 0
  weight_decay: 0
  local_param {
    num_output: 3
    pad: 0
    kernel_size: 1
    stride: 1
    weight_filler {
      type: "xavier"
    }
    bias_filler {
      type: "constant"
      value: 0
    }
  }
}
layers {
  bottom: "data"
  bottom: "reconstruct2"
  top: "L2_Loss"
  name: "L2_Loss"
  type: EUCLIDEAN_LOSS
}
state {
  phase: TRAIN
}
I0615 16:32:23.459319 29190 layer_factory.hpp:78] Creating layer data
I0615 16:32:23.459334 29190 data_transformer.cpp:25] Loading mean file from/dataset/cifar100_lmdb_lab/mean.binaryproto
I0615 16:32:23.459384 29190 net.cpp:69] Creating Layer data
I0615 16:32:23.459390 29190 net.cpp:358] data -> data
I0615 16:32:23.459399 29190 net.cpp:98] Setting up data
I0615 16:32:23.459403 29190 data_layer.cpp:32] Opening dataset /dataset/cifar100_lmdb_lab/cifar100_train_lmdb
I0615 16:32:23.459475 29190 data_layer.cpp:71] output data size: 750,3,32,32
I0615 16:32:23.460588 29190 net.cpp:105] Top shape: 750 3 32 32 (2304000)
I0615 16:32:23.460611 29190 layer_factory.hpp:78] Creating layer data_data_0_split
I0615 16:32:23.460619 29190 net.cpp:69] Creating Layer data_data_0_split
I0615 16:32:23.460623 29190 net.cpp:396] data_data_0_split <- data
I0615 16:32:23.460628 29190 net.cpp:358] data_data_0_split -> data_data_0_split_0
I0615 16:32:23.460636 29190 net.cpp:358] data_data_0_split -> data_data_0_split_1
I0615 16:32:23.460641 29190 net.cpp:98] Setting up data_data_0_split
I0615 16:32:23.460645 29190 net.cpp:105] Top shape: 750 3 32 32 (2304000)
I0615 16:32:23.460649 29190 net.cpp:105] Top shape: 750 3 32 32 (2304000)
I0615 16:32:23.460652 29190 layer_factory.hpp:78] Creating layer 0_0_conv
I0615 16:32:23.460659 29190 net.cpp:69] Creating Layer 0_0_conv
I0615 16:32:23.460662 29190 net.cpp:396] 0_0_conv <- data_data_0_split_0
I0615 16:32:23.460669 29190 net.cpp:358] 0_0_conv -> 0_0_conv
I0615 16:32:23.460675 29190 net.cpp:98] Setting up 0_0_conv
I0615 16:32:23.460954 29190 net.cpp:105] Top shape: 750 8 32 32 (6144000)
I0615 16:32:23.460964 29190 layer_factory.hpp:78] Creating layer 0_0_conv_ReLU
I0615 16:32:23.460969 29190 net.cpp:69] Creating Layer 0_0_conv_ReLU
I0615 16:32:23.460971 29190 net.cpp:396] 0_0_conv_ReLU <- 0_0_conv
I0615 16:32:23.460975 29190 net.cpp:347] 0_0_conv_ReLU -> 0_0_conv (in-place)
I0615 16:32:23.460979 29190 net.cpp:98] Setting up 0_0_conv_ReLU
I0615 16:32:23.460983 29190 net.cpp:105] Top shape: 750 8 32 32 (6144000)
I0615 16:32:23.460985 29190 layer_factory.hpp:78] Creating layer 0_1_conv
I0615 16:32:23.460990 29190 net.cpp:69] Creating Layer 0_1_conv
I0615 16:32:23.460994 29190 net.cpp:396] 0_1_conv <- 0_0_conv
I0615 16:32:23.460999 29190 net.cpp:358] 0_1_conv -> 0_1_conv
I0615 16:32:23.461004 29190 net.cpp:98] Setting up 0_1_conv
I0615 16:32:23.461015 29190 net.cpp:105] Top shape: 750 8 32 32 (6144000)
I0615 16:32:23.461020 29190 layer_factory.hpp:78] Creating layer 0_1_conv_ReLU
I0615 16:32:23.461025 29190 net.cpp:69] Creating Layer 0_1_conv_ReLU
I0615 16:32:23.461029 29190 net.cpp:396] 0_1_conv_ReLU <- 0_1_conv
I0615 16:32:23.461032 29190 net.cpp:347] 0_1_conv_ReLU -> 0_1_conv (in-place)
I0615 16:32:23.461036 29190 net.cpp:98] Setting up 0_1_conv_ReLU
I0615 16:32:23.461040 29190 net.cpp:105] Top shape: 750 8 32 32 (6144000)
I0615 16:32:23.461041 29190 layer_factory.hpp:78] Creating layer 0_pool
I0615 16:32:23.461046 29190 net.cpp:69] Creating Layer 0_pool
I0615 16:32:23.461050 29190 net.cpp:396] 0_pool <- 0_1_conv
I0615 16:32:23.461052 29190 net.cpp:358] 0_pool -> 0_pool
I0615 16:32:23.461063 29190 net.cpp:358] 0_pool -> 0_pool_mask
I0615 16:32:23.461068 29190 net.cpp:98] Setting up 0_pool
I0615 16:32:23.461083 29190 net.cpp:105] Top shape: 750 8 16 16 (1536000)
I0615 16:32:23.461087 29190 net.cpp:105] Top shape: 750 8 16 16 (1536000)
I0615 16:32:23.461089 29190 layer_factory.hpp:78] Creating layer 1_0_conv
I0615 16:32:23.461096 29190 net.cpp:69] Creating Layer 1_0_conv
I0615 16:32:23.461098 29190 net.cpp:396] 1_0_conv <- 0_pool
I0615 16:32:23.461102 29190 net.cpp:358] 1_0_conv -> 1_0_conv
I0615 16:32:23.461107 29190 net.cpp:98] Setting up 1_0_conv
I0615 16:32:23.461117 29190 net.cpp:105] Top shape: 750 8 16 16 (1536000)
I0615 16:32:23.461122 29190 layer_factory.hpp:78] Creating layer 1_0_conv_ReLU
I0615 16:32:23.461125 29190 net.cpp:69] Creating Layer 1_0_conv_ReLU
I0615 16:32:23.461128 29190 net.cpp:396] 1_0_conv_ReLU <- 1_0_conv
I0615 16:32:23.461133 29190 net.cpp:347] 1_0_conv_ReLU -> 1_0_conv (in-place)
I0615 16:32:23.461136 29190 net.cpp:98] Setting up 1_0_conv_ReLU
I0615 16:32:23.461138 29190 net.cpp:105] Top shape: 750 8 16 16 (1536000)
I0615 16:32:23.461151 29190 layer_factory.hpp:78] Creating layer 1_1_conv
I0615 16:32:23.461156 29190 net.cpp:69] Creating Layer 1_1_conv
I0615 16:32:23.461158 29190 net.cpp:396] 1_1_conv <- 1_0_conv
I0615 16:32:23.461163 29190 net.cpp:358] 1_1_conv -> 1_1_conv
I0615 16:32:23.461169 29190 net.cpp:98] Setting up 1_1_conv
I0615 16:32:23.461179 29190 net.cpp:105] Top shape: 750 8 16 16 (1536000)
I0615 16:32:23.461191 29190 layer_factory.hpp:78] Creating layer 1_1_conv_ReLU
I0615 16:32:23.461195 29190 net.cpp:69] Creating Layer 1_1_conv_ReLU
I0615 16:32:23.461197 29190 net.cpp:396] 1_1_conv_ReLU <- 1_1_conv
I0615 16:32:23.461201 29190 net.cpp:347] 1_1_conv_ReLU -> 1_1_conv (in-place)
I0615 16:32:23.461205 29190 net.cpp:98] Setting up 1_1_conv_ReLU
I0615 16:32:23.461207 29190 net.cpp:105] Top shape: 750 8 16 16 (1536000)
I0615 16:32:23.461210 29190 layer_factory.hpp:78] Creating layer 1_pool
I0615 16:32:23.461215 29190 net.cpp:69] Creating Layer 1_pool
I0615 16:32:23.461216 29190 net.cpp:396] 1_pool <- 1_1_conv
I0615 16:32:23.461221 29190 net.cpp:358] 1_pool -> 1_pool
I0615 16:32:23.461225 29190 net.cpp:358] 1_pool -> 1_pool_mask
I0615 16:32:23.461230 29190 net.cpp:98] Setting up 1_pool
I0615 16:32:23.461232 29190 net.cpp:105] Top shape: 750 8 8 8 (384000)
I0615 16:32:23.461236 29190 net.cpp:105] Top shape: 750 8 8 8 (384000)
I0615 16:32:23.461238 29190 layer_factory.hpp:78] Creating layer 2_0_conv
I0615 16:32:23.461241 29190 net.cpp:69] Creating Layer 2_0_conv
I0615 16:32:23.461244 29190 net.cpp:396] 2_0_conv <- 1_pool
I0615 16:32:23.461248 29190 net.cpp:358] 2_0_conv -> 2_0_conv
I0615 16:32:23.461252 29190 net.cpp:98] Setting up 2_0_conv
I0615 16:32:23.461261 29190 net.cpp:105] Top shape: 750 8 8 8 (384000)
I0615 16:32:23.461266 29190 layer_factory.hpp:78] Creating layer 2_0_conv_ReLU
I0615 16:32:23.461271 29190 net.cpp:69] Creating Layer 2_0_conv_ReLU
I0615 16:32:23.461272 29190 net.cpp:396] 2_0_conv_ReLU <- 2_0_conv
I0615 16:32:23.461277 29190 net.cpp:347] 2_0_conv_ReLU -> 2_0_conv (in-place)
I0615 16:32:23.461280 29190 net.cpp:98] Setting up 2_0_conv_ReLU
I0615 16:32:23.461282 29190 net.cpp:105] Top shape: 750 8 8 8 (384000)
I0615 16:32:23.461285 29190 layer_factory.hpp:78] Creating layer 2_1_conv
I0615 16:32:23.461289 29190 net.cpp:69] Creating Layer 2_1_conv
I0615 16:32:23.461292 29190 net.cpp:396] 2_1_conv <- 2_0_conv
I0615 16:32:23.461300 29190 net.cpp:358] 2_1_conv -> 2_1_conv
I0615 16:32:23.461305 29190 net.cpp:98] Setting up 2_1_conv
I0615 16:32:23.461314 29190 net.cpp:105] Top shape: 750 8 8 8 (384000)
I0615 16:32:23.461318 29190 layer_factory.hpp:78] Creating layer 2_1_conv_ReLU
I0615 16:32:23.461321 29190 net.cpp:69] Creating Layer 2_1_conv_ReLU
I0615 16:32:23.461324 29190 net.cpp:396] 2_1_conv_ReLU <- 2_1_conv
I0615 16:32:23.461328 29190 net.cpp:347] 2_1_conv_ReLU -> 2_1_conv (in-place)
I0615 16:32:23.461331 29190 net.cpp:98] Setting up 2_1_conv_ReLU
I0615 16:32:23.461334 29190 net.cpp:105] Top shape: 750 8 8 8 (384000)
I0615 16:32:23.461336 29190 layer_factory.hpp:78] Creating layer 2_pool
I0615 16:32:23.461344 29190 net.cpp:69] Creating Layer 2_pool
I0615 16:32:23.461350 29190 net.cpp:396] 2_pool <- 2_1_conv
I0615 16:32:23.461354 29190 net.cpp:358] 2_pool -> 2_pool
I0615 16:32:23.461359 29190 net.cpp:358] 2_pool -> 2_pool_mask
I0615 16:32:23.461364 29190 net.cpp:98] Setting up 2_pool
I0615 16:32:23.461366 29190 net.cpp:105] Top shape: 750 8 4 4 (96000)
I0615 16:32:23.461369 29190 net.cpp:105] Top shape: 750 8 4 4 (96000)
I0615 16:32:23.461371 29190 layer_factory.hpp:78] Creating layer middle_conv
I0615 16:32:23.461376 29190 net.cpp:69] Creating Layer middle_conv
I0615 16:32:23.461380 29190 net.cpp:396] middle_conv <- 2_pool
I0615 16:32:23.461383 29190 net.cpp:358] middle_conv -> middle_conv
I0615 16:32:23.461387 29190 net.cpp:98] Setting up middle_conv
I0615 16:32:23.461422 29190 net.cpp:105] Top shape: 750 50 1 1 (37500)
I0615 16:32:23.461426 29190 layer_factory.hpp:78] Creating layer middle_deconv
I0615 16:32:23.461436 29190 net.cpp:69] Creating Layer middle_deconv
I0615 16:32:23.461439 29190 net.cpp:396] middle_deconv <- middle_conv
I0615 16:32:23.461443 29190 net.cpp:358] middle_deconv -> middle_deconv
I0615 16:32:23.461448 29190 net.cpp:98] Setting up middle_deconv
I0615 16:32:23.461485 29190 net.cpp:105] Top shape: 750 8 2 2 (24000)
I0615 16:32:23.461490 29190 layer_factory.hpp:78] Creating layer 2_unpool
I0615 16:32:23.461494 29190 net.cpp:69] Creating Layer 2_unpool
I0615 16:32:23.461498 29190 net.cpp:396] 2_unpool <- middle_deconv
I0615 16:32:23.461501 29190 net.cpp:396] 2_unpool <- 2_pool_mask
I0615 16:32:23.461505 29190 net.cpp:358] 2_unpool -> 2_unpool
I0615 16:32:23.461509 29190 net.cpp:98] Setting up 2_unpool
I0615 16:32:23.461515 29190 net.cpp:105] Top shape: 750 8 8 8 (384000)
I0615 16:32:23.461519 29190 layer_factory.hpp:78] Creating layer 2_1_deconv
I0615 16:32:23.461522 29190 net.cpp:69] Creating Layer 2_1_deconv
I0615 16:32:23.461525 29190 net.cpp:396] 2_1_deconv <- 2_unpool
I0615 16:32:23.461529 29190 net.cpp:358] 2_1_deconv -> 2_1_deconv
I0615 16:32:23.461534 29190 net.cpp:98] Setting up 2_1_deconv
I0615 16:32:23.461544 29190 net.cpp:105] Top shape: 750 8 8 8 (384000)
I0615 16:32:23.461549 29190 layer_factory.hpp:78] Creating layer 2_1_deconv_ReLU
I0615 16:32:23.461554 29190 net.cpp:69] Creating Layer 2_1_deconv_ReLU
I0615 16:32:23.461556 29190 net.cpp:396] 2_1_deconv_ReLU <- 2_1_deconv
I0615 16:32:23.461560 29190 net.cpp:347] 2_1_deconv_ReLU -> 2_1_deconv (in-place)
I0615 16:32:23.461563 29190 net.cpp:98] Setting up 2_1_deconv_ReLU
I0615 16:32:23.461567 29190 net.cpp:105] Top shape: 750 8 8 8 (384000)
I0615 16:32:23.461570 29190 layer_factory.hpp:78] Creating layer 2_0_deconv
I0615 16:32:23.461575 29190 net.cpp:69] Creating Layer 2_0_deconv
I0615 16:32:23.461577 29190 net.cpp:396] 2_0_deconv <- 2_1_deconv
I0615 16:32:23.461581 29190 net.cpp:358] 2_0_deconv -> 2_0_deconv
I0615 16:32:23.461585 29190 net.cpp:98] Setting up 2_0_deconv
I0615 16:32:23.461596 29190 net.cpp:105] Top shape: 750 8 8 8 (384000)
I0615 16:32:23.461599 29190 layer_factory.hpp:78] Creating layer 2_0_deconv_ReLU
I0615 16:32:23.461603 29190 net.cpp:69] Creating Layer 2_0_deconv_ReLU
I0615 16:32:23.461606 29190 net.cpp:396] 2_0_deconv_ReLU <- 2_0_deconv
I0615 16:32:23.461609 29190 net.cpp:347] 2_0_deconv_ReLU -> 2_0_deconv (in-place)
I0615 16:32:23.461612 29190 net.cpp:98] Setting up 2_0_deconv_ReLU
I0615 16:32:23.461616 29190 net.cpp:105] Top shape: 750 8 8 8 (384000)
I0615 16:32:23.461618 29190 layer_factory.hpp:78] Creating layer 1_unpool
I0615 16:32:23.461621 29190 net.cpp:69] Creating Layer 1_unpool
I0615 16:32:23.461624 29190 net.cpp:396] 1_unpool <- 2_0_deconv
I0615 16:32:23.461628 29190 net.cpp:396] 1_unpool <- 1_pool_mask
I0615 16:32:23.461632 29190 net.cpp:358] 1_unpool -> 1_unpool
I0615 16:32:23.461637 29190 net.cpp:98] Setting up 1_unpool
I0615 16:32:23.461639 29190 net.cpp:105] Top shape: 750 8 16 16 (1536000)
I0615 16:32:23.461642 29190 layer_factory.hpp:78] Creating layer 1_1_deconv
I0615 16:32:23.461647 29190 net.cpp:69] Creating Layer 1_1_deconv
I0615 16:32:23.461652 29190 net.cpp:396] 1_1_deconv <- 1_unpool
I0615 16:32:23.461657 29190 net.cpp:358] 1_1_deconv -> 1_1_deconv
I0615 16:32:23.461664 29190 net.cpp:98] Setting up 1_1_deconv
I0615 16:32:23.461674 29190 net.cpp:105] Top shape: 750 8 16 16 (1536000)
I0615 16:32:23.461678 29190 layer_factory.hpp:78] Creating layer 1_1_deconv_ReLU
I0615 16:32:23.461683 29190 net.cpp:69] Creating Layer 1_1_deconv_ReLU
I0615 16:32:23.461684 29190 net.cpp:396] 1_1_deconv_ReLU <- 1_1_deconv
I0615 16:32:23.461689 29190 net.cpp:347] 1_1_deconv_ReLU -> 1_1_deconv (in-place)
I0615 16:32:23.461693 29190 net.cpp:98] Setting up 1_1_deconv_ReLU
I0615 16:32:23.461695 29190 net.cpp:105] Top shape: 750 8 16 16 (1536000)
I0615 16:32:23.461699 29190 layer_factory.hpp:78] Creating layer 1_0_deconv
I0615 16:32:23.461702 29190 net.cpp:69] Creating Layer 1_0_deconv
I0615 16:32:23.461704 29190 net.cpp:396] 1_0_deconv <- 1_1_deconv
I0615 16:32:23.461709 29190 net.cpp:358] 1_0_deconv -> 1_0_deconv
I0615 16:32:23.461712 29190 net.cpp:98] Setting up 1_0_deconv
I0615 16:32:23.461721 29190 net.cpp:105] Top shape: 750 8 16 16 (1536000)
I0615 16:32:23.461725 29190 layer_factory.hpp:78] Creating layer 1_0_deconv_ReLU
I0615 16:32:23.461730 29190 net.cpp:69] Creating Layer 1_0_deconv_ReLU
I0615 16:32:23.461731 29190 net.cpp:396] 1_0_deconv_ReLU <- 1_0_deconv
I0615 16:32:23.461735 29190 net.cpp:347] 1_0_deconv_ReLU -> 1_0_deconv (in-place)
I0615 16:32:23.461738 29190 net.cpp:98] Setting up 1_0_deconv_ReLU
I0615 16:32:23.461741 29190 net.cpp:105] Top shape: 750 8 16 16 (1536000)
I0615 16:32:23.461743 29190 layer_factory.hpp:78] Creating layer 0_unpool
I0615 16:32:23.461747 29190 net.cpp:69] Creating Layer 0_unpool
I0615 16:32:23.461750 29190 net.cpp:396] 0_unpool <- 1_0_deconv
I0615 16:32:23.461753 29190 net.cpp:396] 0_unpool <- 0_pool_mask
I0615 16:32:23.461757 29190 net.cpp:358] 0_unpool -> 0_unpool
I0615 16:32:23.461761 29190 net.cpp:98] Setting up 0_unpool
I0615 16:32:23.461765 29190 net.cpp:105] Top shape: 750 8 32 32 (6144000)
I0615 16:32:23.461767 29190 layer_factory.hpp:78] Creating layer 0_1_deconv
I0615 16:32:23.461771 29190 net.cpp:69] Creating Layer 0_1_deconv
I0615 16:32:23.461774 29190 net.cpp:396] 0_1_deconv <- 0_unpool
I0615 16:32:23.461778 29190 net.cpp:358] 0_1_deconv -> 0_1_deconv
I0615 16:32:23.461782 29190 net.cpp:98] Setting up 0_1_deconv
I0615 16:32:23.461796 29190 net.cpp:105] Top shape: 750 8 32 32 (6144000)
I0615 16:32:23.461799 29190 layer_factory.hpp:78] Creating layer 0_1_deconv_ReLU
I0615 16:32:23.461803 29190 net.cpp:69] Creating Layer 0_1_deconv_ReLU
I0615 16:32:23.461807 29190 net.cpp:396] 0_1_deconv_ReLU <- 0_1_deconv
I0615 16:32:23.461810 29190 net.cpp:347] 0_1_deconv_ReLU -> 0_1_deconv (in-place)
I0615 16:32:23.461813 29190 net.cpp:98] Setting up 0_1_deconv_ReLU
I0615 16:32:23.461817 29190 net.cpp:105] Top shape: 750 8 32 32 (6144000)
I0615 16:32:23.461819 29190 layer_factory.hpp:78] Creating layer 0_0_deconv
I0615 16:32:23.461825 29190 net.cpp:69] Creating Layer 0_0_deconv
I0615 16:32:23.461828 29190 net.cpp:396] 0_0_deconv <- 0_1_deconv
I0615 16:32:23.461833 29190 net.cpp:358] 0_0_deconv -> 0_0_deconv
I0615 16:32:23.461836 29190 net.cpp:98] Setting up 0_0_deconv
I0615 16:32:23.461846 29190 net.cpp:105] Top shape: 750 8 32 32 (6144000)
I0615 16:32:23.461850 29190 layer_factory.hpp:78] Creating layer 0_0_deconv_ReLU
I0615 16:32:23.461854 29190 net.cpp:69] Creating Layer 0_0_deconv_ReLU
I0615 16:32:23.461858 29190 net.cpp:396] 0_0_deconv_ReLU <- 0_0_deconv
I0615 16:32:23.461860 29190 net.cpp:347] 0_0_deconv_ReLU -> 0_0_deconv (in-place)
I0615 16:32:23.461863 29190 net.cpp:98] Setting up 0_0_deconv_ReLU
I0615 16:32:23.461866 29190 net.cpp:105] Top shape: 750 8 32 32 (6144000)
I0615 16:32:23.461869 29190 layer_factory.hpp:78] Creating layer reconstruct1
I0615 16:32:23.461875 29190 net.cpp:69] Creating Layer reconstruct1
I0615 16:32:23.461879 29190 net.cpp:396] reconstruct1 <- 0_0_deconv
I0615 16:32:23.461882 29190 net.cpp:358] reconstruct1 -> reconstruct1
I0615 16:32:23.461887 29190 net.cpp:98] Setting up reconstruct1
I0615 16:32:23.462014 29190 net.cpp:105] Top shape: 750 3 32 32 (2304000)
I0615 16:32:23.462023 29190 layer_factory.hpp:78] Creating layer reconstruct2
I0615 16:32:23.462031 29190 net.cpp:69] Creating Layer reconstruct2
I0615 16:32:23.462034 29190 net.cpp:396] reconstruct2 <- reconstruct1
I0615 16:32:23.462039 29190 net.cpp:358] reconstruct2 -> reconstruct2
I0615 16:32:23.462044 29190 net.cpp:98] Setting up reconstruct2
I0615 16:32:23.462106 29190 net.cpp:105] Top shape: 750 3 32 32 (2304000)
I0615 16:32:23.462112 29190 layer_factory.hpp:78] Creating layer L2_Loss
I0615 16:32:23.462116 29190 net.cpp:69] Creating Layer L2_Loss
I0615 16:32:23.462119 29190 net.cpp:396] L2_Loss <- data_data_0_split_1
I0615 16:32:23.462122 29190 net.cpp:396] L2_Loss <- reconstruct2
I0615 16:32:23.462127 29190 net.cpp:358] L2_Loss -> L2_Loss
I0615 16:32:23.462132 29190 net.cpp:98] Setting up L2_Loss
I0615 16:32:23.462138 29190 net.cpp:105] Top shape: 1 1 1 1 (1)
I0615 16:32:23.462141 29190 net.cpp:111]     with loss weight 1
I0615 16:32:23.462155 29190 net.cpp:172] L2_Loss needs backward computation.
I0615 16:32:23.462158 29190 net.cpp:172] reconstruct2 needs backward computation.
I0615 16:32:23.462162 29190 net.cpp:172] reconstruct1 needs backward computation.
I0615 16:32:23.462164 29190 net.cpp:172] 0_0_deconv_ReLU needs backward computation.
…
