…
I0615 05:35:51.636544 24381 solver.cpp:70] Creating training net from net file: prototxt/16-06-14_15h51m21s_0_60_reconstructFullFC0unfrozen_net.sh
I0615 05:35:51.637140 24381 net.cpp:277] The NetState phase (0) differed from the phase (1) specified by a rule in layer data
I0615 05:35:51.637300 24381 net.cpp:39] Initializing net from parameters: 
layers {
  top: "data"
  name: "data"
  type: DATA
  data_param {
    source: "/dataset/cifar100_lmdb_lab/cifar100_train_lmdb"
    batch_size: 750
    backend: LMDB
  }
  include {
    phase: TRAIN
  }
  transform_param {
    mean_file: "/dataset/cifar100_lmdb_lab/mean.binaryproto"
  }
}
layers {
  bottom: "data"
  top: "0_0_conv"
  name: "0_0_conv"
  type: CONVOLUTION
  blobs_lr: 1
  blobs_lr: 2
  weight_decay: 0
  weight_decay: 0
  convolution_param {
    num_output: 16
    pad: 1
    kernel_size: 3
    stride: 1
    weight_filler {
      type: "xavier"
    }
    bias_filler {
      type: "constant"
      value: 0
    }
  }
}
layers {
  bottom: "0_0_conv"
  top: "0_0_conv"
  name: "0_0_conv_ReLU"
  type: RELU
}
layers {
  bottom: "0_0_conv"
  top: "0_1_conv"
  name: "0_1_conv"
  type: CONVOLUTION
  blobs_lr: 1
  blobs_lr: 2
  weight_decay: 0
  weight_decay: 0
  convolution_param {
    num_output: 16
    pad: 1
    kernel_size: 3
    stride: 1
    weight_filler {
      type: "xavier"
    }
    bias_filler {
      type: "constant"
      value: 0
    }
  }
}
layers {
  bottom: "0_1_conv"
  top: "0_1_conv"
  name: "0_1_conv_ReLU"
  type: RELU
}
layers {
  bottom: "0_1_conv"
  top: "0_pool"
  top: "0_pool_mask"
  name: "0_pool"
  type: POOLING
  pooling_param {
    pool: MAX
    kernel_size: 2
    stride: 2
  }
}
layers {
  bottom: "0_pool"
  top: "1_0_conv"
  name: "1_0_conv"
  type: CONVOLUTION
  blobs_lr: 1
  blobs_lr: 2
  weight_decay: 0
  weight_decay: 0
  convolution_param {
    num_output: 16
    pad: 1
    kernel_size: 3
    stride: 1
    weight_filler {
      type: "xavier"
    }
    bias_filler {
      type: "constant"
      value: 0
    }
  }
}
layers {
  bottom: "1_0_conv"
  top: "1_0_conv"
  name: "1_0_conv_ReLU"
  type: RELU
}
layers {
  bottom: "1_0_conv"
  top: "1_1_conv"
  name: "1_1_conv"
  type: CONVOLUTION
  blobs_lr: 1
  blobs_lr: 2
  weight_decay: 0
  weight_decay: 0
  convolution_param {
    num_output: 16
    pad: 1
    kernel_size: 3
    stride: 1
    weight_filler {
      type: "xavier"
    }
    bias_filler {
      type: "constant"
      value: 0
    }
  }
}
layers {
  bottom: "1_1_conv"
  top: "1_1_conv"
  name: "1_1_conv_ReLU"
  type: RELU
}
layers {
  bottom: "1_1_conv"
  top: "1_pool"
  top: "1_pool_mask"
  name: "1_pool"
  type: POOLING
  pooling_param {
    pool: MAX
    kernel_size: 2
    stride: 2
  }
}
layers {
  bottom: "1_pool"
  top: "2_0_conv"
  name: "2_0_conv"
  type: CONVOLUTION
  blobs_lr: 1
  blobs_lr: 2
  weight_decay: 0
  weight_decay: 0
  convolution_param {
    num_output: 16
    pad: 1
    kernel_size: 3
    stride: 1
    weight_filler {
      type: "xavier"
    }
    bias_filler {
      type: "constant"
      value: 0
    }
  }
}
layers {
  bottom: "2_0_conv"
  top: "2_0_conv"
  name: "2_0_conv_ReLU"
  type: RELU
}
layers {
  bottom: "2_0_conv"
  top: "2_1_conv"
  name: "2_1_conv"
  type: CONVOLUTION
  blobs_lr: 1
  blobs_lr: 2
  weight_decay: 0
  weight_decay: 0
  convolution_param {
    num_output: 16
    pad: 1
    kernel_size: 3
    stride: 1
    weight_filler {
      type: "xavier"
    }
    bias_filler {
      type: "constant"
      value: 0
    }
  }
}
layers {
  bottom: "2_1_conv"
  top: "2_1_conv"
  name: "2_1_conv_ReLU"
  type: RELU
}
layers {
  bottom: "2_1_conv"
  top: "2_pool"
  top: "2_pool_mask"
  name: "2_pool"
  type: POOLING
  pooling_param {
    pool: MAX
    kernel_size: 2
    stride: 2
  }
}
layers {
  bottom: "2_pool"
  top: "middle_conv_zeros"
  name: "middle_conv_zeros"
  type: CONVOLUTION
  blobs_lr: 1
  blobs_lr: 2
  weight_decay: 0
  weight_decay: 0
  convolution_param {
    num_output: 50
    pad: 0
    kernel_size: 4
    stride: 1
    weight_filler {
      type: "constant"
      value: 0
    }
    bias_filler {
      type: "constant"
      value: 0
    }
  }
}
layers {
  bottom: "middle_conv_zeros"
  top: "middle_deconv"
  name: "middle_deconv"
  type: DECONVOLUTION
  blobs_lr: 1
  blobs_lr: 2
  weight_decay: 0
  weight_decay: 0
  convolution_param {
    num_output: 16
    pad: 1
    kernel_size: 4
    stride: 1
    weight_filler {
      type: "xavier"
    }
    bias_filler {
      type: "constant"
      value: 0
    }
  }
}
layers {
  bottom: "middle_deconv"
  bottom: "2_pool_mask"
  top: "2_unpool"
  name: "2_unpool"
  type: UNPOOLING
  unpooling_param {
    unpool: MAX
    kernel_size: 2
    stride: 2
    unpool_size: 8
  }
}
layers {
  bottom: "2_unpool"
  top: "2_1_deconv"
  name: "2_1_deconv"
  type: DECONVOLUTION
  blobs_lr: 1
  blobs_lr: 2
  weight_decay: 0
  weight_decay: 0
  convolution_param {
    num_output: 16
    pad: 1
    kernel_size: 3
    stride: 1
    weight_filler {
      type: "xavier"
    }
    bias_filler {
      type: "constant"
      value: 0
    }
  }
}
layers {
  bottom: "2_1_deconv"
  top: "2_1_deconv"
  name: "2_1_deconv_ReLU"
  type: RELU
}
layers {
  bottom: "2_1_deconv"
  top: "2_0_deconv"
  name: "2_0_deconv"
  type: DECONVOLUTION
  blobs_lr: 1
  blobs_lr: 2
  weight_decay: 0
  weight_decay: 0
  convolution_param {
    num_output: 16
    pad: 1
    kernel_size: 3
    stride: 1
    weight_filler {
      type: "xavier"
    }
    bias_filler {
      type: "constant"
      value: 0
    }
  }
}
layers {
  bottom: "2_0_deconv"
  top: "2_0_deconv"
  name: "2_0_deconv_ReLU"
  type: RELU
}
layers {
  bottom: "2_0_deconv"
  bottom: "1_pool_mask"
  top: "1_unpool"
  name: "1_unpool"
  type: UNPOOLING
  unpooling_param {
    unpool: MAX
    kernel_size: 2
    stride: 2
    unpool_size: 16
  }
}
layers {
  bottom: "1_unpool"
  top: "1_1_deconv"
  name: "1_1_deconv"
  type: DECONVOLUTION
  blobs_lr: 1
  blobs_lr: 2
  weight_decay: 0
  weight_decay: 0
  convolution_param {
    num_output: 16
    pad: 1
    kernel_size: 3
    stride: 1
    weight_filler {
      type: "xavier"
    }
    bias_filler {
      type: "constant"
      value: 0
    }
  }
}
layers {
  bottom: "1_1_deconv"
  top: "1_1_deconv"
  name: "1_1_deconv_ReLU"
  type: RELU
}
layers {
  bottom: "1_1_deconv"
  top: "1_0_deconv"
  name: "1_0_deconv"
  type: DECONVOLUTION
  blobs_lr: 1
  blobs_lr: 2
  weight_decay: 0
  weight_decay: 0
  convolution_param {
    num_output: 16
    pad: 1
    kernel_size: 3
    stride: 1
    weight_filler {
      type: "xavier"
    }
    bias_filler {
      type: "constant"
      value: 0
    }
  }
}
layers {
  bottom: "1_0_deconv"
  top: "1_0_deconv"
  name: "1_0_deconv_ReLU"
  type: RELU
}
layers {
  bottom: "1_0_deconv"
  bottom: "0_pool_mask"
  top: "0_unpool"
  name: "0_unpool"
  type: UNPOOLING
  unpooling_param {
    unpool: MAX
    kernel_size: 2
    stride: 2
    unpool_size: 32
  }
}
layers {
  bottom: "0_unpool"
  top: "0_1_deconv"
  name: "0_1_deconv"
  type: DECONVOLUTION
  blobs_lr: 1
  blobs_lr: 2
  weight_decay: 0
  weight_decay: 0
  convolution_param {
    num_output: 16
    pad: 1
    kernel_size: 3
    stride: 1
    weight_filler {
      type: "xavier"
    }
    bias_filler {
      type: "constant"
      value: 0
    }
  }
}
layers {
  bottom: "0_1_deconv"
  top: "0_1_deconv"
  name: "0_1_deconv_ReLU"
  type: RELU
}
layers {
  bottom: "0_1_deconv"
  top: "0_0_deconv"
  name: "0_0_deconv"
  type: DECONVOLUTION
  blobs_lr: 1
  blobs_lr: 2
  weight_decay: 0
  weight_decay: 0
  convolution_param {
    num_output: 16
    pad: 1
    kernel_size: 3
    stride: 1
    weight_filler {
      type: "xavier"
    }
    bias_filler {
      type: "constant"
      value: 0
    }
  }
}
layers {
  bottom: "0_0_deconv"
  top: "0_0_deconv"
  name: "0_0_deconv_ReLU"
  type: RELU
}
layers {
  bottom: "0_0_deconv"
  top: "reconstruct1"
  name: "reconstruct1"
  type: LOCAL
  blobs_lr: 1
  blobs_lr: 2
  weight_decay: 0
  weight_decay: 0
  local_param {
    num_output: 3
    pad: 0
    kernel_size: 1
    stride: 1
    weight_filler {
      type: "xavier"
    }
    bias_filler {
      type: "constant"
      value: 0
    }
  }
}
layers {
  bottom: "reconstruct1"
  top: "reconstruct2"
  name: "reconstruct2"
  type: LOCAL
  blobs_lr: 1
  blobs_lr: 2
  weight_decay: 0
  weight_decay: 0
  local_param {
    num_output: 3
    pad: 0
    kernel_size: 1
    stride: 1
    weight_filler {
      type: "xavier"
    }
    bias_filler {
      type: "constant"
      value: 0
    }
  }
}
layers {
  bottom: "data"
  bottom: "reconstruct2"
  top: "L2_Loss"
  name: "L2_Loss"
  type: EUCLIDEAN_LOSS
}
state {
  phase: TRAIN
}
I0615 05:35:51.637413 24381 layer_factory.hpp:78] Creating layer data
I0615 05:35:51.637426 24381 data_transformer.cpp:25] Loading mean file from/dataset/cifar100_lmdb_lab/mean.binaryproto
I0615 05:35:51.637472 24381 net.cpp:69] Creating Layer data
I0615 05:35:51.637480 24381 net.cpp:358] data -> data
I0615 05:35:51.637487 24381 net.cpp:98] Setting up data
I0615 05:35:51.637491 24381 data_layer.cpp:32] Opening dataset /dataset/cifar100_lmdb_lab/cifar100_train_lmdb
I0615 05:35:51.637562 24381 data_layer.cpp:71] output data size: 750,3,32,32
I0615 05:35:51.638669 24381 net.cpp:105] Top shape: 750 3 32 32 (2304000)
I0615 05:35:51.638689 24381 layer_factory.hpp:78] Creating layer data_data_0_split
I0615 05:35:51.638698 24381 net.cpp:69] Creating Layer data_data_0_split
I0615 05:35:51.638701 24381 net.cpp:396] data_data_0_split <- data
I0615 05:35:51.638706 24381 net.cpp:358] data_data_0_split -> data_data_0_split_0
I0615 05:35:51.638713 24381 net.cpp:358] data_data_0_split -> data_data_0_split_1
I0615 05:35:51.638718 24381 net.cpp:98] Setting up data_data_0_split
I0615 05:35:51.638722 24381 net.cpp:105] Top shape: 750 3 32 32 (2304000)
I0615 05:35:51.638725 24381 net.cpp:105] Top shape: 750 3 32 32 (2304000)
I0615 05:35:51.638728 24381 layer_factory.hpp:78] Creating layer 0_0_conv
I0615 05:35:51.638736 24381 net.cpp:69] Creating Layer 0_0_conv
I0615 05:35:51.638739 24381 net.cpp:396] 0_0_conv <- data_data_0_split_0
I0615 05:35:51.638746 24381 net.cpp:358] 0_0_conv -> 0_0_conv
I0615 05:35:51.638751 24381 net.cpp:98] Setting up 0_0_conv
I0615 05:35:51.639032 24381 net.cpp:105] Top shape: 750 16 32 32 (12288000)
I0615 05:35:51.639042 24381 layer_factory.hpp:78] Creating layer 0_0_conv_ReLU
I0615 05:35:51.639047 24381 net.cpp:69] Creating Layer 0_0_conv_ReLU
I0615 05:35:51.639050 24381 net.cpp:396] 0_0_conv_ReLU <- 0_0_conv
I0615 05:35:51.639055 24381 net.cpp:347] 0_0_conv_ReLU -> 0_0_conv (in-place)
I0615 05:35:51.639060 24381 net.cpp:98] Setting up 0_0_conv_ReLU
I0615 05:35:51.639062 24381 net.cpp:105] Top shape: 750 16 32 32 (12288000)
I0615 05:35:51.639065 24381 layer_factory.hpp:78] Creating layer 0_1_conv
I0615 05:35:51.639070 24381 net.cpp:69] Creating Layer 0_1_conv
I0615 05:35:51.639073 24381 net.cpp:396] 0_1_conv <- 0_0_conv
I0615 05:35:51.639077 24381 net.cpp:358] 0_1_conv -> 0_1_conv
I0615 05:35:51.639081 24381 net.cpp:98] Setting up 0_1_conv
I0615 05:35:51.639104 24381 net.cpp:105] Top shape: 750 16 32 32 (12288000)
I0615 05:35:51.639111 24381 layer_factory.hpp:78] Creating layer 0_1_conv_ReLU
I0615 05:35:51.639113 24381 net.cpp:69] Creating Layer 0_1_conv_ReLU
I0615 05:35:51.639117 24381 net.cpp:396] 0_1_conv_ReLU <- 0_1_conv
I0615 05:35:51.639120 24381 net.cpp:347] 0_1_conv_ReLU -> 0_1_conv (in-place)
I0615 05:35:51.639123 24381 net.cpp:98] Setting up 0_1_conv_ReLU
I0615 05:35:51.639127 24381 net.cpp:105] Top shape: 750 16 32 32 (12288000)
I0615 05:35:51.639129 24381 layer_factory.hpp:78] Creating layer 0_pool
I0615 05:35:51.639134 24381 net.cpp:69] Creating Layer 0_pool
I0615 05:35:51.639137 24381 net.cpp:396] 0_pool <- 0_1_conv
I0615 05:35:51.639147 24381 net.cpp:358] 0_pool -> 0_pool
I0615 05:35:51.639152 24381 net.cpp:358] 0_pool -> 0_pool_mask
I0615 05:35:51.639164 24381 net.cpp:98] Setting up 0_pool
I0615 05:35:51.639171 24381 net.cpp:105] Top shape: 750 16 16 16 (3072000)
I0615 05:35:51.639174 24381 net.cpp:105] Top shape: 750 16 16 16 (3072000)
I0615 05:35:51.639176 24381 layer_factory.hpp:78] Creating layer 1_0_conv
I0615 05:35:51.639183 24381 net.cpp:69] Creating Layer 1_0_conv
I0615 05:35:51.639185 24381 net.cpp:396] 1_0_conv <- 0_pool
I0615 05:35:51.639194 24381 net.cpp:358] 1_0_conv -> 1_0_conv
I0615 05:35:51.639199 24381 net.cpp:98] Setting up 1_0_conv
I0615 05:35:51.639219 24381 net.cpp:105] Top shape: 750 16 16 16 (3072000)
I0615 05:35:51.639225 24381 layer_factory.hpp:78] Creating layer 1_0_conv_ReLU
I0615 05:35:51.639230 24381 net.cpp:69] Creating Layer 1_0_conv_ReLU
I0615 05:35:51.639233 24381 net.cpp:396] 1_0_conv_ReLU <- 1_0_conv
I0615 05:35:51.639237 24381 net.cpp:347] 1_0_conv_ReLU -> 1_0_conv (in-place)
I0615 05:35:51.639241 24381 net.cpp:98] Setting up 1_0_conv_ReLU
I0615 05:35:51.639245 24381 net.cpp:105] Top shape: 750 16 16 16 (3072000)
I0615 05:35:51.639247 24381 layer_factory.hpp:78] Creating layer 1_1_conv
I0615 05:35:51.639251 24381 net.cpp:69] Creating Layer 1_1_conv
I0615 05:35:51.639253 24381 net.cpp:396] 1_1_conv <- 1_0_conv
I0615 05:35:51.639258 24381 net.cpp:358] 1_1_conv -> 1_1_conv
I0615 05:35:51.639263 24381 net.cpp:98] Setting up 1_1_conv
I0615 05:35:51.639281 24381 net.cpp:105] Top shape: 750 16 16 16 (3072000)
I0615 05:35:51.639286 24381 layer_factory.hpp:78] Creating layer 1_1_conv_ReLU
I0615 05:35:51.639289 24381 net.cpp:69] Creating Layer 1_1_conv_ReLU
I0615 05:35:51.639292 24381 net.cpp:396] 1_1_conv_ReLU <- 1_1_conv
I0615 05:35:51.639303 24381 net.cpp:347] 1_1_conv_ReLU -> 1_1_conv (in-place)
I0615 05:35:51.639307 24381 net.cpp:98] Setting up 1_1_conv_ReLU
I0615 05:35:51.639310 24381 net.cpp:105] Top shape: 750 16 16 16 (3072000)
I0615 05:35:51.639313 24381 layer_factory.hpp:78] Creating layer 1_pool
I0615 05:35:51.639317 24381 net.cpp:69] Creating Layer 1_pool
I0615 05:35:51.639319 24381 net.cpp:396] 1_pool <- 1_1_conv
I0615 05:35:51.639323 24381 net.cpp:358] 1_pool -> 1_pool
I0615 05:35:51.639328 24381 net.cpp:358] 1_pool -> 1_pool_mask
I0615 05:35:51.639333 24381 net.cpp:98] Setting up 1_pool
I0615 05:35:51.639335 24381 net.cpp:105] Top shape: 750 16 8 8 (768000)
I0615 05:35:51.639338 24381 net.cpp:105] Top shape: 750 16 8 8 (768000)
I0615 05:35:51.639341 24381 layer_factory.hpp:78] Creating layer 2_0_conv
I0615 05:35:51.639345 24381 net.cpp:69] Creating Layer 2_0_conv
I0615 05:35:51.639348 24381 net.cpp:396] 2_0_conv <- 1_pool
I0615 05:35:51.639353 24381 net.cpp:358] 2_0_conv -> 2_0_conv
I0615 05:35:51.639358 24381 net.cpp:98] Setting up 2_0_conv
I0615 05:35:51.639375 24381 net.cpp:105] Top shape: 750 16 8 8 (768000)
I0615 05:35:51.639380 24381 layer_factory.hpp:78] Creating layer 2_0_conv_ReLU
I0615 05:35:51.639384 24381 net.cpp:69] Creating Layer 2_0_conv_ReLU
I0615 05:35:51.639387 24381 net.cpp:396] 2_0_conv_ReLU <- 2_0_conv
I0615 05:35:51.639391 24381 net.cpp:347] 2_0_conv_ReLU -> 2_0_conv (in-place)
I0615 05:35:51.639395 24381 net.cpp:98] Setting up 2_0_conv_ReLU
I0615 05:35:51.639399 24381 net.cpp:105] Top shape: 750 16 8 8 (768000)
I0615 05:35:51.639400 24381 layer_factory.hpp:78] Creating layer 2_1_conv
I0615 05:35:51.639405 24381 net.cpp:69] Creating Layer 2_1_conv
I0615 05:35:51.639407 24381 net.cpp:396] 2_1_conv <- 2_0_conv
I0615 05:35:51.639411 24381 net.cpp:358] 2_1_conv -> 2_1_conv
I0615 05:35:51.639415 24381 net.cpp:98] Setting up 2_1_conv
I0615 05:35:51.639432 24381 net.cpp:105] Top shape: 750 16 8 8 (768000)
I0615 05:35:51.639436 24381 layer_factory.hpp:78] Creating layer 2_1_conv_ReLU
I0615 05:35:51.639441 24381 net.cpp:69] Creating Layer 2_1_conv_ReLU
I0615 05:35:51.639443 24381 net.cpp:396] 2_1_conv_ReLU <- 2_1_conv
I0615 05:35:51.639447 24381 net.cpp:347] 2_1_conv_ReLU -> 2_1_conv (in-place)
I0615 05:35:51.639451 24381 net.cpp:98] Setting up 2_1_conv_ReLU
I0615 05:35:51.639456 24381 net.cpp:105] Top shape: 750 16 8 8 (768000)
I0615 05:35:51.639458 24381 layer_factory.hpp:78] Creating layer 2_pool
I0615 05:35:51.639467 24381 net.cpp:69] Creating Layer 2_pool
I0615 05:35:51.639470 24381 net.cpp:396] 2_pool <- 2_1_conv
I0615 05:35:51.639474 24381 net.cpp:358] 2_pool -> 2_pool
I0615 05:35:51.639479 24381 net.cpp:358] 2_pool -> 2_pool_mask
I0615 05:35:51.639483 24381 net.cpp:98] Setting up 2_pool
I0615 05:35:51.639487 24381 net.cpp:105] Top shape: 750 16 4 4 (192000)
I0615 05:35:51.639489 24381 net.cpp:105] Top shape: 750 16 4 4 (192000)
I0615 05:35:51.639492 24381 layer_factory.hpp:78] Creating layer middle_conv_zeros
I0615 05:35:51.639497 24381 net.cpp:69] Creating Layer middle_conv_zeros
I0615 05:35:51.639499 24381 net.cpp:396] middle_conv_zeros <- 2_pool
I0615 05:35:51.639503 24381 net.cpp:358] middle_conv_zeros -> middle_conv_zeros
I0615 05:35:51.639508 24381 net.cpp:98] Setting up middle_conv_zeros
I0615 05:35:51.639523 24381 net.cpp:105] Top shape: 750 50 1 1 (37500)
I0615 05:35:51.639528 24381 layer_factory.hpp:78] Creating layer middle_deconv
I0615 05:35:51.639535 24381 net.cpp:69] Creating Layer middle_deconv
I0615 05:35:51.639539 24381 net.cpp:396] middle_deconv <- middle_conv_zeros
I0615 05:35:51.639544 24381 net.cpp:358] middle_deconv -> middle_deconv
I0615 05:35:51.639549 24381 net.cpp:98] Setting up middle_deconv
I0615 05:35:51.639619 24381 net.cpp:105] Top shape: 750 16 2 2 (48000)
I0615 05:35:51.639626 24381 layer_factory.hpp:78] Creating layer 2_unpool
I0615 05:35:51.639629 24381 net.cpp:69] Creating Layer 2_unpool
I0615 05:35:51.639632 24381 net.cpp:396] 2_unpool <- middle_deconv
I0615 05:35:51.639636 24381 net.cpp:396] 2_unpool <- 2_pool_mask
I0615 05:35:51.639641 24381 net.cpp:358] 2_unpool -> 2_unpool
I0615 05:35:51.639644 24381 net.cpp:98] Setting up 2_unpool
I0615 05:35:51.639650 24381 net.cpp:105] Top shape: 750 16 8 8 (768000)
I0615 05:35:51.639653 24381 layer_factory.hpp:78] Creating layer 2_1_deconv
I0615 05:35:51.639658 24381 net.cpp:69] Creating Layer 2_1_deconv
I0615 05:35:51.639662 24381 net.cpp:396] 2_1_deconv <- 2_unpool
I0615 05:35:51.639667 24381 net.cpp:358] 2_1_deconv -> 2_1_deconv
I0615 05:35:51.639670 24381 net.cpp:98] Setting up 2_1_deconv
I0615 05:35:51.639688 24381 net.cpp:105] Top shape: 750 16 8 8 (768000)
I0615 05:35:51.639694 24381 layer_factory.hpp:78] Creating layer 2_1_deconv_ReLU
I0615 05:35:51.639698 24381 net.cpp:69] Creating Layer 2_1_deconv_ReLU
I0615 05:35:51.639701 24381 net.cpp:396] 2_1_deconv_ReLU <- 2_1_deconv
I0615 05:35:51.639706 24381 net.cpp:347] 2_1_deconv_ReLU -> 2_1_deconv (in-place)
I0615 05:35:51.639710 24381 net.cpp:98] Setting up 2_1_deconv_ReLU
I0615 05:35:51.639714 24381 net.cpp:105] Top shape: 750 16 8 8 (768000)
I0615 05:35:51.639716 24381 layer_factory.hpp:78] Creating layer 2_0_deconv
I0615 05:35:51.639720 24381 net.cpp:69] Creating Layer 2_0_deconv
I0615 05:35:51.639724 24381 net.cpp:396] 2_0_deconv <- 2_1_deconv
I0615 05:35:51.639727 24381 net.cpp:358] 2_0_deconv -> 2_0_deconv
I0615 05:35:51.639731 24381 net.cpp:98] Setting up 2_0_deconv
I0615 05:35:51.639750 24381 net.cpp:105] Top shape: 750 16 8 8 (768000)
I0615 05:35:51.639753 24381 layer_factory.hpp:78] Creating layer 2_0_deconv_ReLU
I0615 05:35:51.639757 24381 net.cpp:69] Creating Layer 2_0_deconv_ReLU
I0615 05:35:51.639760 24381 net.cpp:396] 2_0_deconv_ReLU <- 2_0_deconv
I0615 05:35:51.639763 24381 net.cpp:347] 2_0_deconv_ReLU -> 2_0_deconv (in-place)
I0615 05:35:51.639766 24381 net.cpp:98] Setting up 2_0_deconv_ReLU
I0615 05:35:51.639770 24381 net.cpp:105] Top shape: 750 16 8 8 (768000)
I0615 05:35:51.639772 24381 layer_factory.hpp:78] Creating layer 1_unpool
I0615 05:35:51.639776 24381 net.cpp:69] Creating Layer 1_unpool
I0615 05:35:51.639778 24381 net.cpp:396] 1_unpool <- 2_0_deconv
I0615 05:35:51.639781 24381 net.cpp:396] 1_unpool <- 1_pool_mask
I0615 05:35:51.639786 24381 net.cpp:358] 1_unpool -> 1_unpool
I0615 05:35:51.639791 24381 net.cpp:98] Setting up 1_unpool
I0615 05:35:51.639793 24381 net.cpp:105] Top shape: 750 16 16 16 (3072000)
I0615 05:35:51.639797 24381 layer_factory.hpp:78] Creating layer 1_1_deconv
I0615 05:35:51.639802 24381 net.cpp:69] Creating Layer 1_1_deconv
I0615 05:35:51.639808 24381 net.cpp:396] 1_1_deconv <- 1_unpool
I0615 05:35:51.639812 24381 net.cpp:358] 1_1_deconv -> 1_1_deconv
I0615 05:35:51.639816 24381 net.cpp:98] Setting up 1_1_deconv
I0615 05:35:51.639833 24381 net.cpp:105] Top shape: 750 16 16 16 (3072000)
I0615 05:35:51.639837 24381 layer_factory.hpp:78] Creating layer 1_1_deconv_ReLU
I0615 05:35:51.639842 24381 net.cpp:69] Creating Layer 1_1_deconv_ReLU
I0615 05:35:51.639844 24381 net.cpp:396] 1_1_deconv_ReLU <- 1_1_deconv
I0615 05:35:51.639847 24381 net.cpp:347] 1_1_deconv_ReLU -> 1_1_deconv (in-place)
I0615 05:35:51.639852 24381 net.cpp:98] Setting up 1_1_deconv_ReLU
I0615 05:35:51.639853 24381 net.cpp:105] Top shape: 750 16 16 16 (3072000)
I0615 05:35:51.639856 24381 layer_factory.hpp:78] Creating layer 1_0_deconv
I0615 05:35:51.639860 24381 net.cpp:69] Creating Layer 1_0_deconv
I0615 05:35:51.639863 24381 net.cpp:396] 1_0_deconv <- 1_1_deconv
I0615 05:35:51.639868 24381 net.cpp:358] 1_0_deconv -> 1_0_deconv
I0615 05:35:51.639873 24381 net.cpp:98] Setting up 1_0_deconv
I0615 05:35:51.639889 24381 net.cpp:105] Top shape: 750 16 16 16 (3072000)
I0615 05:35:51.639894 24381 layer_factory.hpp:78] Creating layer 1_0_deconv_ReLU
I0615 05:35:51.639897 24381 net.cpp:69] Creating Layer 1_0_deconv_ReLU
I0615 05:35:51.639899 24381 net.cpp:396] 1_0_deconv_ReLU <- 1_0_deconv
I0615 05:35:51.639904 24381 net.cpp:347] 1_0_deconv_ReLU -> 1_0_deconv (in-place)
I0615 05:35:51.639907 24381 net.cpp:98] Setting up 1_0_deconv_ReLU
I0615 05:35:51.639910 24381 net.cpp:105] Top shape: 750 16 16 16 (3072000)
I0615 05:35:51.639914 24381 layer_factory.hpp:78] Creating layer 0_unpool
I0615 05:35:51.639916 24381 net.cpp:69] Creating Layer 0_unpool
I0615 05:35:51.639919 24381 net.cpp:396] 0_unpool <- 1_0_deconv
I0615 05:35:51.639922 24381 net.cpp:396] 0_unpool <- 0_pool_mask
I0615 05:35:51.639925 24381 net.cpp:358] 0_unpool -> 0_unpool
I0615 05:35:51.639930 24381 net.cpp:98] Setting up 0_unpool
I0615 05:35:51.639932 24381 net.cpp:105] Top shape: 750 16 32 32 (12288000)
I0615 05:35:51.639935 24381 layer_factory.hpp:78] Creating layer 0_1_deconv
I0615 05:35:51.639940 24381 net.cpp:69] Creating Layer 0_1_deconv
I0615 05:35:51.639941 24381 net.cpp:396] 0_1_deconv <- 0_unpool
I0615 05:35:51.639945 24381 net.cpp:358] 0_1_deconv -> 0_1_deconv
I0615 05:35:51.639950 24381 net.cpp:98] Setting up 0_1_deconv
I0615 05:35:51.639968 24381 net.cpp:105] Top shape: 750 16 32 32 (12288000)
I0615 05:35:51.639972 24381 layer_factory.hpp:78] Creating layer 0_1_deconv_ReLU
I0615 05:35:51.639976 24381 net.cpp:69] Creating Layer 0_1_deconv_ReLU
I0615 05:35:51.639978 24381 net.cpp:396] 0_1_deconv_ReLU <- 0_1_deconv
I0615 05:35:51.639982 24381 net.cpp:347] 0_1_deconv_ReLU -> 0_1_deconv (in-place)
I0615 05:35:51.639986 24381 net.cpp:98] Setting up 0_1_deconv_ReLU
I0615 05:35:51.639988 24381 net.cpp:105] Top shape: 750 16 32 32 (12288000)
I0615 05:35:51.639991 24381 layer_factory.hpp:78] Creating layer 0_0_deconv
I0615 05:35:51.639997 24381 net.cpp:69] Creating Layer 0_0_deconv
I0615 05:35:51.639999 24381 net.cpp:396] 0_0_deconv <- 0_1_deconv
I0615 05:35:51.640004 24381 net.cpp:358] 0_0_deconv -> 0_0_deconv
I0615 05:35:51.640008 24381 net.cpp:98] Setting up 0_0_deconv
I0615 05:35:51.640025 24381 net.cpp:105] Top shape: 750 16 32 32 (12288000)
I0615 05:35:51.640029 24381 layer_factory.hpp:78] Creating layer 0_0_deconv_ReLU
I0615 05:35:51.640033 24381 net.cpp:69] Creating Layer 0_0_deconv_ReLU
I0615 05:35:51.640035 24381 net.cpp:396] 0_0_deconv_ReLU <- 0_0_deconv
I0615 05:35:51.640039 24381 net.cpp:347] 0_0_deconv_ReLU -> 0_0_deconv (in-place)
I0615 05:35:51.640043 24381 net.cpp:98] Setting up 0_0_deconv_ReLU
I0615 05:35:51.640045 24381 net.cpp:105] Top shape: 750 16 32 32 (12288000)
I0615 05:35:51.640048 24381 layer_factory.hpp:78] Creating layer reconstruct1
I0615 05:35:51.640055 24381 net.cpp:69] Creating Layer reconstruct1
I0615 05:35:51.640058 24381 net.cpp:396] reconstruct1 <- 0_0_deconv
I0615 05:35:51.640064 24381 net.cpp:358] reconstruct1 -> reconstruct1
I0615 05:35:51.640069 24381 net.cpp:98] Setting up reconstruct1
I0615 05:35:51.640354 24381 net.cpp:105] Top shape: 750 3 32 32 (2304000)
I0615 05:35:51.640362 24381 layer_factory.hpp:78] Creating layer reconstruct2
I0615 05:35:51.640367 24381 net.cpp:69] Creating Layer reconstruct2
I0615 05:35:51.640370 24381 net.cpp:396] reconstruct2 <- reconstruct1
I0615 05:35:51.640375 24381 net.cpp:358] reconstruct2 -> reconstruct2
I0615 05:35:51.640379 24381 net.cpp:98] Setting up reconstruct2
I0615 05:35:51.640434 24381 net.cpp:105] Top shape: 750 3 32 32 (2304000)
I0615 05:35:51.640439 24381 layer_factory.hpp:78] Creating layer L2_Loss
I0615 05:35:51.640444 24381 net.cpp:69] Creating Layer L2_Loss
I0615 05:35:51.640445 24381 net.cpp:396] L2_Loss <- data_data_0_split_1
I0615 05:35:51.640450 24381 net.cpp:396] L2_Loss <- reconstruct2
I0615 05:35:51.640453 24381 net.cpp:358] L2_Loss -> L2_Loss
I0615 05:35:51.640457 24381 net.cpp:98] Setting up L2_Loss
I0615 05:35:51.640462 24381 net.cpp:105] Top shape: 1 1 1 1 (1)
I0615 05:35:51.640465 24381 net.cpp:111]     with loss weight 1
I0615 05:35:51.640478 24381 net.cpp:172] L2_Loss needs backward computation.
I0615 05:35:51.640481 24381 net.cpp:172] reconstruct2 needs backward computation.
I0615 05:35:51.640485 24381 net.cpp:172] reconstruct1 needs backward computation.
I0615 05:35:51.640487 24381 net.cpp:172] 0_0_deconv_ReLU needs backward computation.
…
