…
I0614 16:00:00.677296  5063 net.cpp:277] The NetState phase (0) differed from the phase (1) specified by a rule in layer accuracy_top_1
I0614 16:00:00.677300  5063 net.cpp:277] The NetState phase (0) differed from the phase (1) specified by a rule in layer accuracy_top_5
I0614 16:00:00.677392  5063 net.cpp:39] Initializing net from parameters: 
layers {
  top: "data"
  top: "label"
  name: "data"
  type: DATA
  data_param {
    source: "/dataset/cifar100_lmdb_lab/cifar100_train_lmdb"
    batch_size: 128
    backend: LMDB
  }
  include {
    phase: TRAIN
  }
  transform_param {
    mean_file: "/dataset/cifar100_lmdb_lab/mean.binaryproto"
  }
}
layers {
  bottom: "data"
  top: "0_0_conv"
  name: "0_0_conv"
  type: CONVOLUTION
  blobs_lr: 1
  blobs_lr: 2
  weight_decay: 0
  weight_decay: 0
  convolution_param {
    num_output: 16
    pad: 1
    kernel_size: 3
    stride: 1
    weight_filler {
      type: "xavier"
    }
    bias_filler {
      type: "constant"
      value: 0
    }
  }
}
layers {
  bottom: "0_0_conv"
  top: "0_0_conv"
  name: "0_0_conv_ReLU"
  type: RELU
}
layers {
  bottom: "0_0_conv"
  top: "0_1_conv"
  name: "0_1_conv"
  type: CONVOLUTION
  blobs_lr: 1
  blobs_lr: 2
  weight_decay: 0
  weight_decay: 0
  convolution_param {
    num_output: 16
    pad: 1
    kernel_size: 3
    stride: 1
    weight_filler {
      type: "xavier"
    }
    bias_filler {
      type: "constant"
      value: 0
    }
  }
}
layers {
  bottom: "0_1_conv"
  top: "0_1_conv"
  name: "0_1_conv_ReLU"
  type: RELU
}
layers {
  bottom: "0_1_conv"
  top: "0_pool"
  name: "0_pool"
  type: POOLING
  pooling_param {
    pool: MAX
    kernel_size: 2
    stride: 2
  }
}
layers {
  bottom: "0_pool"
  top: "1_0_conv"
  name: "1_0_conv"
  type: CONVOLUTION
  blobs_lr: 1
  blobs_lr: 2
  weight_decay: 0
  weight_decay: 0
  convolution_param {
    num_output: 16
    pad: 1
    kernel_size: 3
    stride: 1
    weight_filler {
      type: "xavier"
    }
    bias_filler {
      type: "constant"
      value: 0
    }
  }
}
layers {
  bottom: "1_0_conv"
  top: "1_0_conv"
  name: "1_0_conv_ReLU"
  type: RELU
}
layers {
  bottom: "1_0_conv"
  top: "1_1_conv"
  name: "1_1_conv"
  type: CONVOLUTION
  blobs_lr: 1
  blobs_lr: 2
  weight_decay: 0
  weight_decay: 0
  convolution_param {
    num_output: 16
    pad: 1
    kernel_size: 3
    stride: 1
    weight_filler {
      type: "xavier"
    }
    bias_filler {
      type: "constant"
      value: 0
    }
  }
}
layers {
  bottom: "1_1_conv"
  top: "1_1_conv"
  name: "1_1_conv_ReLU"
  type: RELU
}
layers {
  bottom: "1_1_conv"
  top: "1_pool"
  name: "1_pool"
  type: POOLING
  pooling_param {
    pool: MAX
    kernel_size: 2
    stride: 2
  }
}
layers {
  bottom: "1_pool"
  top: "2_0_conv"
  name: "2_0_conv"
  type: CONVOLUTION
  blobs_lr: 1
  blobs_lr: 2
  weight_decay: 0
  weight_decay: 0
  convolution_param {
    num_output: 16
    pad: 1
    kernel_size: 3
    stride: 1
    weight_filler {
      type: "xavier"
    }
    bias_filler {
      type: "constant"
      value: 0
    }
  }
}
layers {
  bottom: "2_0_conv"
  top: "2_0_conv"
  name: "2_0_conv_ReLU"
  type: RELU
}
layers {
  bottom: "2_0_conv"
  top: "2_1_conv"
  name: "2_1_conv"
  type: CONVOLUTION
  blobs_lr: 1
  blobs_lr: 2
  weight_decay: 0
  weight_decay: 0
  convolution_param {
    num_output: 16
    pad: 1
    kernel_size: 3
    stride: 1
    weight_filler {
      type: "xavier"
    }
    bias_filler {
      type: "constant"
      value: 0
    }
  }
}
layers {
  bottom: "2_1_conv"
  top: "2_1_conv"
  name: "2_1_conv_ReLU"
  type: RELU
}
layers {
  bottom: "2_1_conv"
  top: "2_pool"
  name: "2_pool"
  type: POOLING
  pooling_param {
    pool: MAX
    kernel_size: 2
    stride: 2
  }
}
layers {
  bottom: "2_pool"
  top: "middle_conv"
  name: "middle_conv"
  type: CONVOLUTION
  blobs_lr: 1
  blobs_lr: 2
  weight_decay: 0
  weight_decay: 0
  convolution_param {
    num_output: 50
    pad: 0
    kernel_size: 4
    stride: 1
    weight_filler {
      type: "xavier"
    }
    bias_filler {
      type: "constant"
      value: 0
    }
  }
}
layers {
  bottom: "middle_conv"
  top: "middle_conv"
  name: "middle_conv_ReLU"
  type: RELU
}
layers {
  bottom: "middle_conv"
  top: "fc1"
  name: "fc1"
  type: INNER_PRODUCT
  blobs_lr: 1
  blobs_lr: 2
  weight_decay: 0
  weight_decay: 0
  inner_product_param {
    num_output: 512
    weight_filler {
      type: "xavier"
    }
    bias_filler {
      type: "constant"
      value: 0
    }
  }
}
layers {
  bottom: "fc1"
  top: "fc1"
  name: "fc1_Dropout"
  type: DROPOUT
  dropout_param {
    dropout_ratio: 0.5
  }
  include {
    phase: TRAIN
  }
}
layers {
  bottom: "fc1"
  top: "fc1"
  name: "fc1_Dropout_ReLU"
  type: RELU
}
layers {
  bottom: "fc1"
  top: "fc2"
  name: "fc2"
  type: INNER_PRODUCT
  blobs_lr: 1
  blobs_lr: 2
  weight_decay: 0
  weight_decay: 0
  inner_product_param {
    num_output: 100
    weight_filler {
      type: "xavier"
    }
    bias_filler {
      type: "constant"
      value: 0
    }
  }
}
layers {
  bottom: "fc2"
  bottom: "label"
  top: "softmax"
  name: "softmax"
  type: SOFTMAX_LOSS
}
state {
  phase: TRAIN
}
I0614 16:00:00.677461  5063 layer_factory.hpp:78] Creating layer data
I0614 16:00:00.677475  5063 data_transformer.cpp:25] Loading mean file from/dataset/cifar100_lmdb_lab/mean.binaryproto
I0614 16:00:00.677523  5063 net.cpp:69] Creating Layer data
I0614 16:00:00.677530  5063 net.cpp:358] data -> data
I0614 16:00:00.677538  5063 net.cpp:358] data -> label
I0614 16:00:00.677543  5063 net.cpp:98] Setting up data
I0614 16:00:00.677547  5063 data_layer.cpp:32] Opening dataset /dataset/cifar100_lmdb_lab/cifar100_train_lmdb
I0614 16:00:00.677618  5063 data_layer.cpp:71] output data size: 128,3,32,32
I0614 16:00:00.677933  5063 net.cpp:105] Top shape: 128 3 32 32 (393216)
I0614 16:00:00.677939  5063 net.cpp:105] Top shape: 128 1 1 1 (128)
I0614 16:00:00.677942  5063 layer_factory.hpp:78] Creating layer 0_0_conv
I0614 16:00:00.677958  5063 net.cpp:69] Creating Layer 0_0_conv
I0614 16:00:00.677961  5063 net.cpp:396] 0_0_conv <- data
I0614 16:00:00.677971  5063 net.cpp:358] 0_0_conv -> 0_0_conv
I0614 16:00:00.677978  5063 net.cpp:98] Setting up 0_0_conv
I0614 16:00:00.678246  5063 net.cpp:105] Top shape: 128 16 32 32 (2097152)
I0614 16:00:00.678259  5063 layer_factory.hpp:78] Creating layer 0_0_conv_ReLU
I0614 16:00:00.678266  5063 net.cpp:69] Creating Layer 0_0_conv_ReLU
I0614 16:00:00.678268  5063 net.cpp:396] 0_0_conv_ReLU <- 0_0_conv
I0614 16:00:00.678272  5063 net.cpp:347] 0_0_conv_ReLU -> 0_0_conv (in-place)
I0614 16:00:00.678277  5063 net.cpp:98] Setting up 0_0_conv_ReLU
I0614 16:00:00.678279  5063 net.cpp:105] Top shape: 128 16 32 32 (2097152)
I0614 16:00:00.678283  5063 layer_factory.hpp:78] Creating layer 0_1_conv
I0614 16:00:00.678287  5063 net.cpp:69] Creating Layer 0_1_conv
I0614 16:00:00.678289  5063 net.cpp:396] 0_1_conv <- 0_0_conv
I0614 16:00:00.678295  5063 net.cpp:358] 0_1_conv -> 0_1_conv
I0614 16:00:00.678299  5063 net.cpp:98] Setting up 0_1_conv
I0614 16:00:00.678319  5063 net.cpp:105] Top shape: 128 16 32 32 (2097152)
I0614 16:00:00.678325  5063 layer_factory.hpp:78] Creating layer 0_1_conv_ReLU
I0614 16:00:00.678329  5063 net.cpp:69] Creating Layer 0_1_conv_ReLU
I0614 16:00:00.678331  5063 net.cpp:396] 0_1_conv_ReLU <- 0_1_conv
I0614 16:00:00.678336  5063 net.cpp:347] 0_1_conv_ReLU -> 0_1_conv (in-place)
I0614 16:00:00.678344  5063 net.cpp:98] Setting up 0_1_conv_ReLU
I0614 16:00:00.678346  5063 net.cpp:105] Top shape: 128 16 32 32 (2097152)
I0614 16:00:00.678357  5063 layer_factory.hpp:78] Creating layer 0_pool
I0614 16:00:00.678362  5063 net.cpp:69] Creating Layer 0_pool
I0614 16:00:00.678365  5063 net.cpp:396] 0_pool <- 0_1_conv
I0614 16:00:00.678369  5063 net.cpp:358] 0_pool -> 0_pool
I0614 16:00:00.678374  5063 net.cpp:98] Setting up 0_pool
I0614 16:00:00.678380  5063 net.cpp:105] Top shape: 128 16 16 16 (524288)
I0614 16:00:00.678383  5063 layer_factory.hpp:78] Creating layer 1_0_conv
I0614 16:00:00.678387  5063 net.cpp:69] Creating Layer 1_0_conv
I0614 16:00:00.678390  5063 net.cpp:396] 1_0_conv <- 0_pool
I0614 16:00:00.678395  5063 net.cpp:358] 1_0_conv -> 1_0_conv
I0614 16:00:00.678398  5063 net.cpp:98] Setting up 1_0_conv
I0614 16:00:00.678416  5063 net.cpp:105] Top shape: 128 16 16 16 (524288)
I0614 16:00:00.678422  5063 layer_factory.hpp:78] Creating layer 1_0_conv_ReLU
I0614 16:00:00.678426  5063 net.cpp:69] Creating Layer 1_0_conv_ReLU
I0614 16:00:00.678428  5063 net.cpp:396] 1_0_conv_ReLU <- 1_0_conv
I0614 16:00:00.678433  5063 net.cpp:347] 1_0_conv_ReLU -> 1_0_conv (in-place)
I0614 16:00:00.678437  5063 net.cpp:98] Setting up 1_0_conv_ReLU
I0614 16:00:00.678441  5063 net.cpp:105] Top shape: 128 16 16 16 (524288)
I0614 16:00:00.678442  5063 layer_factory.hpp:78] Creating layer 1_1_conv
I0614 16:00:00.678447  5063 net.cpp:69] Creating Layer 1_1_conv
I0614 16:00:00.678450  5063 net.cpp:396] 1_1_conv <- 1_0_conv
I0614 16:00:00.678455  5063 net.cpp:358] 1_1_conv -> 1_1_conv
I0614 16:00:00.678459  5063 net.cpp:98] Setting up 1_1_conv
I0614 16:00:00.678479  5063 net.cpp:105] Top shape: 128 16 16 16 (524288)
I0614 16:00:00.678484  5063 layer_factory.hpp:78] Creating layer 1_1_conv_ReLU
I0614 16:00:00.678488  5063 net.cpp:69] Creating Layer 1_1_conv_ReLU
I0614 16:00:00.678490  5063 net.cpp:396] 1_1_conv_ReLU <- 1_1_conv
I0614 16:00:00.678494  5063 net.cpp:347] 1_1_conv_ReLU -> 1_1_conv (in-place)
I0614 16:00:00.678498  5063 net.cpp:98] Setting up 1_1_conv_ReLU
I0614 16:00:00.678501  5063 net.cpp:105] Top shape: 128 16 16 16 (524288)
I0614 16:00:00.678504  5063 layer_factory.hpp:78] Creating layer 1_pool
I0614 16:00:00.678508  5063 net.cpp:69] Creating Layer 1_pool
I0614 16:00:00.678510  5063 net.cpp:396] 1_pool <- 1_1_conv
I0614 16:00:00.678514  5063 net.cpp:358] 1_pool -> 1_pool
I0614 16:00:00.678519  5063 net.cpp:98] Setting up 1_pool
I0614 16:00:00.678521  5063 net.cpp:105] Top shape: 128 16 8 8 (131072)
I0614 16:00:00.678524  5063 layer_factory.hpp:78] Creating layer 2_0_conv
I0614 16:00:00.678530  5063 net.cpp:69] Creating Layer 2_0_conv
I0614 16:00:00.678534  5063 net.cpp:396] 2_0_conv <- 1_pool
I0614 16:00:00.678539  5063 net.cpp:358] 2_0_conv -> 2_0_conv
I0614 16:00:00.678544  5063 net.cpp:98] Setting up 2_0_conv
I0614 16:00:00.678562  5063 net.cpp:105] Top shape: 128 16 8 8 (131072)
I0614 16:00:00.678568  5063 layer_factory.hpp:78] Creating layer 2_0_conv_ReLU
I0614 16:00:00.678571  5063 net.cpp:69] Creating Layer 2_0_conv_ReLU
I0614 16:00:00.678575  5063 net.cpp:396] 2_0_conv_ReLU <- 2_0_conv
I0614 16:00:00.678580  5063 net.cpp:347] 2_0_conv_ReLU -> 2_0_conv (in-place)
I0614 16:00:00.678582  5063 net.cpp:98] Setting up 2_0_conv_ReLU
I0614 16:00:00.678586  5063 net.cpp:105] Top shape: 128 16 8 8 (131072)
I0614 16:00:00.678588  5063 layer_factory.hpp:78] Creating layer 2_1_conv
I0614 16:00:00.678592  5063 net.cpp:69] Creating Layer 2_1_conv
I0614 16:00:00.678596  5063 net.cpp:396] 2_1_conv <- 2_0_conv
I0614 16:00:00.678599  5063 net.cpp:358] 2_1_conv -> 2_1_conv
I0614 16:00:00.678603  5063 net.cpp:98] Setting up 2_1_conv
I0614 16:00:00.678622  5063 net.cpp:105] Top shape: 128 16 8 8 (131072)
I0614 16:00:00.678627  5063 layer_factory.hpp:78] Creating layer 2_1_conv_ReLU
I0614 16:00:00.678629  5063 net.cpp:69] Creating Layer 2_1_conv_ReLU
I0614 16:00:00.678632  5063 net.cpp:396] 2_1_conv_ReLU <- 2_1_conv
I0614 16:00:00.678637  5063 net.cpp:347] 2_1_conv_ReLU -> 2_1_conv (in-place)
I0614 16:00:00.678642  5063 net.cpp:98] Setting up 2_1_conv_ReLU
I0614 16:00:00.678645  5063 net.cpp:105] Top shape: 128 16 8 8 (131072)
I0614 16:00:00.678652  5063 layer_factory.hpp:78] Creating layer 2_pool
I0614 16:00:00.678655  5063 net.cpp:69] Creating Layer 2_pool
I0614 16:00:00.678658  5063 net.cpp:396] 2_pool <- 2_1_conv
I0614 16:00:00.678663  5063 net.cpp:358] 2_pool -> 2_pool
I0614 16:00:00.678668  5063 net.cpp:98] Setting up 2_pool
I0614 16:00:00.678670  5063 net.cpp:105] Top shape: 128 16 4 4 (32768)
I0614 16:00:00.678673  5063 layer_factory.hpp:78] Creating layer middle_conv
I0614 16:00:00.678678  5063 net.cpp:69] Creating Layer middle_conv
I0614 16:00:00.678680  5063 net.cpp:396] middle_conv <- 2_pool
I0614 16:00:00.678684  5063 net.cpp:358] middle_conv -> middle_conv
I0614 16:00:00.678689  5063 net.cpp:98] Setting up middle_conv
I0614 16:00:00.678760  5063 net.cpp:105] Top shape: 128 50 1 1 (6400)
I0614 16:00:00.678766  5063 layer_factory.hpp:78] Creating layer middle_conv_ReLU
I0614 16:00:00.678768  5063 net.cpp:69] Creating Layer middle_conv_ReLU
I0614 16:00:00.678771  5063 net.cpp:396] middle_conv_ReLU <- middle_conv
I0614 16:00:00.678776  5063 net.cpp:347] middle_conv_ReLU -> middle_conv (in-place)
I0614 16:00:00.678779  5063 net.cpp:98] Setting up middle_conv_ReLU
I0614 16:00:00.678781  5063 net.cpp:105] Top shape: 128 50 1 1 (6400)
I0614 16:00:00.678784  5063 layer_factory.hpp:78] Creating layer fc1
I0614 16:00:00.678789  5063 net.cpp:69] Creating Layer fc1
I0614 16:00:00.678792  5063 net.cpp:396] fc1 <- middle_conv
I0614 16:00:00.678797  5063 net.cpp:358] fc1 -> fc1
I0614 16:00:00.678802  5063 net.cpp:98] Setting up fc1
I0614 16:00:00.678937  5063 net.cpp:105] Top shape: 128 512 1 1 (65536)
I0614 16:00:00.678942  5063 layer_factory.hpp:78] Creating layer fc1_Dropout
I0614 16:00:00.678946  5063 net.cpp:69] Creating Layer fc1_Dropout
I0614 16:00:00.678949  5063 net.cpp:396] fc1_Dropout <- fc1
I0614 16:00:00.678954  5063 net.cpp:347] fc1_Dropout -> fc1 (in-place)
I0614 16:00:00.678958  5063 net.cpp:98] Setting up fc1_Dropout
I0614 16:00:00.678962  5063 net.cpp:105] Top shape: 128 512 1 1 (65536)
I0614 16:00:00.678966  5063 layer_factory.hpp:78] Creating layer fc1_Dropout_ReLU
I0614 16:00:00.678968  5063 net.cpp:69] Creating Layer fc1_Dropout_ReLU
I0614 16:00:00.678972  5063 net.cpp:396] fc1_Dropout_ReLU <- fc1
I0614 16:00:00.678975  5063 net.cpp:347] fc1_Dropout_ReLU -> fc1 (in-place)
I0614 16:00:00.678978  5063 net.cpp:98] Setting up fc1_Dropout_ReLU
I0614 16:00:00.678982  5063 net.cpp:105] Top shape: 128 512 1 1 (65536)
I0614 16:00:00.678984  5063 layer_factory.hpp:78] Creating layer fc2
I0614 16:00:00.678988  5063 net.cpp:69] Creating Layer fc2
I0614 16:00:00.678990  5063 net.cpp:396] fc2 <- fc1
I0614 16:00:00.678995  5063 net.cpp:358] fc2 -> fc2
I0614 16:00:00.679000  5063 net.cpp:98] Setting up fc2
I0614 16:00:00.679302  5063 net.cpp:105] Top shape: 128 100 1 1 (12800)
I0614 16:00:00.679311  5063 layer_factory.hpp:78] Creating layer softmax
I0614 16:00:00.679318  5063 net.cpp:69] Creating Layer softmax
I0614 16:00:00.679322  5063 net.cpp:396] softmax <- fc2
I0614 16:00:00.679325  5063 net.cpp:396] softmax <- label
I0614 16:00:00.679329  5063 net.cpp:358] softmax -> softmax
I0614 16:00:00.679334  5063 net.cpp:98] Setting up softmax
I0614 16:00:00.679349  5063 net.cpp:105] Top shape: 1 1 1 1 (1)
I0614 16:00:00.679352  5063 net.cpp:111]     with loss weight 1
I0614 16:00:00.679363  5063 net.cpp:172] softmax needs backward computation.
I0614 16:00:00.679366  5063 net.cpp:172] fc2 needs backward computation.
I0614 16:00:00.679369  5063 net.cpp:172] fc1_Dropout_ReLU needs backward computation.
I0614 16:00:00.679373  5063 net.cpp:172] fc1_Dropout needs backward computation.
I0614 16:00:00.679374  5063 net.cpp:172] fc1 needs backward computation.
…
I0614 16:00:00.679894  5063 net.cpp:277] The NetState phase (1) differed from the phase (0) specified by a rule in layer data
I0614 16:00:00.679904  5063 net.cpp:277] The NetState phase (1) differed from the phase (0) specified by a rule in layer fc1_Dropout
I0614 16:00:00.679996  5063 net.cpp:39] Initializing net from parameters: 
layers {
  top: "data"
  top: "label"
  name: "data"
  type: DATA
  data_param {
    source: "/dataset/cifar100_lmdb_lab/cifar100_test_lmdb"
    batch_size: 128
    backend: LMDB
  }
  include {
    phase: TEST
  }
  transform_param {
    mean_file: "/dataset/cifar100_lmdb_lab/mean.binaryproto"
  }
}
layers {
  bottom: "data"
  top: "0_0_conv"
  name: "0_0_conv"
  type: CONVOLUTION
  blobs_lr: 1
  blobs_lr: 2
  weight_decay: 0
  weight_decay: 0
  convolution_param {
    num_output: 16
    pad: 1
    kernel_size: 3
    stride: 1
    weight_filler {
      type: "xavier"
    }
    bias_filler {
      type: "constant"
      value: 0
    }
  }
}
layers {
  bottom: "0_0_conv"
  top: "0_0_conv"
  name: "0_0_conv_ReLU"
  type: RELU
}
layers {
  bottom: "0_0_conv"
  top: "0_1_conv"
  name: "0_1_conv"
  type: CONVOLUTION
  blobs_lr: 1
  blobs_lr: 2
  weight_decay: 0
  weight_decay: 0
  convolution_param {
    num_output: 16
    pad: 1
    kernel_size: 3
    stride: 1
    weight_filler {
      type: "xavier"
    }
    bias_filler {
      type: "constant"
      value: 0
    }
  }
}
layers {
  bottom: "0_1_conv"
  top: "0_1_conv"
  name: "0_1_conv_ReLU"
  type: RELU
}
layers {
  bottom: "0_1_conv"
  top: "0_pool"
  name: "0_pool"
  type: POOLING
  pooling_param {
    pool: MAX
    kernel_size: 2
    stride: 2
  }
}
layers {
  bottom: "0_pool"
  top: "1_0_conv"
  name: "1_0_conv"
  type: CONVOLUTION
  blobs_lr: 1
  blobs_lr: 2
  weight_decay: 0
  weight_decay: 0
  convolution_param {
    num_output: 16
    pad: 1
    kernel_size: 3
    stride: 1
    weight_filler {
      type: "xavier"
    }
    bias_filler {
      type: "constant"
      value: 0
    }
  }
}
layers {
  bottom: "1_0_conv"
  top: "1_0_conv"
  name: "1_0_conv_ReLU"
  type: RELU
}
layers {
  bottom: "1_0_conv"
  top: "1_1_conv"
  name: "1_1_conv"
  type: CONVOLUTION
  blobs_lr: 1
  blobs_lr: 2
  weight_decay: 0
  weight_decay: 0
  convolution_param {
    num_output: 16
    pad: 1
    kernel_size: 3
    stride: 1
    weight_filler {
      type: "xavier"
    }
    bias_filler {
      type: "constant"
      value: 0
    }
  }
}
layers {
  bottom: "1_1_conv"
  top: "1_1_conv"
  name: "1_1_conv_ReLU"
  type: RELU
}
layers {
  bottom: "1_1_conv"
  top: "1_pool"
  name: "1_pool"
  type: POOLING
  pooling_param {
    pool: MAX
    kernel_size: 2
    stride: 2
  }
}
layers {
  bottom: "1_pool"
  top: "2_0_conv"
  name: "2_0_conv"
  type: CONVOLUTION
  blobs_lr: 1
  blobs_lr: 2
  weight_decay: 0
  weight_decay: 0
  convolution_param {
    num_output: 16
    pad: 1
    kernel_size: 3
    stride: 1
    weight_filler {
      type: "xavier"
    }
    bias_filler {
      type: "constant"
      value: 0
    }
  }
}
layers {
  bottom: "2_0_conv"
  top: "2_0_conv"
  name: "2_0_conv_ReLU"
  type: RELU
}
layers {
  bottom: "2_0_conv"
  top: "2_1_conv"
  name: "2_1_conv"
  type: CONVOLUTION
  blobs_lr: 1
  blobs_lr: 2
  weight_decay: 0
  weight_decay: 0
  convolution_param {
    num_output: 16
    pad: 1
    kernel_size: 3
    stride: 1
    weight_filler {
      type: "xavier"
    }
    bias_filler {
      type: "constant"
      value: 0
    }
  }
}
layers {
  bottom: "2_1_conv"
  top: "2_1_conv"
  name: "2_1_conv_ReLU"
  type: RELU
}
layers {
  bottom: "2_1_conv"
  top: "2_pool"
  name: "2_pool"
  type: POOLING
  pooling_param {
    pool: MAX
    kernel_size: 2
    stride: 2
  }
}
layers {
  bottom: "2_pool"
  top: "middle_conv"
  name: "middle_conv"
  type: CONVOLUTION
  blobs_lr: 1
  blobs_lr: 2
  weight_decay: 0
  weight_decay: 0
  convolution_param {
    num_output: 50
    pad: 0
    kernel_size: 4
    stride: 1
    weight_filler {
      type: "xavier"
    }
    bias_filler {
      type: "constant"
      value: 0
    }
  }
}
layers {
  bottom: "middle_conv"
  top: "middle_conv"
  name: "middle_conv_ReLU"
  type: RELU
}
layers {
  bottom: "middle_conv"
  top: "fc1"
  name: "fc1"
  type: INNER_PRODUCT
  blobs_lr: 1
  blobs_lr: 2
  weight_decay: 0
  weight_decay: 0
  inner_product_param {
    num_output: 512
    weight_filler {
      type: "xavier"
    }
    bias_filler {
      type: "constant"
      value: 0
    }
  }
}
layers {
  bottom: "fc1"
  top: "fc1"
  name: "fc1_Dropout_ReLU"
  type: RELU
}
layers {
  bottom: "fc1"
  top: "fc2"
  name: "fc2"
  type: INNER_PRODUCT
  blobs_lr: 1
  blobs_lr: 2
  weight_decay: 0
  weight_decay: 0
  inner_product_param {
    num_output: 100
    weight_filler {
      type: "xavier"
    }
    bias_filler {
      type: "constant"
      value: 0
    }
  }
}
layers {
  bottom: "fc2"
  bottom: "label"
  top: "softmax"
  name: "softmax"
  type: SOFTMAX_LOSS
}
layers {
  bottom: "fc2"
  bottom: "label"
  top: "accuracy_top_1"
  name: "accuracy_top_1"
  type: ACCURACY
  accuracy_param {
    top_k: 1
  }
  include {
    phase: TEST
  }
}
layers {
  bottom: "fc2"
  bottom: "label"
  top: "accuracy_top_5"
  name: "accuracy_top_5"
  type: ACCURACY
  accuracy_param {
    top_k: 5
  }
  include {
    phase: TEST
  }
}
state {
  phase: TEST
}
I0614 16:00:00.680074  5063 layer_factory.hpp:78] Creating layer data
I0614 16:00:00.680081  5063 data_transformer.cpp:25] Loading mean file from/dataset/cifar100_lmdb_lab/mean.binaryproto
I0614 16:00:00.680112  5063 net.cpp:69] Creating Layer data
I0614 16:00:00.680117  5063 net.cpp:358] data -> data
I0614 16:00:00.680124  5063 net.cpp:358] data -> label
I0614 16:00:00.680138  5063 net.cpp:98] Setting up data
I0614 16:00:00.680143  5063 data_layer.cpp:32] Opening dataset /dataset/cifar100_lmdb_lab/cifar100_test_lmdb
I0614 16:00:00.680219  5063 data_layer.cpp:71] output data size: 128,3,32,32
I0614 16:00:00.680626  5063 net.cpp:105] Top shape: 128 3 32 32 (393216)
I0614 16:00:00.680634  5063 net.cpp:105] Top shape: 128 1 1 1 (128)
I0614 16:00:00.680637  5063 layer_factory.hpp:78] Creating layer label_data_1_split
I0614 16:00:00.680647  5063 net.cpp:69] Creating Layer label_data_1_split
I0614 16:00:00.680650  5063 net.cpp:396] label_data_1_split <- label
I0614 16:00:00.680655  5063 net.cpp:358] label_data_1_split -> label_data_1_split_0
I0614 16:00:00.680661  5063 net.cpp:358] label_data_1_split -> label_data_1_split_1
I0614 16:00:00.680666  5063 net.cpp:358] label_data_1_split -> label_data_1_split_2
I0614 16:00:00.680682  5063 net.cpp:98] Setting up label_data_1_split
I0614 16:00:00.680686  5063 net.cpp:105] Top shape: 128 1 1 1 (128)
I0614 16:00:00.680694  5063 net.cpp:105] Top shape: 128 1 1 1 (128)
I0614 16:00:00.680698  5063 net.cpp:105] Top shape: 128 1 1 1 (128)
I0614 16:00:00.680701  5063 layer_factory.hpp:78] Creating layer 0_0_conv
I0614 16:00:00.680706  5063 net.cpp:69] Creating Layer 0_0_conv
I0614 16:00:00.680709  5063 net.cpp:396] 0_0_conv <- data
I0614 16:00:00.680714  5063 net.cpp:358] 0_0_conv -> 0_0_conv
I0614 16:00:00.680719  5063 net.cpp:98] Setting up 0_0_conv
I0614 16:00:00.680732  5063 net.cpp:105] Top shape: 128 16 32 32 (2097152)
I0614 16:00:00.680737  5063 layer_factory.hpp:78] Creating layer 0_0_conv_ReLU
I0614 16:00:00.680742  5063 net.cpp:69] Creating Layer 0_0_conv_ReLU
I0614 16:00:00.680744  5063 net.cpp:396] 0_0_conv_ReLU <- 0_0_conv
I0614 16:00:00.680748  5063 net.cpp:347] 0_0_conv_ReLU -> 0_0_conv (in-place)
I0614 16:00:00.680752  5063 net.cpp:98] Setting up 0_0_conv_ReLU
I0614 16:00:00.680755  5063 net.cpp:105] Top shape: 128 16 32 32 (2097152)
I0614 16:00:00.680758  5063 layer_factory.hpp:78] Creating layer 0_1_conv
I0614 16:00:00.680763  5063 net.cpp:69] Creating Layer 0_1_conv
I0614 16:00:00.680766  5063 net.cpp:396] 0_1_conv <- 0_0_conv
I0614 16:00:00.680770  5063 net.cpp:358] 0_1_conv -> 0_1_conv
I0614 16:00:00.680775  5063 net.cpp:98] Setting up 0_1_conv
I0614 16:00:00.680794  5063 net.cpp:105] Top shape: 128 16 32 32 (2097152)
I0614 16:00:00.680799  5063 layer_factory.hpp:78] Creating layer 0_1_conv_ReLU
I0614 16:00:00.680804  5063 net.cpp:69] Creating Layer 0_1_conv_ReLU
I0614 16:00:00.680806  5063 net.cpp:396] 0_1_conv_ReLU <- 0_1_conv
I0614 16:00:00.680810  5063 net.cpp:347] 0_1_conv_ReLU -> 0_1_conv (in-place)
I0614 16:00:00.680814  5063 net.cpp:98] Setting up 0_1_conv_ReLU
I0614 16:00:00.680817  5063 net.cpp:105] Top shape: 128 16 32 32 (2097152)
I0614 16:00:00.680820  5063 layer_factory.hpp:78] Creating layer 0_pool
I0614 16:00:00.680824  5063 net.cpp:69] Creating Layer 0_pool
I0614 16:00:00.680826  5063 net.cpp:396] 0_pool <- 0_1_conv
I0614 16:00:00.680830  5063 net.cpp:358] 0_pool -> 0_pool
I0614 16:00:00.680835  5063 net.cpp:98] Setting up 0_pool
I0614 16:00:00.680838  5063 net.cpp:105] Top shape: 128 16 16 16 (524288)
I0614 16:00:00.680841  5063 layer_factory.hpp:78] Creating layer 1_0_conv
I0614 16:00:00.680845  5063 net.cpp:69] Creating Layer 1_0_conv
I0614 16:00:00.680848  5063 net.cpp:396] 1_0_conv <- 0_pool
I0614 16:00:00.680852  5063 net.cpp:358] 1_0_conv -> 1_0_conv
I0614 16:00:00.680857  5063 net.cpp:98] Setting up 1_0_conv
I0614 16:00:00.680874  5063 net.cpp:105] Top shape: 128 16 16 16 (524288)
I0614 16:00:00.680881  5063 layer_factory.hpp:78] Creating layer 1_0_conv_ReLU
I0614 16:00:00.680884  5063 net.cpp:69] Creating Layer 1_0_conv_ReLU
I0614 16:00:00.680887  5063 net.cpp:396] 1_0_conv_ReLU <- 1_0_conv
I0614 16:00:00.680891  5063 net.cpp:347] 1_0_conv_ReLU -> 1_0_conv (in-place)
I0614 16:00:00.680894  5063 net.cpp:98] Setting up 1_0_conv_ReLU
I0614 16:00:00.680897  5063 net.cpp:105] Top shape: 128 16 16 16 (524288)
I0614 16:00:00.680901  5063 layer_factory.hpp:78] Creating layer 1_1_conv
I0614 16:00:00.680904  5063 net.cpp:69] Creating Layer 1_1_conv
I0614 16:00:00.680907  5063 net.cpp:396] 1_1_conv <- 1_0_conv
I0614 16:00:00.680912  5063 net.cpp:358] 1_1_conv -> 1_1_conv
I0614 16:00:00.680917  5063 net.cpp:98] Setting up 1_1_conv
I0614 16:00:00.680933  5063 net.cpp:105] Top shape: 128 16 16 16 (524288)
I0614 16:00:00.680938  5063 layer_factory.hpp:78] Creating layer 1_1_conv_ReLU
I0614 16:00:00.680943  5063 net.cpp:69] Creating Layer 1_1_conv_ReLU
I0614 16:00:00.680944  5063 net.cpp:396] 1_1_conv_ReLU <- 1_1_conv
I0614 16:00:00.680948  5063 net.cpp:347] 1_1_conv_ReLU -> 1_1_conv (in-place)
I0614 16:00:00.680953  5063 net.cpp:98] Setting up 1_1_conv_ReLU
I0614 16:00:00.680954  5063 net.cpp:105] Top shape: 128 16 16 16 (524288)
I0614 16:00:00.680958  5063 layer_factory.hpp:78] Creating layer 1_pool
I0614 16:00:00.680960  5063 net.cpp:69] Creating Layer 1_pool
I0614 16:00:00.680966  5063 net.cpp:396] 1_pool <- 1_1_conv
I0614 16:00:00.680971  5063 net.cpp:358] 1_pool -> 1_pool
I0614 16:00:00.680979  5063 net.cpp:98] Setting up 1_pool
I0614 16:00:00.680982  5063 net.cpp:105] Top shape: 128 16 8 8 (131072)
I0614 16:00:00.680985  5063 layer_factory.hpp:78] Creating layer 2_0_conv
I0614 16:00:00.680989  5063 net.cpp:69] Creating Layer 2_0_conv
I0614 16:00:00.680992  5063 net.cpp:396] 2_0_conv <- 1_pool
I0614 16:00:00.680996  5063 net.cpp:358] 2_0_conv -> 2_0_conv
I0614 16:00:00.681000  5063 net.cpp:98] Setting up 2_0_conv
I0614 16:00:00.681017  5063 net.cpp:105] Top shape: 128 16 8 8 (131072)
I0614 16:00:00.681023  5063 layer_factory.hpp:78] Creating layer 2_0_conv_ReLU
I0614 16:00:00.681026  5063 net.cpp:69] Creating Layer 2_0_conv_ReLU
I0614 16:00:00.681030  5063 net.cpp:396] 2_0_conv_ReLU <- 2_0_conv
I0614 16:00:00.681033  5063 net.cpp:347] 2_0_conv_ReLU -> 2_0_conv (in-place)
I0614 16:00:00.681037  5063 net.cpp:98] Setting up 2_0_conv_ReLU
I0614 16:00:00.681040  5063 net.cpp:105] Top shape: 128 16 8 8 (131072)
I0614 16:00:00.681042  5063 layer_factory.hpp:78] Creating layer 2_1_conv
I0614 16:00:00.681046  5063 net.cpp:69] Creating Layer 2_1_conv
I0614 16:00:00.681048  5063 net.cpp:396] 2_1_conv <- 2_0_conv
I0614 16:00:00.681054  5063 net.cpp:358] 2_1_conv -> 2_1_conv
I0614 16:00:00.681058  5063 net.cpp:98] Setting up 2_1_conv
I0614 16:00:00.681076  5063 net.cpp:105] Top shape: 128 16 8 8 (131072)
I0614 16:00:00.681079  5063 layer_factory.hpp:78] Creating layer 2_1_conv_ReLU
I0614 16:00:00.681083  5063 net.cpp:69] Creating Layer 2_1_conv_ReLU
I0614 16:00:00.681085  5063 net.cpp:396] 2_1_conv_ReLU <- 2_1_conv
I0614 16:00:00.681089  5063 net.cpp:347] 2_1_conv_ReLU -> 2_1_conv (in-place)
I0614 16:00:00.681092  5063 net.cpp:98] Setting up 2_1_conv_ReLU
I0614 16:00:00.681095  5063 net.cpp:105] Top shape: 128 16 8 8 (131072)
I0614 16:00:00.681098  5063 layer_factory.hpp:78] Creating layer 2_pool
I0614 16:00:00.681103  5063 net.cpp:69] Creating Layer 2_pool
I0614 16:00:00.681107  5063 net.cpp:396] 2_pool <- 2_1_conv
I0614 16:00:00.681109  5063 net.cpp:358] 2_pool -> 2_pool
I0614 16:00:00.681113  5063 net.cpp:98] Setting up 2_pool
I0614 16:00:00.681118  5063 net.cpp:105] Top shape: 128 16 4 4 (32768)
I0614 16:00:00.681120  5063 layer_factory.hpp:78] Creating layer middle_conv
I0614 16:00:00.681123  5063 net.cpp:69] Creating Layer middle_conv
I0614 16:00:00.681126  5063 net.cpp:396] middle_conv <- 2_pool
I0614 16:00:00.681130  5063 net.cpp:358] middle_conv -> middle_conv
I0614 16:00:00.681134  5063 net.cpp:98] Setting up middle_conv
I0614 16:00:00.681203  5063 net.cpp:105] Top shape: 128 50 1 1 (6400)
I0614 16:00:00.681207  5063 layer_factory.hpp:78] Creating layer middle_conv_ReLU
I0614 16:00:00.681211  5063 net.cpp:69] Creating Layer middle_conv_ReLU
I0614 16:00:00.681215  5063 net.cpp:396] middle_conv_ReLU <- middle_conv
I0614 16:00:00.681217  5063 net.cpp:347] middle_conv_ReLU -> middle_conv (in-place)
I0614 16:00:00.681221  5063 net.cpp:98] Setting up middle_conv_ReLU
I0614 16:00:00.681224  5063 net.cpp:105] Top shape: 128 50 1 1 (6400)
I0614 16:00:00.681227  5063 layer_factory.hpp:78] Creating layer fc1
I0614 16:00:00.681234  5063 net.cpp:69] Creating Layer fc1
I0614 16:00:00.681237  5063 net.cpp:396] fc1 <- middle_conv
I0614 16:00:00.681241  5063 net.cpp:358] fc1 -> fc1
I0614 16:00:00.681247  5063 net.cpp:98] Setting up fc1
I0614 16:00:00.681390  5063 net.cpp:105] Top shape: 128 512 1 1 (65536)
I0614 16:00:00.681396  5063 layer_factory.hpp:78] Creating layer fc1_Dropout_ReLU
I0614 16:00:00.681399  5063 net.cpp:69] Creating Layer fc1_Dropout_ReLU
I0614 16:00:00.681402  5063 net.cpp:396] fc1_Dropout_ReLU <- fc1
I0614 16:00:00.681406  5063 net.cpp:347] fc1_Dropout_ReLU -> fc1 (in-place)
I0614 16:00:00.681411  5063 net.cpp:98] Setting up fc1_Dropout_ReLU
I0614 16:00:00.681413  5063 net.cpp:105] Top shape: 128 512 1 1 (65536)
I0614 16:00:00.681416  5063 layer_factory.hpp:78] Creating layer fc2
I0614 16:00:00.681421  5063 net.cpp:69] Creating Layer fc2
I0614 16:00:00.681423  5063 net.cpp:396] fc2 <- fc1
I0614 16:00:00.681429  5063 net.cpp:358] fc2 -> fc2
I0614 16:00:00.681434  5063 net.cpp:98] Setting up fc2
I0614 16:00:00.681712  5063 net.cpp:105] Top shape: 128 100 1 1 (12800)
I0614 16:00:00.681723  5063 layer_factory.hpp:78] Creating layer fc2_fc2_0_split
I0614 16:00:00.681727  5063 net.cpp:69] Creating Layer fc2_fc2_0_split
I0614 16:00:00.681730  5063 net.cpp:396] fc2_fc2_0_split <- fc2
I0614 16:00:00.681735  5063 net.cpp:358] fc2_fc2_0_split -> fc2_fc2_0_split_0
I0614 16:00:00.681740  5063 net.cpp:358] fc2_fc2_0_split -> fc2_fc2_0_split_1
I0614 16:00:00.681746  5063 net.cpp:358] fc2_fc2_0_split -> fc2_fc2_0_split_2
I0614 16:00:00.681751  5063 net.cpp:98] Setting up fc2_fc2_0_split
I0614 16:00:00.681753  5063 net.cpp:105] Top shape: 128 100 1 1 (12800)
I0614 16:00:00.681757  5063 net.cpp:105] Top shape: 128 100 1 1 (12800)
I0614 16:00:00.681761  5063 net.cpp:105] Top shape: 128 100 1 1 (12800)
I0614 16:00:00.681763  5063 layer_factory.hpp:78] Creating layer softmax
I0614 16:00:00.681771  5063 net.cpp:69] Creating Layer softmax
I0614 16:00:00.681773  5063 net.cpp:396] softmax <- fc2_fc2_0_split_0
I0614 16:00:00.681777  5063 net.cpp:396] softmax <- label_data_1_split_0
I0614 16:00:00.681782  5063 net.cpp:358] softmax -> softmax
I0614 16:00:00.681787  5063 net.cpp:98] Setting up softmax
I0614 16:00:00.681792  5063 net.cpp:105] Top shape: 1 1 1 1 (1)
I0614 16:00:00.681795  5063 net.cpp:111]     with loss weight 1
I0614 16:00:00.681800  5063 layer_factory.hpp:78] Creating layer accuracy_top_1
I0614 16:00:00.681807  5063 net.cpp:69] Creating Layer accuracy_top_1
I0614 16:00:00.681810  5063 net.cpp:396] accuracy_top_1 <- fc2_fc2_0_split_1
I0614 16:00:00.681813  5063 net.cpp:396] accuracy_top_1 <- label_data_1_split_1
I0614 16:00:00.681819  5063 net.cpp:358] accuracy_top_1 -> accuracy_top_1
I0614 16:00:00.681824  5063 net.cpp:98] Setting up accuracy_top_1
I0614 16:00:00.681828  5063 net.cpp:105] Top shape: 1 1 1 1 (1)
I0614 16:00:00.681831  5063 layer_factory.hpp:78] Creating layer accuracy_top_5
I0614 16:00:00.681835  5063 net.cpp:69] Creating Layer accuracy_top_5
I0614 16:00:00.681838  5063 net.cpp:396] accuracy_top_5 <- fc2_fc2_0_split_2
I0614 16:00:00.681843  5063 net.cpp:396] accuracy_top_5 <- label_data_1_split_2
I0614 16:00:00.681848  5063 net.cpp:358] accuracy_top_5 -> accuracy_top_5
I0614 16:00:00.681851  5063 net.cpp:98] Setting up accuracy_top_5
I0614 16:00:00.681854  5063 net.cpp:105] Top shape: 1 1 1 1 (1)
I0614 16:00:00.681857  5063 net.cpp:174] accuracy_top_5 does not need backward computation.
I0614 16:00:00.681860  5063 net.cpp:174] accuracy_top_1 does not need backward computation.
I0614 16:00:00.681864  5063 net.cpp:172] softmax needs backward computation.
I0614 16:00:00.681866  5063 net.cpp:172] fc2_fc2_0_split needs backward computation.
I0614 16:00:00.681869  5063 net.cpp:172] fc2 needs backward computation.
…
