…
I0616 03:01:22.482442 24381 solver.cpp:70] Creating training net from net file: prototxt/16-06-15_15h49m18s_0_60_reconstructFullFC0unfrozen_net.sh
I0616 03:01:22.483043 24381 net.cpp:277] The NetState phase (0) differed from the phase (1) specified by a rule in layer data
I0616 03:01:22.483201 24381 net.cpp:39] Initializing net from parameters: 
layers {
  top: "data"
  name: "data"
  type: DATA
  data_param {
    source: "/dataset/cifar100_lmdb_lab/cifar100_train_lmdb"
    batch_size: 750
    backend: LMDB
  }
  include {
    phase: TRAIN
  }
  transform_param {
    mean_file: "/dataset/cifar100_lmdb_lab/mean.binaryproto"
  }
}
layers {
  bottom: "data"
  top: "0_0_conv"
  name: "0_0_conv"
  type: CONVOLUTION
  blobs_lr: 1
  blobs_lr: 2
  weight_decay: 0
  weight_decay: 0
  convolution_param {
    num_output: 8
    pad: 1
    kernel_size: 3
    stride: 1
    weight_filler {
      type: "xavier"
    }
    bias_filler {
      type: "constant"
      value: 0
    }
  }
}
layers {
  bottom: "0_0_conv"
  top: "0_0_conv"
  name: "0_0_conv_ReLU"
  type: RELU
}
layers {
  bottom: "0_0_conv"
  top: "0_1_conv"
  name: "0_1_conv"
  type: CONVOLUTION
  blobs_lr: 1
  blobs_lr: 2
  weight_decay: 0
  weight_decay: 0
  convolution_param {
    num_output: 8
    pad: 1
    kernel_size: 3
    stride: 1
    weight_filler {
      type: "xavier"
    }
    bias_filler {
      type: "constant"
      value: 0
    }
  }
}
layers {
  bottom: "0_1_conv"
  top: "0_1_conv"
  name: "0_1_conv_ReLU"
  type: RELU
}
layers {
  bottom: "0_1_conv"
  top: "0_pool"
  top: "0_pool_mask"
  name: "0_pool"
  type: POOLING
  pooling_param {
    pool: MAX
    kernel_size: 2
    stride: 2
  }
}
layers {
  bottom: "0_pool"
  top: "1_0_conv"
  name: "1_0_conv"
  type: CONVOLUTION
  blobs_lr: 1
  blobs_lr: 2
  weight_decay: 0
  weight_decay: 0
  convolution_param {
    num_output: 8
    pad: 1
    kernel_size: 3
    stride: 1
    weight_filler {
      type: "xavier"
    }
    bias_filler {
      type: "constant"
      value: 0
    }
  }
}
layers {
  bottom: "1_0_conv"
  top: "1_0_conv"
  name: "1_0_conv_ReLU"
  type: RELU
}
layers {
  bottom: "1_0_conv"
  top: "1_1_conv"
  name: "1_1_conv"
  type: CONVOLUTION
  blobs_lr: 1
  blobs_lr: 2
  weight_decay: 0
  weight_decay: 0
  convolution_param {
    num_output: 8
    pad: 1
    kernel_size: 3
    stride: 1
    weight_filler {
      type: "xavier"
    }
    bias_filler {
      type: "constant"
      value: 0
    }
  }
}
layers {
  bottom: "1_1_conv"
  top: "1_1_conv"
  name: "1_1_conv_ReLU"
  type: RELU
}
layers {
  bottom: "1_1_conv"
  top: "1_pool"
  top: "1_pool_mask"
  name: "1_pool"
  type: POOLING
  pooling_param {
    pool: MAX
    kernel_size: 2
    stride: 2
  }
}
layers {
  bottom: "1_pool"
  top: "2_0_conv"
  name: "2_0_conv"
  type: CONVOLUTION
  blobs_lr: 1
  blobs_lr: 2
  weight_decay: 0
  weight_decay: 0
  convolution_param {
    num_output: 8
    pad: 1
    kernel_size: 3
    stride: 1
    weight_filler {
      type: "xavier"
    }
    bias_filler {
      type: "constant"
      value: 0
    }
  }
}
layers {
  bottom: "2_0_conv"
  top: "2_0_conv"
  name: "2_0_conv_ReLU"
  type: RELU
}
layers {
  bottom: "2_0_conv"
  top: "2_1_conv"
  name: "2_1_conv"
  type: CONVOLUTION
  blobs_lr: 1
  blobs_lr: 2
  weight_decay: 0
  weight_decay: 0
  convolution_param {
    num_output: 8
    pad: 1
    kernel_size: 3
    stride: 1
    weight_filler {
      type: "xavier"
    }
    bias_filler {
      type: "constant"
      value: 0
    }
  }
}
layers {
  bottom: "2_1_conv"
  top: "2_1_conv"
  name: "2_1_conv_ReLU"
  type: RELU
}
layers {
  bottom: "2_1_conv"
  top: "2_pool"
  top: "2_pool_mask"
  name: "2_pool"
  type: POOLING
  pooling_param {
    pool: MAX
    kernel_size: 2
    stride: 2
  }
}
layers {
  bottom: "2_pool"
  top: "middle_conv_zeros"
  name: "middle_conv_zeros"
  type: CONVOLUTION
  blobs_lr: 1
  blobs_lr: 2
  weight_decay: 0
  weight_decay: 0
  convolution_param {
    num_output: 50
    pad: 0
    kernel_size: 4
    stride: 1
    weight_filler {
      type: "constant"
      value: 0
    }
    bias_filler {
      type: "constant"
      value: 0
    }
  }
}
layers {
  bottom: "middle_conv_zeros"
  top: "middle_deconv"
  name: "middle_deconv"
  type: DECONVOLUTION
  blobs_lr: 1
  blobs_lr: 2
  weight_decay: 0
  weight_decay: 0
  convolution_param {
    num_output: 8
    pad: 1
    kernel_size: 4
    stride: 1
    weight_filler {
      type: "xavier"
    }
    bias_filler {
      type: "constant"
      value: 0
    }
  }
}
layers {
  bottom: "middle_deconv"
  bottom: "2_pool_mask"
  top: "2_unpool"
  name: "2_unpool"
  type: UNPOOLING
  unpooling_param {
    unpool: MAX
    kernel_size: 2
    stride: 2
    unpool_size: 8
  }
}
layers {
  bottom: "2_unpool"
  top: "2_1_deconv"
  name: "2_1_deconv"
  type: DECONVOLUTION
  blobs_lr: 1
  blobs_lr: 2
  weight_decay: 0
  weight_decay: 0
  convolution_param {
    num_output: 8
    pad: 1
    kernel_size: 3
    stride: 1
    weight_filler {
      type: "xavier"
    }
    bias_filler {
      type: "constant"
      value: 0
    }
  }
}
layers {
  bottom: "2_1_deconv"
  top: "2_1_deconv"
  name: "2_1_deconv_ReLU"
  type: RELU
}
layers {
  bottom: "2_1_deconv"
  top: "2_0_deconv"
  name: "2_0_deconv"
  type: DECONVOLUTION
  blobs_lr: 1
  blobs_lr: 2
  weight_decay: 0
  weight_decay: 0
  convolution_param {
    num_output: 8
    pad: 1
    kernel_size: 3
    stride: 1
    weight_filler {
      type: "xavier"
    }
    bias_filler {
      type: "constant"
      value: 0
    }
  }
}
layers {
  bottom: "2_0_deconv"
  top: "2_0_deconv"
  name: "2_0_deconv_ReLU"
  type: RELU
}
layers {
  bottom: "2_0_deconv"
  bottom: "1_pool_mask"
  top: "1_unpool"
  name: "1_unpool"
  type: UNPOOLING
  unpooling_param {
    unpool: MAX
    kernel_size: 2
    stride: 2
    unpool_size: 16
  }
}
layers {
  bottom: "1_unpool"
  top: "1_1_deconv"
  name: "1_1_deconv"
  type: DECONVOLUTION
  blobs_lr: 1
  blobs_lr: 2
  weight_decay: 0
  weight_decay: 0
  convolution_param {
    num_output: 8
    pad: 1
    kernel_size: 3
    stride: 1
    weight_filler {
      type: "xavier"
    }
    bias_filler {
      type: "constant"
      value: 0
    }
  }
}
layers {
  bottom: "1_1_deconv"
  top: "1_1_deconv"
  name: "1_1_deconv_ReLU"
  type: RELU
}
layers {
  bottom: "1_1_deconv"
  top: "1_0_deconv"
  name: "1_0_deconv"
  type: DECONVOLUTION
  blobs_lr: 1
  blobs_lr: 2
  weight_decay: 0
  weight_decay: 0
  convolution_param {
    num_output: 8
    pad: 1
    kernel_size: 3
    stride: 1
    weight_filler {
      type: "xavier"
    }
    bias_filler {
      type: "constant"
      value: 0
    }
  }
}
layers {
  bottom: "1_0_deconv"
  top: "1_0_deconv"
  name: "1_0_deconv_ReLU"
  type: RELU
}
layers {
  bottom: "1_0_deconv"
  bottom: "0_pool_mask"
  top: "0_unpool"
  name: "0_unpool"
  type: UNPOOLING
  unpooling_param {
    unpool: MAX
    kernel_size: 2
    stride: 2
    unpool_size: 32
  }
}
layers {
  bottom: "0_unpool"
  top: "0_1_deconv"
  name: "0_1_deconv"
  type: DECONVOLUTION
  blobs_lr: 1
  blobs_lr: 2
  weight_decay: 0
  weight_decay: 0
  convolution_param {
    num_output: 8
    pad: 1
    kernel_size: 3
    stride: 1
    weight_filler {
      type: "xavier"
    }
    bias_filler {
      type: "constant"
      value: 0
    }
  }
}
layers {
  bottom: "0_1_deconv"
  top: "0_1_deconv"
  name: "0_1_deconv_ReLU"
  type: RELU
}
layers {
  bottom: "0_1_deconv"
  top: "0_0_deconv"
  name: "0_0_deconv"
  type: DECONVOLUTION
  blobs_lr: 1
  blobs_lr: 2
  weight_decay: 0
  weight_decay: 0
  convolution_param {
    num_output: 8
    pad: 1
    kernel_size: 3
    stride: 1
    weight_filler {
      type: "xavier"
    }
    bias_filler {
      type: "constant"
      value: 0
    }
  }
}
layers {
  bottom: "0_0_deconv"
  top: "0_0_deconv"
  name: "0_0_deconv_ReLU"
  type: RELU
}
layers {
  bottom: "0_0_deconv"
  top: "reconstruct1"
  name: "reconstruct1"
  type: LOCAL
  blobs_lr: 1
  blobs_lr: 2
  weight_decay: 0
  weight_decay: 0
  local_param {
    num_output: 3
    pad: 0
    kernel_size: 1
    stride: 1
    weight_filler {
      type: "xavier"
    }
    bias_filler {
      type: "constant"
      value: 0
    }
  }
}
layers {
  bottom: "reconstruct1"
  top: "reconstruct2"
  name: "reconstruct2"
  type: LOCAL
  blobs_lr: 1
  blobs_lr: 2
  weight_decay: 0
  weight_decay: 0
  local_param {
    num_output: 3
    pad: 0
    kernel_size: 1
    stride: 1
    weight_filler {
      type: "xavier"
    }
    bias_filler {
      type: "constant"
      value: 0
    }
  }
}
layers {
  bottom: "data"
  bottom: "reconstruct2"
  top: "L2_Loss"
  name: "L2_Loss"
  type: EUCLIDEAN_LOSS
}
state {
  phase: TRAIN
}
I0616 03:01:22.483317 24381 layer_factory.hpp:78] Creating layer data
I0616 03:01:22.483331 24381 data_transformer.cpp:25] Loading mean file from/dataset/cifar100_lmdb_lab/mean.binaryproto
I0616 03:01:22.483377 24381 net.cpp:69] Creating Layer data
I0616 03:01:22.483383 24381 net.cpp:358] data -> data
I0616 03:01:22.483392 24381 net.cpp:98] Setting up data
I0616 03:01:22.483395 24381 data_layer.cpp:32] Opening dataset /dataset/cifar100_lmdb_lab/cifar100_train_lmdb
I0616 03:01:22.483466 24381 data_layer.cpp:71] output data size: 750,3,32,32
I0616 03:01:22.484573 24381 net.cpp:105] Top shape: 750 3 32 32 (2304000)
I0616 03:01:22.484598 24381 layer_factory.hpp:78] Creating layer data_data_0_split
I0616 03:01:22.484607 24381 net.cpp:69] Creating Layer data_data_0_split
I0616 03:01:22.484611 24381 net.cpp:396] data_data_0_split <- data
I0616 03:01:22.484616 24381 net.cpp:358] data_data_0_split -> data_data_0_split_0
I0616 03:01:22.484624 24381 net.cpp:358] data_data_0_split -> data_data_0_split_1
I0616 03:01:22.484630 24381 net.cpp:98] Setting up data_data_0_split
I0616 03:01:22.484635 24381 net.cpp:105] Top shape: 750 3 32 32 (2304000)
I0616 03:01:22.484638 24381 net.cpp:105] Top shape: 750 3 32 32 (2304000)
I0616 03:01:22.484642 24381 layer_factory.hpp:78] Creating layer 0_0_conv
I0616 03:01:22.484647 24381 net.cpp:69] Creating Layer 0_0_conv
I0616 03:01:22.484650 24381 net.cpp:396] 0_0_conv <- data_data_0_split_0
I0616 03:01:22.484657 24381 net.cpp:358] 0_0_conv -> 0_0_conv
I0616 03:01:22.484661 24381 net.cpp:98] Setting up 0_0_conv
I0616 03:01:22.484956 24381 net.cpp:105] Top shape: 750 8 32 32 (6144000)
I0616 03:01:22.484967 24381 layer_factory.hpp:78] Creating layer 0_0_conv_ReLU
I0616 03:01:22.484972 24381 net.cpp:69] Creating Layer 0_0_conv_ReLU
I0616 03:01:22.484975 24381 net.cpp:396] 0_0_conv_ReLU <- 0_0_conv
I0616 03:01:22.484979 24381 net.cpp:347] 0_0_conv_ReLU -> 0_0_conv (in-place)
I0616 03:01:22.484983 24381 net.cpp:98] Setting up 0_0_conv_ReLU
I0616 03:01:22.484987 24381 net.cpp:105] Top shape: 750 8 32 32 (6144000)
I0616 03:01:22.484989 24381 layer_factory.hpp:78] Creating layer 0_1_conv
I0616 03:01:22.484998 24381 net.cpp:69] Creating Layer 0_1_conv
I0616 03:01:22.485002 24381 net.cpp:396] 0_1_conv <- 0_0_conv
I0616 03:01:22.485005 24381 net.cpp:358] 0_1_conv -> 0_1_conv
I0616 03:01:22.485010 24381 net.cpp:98] Setting up 0_1_conv
I0616 03:01:22.485021 24381 net.cpp:105] Top shape: 750 8 32 32 (6144000)
I0616 03:01:22.485026 24381 layer_factory.hpp:78] Creating layer 0_1_conv_ReLU
I0616 03:01:22.485031 24381 net.cpp:69] Creating Layer 0_1_conv_ReLU
I0616 03:01:22.485034 24381 net.cpp:396] 0_1_conv_ReLU <- 0_1_conv
I0616 03:01:22.485038 24381 net.cpp:347] 0_1_conv_ReLU -> 0_1_conv (in-place)
I0616 03:01:22.485041 24381 net.cpp:98] Setting up 0_1_conv_ReLU
I0616 03:01:22.485044 24381 net.cpp:105] Top shape: 750 8 32 32 (6144000)
I0616 03:01:22.485047 24381 layer_factory.hpp:78] Creating layer 0_pool
I0616 03:01:22.485052 24381 net.cpp:69] Creating Layer 0_pool
I0616 03:01:22.485054 24381 net.cpp:396] 0_pool <- 0_1_conv
I0616 03:01:22.485064 24381 net.cpp:358] 0_pool -> 0_pool
I0616 03:01:22.485069 24381 net.cpp:358] 0_pool -> 0_pool_mask
I0616 03:01:22.485085 24381 net.cpp:98] Setting up 0_pool
I0616 03:01:22.485090 24381 net.cpp:105] Top shape: 750 8 16 16 (1536000)
I0616 03:01:22.485095 24381 net.cpp:105] Top shape: 750 8 16 16 (1536000)
I0616 03:01:22.485096 24381 layer_factory.hpp:78] Creating layer 1_0_conv
I0616 03:01:22.485103 24381 net.cpp:69] Creating Layer 1_0_conv
I0616 03:01:22.485107 24381 net.cpp:396] 1_0_conv <- 0_pool
I0616 03:01:22.485111 24381 net.cpp:358] 1_0_conv -> 1_0_conv
I0616 03:01:22.485116 24381 net.cpp:98] Setting up 1_0_conv
I0616 03:01:22.485126 24381 net.cpp:105] Top shape: 750 8 16 16 (1536000)
I0616 03:01:22.485131 24381 layer_factory.hpp:78] Creating layer 1_0_conv_ReLU
I0616 03:01:22.485136 24381 net.cpp:69] Creating Layer 1_0_conv_ReLU
I0616 03:01:22.485138 24381 net.cpp:396] 1_0_conv_ReLU <- 1_0_conv
I0616 03:01:22.485142 24381 net.cpp:347] 1_0_conv_ReLU -> 1_0_conv (in-place)
I0616 03:01:22.485146 24381 net.cpp:98] Setting up 1_0_conv_ReLU
I0616 03:01:22.485148 24381 net.cpp:105] Top shape: 750 8 16 16 (1536000)
I0616 03:01:22.485152 24381 layer_factory.hpp:78] Creating layer 1_1_conv
I0616 03:01:22.485155 24381 net.cpp:69] Creating Layer 1_1_conv
I0616 03:01:22.485158 24381 net.cpp:396] 1_1_conv <- 1_0_conv
I0616 03:01:22.485163 24381 net.cpp:358] 1_1_conv -> 1_1_conv
I0616 03:01:22.485168 24381 net.cpp:98] Setting up 1_1_conv
I0616 03:01:22.485189 24381 net.cpp:105] Top shape: 750 8 16 16 (1536000)
I0616 03:01:22.485193 24381 layer_factory.hpp:78] Creating layer 1_1_conv_ReLU
I0616 03:01:22.485198 24381 net.cpp:69] Creating Layer 1_1_conv_ReLU
I0616 03:01:22.485200 24381 net.cpp:396] 1_1_conv_ReLU <- 1_1_conv
I0616 03:01:22.485204 24381 net.cpp:347] 1_1_conv_ReLU -> 1_1_conv (in-place)
I0616 03:01:22.485208 24381 net.cpp:98] Setting up 1_1_conv_ReLU
I0616 03:01:22.485210 24381 net.cpp:105] Top shape: 750 8 16 16 (1536000)
I0616 03:01:22.485222 24381 layer_factory.hpp:78] Creating layer 1_pool
I0616 03:01:22.485226 24381 net.cpp:69] Creating Layer 1_pool
I0616 03:01:22.485229 24381 net.cpp:396] 1_pool <- 1_1_conv
I0616 03:01:22.485234 24381 net.cpp:358] 1_pool -> 1_pool
I0616 03:01:22.485239 24381 net.cpp:358] 1_pool -> 1_pool_mask
I0616 03:01:22.485242 24381 net.cpp:98] Setting up 1_pool
I0616 03:01:22.485246 24381 net.cpp:105] Top shape: 750 8 8 8 (384000)
I0616 03:01:22.485249 24381 net.cpp:105] Top shape: 750 8 8 8 (384000)
I0616 03:01:22.485252 24381 layer_factory.hpp:78] Creating layer 2_0_conv
I0616 03:01:22.485256 24381 net.cpp:69] Creating Layer 2_0_conv
I0616 03:01:22.485260 24381 net.cpp:396] 2_0_conv <- 1_pool
I0616 03:01:22.485263 24381 net.cpp:358] 2_0_conv -> 2_0_conv
I0616 03:01:22.485267 24381 net.cpp:98] Setting up 2_0_conv
I0616 03:01:22.485276 24381 net.cpp:105] Top shape: 750 8 8 8 (384000)
I0616 03:01:22.485281 24381 layer_factory.hpp:78] Creating layer 2_0_conv_ReLU
I0616 03:01:22.485285 24381 net.cpp:69] Creating Layer 2_0_conv_ReLU
I0616 03:01:22.485288 24381 net.cpp:396] 2_0_conv_ReLU <- 2_0_conv
I0616 03:01:22.485292 24381 net.cpp:347] 2_0_conv_ReLU -> 2_0_conv (in-place)
I0616 03:01:22.485296 24381 net.cpp:98] Setting up 2_0_conv_ReLU
I0616 03:01:22.485298 24381 net.cpp:105] Top shape: 750 8 8 8 (384000)
I0616 03:01:22.485301 24381 layer_factory.hpp:78] Creating layer 2_1_conv
I0616 03:01:22.485306 24381 net.cpp:69] Creating Layer 2_1_conv
I0616 03:01:22.485309 24381 net.cpp:396] 2_1_conv <- 2_0_conv
I0616 03:01:22.485313 24381 net.cpp:358] 2_1_conv -> 2_1_conv
I0616 03:01:22.485317 24381 net.cpp:98] Setting up 2_1_conv
I0616 03:01:22.485327 24381 net.cpp:105] Top shape: 750 8 8 8 (384000)
I0616 03:01:22.485332 24381 layer_factory.hpp:78] Creating layer 2_1_conv_ReLU
I0616 03:01:22.485334 24381 net.cpp:69] Creating Layer 2_1_conv_ReLU
I0616 03:01:22.485337 24381 net.cpp:396] 2_1_conv_ReLU <- 2_1_conv
I0616 03:01:22.485342 24381 net.cpp:347] 2_1_conv_ReLU -> 2_1_conv (in-place)
I0616 03:01:22.485344 24381 net.cpp:98] Setting up 2_1_conv_ReLU
I0616 03:01:22.485347 24381 net.cpp:105] Top shape: 750 8 8 8 (384000)
I0616 03:01:22.485352 24381 layer_factory.hpp:78] Creating layer 2_pool
I0616 03:01:22.485360 24381 net.cpp:69] Creating Layer 2_pool
I0616 03:01:22.485363 24381 net.cpp:396] 2_pool <- 2_1_conv
I0616 03:01:22.485366 24381 net.cpp:358] 2_pool -> 2_pool
I0616 03:01:22.485371 24381 net.cpp:358] 2_pool -> 2_pool_mask
I0616 03:01:22.485375 24381 net.cpp:98] Setting up 2_pool
I0616 03:01:22.485378 24381 net.cpp:105] Top shape: 750 8 4 4 (96000)
I0616 03:01:22.485381 24381 net.cpp:105] Top shape: 750 8 4 4 (96000)
I0616 03:01:22.485384 24381 layer_factory.hpp:78] Creating layer middle_conv_zeros
I0616 03:01:22.485391 24381 net.cpp:69] Creating Layer middle_conv_zeros
I0616 03:01:22.485394 24381 net.cpp:396] middle_conv_zeros <- 2_pool
I0616 03:01:22.485399 24381 net.cpp:358] middle_conv_zeros -> middle_conv_zeros
I0616 03:01:22.485402 24381 net.cpp:98] Setting up middle_conv_zeros
I0616 03:01:22.485412 24381 net.cpp:105] Top shape: 750 50 1 1 (37500)
I0616 03:01:22.485416 24381 layer_factory.hpp:78] Creating layer middle_deconv
I0616 03:01:22.485424 24381 net.cpp:69] Creating Layer middle_deconv
I0616 03:01:22.485427 24381 net.cpp:396] middle_deconv <- middle_conv_zeros
I0616 03:01:22.485432 24381 net.cpp:358] middle_deconv -> middle_deconv
I0616 03:01:22.485437 24381 net.cpp:98] Setting up middle_deconv
I0616 03:01:22.485477 24381 net.cpp:105] Top shape: 750 8 2 2 (24000)
I0616 03:01:22.485481 24381 layer_factory.hpp:78] Creating layer 2_unpool
I0616 03:01:22.485486 24381 net.cpp:69] Creating Layer 2_unpool
I0616 03:01:22.485489 24381 net.cpp:396] 2_unpool <- middle_deconv
I0616 03:01:22.485492 24381 net.cpp:396] 2_unpool <- 2_pool_mask
I0616 03:01:22.485496 24381 net.cpp:358] 2_unpool -> 2_unpool
I0616 03:01:22.485502 24381 net.cpp:98] Setting up 2_unpool
I0616 03:01:22.485507 24381 net.cpp:105] Top shape: 750 8 8 8 (384000)
I0616 03:01:22.485509 24381 layer_factory.hpp:78] Creating layer 2_1_deconv
I0616 03:01:22.485514 24381 net.cpp:69] Creating Layer 2_1_deconv
I0616 03:01:22.485517 24381 net.cpp:396] 2_1_deconv <- 2_unpool
I0616 03:01:22.485522 24381 net.cpp:358] 2_1_deconv -> 2_1_deconv
I0616 03:01:22.485527 24381 net.cpp:98] Setting up 2_1_deconv
I0616 03:01:22.485535 24381 net.cpp:105] Top shape: 750 8 8 8 (384000)
I0616 03:01:22.485541 24381 layer_factory.hpp:78] Creating layer 2_1_deconv_ReLU
I0616 03:01:22.485546 24381 net.cpp:69] Creating Layer 2_1_deconv_ReLU
I0616 03:01:22.485549 24381 net.cpp:396] 2_1_deconv_ReLU <- 2_1_deconv
I0616 03:01:22.485553 24381 net.cpp:347] 2_1_deconv_ReLU -> 2_1_deconv (in-place)
I0616 03:01:22.485556 24381 net.cpp:98] Setting up 2_1_deconv_ReLU
I0616 03:01:22.485559 24381 net.cpp:105] Top shape: 750 8 8 8 (384000)
I0616 03:01:22.485563 24381 layer_factory.hpp:78] Creating layer 2_0_deconv
I0616 03:01:22.485566 24381 net.cpp:69] Creating Layer 2_0_deconv
I0616 03:01:22.485569 24381 net.cpp:396] 2_0_deconv <- 2_1_deconv
I0616 03:01:22.485574 24381 net.cpp:358] 2_0_deconv -> 2_0_deconv
I0616 03:01:22.485579 24381 net.cpp:98] Setting up 2_0_deconv
I0616 03:01:22.485587 24381 net.cpp:105] Top shape: 750 8 8 8 (384000)
I0616 03:01:22.485591 24381 layer_factory.hpp:78] Creating layer 2_0_deconv_ReLU
I0616 03:01:22.485595 24381 net.cpp:69] Creating Layer 2_0_deconv_ReLU
I0616 03:01:22.485599 24381 net.cpp:396] 2_0_deconv_ReLU <- 2_0_deconv
I0616 03:01:22.485602 24381 net.cpp:347] 2_0_deconv_ReLU -> 2_0_deconv (in-place)
I0616 03:01:22.485605 24381 net.cpp:98] Setting up 2_0_deconv_ReLU
I0616 03:01:22.485608 24381 net.cpp:105] Top shape: 750 8 8 8 (384000)
I0616 03:01:22.485611 24381 layer_factory.hpp:78] Creating layer 1_unpool
I0616 03:01:22.485616 24381 net.cpp:69] Creating Layer 1_unpool
I0616 03:01:22.485618 24381 net.cpp:396] 1_unpool <- 2_0_deconv
I0616 03:01:22.485622 24381 net.cpp:396] 1_unpool <- 1_pool_mask
I0616 03:01:22.485625 24381 net.cpp:358] 1_unpool -> 1_unpool
I0616 03:01:22.485630 24381 net.cpp:98] Setting up 1_unpool
I0616 03:01:22.485632 24381 net.cpp:105] Top shape: 750 8 16 16 (1536000)
I0616 03:01:22.485635 24381 layer_factory.hpp:78] Creating layer 1_1_deconv
I0616 03:01:22.485643 24381 net.cpp:69] Creating Layer 1_1_deconv
I0616 03:01:22.485646 24381 net.cpp:396] 1_1_deconv <- 1_unpool
I0616 03:01:22.485654 24381 net.cpp:358] 1_1_deconv -> 1_1_deconv
I0616 03:01:22.485658 24381 net.cpp:98] Setting up 1_1_deconv
I0616 03:01:22.485667 24381 net.cpp:105] Top shape: 750 8 16 16 (1536000)
I0616 03:01:22.485672 24381 layer_factory.hpp:78] Creating layer 1_1_deconv_ReLU
I0616 03:01:22.485676 24381 net.cpp:69] Creating Layer 1_1_deconv_ReLU
I0616 03:01:22.485678 24381 net.cpp:396] 1_1_deconv_ReLU <- 1_1_deconv
I0616 03:01:22.485683 24381 net.cpp:347] 1_1_deconv_ReLU -> 1_1_deconv (in-place)
I0616 03:01:22.485687 24381 net.cpp:98] Setting up 1_1_deconv_ReLU
I0616 03:01:22.485689 24381 net.cpp:105] Top shape: 750 8 16 16 (1536000)
I0616 03:01:22.485692 24381 layer_factory.hpp:78] Creating layer 1_0_deconv
I0616 03:01:22.485697 24381 net.cpp:69] Creating Layer 1_0_deconv
I0616 03:01:22.485699 24381 net.cpp:396] 1_0_deconv <- 1_1_deconv
I0616 03:01:22.485703 24381 net.cpp:358] 1_0_deconv -> 1_0_deconv
I0616 03:01:22.485707 24381 net.cpp:98] Setting up 1_0_deconv
I0616 03:01:22.485721 24381 net.cpp:105] Top shape: 750 8 16 16 (1536000)
I0616 03:01:22.485726 24381 layer_factory.hpp:78] Creating layer 1_0_deconv_ReLU
I0616 03:01:22.485730 24381 net.cpp:69] Creating Layer 1_0_deconv_ReLU
I0616 03:01:22.485733 24381 net.cpp:396] 1_0_deconv_ReLU <- 1_0_deconv
I0616 03:01:22.485736 24381 net.cpp:347] 1_0_deconv_ReLU -> 1_0_deconv (in-place)
I0616 03:01:22.485740 24381 net.cpp:98] Setting up 1_0_deconv_ReLU
I0616 03:01:22.485743 24381 net.cpp:105] Top shape: 750 8 16 16 (1536000)
I0616 03:01:22.485746 24381 layer_factory.hpp:78] Creating layer 0_unpool
I0616 03:01:22.485749 24381 net.cpp:69] Creating Layer 0_unpool
I0616 03:01:22.485752 24381 net.cpp:396] 0_unpool <- 1_0_deconv
I0616 03:01:22.485756 24381 net.cpp:396] 0_unpool <- 0_pool_mask
I0616 03:01:22.485760 24381 net.cpp:358] 0_unpool -> 0_unpool
I0616 03:01:22.485764 24381 net.cpp:98] Setting up 0_unpool
I0616 03:01:22.485767 24381 net.cpp:105] Top shape: 750 8 32 32 (6144000)
I0616 03:01:22.485770 24381 layer_factory.hpp:78] Creating layer 0_1_deconv
I0616 03:01:22.485774 24381 net.cpp:69] Creating Layer 0_1_deconv
I0616 03:01:22.485777 24381 net.cpp:396] 0_1_deconv <- 0_unpool
I0616 03:01:22.485781 24381 net.cpp:358] 0_1_deconv -> 0_1_deconv
I0616 03:01:22.485785 24381 net.cpp:98] Setting up 0_1_deconv
I0616 03:01:22.485795 24381 net.cpp:105] Top shape: 750 8 32 32 (6144000)
I0616 03:01:22.485800 24381 layer_factory.hpp:78] Creating layer 0_1_deconv_ReLU
I0616 03:01:22.485805 24381 net.cpp:69] Creating Layer 0_1_deconv_ReLU
I0616 03:01:22.485806 24381 net.cpp:396] 0_1_deconv_ReLU <- 0_1_deconv
I0616 03:01:22.485810 24381 net.cpp:347] 0_1_deconv_ReLU -> 0_1_deconv (in-place)
I0616 03:01:22.485815 24381 net.cpp:98] Setting up 0_1_deconv_ReLU
I0616 03:01:22.485816 24381 net.cpp:105] Top shape: 750 8 32 32 (6144000)
I0616 03:01:22.485819 24381 layer_factory.hpp:78] Creating layer 0_0_deconv
I0616 03:01:22.485826 24381 net.cpp:69] Creating Layer 0_0_deconv
I0616 03:01:22.485828 24381 net.cpp:396] 0_0_deconv <- 0_1_deconv
I0616 03:01:22.485832 24381 net.cpp:358] 0_0_deconv -> 0_0_deconv
I0616 03:01:22.485836 24381 net.cpp:98] Setting up 0_0_deconv
I0616 03:01:22.485846 24381 net.cpp:105] Top shape: 750 8 32 32 (6144000)
I0616 03:01:22.485852 24381 layer_factory.hpp:78] Creating layer 0_0_deconv_ReLU
I0616 03:01:22.485854 24381 net.cpp:69] Creating Layer 0_0_deconv_ReLU
I0616 03:01:22.485857 24381 net.cpp:396] 0_0_deconv_ReLU <- 0_0_deconv
I0616 03:01:22.485862 24381 net.cpp:347] 0_0_deconv_ReLU -> 0_0_deconv (in-place)
I0616 03:01:22.485864 24381 net.cpp:98] Setting up 0_0_deconv_ReLU
I0616 03:01:22.485867 24381 net.cpp:105] Top shape: 750 8 32 32 (6144000)
I0616 03:01:22.485870 24381 layer_factory.hpp:78] Creating layer reconstruct1
I0616 03:01:22.485877 24381 net.cpp:69] Creating Layer reconstruct1
I0616 03:01:22.485879 24381 net.cpp:396] reconstruct1 <- 0_0_deconv
I0616 03:01:22.485889 24381 net.cpp:358] reconstruct1 -> reconstruct1
I0616 03:01:22.485896 24381 net.cpp:98] Setting up reconstruct1
I0616 03:01:22.486042 24381 net.cpp:105] Top shape: 750 3 32 32 (2304000)
I0616 03:01:22.486053 24381 layer_factory.hpp:78] Creating layer reconstruct2
I0616 03:01:22.486058 24381 net.cpp:69] Creating Layer reconstruct2
I0616 03:01:22.486062 24381 net.cpp:396] reconstruct2 <- reconstruct1
I0616 03:01:22.486066 24381 net.cpp:358] reconstruct2 -> reconstruct2
I0616 03:01:22.486071 24381 net.cpp:98] Setting up reconstruct2
I0616 03:01:22.486122 24381 net.cpp:105] Top shape: 750 3 32 32 (2304000)
I0616 03:01:22.486129 24381 layer_factory.hpp:78] Creating layer L2_Loss
I0616 03:01:22.486132 24381 net.cpp:69] Creating Layer L2_Loss
I0616 03:01:22.486135 24381 net.cpp:396] L2_Loss <- data_data_0_split_1
I0616 03:01:22.486138 24381 net.cpp:396] L2_Loss <- reconstruct2
I0616 03:01:22.486143 24381 net.cpp:358] L2_Loss -> L2_Loss
I0616 03:01:22.486148 24381 net.cpp:98] Setting up L2_Loss
I0616 03:01:22.486155 24381 net.cpp:105] Top shape: 1 1 1 1 (1)
I0616 03:01:22.486157 24381 net.cpp:111]     with loss weight 1
I0616 03:01:22.486171 24381 net.cpp:172] L2_Loss needs backward computation.
I0616 03:01:22.486173 24381 net.cpp:172] reconstruct2 needs backward computation.
I0616 03:01:22.486176 24381 net.cpp:172] reconstruct1 needs backward computation.
I0616 03:01:22.486179 24381 net.cpp:172] 0_0_deconv_ReLU needs backward computation.
…
