…
I0623 12:58:03.342051 27180 solver.cpp:70] Creating training net from net file: prototxt/16-06-21_16h05m31s_0_30_reconstructIncremental2_net.sh
I0623 12:58:03.342540 27180 net.cpp:277] The NetState phase (0) differed from the phase (1) specified by a rule in layer data
I0623 12:58:03.342665 27180 net.cpp:39] Initializing net from parameters: 
layers {
  top: "data"
  name: "data"
  type: DATA
  data_param {
    source: "/dataset/cifar100_lmdb_lab/cifar100_train_lmdb"
    batch_size: 512
    backend: LMDB
  }
  include {
    phase: TRAIN
  }
  transform_param {
    mean_file: "/dataset/cifar100_lmdb_lab/mean.binaryproto"
  }
}
layers {
  bottom: "data"
  top: "0_0_conv"
  name: "0_0_conv"
  type: CONVOLUTION
  blobs_lr: 0
  blobs_lr: 0
  weight_decay: 0
  weight_decay: 0
  convolution_param {
    num_output: 32
    pad: 1
    kernel_size: 3
    stride: 1
    weight_filler {
      type: "xavier"
    }
    bias_filler {
      type: "constant"
      value: 0
    }
  }
}
layers {
  bottom: "0_0_conv"
  top: "0_0_conv"
  name: "0_0_conv_ReLU"
  type: RELU
}
layers {
  bottom: "0_0_conv"
  top: "0_1_conv"
  name: "0_1_conv"
  type: CONVOLUTION
  blobs_lr: 0
  blobs_lr: 0
  weight_decay: 0
  weight_decay: 0
  convolution_param {
    num_output: 32
    pad: 1
    kernel_size: 3
    stride: 1
    weight_filler {
      type: "xavier"
    }
    bias_filler {
      type: "constant"
      value: 0
    }
  }
}
layers {
  bottom: "0_1_conv"
  top: "0_1_conv"
  name: "0_1_conv_ReLU"
  type: RELU
}
layers {
  bottom: "0_1_conv"
  top: "0_pool"
  name: "0_pool"
  type: POOLING
  pooling_param {
    pool: MAX
    kernel_size: 2
    stride: 2
  }
}
layers {
  bottom: "0_pool"
  top: "1_0_conv"
  name: "1_0_conv"
  type: CONVOLUTION
  blobs_lr: 0
  blobs_lr: 0
  weight_decay: 0
  weight_decay: 0
  convolution_param {
    num_output: 32
    pad: 1
    kernel_size: 3
    stride: 1
    weight_filler {
      type: "xavier"
    }
    bias_filler {
      type: "constant"
      value: 0
    }
  }
}
layers {
  bottom: "1_0_conv"
  top: "1_0_conv"
  name: "1_0_conv_ReLU"
  type: RELU
}
layers {
  bottom: "1_0_conv"
  top: "1_1_conv"
  name: "1_1_conv"
  type: CONVOLUTION
  blobs_lr: 0
  blobs_lr: 0
  weight_decay: 0
  weight_decay: 0
  convolution_param {
    num_output: 32
    pad: 1
    kernel_size: 3
    stride: 1
    weight_filler {
      type: "xavier"
    }
    bias_filler {
      type: "constant"
      value: 0
    }
  }
}
layers {
  bottom: "1_1_conv"
  top: "1_1_conv"
  name: "1_1_conv_ReLU"
  type: RELU
}
layers {
  bottom: "1_1_conv"
  top: "1_pool"
  top: "1_pool_mask"
  name: "1_pool"
  type: POOLING
  pooling_param {
    pool: MAX
    kernel_size: 2
    stride: 2
  }
}
layers {
  bottom: "1_pool"
  top: "2_0_conv"
  name: "2_0_conv"
  type: CONVOLUTION
  blobs_lr: 0
  blobs_lr: 0
  weight_decay: 0
  weight_decay: 0
  convolution_param {
    num_output: 32
    pad: 1
    kernel_size: 3
    stride: 1
    weight_filler {
      type: "xavier"
    }
    bias_filler {
      type: "constant"
      value: 0
    }
  }
}
layers {
  bottom: "2_0_conv"
  top: "2_0_conv"
  name: "2_0_conv_ReLU"
  type: RELU
}
layers {
  bottom: "2_0_conv"
  top: "2_1_conv"
  name: "2_1_conv"
  type: CONVOLUTION
  blobs_lr: 0
  blobs_lr: 0
  weight_decay: 0
  weight_decay: 0
  convolution_param {
    num_output: 32
    pad: 1
    kernel_size: 3
    stride: 1
    weight_filler {
      type: "xavier"
    }
    bias_filler {
      type: "constant"
      value: 0
    }
  }
}
layers {
  bottom: "2_1_conv"
  top: "2_1_conv"
  name: "2_1_conv_ReLU"
  type: RELU
}
layers {
  bottom: "2_1_conv"
  top: "2_pool"
  top: "2_pool_mask"
  name: "2_pool"
  type: POOLING
  pooling_param {
    pool: MAX
    kernel_size: 2
    stride: 2
  }
}
layers {
  bottom: "2_pool"
  top: "middle_conv"
  name: "middle_conv"
  type: CONVOLUTION
  blobs_lr: 0
  blobs_lr: 0
  weight_decay: 0
  weight_decay: 0
  convolution_param {
    num_output: 50
    pad: 0
    kernel_size: 4
    stride: 1
    weight_filler {
      type: "xavier"
    }
    bias_filler {
      type: "constant"
      value: 0
    }
  }
}
layers {
  bottom: "middle_conv"
  top: "middle_deconv"
  name: "middle_deconv"
  type: DECONVOLUTION
  blobs_lr: 1
  blobs_lr: 2
  weight_decay: 0
  weight_decay: 0
  convolution_param {
    num_output: 32
    pad: 1
    kernel_size: 4
    stride: 1
    weight_filler {
      type: "xavier"
    }
    bias_filler {
      type: "constant"
      value: 0
    }
  }
}
layers {
  bottom: "middle_deconv"
  bottom: "2_pool_mask"
  top: "2_unpool"
  name: "2_unpool"
  type: UNPOOLING
  unpooling_param {
    unpool: MAX
    kernel_size: 2
    stride: 2
    unpool_size: 8
  }
}
layers {
  bottom: "2_unpool"
  top: "2_1_deconv"
  name: "2_1_deconv"
  type: DECONVOLUTION
  blobs_lr: 1
  blobs_lr: 2
  weight_decay: 0
  weight_decay: 0
  convolution_param {
    num_output: 32
    pad: 1
    kernel_size: 3
    stride: 1
    weight_filler {
      type: "xavier"
    }
    bias_filler {
      type: "constant"
      value: 0
    }
  }
}
layers {
  bottom: "2_1_deconv"
  top: "2_1_deconv"
  name: "2_1_deconv_ReLU"
  type: RELU
}
layers {
  bottom: "2_1_deconv"
  top: "2_0_deconv"
  name: "2_0_deconv"
  type: DECONVOLUTION
  blobs_lr: 1
  blobs_lr: 2
  weight_decay: 0
  weight_decay: 0
  convolution_param {
    num_output: 32
    pad: 1
    kernel_size: 3
    stride: 1
    weight_filler {
      type: "xavier"
    }
    bias_filler {
      type: "constant"
      value: 0
    }
  }
}
layers {
  bottom: "2_0_deconv"
  top: "2_0_deconv"
  name: "2_0_deconv_ReLU"
  type: RELU
}
layers {
  bottom: "2_0_deconv"
  bottom: "1_pool_mask"
  top: "1_unpool"
  name: "1_unpool"
  type: UNPOOLING
  unpooling_param {
    unpool: MAX
    kernel_size: 2
    stride: 2
    unpool_size: 16
  }
}
layers {
  bottom: "1_unpool"
  top: "1_1_deconv"
  name: "1_1_deconv"
  type: DECONVOLUTION
  blobs_lr: 1
  blobs_lr: 2
  weight_decay: 0
  weight_decay: 0
  convolution_param {
    num_output: 32
    pad: 1
    kernel_size: 3
    stride: 1
    weight_filler {
      type: "xavier"
    }
    bias_filler {
      type: "constant"
      value: 0
    }
  }
}
layers {
  bottom: "1_1_deconv"
  top: "1_1_deconv"
  name: "1_1_deconv_ReLU"
  type: RELU
}
layers {
  bottom: "1_1_deconv"
  top: "1_0_deconv"
  name: "1_0_deconv"
  type: DECONVOLUTION
  blobs_lr: 1
  blobs_lr: 2
  weight_decay: 0
  weight_decay: 0
  convolution_param {
    num_output: 32
    pad: 1
    kernel_size: 3
    stride: 1
    weight_filler {
      type: "xavier"
    }
    bias_filler {
      type: "constant"
      value: 0
    }
  }
}
layers {
  bottom: "1_0_deconv"
  top: "1_0_deconv"
  name: "1_0_deconv_ReLU"
  type: RELU
}
layers {
  bottom: "0_pool"
  bottom: "1_0_deconv"
  top: "L2_Loss"
  name: "L2_Loss"
  type: EUCLIDEAN_LOSS
}
state {
  phase: TRAIN
}
I0623 12:58:03.342763 27180 layer_factory.hpp:78] Creating layer data
I0623 12:58:03.342777 27180 data_transformer.cpp:25] Loading mean file from/dataset/cifar100_lmdb_lab/mean.binaryproto
I0623 12:58:03.342823 27180 net.cpp:69] Creating Layer data
I0623 12:58:03.342829 27180 net.cpp:358] data -> data
I0623 12:58:03.342838 27180 net.cpp:98] Setting up data
I0623 12:58:03.342841 27180 data_layer.cpp:32] Opening dataset /dataset/cifar100_lmdb_lab/cifar100_train_lmdb
I0623 12:58:03.342906 27180 data_layer.cpp:71] output data size: 512,3,32,32
I0623 12:58:03.343756 27180 net.cpp:105] Top shape: 512 3 32 32 (1572864)
I0623 12:58:03.343777 27180 layer_factory.hpp:78] Creating layer 0_0_conv
I0623 12:58:03.343787 27180 net.cpp:69] Creating Layer 0_0_conv
I0623 12:58:03.343791 27180 net.cpp:396] 0_0_conv <- data
I0623 12:58:03.343796 27180 net.cpp:358] 0_0_conv -> 0_0_conv
I0623 12:58:03.343814 27180 net.cpp:98] Setting up 0_0_conv
I0623 12:58:03.344099 27180 net.cpp:105] Top shape: 512 32 32 32 (16777216)
I0623 12:58:03.344118 27180 layer_factory.hpp:78] Creating layer 0_0_conv_ReLU
I0623 12:58:03.344125 27180 net.cpp:69] Creating Layer 0_0_conv_ReLU
I0623 12:58:03.344127 27180 net.cpp:396] 0_0_conv_ReLU <- 0_0_conv
I0623 12:58:03.344151 27180 net.cpp:347] 0_0_conv_ReLU -> 0_0_conv (in-place)
I0623 12:58:03.344156 27180 net.cpp:98] Setting up 0_0_conv_ReLU
I0623 12:58:03.344172 27180 net.cpp:105] Top shape: 512 32 32 32 (16777216)
I0623 12:58:03.344175 27180 layer_factory.hpp:78] Creating layer 0_1_conv
I0623 12:58:03.344189 27180 net.cpp:69] Creating Layer 0_1_conv
I0623 12:58:03.344192 27180 net.cpp:396] 0_1_conv <- 0_0_conv
I0623 12:58:03.344197 27180 net.cpp:358] 0_1_conv -> 0_1_conv
I0623 12:58:03.344211 27180 net.cpp:98] Setting up 0_1_conv
I0623 12:58:03.344291 27180 net.cpp:105] Top shape: 512 32 32 32 (16777216)
I0623 12:58:03.344297 27180 layer_factory.hpp:78] Creating layer 0_1_conv_ReLU
I0623 12:58:03.344302 27180 net.cpp:69] Creating Layer 0_1_conv_ReLU
I0623 12:58:03.344305 27180 net.cpp:396] 0_1_conv_ReLU <- 0_1_conv
I0623 12:58:03.344310 27180 net.cpp:347] 0_1_conv_ReLU -> 0_1_conv (in-place)
I0623 12:58:03.344312 27180 net.cpp:98] Setting up 0_1_conv_ReLU
I0623 12:58:03.344316 27180 net.cpp:105] Top shape: 512 32 32 32 (16777216)
I0623 12:58:03.344318 27180 layer_factory.hpp:78] Creating layer 0_pool
I0623 12:58:03.344322 27180 net.cpp:69] Creating Layer 0_pool
I0623 12:58:03.344326 27180 net.cpp:396] 0_pool <- 0_1_conv
I0623 12:58:03.344329 27180 net.cpp:358] 0_pool -> 0_pool
I0623 12:58:03.344333 27180 net.cpp:98] Setting up 0_pool
I0623 12:58:03.344341 27180 net.cpp:105] Top shape: 512 32 16 16 (4194304)
I0623 12:58:03.344343 27180 layer_factory.hpp:78] Creating layer 0_pool_0_pool_0_split
I0623 12:58:03.344347 27180 net.cpp:69] Creating Layer 0_pool_0_pool_0_split
I0623 12:58:03.344350 27180 net.cpp:396] 0_pool_0_pool_0_split <- 0_pool
I0623 12:58:03.344354 27180 net.cpp:358] 0_pool_0_pool_0_split -> 0_pool_0_pool_0_split_0
I0623 12:58:03.344359 27180 net.cpp:358] 0_pool_0_pool_0_split -> 0_pool_0_pool_0_split_1
I0623 12:58:03.344363 27180 net.cpp:98] Setting up 0_pool_0_pool_0_split
I0623 12:58:03.344367 27180 net.cpp:105] Top shape: 512 32 16 16 (4194304)
I0623 12:58:03.344370 27180 net.cpp:105] Top shape: 512 32 16 16 (4194304)
I0623 12:58:03.344373 27180 layer_factory.hpp:78] Creating layer 1_0_conv
I0623 12:58:03.344379 27180 net.cpp:69] Creating Layer 1_0_conv
I0623 12:58:03.344383 27180 net.cpp:396] 1_0_conv <- 0_pool_0_pool_0_split_0
I0623 12:58:03.344388 27180 net.cpp:358] 1_0_conv -> 1_0_conv
I0623 12:58:03.344393 27180 net.cpp:98] Setting up 1_0_conv
I0623 12:58:03.344451 27180 net.cpp:105] Top shape: 512 32 16 16 (4194304)
I0623 12:58:03.344457 27180 layer_factory.hpp:78] Creating layer 1_0_conv_ReLU
I0623 12:58:03.344465 27180 net.cpp:69] Creating Layer 1_0_conv_ReLU
I0623 12:58:03.344467 27180 net.cpp:396] 1_0_conv_ReLU <- 1_0_conv
I0623 12:58:03.344471 27180 net.cpp:347] 1_0_conv_ReLU -> 1_0_conv (in-place)
I0623 12:58:03.344475 27180 net.cpp:98] Setting up 1_0_conv_ReLU
I0623 12:58:03.344478 27180 net.cpp:105] Top shape: 512 32 16 16 (4194304)
I0623 12:58:03.344481 27180 layer_factory.hpp:78] Creating layer 1_1_conv
I0623 12:58:03.344485 27180 net.cpp:69] Creating Layer 1_1_conv
I0623 12:58:03.344488 27180 net.cpp:396] 1_1_conv <- 1_0_conv
I0623 12:58:03.344493 27180 net.cpp:358] 1_1_conv -> 1_1_conv
I0623 12:58:03.344497 27180 net.cpp:98] Setting up 1_1_conv
I0623 12:58:03.344554 27180 net.cpp:105] Top shape: 512 32 16 16 (4194304)
I0623 12:58:03.344560 27180 layer_factory.hpp:78] Creating layer 1_1_conv_ReLU
I0623 12:58:03.344563 27180 net.cpp:69] Creating Layer 1_1_conv_ReLU
I0623 12:58:03.344566 27180 net.cpp:396] 1_1_conv_ReLU <- 1_1_conv
I0623 12:58:03.344569 27180 net.cpp:347] 1_1_conv_ReLU -> 1_1_conv (in-place)
I0623 12:58:03.344573 27180 net.cpp:98] Setting up 1_1_conv_ReLU
I0623 12:58:03.344576 27180 net.cpp:105] Top shape: 512 32 16 16 (4194304)
I0623 12:58:03.344581 27180 layer_factory.hpp:78] Creating layer 1_pool
I0623 12:58:03.344591 27180 net.cpp:69] Creating Layer 1_pool
I0623 12:58:03.344594 27180 net.cpp:396] 1_pool <- 1_1_conv
I0623 12:58:03.344599 27180 net.cpp:358] 1_pool -> 1_pool
I0623 12:58:03.344604 27180 net.cpp:358] 1_pool -> 1_pool_mask
I0623 12:58:03.344609 27180 net.cpp:98] Setting up 1_pool
I0623 12:58:03.344611 27180 net.cpp:105] Top shape: 512 32 8 8 (1048576)
I0623 12:58:03.344614 27180 net.cpp:105] Top shape: 512 32 8 8 (1048576)
I0623 12:58:03.344617 27180 layer_factory.hpp:78] Creating layer 2_0_conv
I0623 12:58:03.344621 27180 net.cpp:69] Creating Layer 2_0_conv
I0623 12:58:03.344624 27180 net.cpp:396] 2_0_conv <- 1_pool
I0623 12:58:03.344629 27180 net.cpp:358] 2_0_conv -> 2_0_conv
I0623 12:58:03.344632 27180 net.cpp:98] Setting up 2_0_conv
I0623 12:58:03.344681 27180 net.cpp:105] Top shape: 512 32 8 8 (1048576)
I0623 12:58:03.344688 27180 layer_factory.hpp:78] Creating layer 2_0_conv_ReLU
I0623 12:58:03.344692 27180 net.cpp:69] Creating Layer 2_0_conv_ReLU
I0623 12:58:03.344696 27180 net.cpp:396] 2_0_conv_ReLU <- 2_0_conv
I0623 12:58:03.344698 27180 net.cpp:347] 2_0_conv_ReLU -> 2_0_conv (in-place)
I0623 12:58:03.344702 27180 net.cpp:98] Setting up 2_0_conv_ReLU
I0623 12:58:03.344705 27180 net.cpp:105] Top shape: 512 32 8 8 (1048576)
I0623 12:58:03.344707 27180 layer_factory.hpp:78] Creating layer 2_1_conv
I0623 12:58:03.344712 27180 net.cpp:69] Creating Layer 2_1_conv
I0623 12:58:03.344714 27180 net.cpp:396] 2_1_conv <- 2_0_conv
I0623 12:58:03.344719 27180 net.cpp:358] 2_1_conv -> 2_1_conv
I0623 12:58:03.344723 27180 net.cpp:98] Setting up 2_1_conv
I0623 12:58:03.344774 27180 net.cpp:105] Top shape: 512 32 8 8 (1048576)
I0623 12:58:03.344779 27180 layer_factory.hpp:78] Creating layer 2_1_conv_ReLU
I0623 12:58:03.344782 27180 net.cpp:69] Creating Layer 2_1_conv_ReLU
I0623 12:58:03.344785 27180 net.cpp:396] 2_1_conv_ReLU <- 2_1_conv
I0623 12:58:03.344789 27180 net.cpp:347] 2_1_conv_ReLU -> 2_1_conv (in-place)
I0623 12:58:03.344791 27180 net.cpp:98] Setting up 2_1_conv_ReLU
I0623 12:58:03.344794 27180 net.cpp:105] Top shape: 512 32 8 8 (1048576)
I0623 12:58:03.344797 27180 layer_factory.hpp:78] Creating layer 2_pool
I0623 12:58:03.344802 27180 net.cpp:69] Creating Layer 2_pool
I0623 12:58:03.344805 27180 net.cpp:396] 2_pool <- 2_1_conv
I0623 12:58:03.344808 27180 net.cpp:358] 2_pool -> 2_pool
I0623 12:58:03.344813 27180 net.cpp:358] 2_pool -> 2_pool_mask
I0623 12:58:03.344817 27180 net.cpp:98] Setting up 2_pool
I0623 12:58:03.344820 27180 net.cpp:105] Top shape: 512 32 4 4 (262144)
I0623 12:58:03.344823 27180 net.cpp:105] Top shape: 512 32 4 4 (262144)
I0623 12:58:03.344826 27180 layer_factory.hpp:78] Creating layer middle_conv
I0623 12:58:03.344830 27180 net.cpp:69] Creating Layer middle_conv
I0623 12:58:03.344833 27180 net.cpp:396] middle_conv <- 2_pool
I0623 12:58:03.344837 27180 net.cpp:358] middle_conv -> middle_conv
I0623 12:58:03.344841 27180 net.cpp:98] Setting up middle_conv
I0623 12:58:03.344977 27180 net.cpp:105] Top shape: 512 50 1 1 (25600)
I0623 12:58:03.344982 27180 layer_factory.hpp:78] Creating layer middle_deconv
I0623 12:58:03.344991 27180 net.cpp:69] Creating Layer middle_deconv
I0623 12:58:03.344995 27180 net.cpp:396] middle_deconv <- middle_conv
I0623 12:58:03.345000 27180 net.cpp:358] middle_deconv -> middle_deconv
I0623 12:58:03.345005 27180 net.cpp:98] Setting up middle_deconv
I0623 12:58:03.345149 27180 net.cpp:105] Top shape: 512 32 2 2 (65536)
I0623 12:58:03.345155 27180 layer_factory.hpp:78] Creating layer 2_unpool
I0623 12:58:03.345158 27180 net.cpp:69] Creating Layer 2_unpool
I0623 12:58:03.345161 27180 net.cpp:396] 2_unpool <- middle_deconv
I0623 12:58:03.345165 27180 net.cpp:396] 2_unpool <- 2_pool_mask
I0623 12:58:03.345170 27180 net.cpp:358] 2_unpool -> 2_unpool
I0623 12:58:03.345175 27180 net.cpp:98] Setting up 2_unpool
I0623 12:58:03.345181 27180 net.cpp:105] Top shape: 512 32 8 8 (1048576)
I0623 12:58:03.345185 27180 layer_factory.hpp:78] Creating layer 2_1_deconv
I0623 12:58:03.345192 27180 net.cpp:69] Creating Layer 2_1_deconv
I0623 12:58:03.345196 27180 net.cpp:396] 2_1_deconv <- 2_unpool
I0623 12:58:03.345204 27180 net.cpp:358] 2_1_deconv -> 2_1_deconv
I0623 12:58:03.345208 27180 net.cpp:98] Setting up 2_1_deconv
I0623 12:58:03.345260 27180 net.cpp:105] Top shape: 512 32 8 8 (1048576)
I0623 12:58:03.345266 27180 layer_factory.hpp:78] Creating layer 2_1_deconv_ReLU
I0623 12:58:03.345270 27180 net.cpp:69] Creating Layer 2_1_deconv_ReLU
I0623 12:58:03.345273 27180 net.cpp:396] 2_1_deconv_ReLU <- 2_1_deconv
I0623 12:58:03.345278 27180 net.cpp:347] 2_1_deconv_ReLU -> 2_1_deconv (in-place)
I0623 12:58:03.345281 27180 net.cpp:98] Setting up 2_1_deconv_ReLU
I0623 12:58:03.345284 27180 net.cpp:105] Top shape: 512 32 8 8 (1048576)
I0623 12:58:03.345288 27180 layer_factory.hpp:78] Creating layer 2_0_deconv
I0623 12:58:03.345291 27180 net.cpp:69] Creating Layer 2_0_deconv
I0623 12:58:03.345294 27180 net.cpp:396] 2_0_deconv <- 2_1_deconv
I0623 12:58:03.345299 27180 net.cpp:358] 2_0_deconv -> 2_0_deconv
I0623 12:58:03.345304 27180 net.cpp:98] Setting up 2_0_deconv
I0623 12:58:03.345355 27180 net.cpp:105] Top shape: 512 32 8 8 (1048576)
I0623 12:58:03.345360 27180 layer_factory.hpp:78] Creating layer 2_0_deconv_ReLU
I0623 12:58:03.345365 27180 net.cpp:69] Creating Layer 2_0_deconv_ReLU
I0623 12:58:03.345367 27180 net.cpp:396] 2_0_deconv_ReLU <- 2_0_deconv
I0623 12:58:03.345371 27180 net.cpp:347] 2_0_deconv_ReLU -> 2_0_deconv (in-place)
I0623 12:58:03.345374 27180 net.cpp:98] Setting up 2_0_deconv_ReLU
I0623 12:58:03.345377 27180 net.cpp:105] Top shape: 512 32 8 8 (1048576)
I0623 12:58:03.345379 27180 layer_factory.hpp:78] Creating layer 1_unpool
I0623 12:58:03.345383 27180 net.cpp:69] Creating Layer 1_unpool
I0623 12:58:03.345386 27180 net.cpp:396] 1_unpool <- 2_0_deconv
I0623 12:58:03.345389 27180 net.cpp:396] 1_unpool <- 1_pool_mask
I0623 12:58:03.345392 27180 net.cpp:358] 1_unpool -> 1_unpool
I0623 12:58:03.345396 27180 net.cpp:98] Setting up 1_unpool
I0623 12:58:03.345401 27180 net.cpp:105] Top shape: 512 32 16 16 (4194304)
I0623 12:58:03.345402 27180 layer_factory.hpp:78] Creating layer 1_1_deconv
I0623 12:58:03.345407 27180 net.cpp:69] Creating Layer 1_1_deconv
I0623 12:58:03.345410 27180 net.cpp:396] 1_1_deconv <- 1_unpool
I0623 12:58:03.345415 27180 net.cpp:358] 1_1_deconv -> 1_1_deconv
I0623 12:58:03.345419 27180 net.cpp:98] Setting up 1_1_deconv
I0623 12:58:03.345469 27180 net.cpp:105] Top shape: 512 32 16 16 (4194304)
I0623 12:58:03.345474 27180 layer_factory.hpp:78] Creating layer 1_1_deconv_ReLU
I0623 12:58:03.345479 27180 net.cpp:69] Creating Layer 1_1_deconv_ReLU
I0623 12:58:03.345482 27180 net.cpp:396] 1_1_deconv_ReLU <- 1_1_deconv
I0623 12:58:03.345485 27180 net.cpp:347] 1_1_deconv_ReLU -> 1_1_deconv (in-place)
I0623 12:58:03.345489 27180 net.cpp:98] Setting up 1_1_deconv_ReLU
I0623 12:58:03.345491 27180 net.cpp:105] Top shape: 512 32 16 16 (4194304)
I0623 12:58:03.345494 27180 layer_factory.hpp:78] Creating layer 1_0_deconv
I0623 12:58:03.345500 27180 net.cpp:69] Creating Layer 1_0_deconv
I0623 12:58:03.345504 27180 net.cpp:396] 1_0_deconv <- 1_1_deconv
I0623 12:58:03.345506 27180 net.cpp:358] 1_0_deconv -> 1_0_deconv
I0623 12:58:03.345510 27180 net.cpp:98] Setting up 1_0_deconv
I0623 12:58:03.345564 27180 net.cpp:105] Top shape: 512 32 16 16 (4194304)
I0623 12:58:03.345569 27180 layer_factory.hpp:78] Creating layer 1_0_deconv_ReLU
I0623 12:58:03.345572 27180 net.cpp:69] Creating Layer 1_0_deconv_ReLU
I0623 12:58:03.345576 27180 net.cpp:396] 1_0_deconv_ReLU <- 1_0_deconv
I0623 12:58:03.345579 27180 net.cpp:347] 1_0_deconv_ReLU -> 1_0_deconv (in-place)
I0623 12:58:03.345583 27180 net.cpp:98] Setting up 1_0_deconv_ReLU
I0623 12:58:03.345587 27180 net.cpp:105] Top shape: 512 32 16 16 (4194304)
I0623 12:58:03.345588 27180 layer_factory.hpp:78] Creating layer L2_Loss
I0623 12:58:03.345592 27180 net.cpp:69] Creating Layer L2_Loss
I0623 12:58:03.345595 27180 net.cpp:396] L2_Loss <- 0_pool_0_pool_0_split_1
I0623 12:58:03.345598 27180 net.cpp:396] L2_Loss <- 1_0_deconv
I0623 12:58:03.345604 27180 net.cpp:358] L2_Loss -> L2_Loss
I0623 12:58:03.345609 27180 net.cpp:98] Setting up L2_Loss
I0623 12:58:03.345618 27180 net.cpp:105] Top shape: 1 1 1 1 (1)
I0623 12:58:03.345621 27180 net.cpp:111]     with loss weight 1
I0623 12:58:03.345634 27180 net.cpp:172] L2_Loss needs backward computation.
I0623 12:58:03.345638 27180 net.cpp:172] 1_0_deconv_ReLU needs backward computation.
I0623 12:58:03.345640 27180 net.cpp:172] 1_0_deconv needs backward computation.
I0623 12:58:03.345643 27180 net.cpp:172] 1_1_deconv_ReLU needs backward computation.
…
