…
I0615 15:51:39.331454     6 net.cpp:277] The NetState phase (0) differed from the phase (1) specified by a rule in layer accuracy_top_1
I0615 15:51:39.331457     6 net.cpp:277] The NetState phase (0) differed from the phase (1) specified by a rule in layer accuracy_top_5
I0615 15:51:39.331549     6 net.cpp:39] Initializing net from parameters: 
layers {
  top: "data"
  top: "label"
  name: "data"
  type: DATA
  data_param {
    source: "/dataset/cifar10/cifar10_train_lmdb"
    batch_size: 128
    backend: LMDB
  }
  include {
    phase: TRAIN
  }
  transform_param {
    mean_file: "/dataset/cifar10/mean.binaryproto"
  }
}
layers {
  bottom: "data"
  top: "0_0_conv"
  name: "0_0_conv"
  type: CONVOLUTION
  blobs_lr: 1
  blobs_lr: 2
  weight_decay: 0
  weight_decay: 0
  convolution_param {
    num_output: 8
    pad: 1
    kernel_size: 3
    stride: 1
    weight_filler {
      type: "xavier"
    }
    bias_filler {
      type: "constant"
      value: 0
    }
  }
}
layers {
  bottom: "0_0_conv"
  top: "0_0_conv"
  name: "0_0_conv_ReLU"
  type: RELU
}
layers {
  bottom: "0_0_conv"
  top: "0_1_conv"
  name: "0_1_conv"
  type: CONVOLUTION
  blobs_lr: 1
  blobs_lr: 2
  weight_decay: 0
  weight_decay: 0
  convolution_param {
    num_output: 8
    pad: 1
    kernel_size: 3
    stride: 1
    weight_filler {
      type: "xavier"
    }
    bias_filler {
      type: "constant"
      value: 0
    }
  }
}
layers {
  bottom: "0_1_conv"
  top: "0_1_conv"
  name: "0_1_conv_ReLU"
  type: RELU
}
layers {
  bottom: "0_1_conv"
  top: "0_pool"
  name: "0_pool"
  type: POOLING
  pooling_param {
    pool: MAX
    kernel_size: 2
    stride: 2
  }
}
layers {
  bottom: "0_pool"
  top: "1_0_conv"
  name: "1_0_conv"
  type: CONVOLUTION
  blobs_lr: 1
  blobs_lr: 2
  weight_decay: 0
  weight_decay: 0
  convolution_param {
    num_output: 8
    pad: 1
    kernel_size: 3
    stride: 1
    weight_filler {
      type: "xavier"
    }
    bias_filler {
      type: "constant"
      value: 0
    }
  }
}
layers {
  bottom: "1_0_conv"
  top: "1_0_conv"
  name: "1_0_conv_ReLU"
  type: RELU
}
layers {
  bottom: "1_0_conv"
  top: "1_1_conv"
  name: "1_1_conv"
  type: CONVOLUTION
  blobs_lr: 1
  blobs_lr: 2
  weight_decay: 0
  weight_decay: 0
  convolution_param {
    num_output: 8
    pad: 1
    kernel_size: 3
    stride: 1
    weight_filler {
      type: "xavier"
    }
    bias_filler {
      type: "constant"
      value: 0
    }
  }
}
layers {
  bottom: "1_1_conv"
  top: "1_1_conv"
  name: "1_1_conv_ReLU"
  type: RELU
}
layers {
  bottom: "1_1_conv"
  top: "1_pool"
  name: "1_pool"
  type: POOLING
  pooling_param {
    pool: MAX
    kernel_size: 2
    stride: 2
  }
}
layers {
  bottom: "1_pool"
  top: "2_0_conv"
  name: "2_0_conv"
  type: CONVOLUTION
  blobs_lr: 1
  blobs_lr: 2
  weight_decay: 0
  weight_decay: 0
  convolution_param {
    num_output: 8
    pad: 1
    kernel_size: 3
    stride: 1
    weight_filler {
      type: "xavier"
    }
    bias_filler {
      type: "constant"
      value: 0
    }
  }
}
layers {
  bottom: "2_0_conv"
  top: "2_0_conv"
  name: "2_0_conv_ReLU"
  type: RELU
}
layers {
  bottom: "2_0_conv"
  top: "2_1_conv"
  name: "2_1_conv"
  type: CONVOLUTION
  blobs_lr: 1
  blobs_lr: 2
  weight_decay: 0
  weight_decay: 0
  convolution_param {
    num_output: 8
    pad: 1
    kernel_size: 3
    stride: 1
    weight_filler {
      type: "xavier"
    }
    bias_filler {
      type: "constant"
      value: 0
    }
  }
}
layers {
  bottom: "2_1_conv"
  top: "2_1_conv"
  name: "2_1_conv_ReLU"
  type: RELU
}
layers {
  bottom: "2_1_conv"
  top: "2_pool"
  name: "2_pool"
  type: POOLING
  pooling_param {
    pool: MAX
    kernel_size: 2
    stride: 2
  }
}
layers {
  bottom: "2_pool"
  top: "middle_conv"
  name: "middle_conv"
  type: CONVOLUTION
  blobs_lr: 1
  blobs_lr: 2
  weight_decay: 0
  weight_decay: 0
  convolution_param {
    num_output: 50
    pad: 0
    kernel_size: 4
    stride: 1
    weight_filler {
      type: "xavier"
    }
    bias_filler {
      type: "constant"
      value: 0
    }
  }
}
layers {
  bottom: "middle_conv"
  top: "middle_conv"
  name: "middle_conv_ReLU"
  type: RELU
}
layers {
  bottom: "middle_conv"
  top: "fc1"
  name: "fc1"
  type: INNER_PRODUCT
  blobs_lr: 1
  blobs_lr: 2
  weight_decay: 0
  weight_decay: 0
  inner_product_param {
    num_output: 512
    weight_filler {
      type: "xavier"
    }
    bias_filler {
      type: "constant"
      value: 0
    }
  }
}
layers {
  bottom: "fc1"
  top: "fc1"
  name: "fc1_Dropout"
  type: DROPOUT
  dropout_param {
    dropout_ratio: 0.5
  }
  include {
    phase: TRAIN
  }
}
layers {
  bottom: "fc1"
  top: "fc1"
  name: "fc1_Dropout_ReLU"
  type: RELU
}
layers {
  bottom: "fc1"
  top: "fc2_10"
  name: "fc2_10"
  type: INNER_PRODUCT
  blobs_lr: 1
  blobs_lr: 2
  weight_decay: 0
  weight_decay: 0
  inner_product_param {
    num_output: 10
    weight_filler {
      type: "xavier"
    }
    bias_filler {
      type: "constant"
      value: 0
    }
  }
}
layers {
  bottom: "fc2_10"
  bottom: "label"
  top: "softmax"
  name: "softmax"
  type: SOFTMAX_LOSS
}
state {
  phase: TRAIN
}
I0615 15:51:39.331616     6 layer_factory.hpp:78] Creating layer data
I0615 15:51:39.331630     6 data_transformer.cpp:25] Loading mean file from/dataset/cifar10/mean.binaryproto
I0615 15:51:39.331678     6 net.cpp:69] Creating Layer data
I0615 15:51:39.331684     6 net.cpp:358] data -> data
I0615 15:51:39.331693     6 net.cpp:358] data -> label
I0615 15:51:39.331698     6 net.cpp:98] Setting up data
I0615 15:51:39.331702     6 data_layer.cpp:32] Opening dataset /dataset/cifar10/cifar10_train_lmdb
I0615 15:51:39.331771     6 data_layer.cpp:71] output data size: 128,3,32,32
I0615 15:51:39.332090     6 net.cpp:105] Top shape: 128 3 32 32 (393216)
I0615 15:51:39.332098     6 net.cpp:105] Top shape: 128 1 1 1 (128)
I0615 15:51:39.332100     6 layer_factory.hpp:78] Creating layer 0_0_conv
I0615 15:51:39.332106     6 net.cpp:69] Creating Layer 0_0_conv
I0615 15:51:39.332109     6 net.cpp:396] 0_0_conv <- data
I0615 15:51:39.332115     6 net.cpp:358] 0_0_conv -> 0_0_conv
I0615 15:51:39.332123     6 net.cpp:98] Setting up 0_0_conv
I0615 15:51:39.332404     6 net.cpp:105] Top shape: 128 8 32 32 (1048576)
I0615 15:51:39.332419     6 layer_factory.hpp:78] Creating layer 0_0_conv_ReLU
I0615 15:51:39.332425     6 net.cpp:69] Creating Layer 0_0_conv_ReLU
I0615 15:51:39.332428     6 net.cpp:396] 0_0_conv_ReLU <- 0_0_conv
I0615 15:51:39.332432     6 net.cpp:347] 0_0_conv_ReLU -> 0_0_conv (in-place)
I0615 15:51:39.332437     6 net.cpp:98] Setting up 0_0_conv_ReLU
I0615 15:51:39.332440     6 net.cpp:105] Top shape: 128 8 32 32 (1048576)
I0615 15:51:39.332443     6 layer_factory.hpp:78] Creating layer 0_1_conv
I0615 15:51:39.332448     6 net.cpp:69] Creating Layer 0_1_conv
I0615 15:51:39.332450     6 net.cpp:396] 0_1_conv <- 0_0_conv
I0615 15:51:39.332454     6 net.cpp:358] 0_1_conv -> 0_1_conv
I0615 15:51:39.332459     6 net.cpp:98] Setting up 0_1_conv
I0615 15:51:39.332469     6 net.cpp:105] Top shape: 128 8 32 32 (1048576)
I0615 15:51:39.332475     6 layer_factory.hpp:78] Creating layer 0_1_conv_ReLU
I0615 15:51:39.332479     6 net.cpp:69] Creating Layer 0_1_conv_ReLU
I0615 15:51:39.332482     6 net.cpp:396] 0_1_conv_ReLU <- 0_1_conv
I0615 15:51:39.332486     6 net.cpp:347] 0_1_conv_ReLU -> 0_1_conv (in-place)
I0615 15:51:39.332489     6 net.cpp:98] Setting up 0_1_conv_ReLU
I0615 15:51:39.332495     6 net.cpp:105] Top shape: 128 8 32 32 (1048576)
I0615 15:51:39.332504     6 layer_factory.hpp:78] Creating layer 0_pool
I0615 15:51:39.332509     6 net.cpp:69] Creating Layer 0_pool
I0615 15:51:39.332511     6 net.cpp:396] 0_pool <- 0_1_conv
I0615 15:51:39.332515     6 net.cpp:358] 0_pool -> 0_pool
I0615 15:51:39.332520     6 net.cpp:98] Setting up 0_pool
I0615 15:51:39.332525     6 net.cpp:105] Top shape: 128 8 16 16 (262144)
I0615 15:51:39.332530     6 layer_factory.hpp:78] Creating layer 1_0_conv
I0615 15:51:39.332535     6 net.cpp:69] Creating Layer 1_0_conv
I0615 15:51:39.332538     6 net.cpp:396] 1_0_conv <- 0_pool
I0615 15:51:39.332541     6 net.cpp:358] 1_0_conv -> 1_0_conv
I0615 15:51:39.332546     6 net.cpp:98] Setting up 1_0_conv
I0615 15:51:39.332556     6 net.cpp:105] Top shape: 128 8 16 16 (262144)
I0615 15:51:39.332561     6 layer_factory.hpp:78] Creating layer 1_0_conv_ReLU
I0615 15:51:39.332564     6 net.cpp:69] Creating Layer 1_0_conv_ReLU
I0615 15:51:39.332566     6 net.cpp:396] 1_0_conv_ReLU <- 1_0_conv
I0615 15:51:39.332571     6 net.cpp:347] 1_0_conv_ReLU -> 1_0_conv (in-place)
I0615 15:51:39.332574     6 net.cpp:98] Setting up 1_0_conv_ReLU
I0615 15:51:39.332577     6 net.cpp:105] Top shape: 128 8 16 16 (262144)
I0615 15:51:39.332579     6 layer_factory.hpp:78] Creating layer 1_1_conv
I0615 15:51:39.332583     6 net.cpp:69] Creating Layer 1_1_conv
I0615 15:51:39.332587     6 net.cpp:396] 1_1_conv <- 1_0_conv
I0615 15:51:39.332592     6 net.cpp:358] 1_1_conv -> 1_1_conv
I0615 15:51:39.332597     6 net.cpp:98] Setting up 1_1_conv
I0615 15:51:39.332605     6 net.cpp:105] Top shape: 128 8 16 16 (262144)
I0615 15:51:39.332609     6 layer_factory.hpp:78] Creating layer 1_1_conv_ReLU
I0615 15:51:39.332612     6 net.cpp:69] Creating Layer 1_1_conv_ReLU
I0615 15:51:39.332615     6 net.cpp:396] 1_1_conv_ReLU <- 1_1_conv
I0615 15:51:39.332618     6 net.cpp:347] 1_1_conv_ReLU -> 1_1_conv (in-place)
I0615 15:51:39.332623     6 net.cpp:98] Setting up 1_1_conv_ReLU
I0615 15:51:39.332624     6 net.cpp:105] Top shape: 128 8 16 16 (262144)
I0615 15:51:39.332628     6 layer_factory.hpp:78] Creating layer 1_pool
I0615 15:51:39.332631     6 net.cpp:69] Creating Layer 1_pool
I0615 15:51:39.332634     6 net.cpp:396] 1_pool <- 1_1_conv
I0615 15:51:39.332638     6 net.cpp:358] 1_pool -> 1_pool
I0615 15:51:39.332641     6 net.cpp:98] Setting up 1_pool
I0615 15:51:39.332644     6 net.cpp:105] Top shape: 128 8 8 8 (65536)
I0615 15:51:39.332648     6 layer_factory.hpp:78] Creating layer 2_0_conv
I0615 15:51:39.332651     6 net.cpp:69] Creating Layer 2_0_conv
I0615 15:51:39.332653     6 net.cpp:396] 2_0_conv <- 1_pool
I0615 15:51:39.332658     6 net.cpp:358] 2_0_conv -> 2_0_conv
I0615 15:51:39.332662     6 net.cpp:98] Setting up 2_0_conv
I0615 15:51:39.332671     6 net.cpp:105] Top shape: 128 8 8 8 (65536)
I0615 15:51:39.332677     6 layer_factory.hpp:78] Creating layer 2_0_conv_ReLU
I0615 15:51:39.332681     6 net.cpp:69] Creating Layer 2_0_conv_ReLU
I0615 15:51:39.332684     6 net.cpp:396] 2_0_conv_ReLU <- 2_0_conv
I0615 15:51:39.332687     6 net.cpp:347] 2_0_conv_ReLU -> 2_0_conv (in-place)
I0615 15:51:39.332691     6 net.cpp:98] Setting up 2_0_conv_ReLU
I0615 15:51:39.332695     6 net.cpp:105] Top shape: 128 8 8 8 (65536)
I0615 15:51:39.332696     6 layer_factory.hpp:78] Creating layer 2_1_conv
I0615 15:51:39.332700     6 net.cpp:69] Creating Layer 2_1_conv
I0615 15:51:39.332702     6 net.cpp:396] 2_1_conv <- 2_0_conv
I0615 15:51:39.332706     6 net.cpp:358] 2_1_conv -> 2_1_conv
I0615 15:51:39.332710     6 net.cpp:98] Setting up 2_1_conv
I0615 15:51:39.332718     6 net.cpp:105] Top shape: 128 8 8 8 (65536)
I0615 15:51:39.332723     6 layer_factory.hpp:78] Creating layer 2_1_conv_ReLU
I0615 15:51:39.332726     6 net.cpp:69] Creating Layer 2_1_conv_ReLU
I0615 15:51:39.332728     6 net.cpp:396] 2_1_conv_ReLU <- 2_1_conv
I0615 15:51:39.332732     6 net.cpp:347] 2_1_conv_ReLU -> 2_1_conv (in-place)
I0615 15:51:39.332736     6 net.cpp:98] Setting up 2_1_conv_ReLU
I0615 15:51:39.332741     6 net.cpp:105] Top shape: 128 8 8 8 (65536)
I0615 15:51:39.332742     6 layer_factory.hpp:78] Creating layer 2_pool
I0615 15:51:39.332751     6 net.cpp:69] Creating Layer 2_pool
I0615 15:51:39.332753     6 net.cpp:396] 2_pool <- 2_1_conv
I0615 15:51:39.332758     6 net.cpp:358] 2_pool -> 2_pool
I0615 15:51:39.332762     6 net.cpp:98] Setting up 2_pool
I0615 15:51:39.332765     6 net.cpp:105] Top shape: 128 8 4 4 (16384)
I0615 15:51:39.332768     6 layer_factory.hpp:78] Creating layer middle_conv
I0615 15:51:39.332772     6 net.cpp:69] Creating Layer middle_conv
I0615 15:51:39.332775     6 net.cpp:396] middle_conv <- 2_pool
I0615 15:51:39.332778     6 net.cpp:358] middle_conv -> middle_conv
I0615 15:51:39.332782     6 net.cpp:98] Setting up middle_conv
I0615 15:51:39.332818     6 net.cpp:105] Top shape: 128 50 1 1 (6400)
I0615 15:51:39.332821     6 layer_factory.hpp:78] Creating layer middle_conv_ReLU
I0615 15:51:39.332825     6 net.cpp:69] Creating Layer middle_conv_ReLU
I0615 15:51:39.332828     6 net.cpp:396] middle_conv_ReLU <- middle_conv
I0615 15:51:39.332831     6 net.cpp:347] middle_conv_ReLU -> middle_conv (in-place)
I0615 15:51:39.332834     6 net.cpp:98] Setting up middle_conv_ReLU
I0615 15:51:39.332837     6 net.cpp:105] Top shape: 128 50 1 1 (6400)
I0615 15:51:39.332840     6 layer_factory.hpp:78] Creating layer fc1
I0615 15:51:39.332844     6 net.cpp:69] Creating Layer fc1
I0615 15:51:39.332846     6 net.cpp:396] fc1 <- middle_conv
I0615 15:51:39.332851     6 net.cpp:358] fc1 -> fc1
I0615 15:51:39.332856     6 net.cpp:98] Setting up fc1
I0615 15:51:39.332989     6 net.cpp:105] Top shape: 128 512 1 1 (65536)
I0615 15:51:39.332994     6 layer_factory.hpp:78] Creating layer fc1_Dropout
I0615 15:51:39.332999     6 net.cpp:69] Creating Layer fc1_Dropout
I0615 15:51:39.333003     6 net.cpp:396] fc1_Dropout <- fc1
I0615 15:51:39.333006     6 net.cpp:347] fc1_Dropout -> fc1 (in-place)
I0615 15:51:39.333010     6 net.cpp:98] Setting up fc1_Dropout
I0615 15:51:39.333014     6 net.cpp:105] Top shape: 128 512 1 1 (65536)
I0615 15:51:39.333016     6 layer_factory.hpp:78] Creating layer fc1_Dropout_ReLU
I0615 15:51:39.333019     6 net.cpp:69] Creating Layer fc1_Dropout_ReLU
I0615 15:51:39.333021     6 net.cpp:396] fc1_Dropout_ReLU <- fc1
I0615 15:51:39.333025     6 net.cpp:347] fc1_Dropout_ReLU -> fc1 (in-place)
I0615 15:51:39.333029     6 net.cpp:98] Setting up fc1_Dropout_ReLU
I0615 15:51:39.333032     6 net.cpp:105] Top shape: 128 512 1 1 (65536)
I0615 15:51:39.333034     6 layer_factory.hpp:78] Creating layer fc2_10
I0615 15:51:39.333039     6 net.cpp:69] Creating Layer fc2_10
I0615 15:51:39.333040     6 net.cpp:396] fc2_10 <- fc1
I0615 15:51:39.333045     6 net.cpp:358] fc2_10 -> fc2_10
I0615 15:51:39.333050     6 net.cpp:98] Setting up fc2_10
I0615 15:51:39.333087     6 net.cpp:105] Top shape: 128 10 1 1 (1280)
I0615 15:51:39.333094     6 layer_factory.hpp:78] Creating layer softmax
I0615 15:51:39.333101     6 net.cpp:69] Creating Layer softmax
I0615 15:51:39.333104     6 net.cpp:396] softmax <- fc2_10
I0615 15:51:39.333107     6 net.cpp:396] softmax <- label
I0615 15:51:39.333112     6 net.cpp:358] softmax -> softmax
I0615 15:51:39.333115     6 net.cpp:98] Setting up softmax
I0615 15:51:39.333127     6 net.cpp:105] Top shape: 1 1 1 1 (1)
I0615 15:51:39.333130     6 net.cpp:111]     with loss weight 1
I0615 15:51:39.333140     6 net.cpp:172] softmax needs backward computation.
I0615 15:51:39.333143     6 net.cpp:172] fc2_10 needs backward computation.
I0615 15:51:39.333147     6 net.cpp:172] fc1_Dropout_ReLU needs backward computation.
I0615 15:51:39.333148     6 net.cpp:172] fc1_Dropout needs backward computation.
I0615 15:51:39.333151     6 net.cpp:172] fc1 needs backward computation.
…
I0615 15:51:39.333653     6 net.cpp:277] The NetState phase (1) differed from the phase (0) specified by a rule in layer data
I0615 15:51:39.333664     6 net.cpp:277] The NetState phase (1) differed from the phase (0) specified by a rule in layer fc1_Dropout
I0615 15:51:39.333753     6 net.cpp:39] Initializing net from parameters: 
layers {
  top: "data"
  top: "label"
  name: "data"
  type: DATA
  data_param {
    source: "/dataset/cifar10/cifar10_test_lmdb"
    batch_size: 128
    backend: LMDB
  }
  include {
    phase: TEST
  }
  transform_param {
    mean_file: "/dataset/cifar10/mean.binaryproto"
  }
}
layers {
  bottom: "data"
  top: "0_0_conv"
  name: "0_0_conv"
  type: CONVOLUTION
  blobs_lr: 1
  blobs_lr: 2
  weight_decay: 0
  weight_decay: 0
  convolution_param {
    num_output: 8
    pad: 1
    kernel_size: 3
    stride: 1
    weight_filler {
      type: "xavier"
    }
    bias_filler {
      type: "constant"
      value: 0
    }
  }
}
layers {
  bottom: "0_0_conv"
  top: "0_0_conv"
  name: "0_0_conv_ReLU"
  type: RELU
}
layers {
  bottom: "0_0_conv"
  top: "0_1_conv"
  name: "0_1_conv"
  type: CONVOLUTION
  blobs_lr: 1
  blobs_lr: 2
  weight_decay: 0
  weight_decay: 0
  convolution_param {
    num_output: 8
    pad: 1
    kernel_size: 3
    stride: 1
    weight_filler {
      type: "xavier"
    }
    bias_filler {
      type: "constant"
      value: 0
    }
  }
}
layers {
  bottom: "0_1_conv"
  top: "0_1_conv"
  name: "0_1_conv_ReLU"
  type: RELU
}
layers {
  bottom: "0_1_conv"
  top: "0_pool"
  name: "0_pool"
  type: POOLING
  pooling_param {
    pool: MAX
    kernel_size: 2
    stride: 2
  }
}
layers {
  bottom: "0_pool"
  top: "1_0_conv"
  name: "1_0_conv"
  type: CONVOLUTION
  blobs_lr: 1
  blobs_lr: 2
  weight_decay: 0
  weight_decay: 0
  convolution_param {
    num_output: 8
    pad: 1
    kernel_size: 3
    stride: 1
    weight_filler {
      type: "xavier"
    }
    bias_filler {
      type: "constant"
      value: 0
    }
  }
}
layers {
  bottom: "1_0_conv"
  top: "1_0_conv"
  name: "1_0_conv_ReLU"
  type: RELU
}
layers {
  bottom: "1_0_conv"
  top: "1_1_conv"
  name: "1_1_conv"
  type: CONVOLUTION
  blobs_lr: 1
  blobs_lr: 2
  weight_decay: 0
  weight_decay: 0
  convolution_param {
    num_output: 8
    pad: 1
    kernel_size: 3
    stride: 1
    weight_filler {
      type: "xavier"
    }
    bias_filler {
      type: "constant"
      value: 0
    }
  }
}
layers {
  bottom: "1_1_conv"
  top: "1_1_conv"
  name: "1_1_conv_ReLU"
  type: RELU
}
layers {
  bottom: "1_1_conv"
  top: "1_pool"
  name: "1_pool"
  type: POOLING
  pooling_param {
    pool: MAX
    kernel_size: 2
    stride: 2
  }
}
layers {
  bottom: "1_pool"
  top: "2_0_conv"
  name: "2_0_conv"
  type: CONVOLUTION
  blobs_lr: 1
  blobs_lr: 2
  weight_decay: 0
  weight_decay: 0
  convolution_param {
    num_output: 8
    pad: 1
    kernel_size: 3
    stride: 1
    weight_filler {
      type: "xavier"
    }
    bias_filler {
      type: "constant"
      value: 0
    }
  }
}
layers {
  bottom: "2_0_conv"
  top: "2_0_conv"
  name: "2_0_conv_ReLU"
  type: RELU
}
layers {
  bottom: "2_0_conv"
  top: "2_1_conv"
  name: "2_1_conv"
  type: CONVOLUTION
  blobs_lr: 1
  blobs_lr: 2
  weight_decay: 0
  weight_decay: 0
  convolution_param {
    num_output: 8
    pad: 1
    kernel_size: 3
    stride: 1
    weight_filler {
      type: "xavier"
    }
    bias_filler {
      type: "constant"
      value: 0
    }
  }
}
layers {
  bottom: "2_1_conv"
  top: "2_1_conv"
  name: "2_1_conv_ReLU"
  type: RELU
}
layers {
  bottom: "2_1_conv"
  top: "2_pool"
  name: "2_pool"
  type: POOLING
  pooling_param {
    pool: MAX
    kernel_size: 2
    stride: 2
  }
}
layers {
  bottom: "2_pool"
  top: "middle_conv"
  name: "middle_conv"
  type: CONVOLUTION
  blobs_lr: 1
  blobs_lr: 2
  weight_decay: 0
  weight_decay: 0
  convolution_param {
    num_output: 50
    pad: 0
    kernel_size: 4
    stride: 1
    weight_filler {
      type: "xavier"
    }
    bias_filler {
      type: "constant"
      value: 0
    }
  }
}
layers {
  bottom: "middle_conv"
  top: "middle_conv"
  name: "middle_conv_ReLU"
  type: RELU
}
layers {
  bottom: "middle_conv"
  top: "fc1"
  name: "fc1"
  type: INNER_PRODUCT
  blobs_lr: 1
  blobs_lr: 2
  weight_decay: 0
  weight_decay: 0
  inner_product_param {
    num_output: 512
    weight_filler {
      type: "xavier"
    }
    bias_filler {
      type: "constant"
      value: 0
    }
  }
}
layers {
  bottom: "fc1"
  top: "fc1"
  name: "fc1_Dropout_ReLU"
  type: RELU
}
layers {
  bottom: "fc1"
  top: "fc2_10"
  name: "fc2_10"
  type: INNER_PRODUCT
  blobs_lr: 1
  blobs_lr: 2
  weight_decay: 0
  weight_decay: 0
  inner_product_param {
    num_output: 10
    weight_filler {
      type: "xavier"
    }
    bias_filler {
      type: "constant"
      value: 0
    }
  }
}
layers {
  bottom: "fc2_10"
  bottom: "label"
  top: "softmax"
  name: "softmax"
  type: SOFTMAX_LOSS
}
layers {
  bottom: "fc2_10"
  bottom: "label"
  top: "accuracy_top_1"
  name: "accuracy_top_1"
  type: ACCURACY
  accuracy_param {
    top_k: 1
  }
  include {
    phase: TEST
  }
}
layers {
  bottom: "fc2_10"
  bottom: "label"
  top: "accuracy_top_5"
  name: "accuracy_top_5"
  type: ACCURACY
  accuracy_param {
    top_k: 5
  }
  include {
    phase: TEST
  }
}
state {
  phase: TEST
}
I0615 15:51:39.333829     6 layer_factory.hpp:78] Creating layer data
I0615 15:51:39.333837     6 data_transformer.cpp:25] Loading mean file from/dataset/cifar10/mean.binaryproto
I0615 15:51:39.333868     6 net.cpp:69] Creating Layer data
I0615 15:51:39.333873     6 net.cpp:358] data -> data
I0615 15:51:39.333879     6 net.cpp:358] data -> label
I0615 15:51:39.333884     6 net.cpp:98] Setting up data
I0615 15:51:39.333887     6 data_layer.cpp:32] Opening dataset /dataset/cifar10/cifar10_test_lmdb
I0615 15:51:39.333923     6 data_layer.cpp:71] output data size: 128,3,32,32
I0615 15:51:39.334290     6 net.cpp:105] Top shape: 128 3 32 32 (393216)
I0615 15:51:39.334307     6 net.cpp:105] Top shape: 128 1 1 1 (128)
I0615 15:51:39.334311     6 layer_factory.hpp:78] Creating layer label_data_1_split
I0615 15:51:39.334317     6 net.cpp:69] Creating Layer label_data_1_split
I0615 15:51:39.334321     6 net.cpp:396] label_data_1_split <- label
I0615 15:51:39.334324     6 net.cpp:358] label_data_1_split -> label_data_1_split_0
I0615 15:51:39.334331     6 net.cpp:358] label_data_1_split -> label_data_1_split_1
I0615 15:51:39.334334     6 net.cpp:358] label_data_1_split -> label_data_1_split_2
I0615 15:51:39.334339     6 net.cpp:98] Setting up label_data_1_split
I0615 15:51:39.334343     6 net.cpp:105] Top shape: 128 1 1 1 (128)
I0615 15:51:39.334357     6 net.cpp:105] Top shape: 128 1 1 1 (128)
I0615 15:51:39.334365     6 net.cpp:105] Top shape: 128 1 1 1 (128)
I0615 15:51:39.334368     6 layer_factory.hpp:78] Creating layer 0_0_conv
I0615 15:51:39.334374     6 net.cpp:69] Creating Layer 0_0_conv
I0615 15:51:39.334378     6 net.cpp:396] 0_0_conv <- data
I0615 15:51:39.334383     6 net.cpp:358] 0_0_conv -> 0_0_conv
I0615 15:51:39.334388     6 net.cpp:98] Setting up 0_0_conv
I0615 15:51:39.334398     6 net.cpp:105] Top shape: 128 8 32 32 (1048576)
I0615 15:51:39.334403     6 layer_factory.hpp:78] Creating layer 0_0_conv_ReLU
I0615 15:51:39.334410     6 net.cpp:69] Creating Layer 0_0_conv_ReLU
I0615 15:51:39.334414     6 net.cpp:396] 0_0_conv_ReLU <- 0_0_conv
I0615 15:51:39.334417     6 net.cpp:347] 0_0_conv_ReLU -> 0_0_conv (in-place)
I0615 15:51:39.334421     6 net.cpp:98] Setting up 0_0_conv_ReLU
I0615 15:51:39.334424     6 net.cpp:105] Top shape: 128 8 32 32 (1048576)
I0615 15:51:39.334427     6 layer_factory.hpp:78] Creating layer 0_1_conv
I0615 15:51:39.334432     6 net.cpp:69] Creating Layer 0_1_conv
I0615 15:51:39.334435     6 net.cpp:396] 0_1_conv <- 0_0_conv
I0615 15:51:39.334439     6 net.cpp:358] 0_1_conv -> 0_1_conv
I0615 15:51:39.334444     6 net.cpp:98] Setting up 0_1_conv
I0615 15:51:39.334453     6 net.cpp:105] Top shape: 128 8 32 32 (1048576)
I0615 15:51:39.334460     6 layer_factory.hpp:78] Creating layer 0_1_conv_ReLU
I0615 15:51:39.334462     6 net.cpp:69] Creating Layer 0_1_conv_ReLU
I0615 15:51:39.334465     6 net.cpp:396] 0_1_conv_ReLU <- 0_1_conv
I0615 15:51:39.334470     6 net.cpp:347] 0_1_conv_ReLU -> 0_1_conv (in-place)
I0615 15:51:39.334472     6 net.cpp:98] Setting up 0_1_conv_ReLU
I0615 15:51:39.334475     6 net.cpp:105] Top shape: 128 8 32 32 (1048576)
I0615 15:51:39.334478     6 layer_factory.hpp:78] Creating layer 0_pool
I0615 15:51:39.334482     6 net.cpp:69] Creating Layer 0_pool
I0615 15:51:39.334486     6 net.cpp:396] 0_pool <- 0_1_conv
I0615 15:51:39.334488     6 net.cpp:358] 0_pool -> 0_pool
I0615 15:51:39.334492     6 net.cpp:98] Setting up 0_pool
I0615 15:51:39.334496     6 net.cpp:105] Top shape: 128 8 16 16 (262144)
I0615 15:51:39.334499     6 layer_factory.hpp:78] Creating layer 1_0_conv
I0615 15:51:39.334503     6 net.cpp:69] Creating Layer 1_0_conv
I0615 15:51:39.334506     6 net.cpp:396] 1_0_conv <- 0_pool
I0615 15:51:39.334511     6 net.cpp:358] 1_0_conv -> 1_0_conv
I0615 15:51:39.334516     6 net.cpp:98] Setting up 1_0_conv
I0615 15:51:39.334525     6 net.cpp:105] Top shape: 128 8 16 16 (262144)
I0615 15:51:39.334532     6 layer_factory.hpp:78] Creating layer 1_0_conv_ReLU
I0615 15:51:39.334537     6 net.cpp:69] Creating Layer 1_0_conv_ReLU
I0615 15:51:39.334538     6 net.cpp:396] 1_0_conv_ReLU <- 1_0_conv
I0615 15:51:39.334542     6 net.cpp:347] 1_0_conv_ReLU -> 1_0_conv (in-place)
I0615 15:51:39.334547     6 net.cpp:98] Setting up 1_0_conv_ReLU
I0615 15:51:39.334548     6 net.cpp:105] Top shape: 128 8 16 16 (262144)
I0615 15:51:39.334552     6 layer_factory.hpp:78] Creating layer 1_1_conv
I0615 15:51:39.334555     6 net.cpp:69] Creating Layer 1_1_conv
I0615 15:51:39.334558     6 net.cpp:396] 1_1_conv <- 1_0_conv
I0615 15:51:39.334561     6 net.cpp:358] 1_1_conv -> 1_1_conv
I0615 15:51:39.334565     6 net.cpp:98] Setting up 1_1_conv
I0615 15:51:39.334576     6 net.cpp:105] Top shape: 128 8 16 16 (262144)
I0615 15:51:39.334581     6 layer_factory.hpp:78] Creating layer 1_1_conv_ReLU
I0615 15:51:39.334584     6 net.cpp:69] Creating Layer 1_1_conv_ReLU
I0615 15:51:39.334588     6 net.cpp:396] 1_1_conv_ReLU <- 1_1_conv
I0615 15:51:39.334592     6 net.cpp:347] 1_1_conv_ReLU -> 1_1_conv (in-place)
I0615 15:51:39.334595     6 net.cpp:98] Setting up 1_1_conv_ReLU
I0615 15:51:39.334599     6 net.cpp:105] Top shape: 128 8 16 16 (262144)
I0615 15:51:39.334601     6 layer_factory.hpp:78] Creating layer 1_pool
I0615 15:51:39.334604     6 net.cpp:69] Creating Layer 1_pool
I0615 15:51:39.334607     6 net.cpp:396] 1_pool <- 1_1_conv
I0615 15:51:39.334610     6 net.cpp:358] 1_pool -> 1_pool
I0615 15:51:39.334616     6 net.cpp:98] Setting up 1_pool
I0615 15:51:39.334620     6 net.cpp:105] Top shape: 128 8 8 8 (65536)
I0615 15:51:39.334627     6 layer_factory.hpp:78] Creating layer 2_0_conv
I0615 15:51:39.334630     6 net.cpp:69] Creating Layer 2_0_conv
I0615 15:51:39.334633     6 net.cpp:396] 2_0_conv <- 1_pool
I0615 15:51:39.334637     6 net.cpp:358] 2_0_conv -> 2_0_conv
I0615 15:51:39.334641     6 net.cpp:98] Setting up 2_0_conv
I0615 15:51:39.334651     6 net.cpp:105] Top shape: 128 8 8 8 (65536)
I0615 15:51:39.334656     6 layer_factory.hpp:78] Creating layer 2_0_conv_ReLU
I0615 15:51:39.334661     6 net.cpp:69] Creating Layer 2_0_conv_ReLU
I0615 15:51:39.334664     6 net.cpp:396] 2_0_conv_ReLU <- 2_0_conv
I0615 15:51:39.334667     6 net.cpp:347] 2_0_conv_ReLU -> 2_0_conv (in-place)
I0615 15:51:39.334671     6 net.cpp:98] Setting up 2_0_conv_ReLU
I0615 15:51:39.334674     6 net.cpp:105] Top shape: 128 8 8 8 (65536)
I0615 15:51:39.334676     6 layer_factory.hpp:78] Creating layer 2_1_conv
I0615 15:51:39.334681     6 net.cpp:69] Creating Layer 2_1_conv
I0615 15:51:39.334682     6 net.cpp:396] 2_1_conv <- 2_0_conv
I0615 15:51:39.334686     6 net.cpp:358] 2_1_conv -> 2_1_conv
I0615 15:51:39.334691     6 net.cpp:98] Setting up 2_1_conv
I0615 15:51:39.334699     6 net.cpp:105] Top shape: 128 8 8 8 (65536)
I0615 15:51:39.334703     6 layer_factory.hpp:78] Creating layer 2_1_conv_ReLU
I0615 15:51:39.334707     6 net.cpp:69] Creating Layer 2_1_conv_ReLU
I0615 15:51:39.334709     6 net.cpp:396] 2_1_conv_ReLU <- 2_1_conv
I0615 15:51:39.334713     6 net.cpp:347] 2_1_conv_ReLU -> 2_1_conv (in-place)
I0615 15:51:39.334717     6 net.cpp:98] Setting up 2_1_conv_ReLU
I0615 15:51:39.334719     6 net.cpp:105] Top shape: 128 8 8 8 (65536)
I0615 15:51:39.334722     6 layer_factory.hpp:78] Creating layer 2_pool
I0615 15:51:39.334727     6 net.cpp:69] Creating Layer 2_pool
I0615 15:51:39.334729     6 net.cpp:396] 2_pool <- 2_1_conv
I0615 15:51:39.334733     6 net.cpp:358] 2_pool -> 2_pool
I0615 15:51:39.334736     6 net.cpp:98] Setting up 2_pool
I0615 15:51:39.334740     6 net.cpp:105] Top shape: 128 8 4 4 (16384)
I0615 15:51:39.334743     6 layer_factory.hpp:78] Creating layer middle_conv
I0615 15:51:39.334746     6 net.cpp:69] Creating Layer middle_conv
I0615 15:51:39.334749     6 net.cpp:396] middle_conv <- 2_pool
I0615 15:51:39.334753     6 net.cpp:358] middle_conv -> middle_conv
I0615 15:51:39.334758     6 net.cpp:98] Setting up middle_conv
I0615 15:51:39.334791     6 net.cpp:105] Top shape: 128 50 1 1 (6400)
I0615 15:51:39.334795     6 layer_factory.hpp:78] Creating layer middle_conv_ReLU
I0615 15:51:39.334799     6 net.cpp:69] Creating Layer middle_conv_ReLU
I0615 15:51:39.334801     6 net.cpp:396] middle_conv_ReLU <- middle_conv
I0615 15:51:39.334805     6 net.cpp:347] middle_conv_ReLU -> middle_conv (in-place)
I0615 15:51:39.334808     6 net.cpp:98] Setting up middle_conv_ReLU
I0615 15:51:39.334811     6 net.cpp:105] Top shape: 128 50 1 1 (6400)
I0615 15:51:39.334815     6 layer_factory.hpp:78] Creating layer fc1
I0615 15:51:39.334818     6 net.cpp:69] Creating Layer fc1
I0615 15:51:39.334820     6 net.cpp:396] fc1 <- middle_conv
I0615 15:51:39.334825     6 net.cpp:358] fc1 -> fc1
I0615 15:51:39.334830     6 net.cpp:98] Setting up fc1
I0615 15:51:39.334971     6 net.cpp:105] Top shape: 128 512 1 1 (65536)
I0615 15:51:39.334977     6 layer_factory.hpp:78] Creating layer fc1_Dropout_ReLU
I0615 15:51:39.334980     6 net.cpp:69] Creating Layer fc1_Dropout_ReLU
I0615 15:51:39.334983     6 net.cpp:396] fc1_Dropout_ReLU <- fc1
I0615 15:51:39.334992     6 net.cpp:347] fc1_Dropout_ReLU -> fc1 (in-place)
I0615 15:51:39.334997     6 net.cpp:98] Setting up fc1_Dropout_ReLU
I0615 15:51:39.335000     6 net.cpp:105] Top shape: 128 512 1 1 (65536)
I0615 15:51:39.335003     6 layer_factory.hpp:78] Creating layer fc2_10
I0615 15:51:39.335006     6 net.cpp:69] Creating Layer fc2_10
I0615 15:51:39.335010     6 net.cpp:396] fc2_10 <- fc1
I0615 15:51:39.335014     6 net.cpp:358] fc2_10 -> fc2_10
I0615 15:51:39.335019     6 net.cpp:98] Setting up fc2_10
I0615 15:51:39.335059     6 net.cpp:105] Top shape: 128 10 1 1 (1280)
I0615 15:51:39.335070     6 layer_factory.hpp:78] Creating layer fc2_10_fc2_10_0_split
I0615 15:51:39.335074     6 net.cpp:69] Creating Layer fc2_10_fc2_10_0_split
I0615 15:51:39.335078     6 net.cpp:396] fc2_10_fc2_10_0_split <- fc2_10
I0615 15:51:39.335081     6 net.cpp:358] fc2_10_fc2_10_0_split -> fc2_10_fc2_10_0_split_0
I0615 15:51:39.335086     6 net.cpp:358] fc2_10_fc2_10_0_split -> fc2_10_fc2_10_0_split_1
I0615 15:51:39.335090     6 net.cpp:358] fc2_10_fc2_10_0_split -> fc2_10_fc2_10_0_split_2
I0615 15:51:39.335094     6 net.cpp:98] Setting up fc2_10_fc2_10_0_split
I0615 15:51:39.335098     6 net.cpp:105] Top shape: 128 10 1 1 (1280)
I0615 15:51:39.335100     6 net.cpp:105] Top shape: 128 10 1 1 (1280)
I0615 15:51:39.335103     6 net.cpp:105] Top shape: 128 10 1 1 (1280)
I0615 15:51:39.335106     6 layer_factory.hpp:78] Creating layer softmax
I0615 15:51:39.335110     6 net.cpp:69] Creating Layer softmax
I0615 15:51:39.335114     6 net.cpp:396] softmax <- fc2_10_fc2_10_0_split_0
I0615 15:51:39.335117     6 net.cpp:396] softmax <- label_data_1_split_0
I0615 15:51:39.335121     6 net.cpp:358] softmax -> softmax
I0615 15:51:39.335125     6 net.cpp:98] Setting up softmax
I0615 15:51:39.335130     6 net.cpp:105] Top shape: 1 1 1 1 (1)
I0615 15:51:39.335132     6 net.cpp:111]     with loss weight 1
I0615 15:51:39.335137     6 layer_factory.hpp:78] Creating layer accuracy_top_1
I0615 15:51:39.335141     6 net.cpp:69] Creating Layer accuracy_top_1
I0615 15:51:39.335144     6 net.cpp:396] accuracy_top_1 <- fc2_10_fc2_10_0_split_1
I0615 15:51:39.335149     6 net.cpp:396] accuracy_top_1 <- label_data_1_split_1
I0615 15:51:39.335152     6 net.cpp:358] accuracy_top_1 -> accuracy_top_1
I0615 15:51:39.335156     6 net.cpp:98] Setting up accuracy_top_1
I0615 15:51:39.335160     6 net.cpp:105] Top shape: 1 1 1 1 (1)
I0615 15:51:39.335162     6 layer_factory.hpp:78] Creating layer accuracy_top_5
I0615 15:51:39.335166     6 net.cpp:69] Creating Layer accuracy_top_5
I0615 15:51:39.335170     6 net.cpp:396] accuracy_top_5 <- fc2_10_fc2_10_0_split_2
I0615 15:51:39.335173     6 net.cpp:396] accuracy_top_5 <- label_data_1_split_2
I0615 15:51:39.335177     6 net.cpp:358] accuracy_top_5 -> accuracy_top_5
I0615 15:51:39.335181     6 net.cpp:98] Setting up accuracy_top_5
I0615 15:51:39.335185     6 net.cpp:105] Top shape: 1 1 1 1 (1)
I0615 15:51:39.335187     6 net.cpp:174] accuracy_top_5 does not need backward computation.
I0615 15:51:39.335189     6 net.cpp:174] accuracy_top_1 does not need backward computation.
I0615 15:51:39.335192     6 net.cpp:172] softmax needs backward computation.
I0615 15:51:39.335196     6 net.cpp:172] fc2_10_fc2_10_0_split needs backward computation.
I0615 15:51:39.335198     6 net.cpp:172] fc2_10 needs backward computation.
…
