…
I0615 15:54:11.044507  2037 net.cpp:277] The NetState phase (0) differed from the phase (1) specified by a rule in layer accuracy_top_1
I0615 15:54:11.044510  2037 net.cpp:277] The NetState phase (0) differed from the phase (1) specified by a rule in layer accuracy_top_5
I0615 15:54:11.044601  2037 net.cpp:39] Initializing net from parameters: 
layers {
  top: "data"
  top: "label"
  name: "data"
  type: DATA
  data_param {
    source: "/dataset/cifar100_lmdb_lab/cifar100_train_lmdb"
    batch_size: 128
    backend: LMDB
  }
  include {
    phase: TRAIN
  }
  transform_param {
    mean_file: "/dataset/cifar100_lmdb_lab/mean.binaryproto"
  }
}
layers {
  bottom: "data"
  top: "0_0_conv"
  name: "0_0_conv"
  type: CONVOLUTION
  blobs_lr: 0
  blobs_lr: 0
  weight_decay: 0
  weight_decay: 0
  convolution_param {
    num_output: 8
    pad: 1
    kernel_size: 3
    stride: 1
    weight_filler {
      type: "xavier"
    }
    bias_filler {
      type: "constant"
      value: 0
    }
  }
}
layers {
  bottom: "0_0_conv"
  top: "0_0_conv"
  name: "0_0_conv_ReLU"
  type: RELU
}
layers {
  bottom: "0_0_conv"
  top: "0_1_conv"
  name: "0_1_conv"
  type: CONVOLUTION
  blobs_lr: 0
  blobs_lr: 0
  weight_decay: 0
  weight_decay: 0
  convolution_param {
    num_output: 8
    pad: 1
    kernel_size: 3
    stride: 1
    weight_filler {
      type: "xavier"
    }
    bias_filler {
      type: "constant"
      value: 0
    }
  }
}
layers {
  bottom: "0_1_conv"
  top: "0_1_conv"
  name: "0_1_conv_ReLU"
  type: RELU
}
layers {
  bottom: "0_1_conv"
  top: "0_pool"
  name: "0_pool"
  type: POOLING
  pooling_param {
    pool: MAX
    kernel_size: 2
    stride: 2
  }
}
layers {
  bottom: "0_pool"
  top: "1_0_conv"
  name: "1_0_conv"
  type: CONVOLUTION
  blobs_lr: 0
  blobs_lr: 0
  weight_decay: 0
  weight_decay: 0
  convolution_param {
    num_output: 8
    pad: 1
    kernel_size: 3
    stride: 1
    weight_filler {
      type: "xavier"
    }
    bias_filler {
      type: "constant"
      value: 0
    }
  }
}
layers {
  bottom: "1_0_conv"
  top: "1_0_conv"
  name: "1_0_conv_ReLU"
  type: RELU
}
layers {
  bottom: "1_0_conv"
  top: "1_1_conv"
  name: "1_1_conv"
  type: CONVOLUTION
  blobs_lr: 0
  blobs_lr: 0
  weight_decay: 0
  weight_decay: 0
  convolution_param {
    num_output: 8
    pad: 1
    kernel_size: 3
    stride: 1
    weight_filler {
      type: "xavier"
    }
    bias_filler {
      type: "constant"
      value: 0
    }
  }
}
layers {
  bottom: "1_1_conv"
  top: "1_1_conv"
  name: "1_1_conv_ReLU"
  type: RELU
}
layers {
  bottom: "1_1_conv"
  top: "1_pool"
  name: "1_pool"
  type: POOLING
  pooling_param {
    pool: MAX
    kernel_size: 2
    stride: 2
  }
}
layers {
  bottom: "1_pool"
  top: "2_0_conv"
  name: "2_0_conv"
  type: CONVOLUTION
  blobs_lr: 0
  blobs_lr: 0
  weight_decay: 0
  weight_decay: 0
  convolution_param {
    num_output: 8
    pad: 1
    kernel_size: 3
    stride: 1
    weight_filler {
      type: "xavier"
    }
    bias_filler {
      type: "constant"
      value: 0
    }
  }
}
layers {
  bottom: "2_0_conv"
  top: "2_0_conv"
  name: "2_0_conv_ReLU"
  type: RELU
}
layers {
  bottom: "2_0_conv"
  top: "2_1_conv"
  name: "2_1_conv"
  type: CONVOLUTION
  blobs_lr: 0
  blobs_lr: 0
  weight_decay: 0
  weight_decay: 0
  convolution_param {
    num_output: 8
    pad: 1
    kernel_size: 3
    stride: 1
    weight_filler {
      type: "xavier"
    }
    bias_filler {
      type: "constant"
      value: 0
    }
  }
}
layers {
  bottom: "2_1_conv"
  top: "2_1_conv"
  name: "2_1_conv_ReLU"
  type: RELU
}
layers {
  bottom: "2_1_conv"
  top: "2_pool"
  name: "2_pool"
  type: POOLING
  pooling_param {
    pool: MAX
    kernel_size: 2
    stride: 2
  }
}
layers {
  bottom: "2_pool"
  top: "middle_conv"
  name: "middle_conv"
  type: CONVOLUTION
  blobs_lr: 0
  blobs_lr: 0
  weight_decay: 0
  weight_decay: 0
  convolution_param {
    num_output: 50
    pad: 0
    kernel_size: 4
    stride: 1
    weight_filler {
      type: "xavier"
    }
    bias_filler {
      type: "constant"
      value: 0
    }
  }
}
layers {
  bottom: "middle_conv"
  top: "middle_conv"
  name: "middle_conv_ReLU"
  type: RELU
}
layers {
  bottom: "middle_conv"
  top: "fc1"
  name: "fc1"
  type: INNER_PRODUCT
  blobs_lr: 0
  blobs_lr: 0
  weight_decay: 0
  weight_decay: 0
  inner_product_param {
    num_output: 512
    weight_filler {
      type: "xavier"
    }
    bias_filler {
      type: "constant"
      value: 0
    }
  }
}
layers {
  bottom: "fc1"
  top: "fc1"
  name: "fc1_Dropout"
  type: DROPOUT
  dropout_param {
    dropout_ratio: 0.5
  }
  include {
    phase: TRAIN
  }
}
layers {
  bottom: "fc1"
  top: "fc1"
  name: "fc1_Dropout_ReLU"
  type: RELU
}
layers {
  bottom: "fc1"
  top: "fc2"
  name: "fc2"
  type: INNER_PRODUCT
  blobs_lr: 1
  blobs_lr: 2
  weight_decay: 0
  weight_decay: 0
  inner_product_param {
    num_output: 100
    weight_filler {
      type: "xavier"
    }
    bias_filler {
      type: "constant"
      value: 0
    }
  }
}
layers {
  bottom: "fc2"
  bottom: "label"
  top: "softmax"
  name: "softmax"
  type: SOFTMAX_LOSS
}
state {
  phase: TRAIN
}
I0615 15:54:11.044669  2037 layer_factory.hpp:78] Creating layer data
I0615 15:54:11.044683  2037 data_transformer.cpp:25] Loading mean file from/dataset/cifar100_lmdb_lab/mean.binaryproto
I0615 15:54:11.044728  2037 net.cpp:69] Creating Layer data
I0615 15:54:11.044734  2037 net.cpp:358] data -> data
I0615 15:54:11.044742  2037 net.cpp:358] data -> label
I0615 15:54:11.044747  2037 net.cpp:98] Setting up data
I0615 15:54:11.044750  2037 data_layer.cpp:32] Opening dataset /dataset/cifar100_lmdb_lab/cifar100_train_lmdb
I0615 15:54:11.044822  2037 data_layer.cpp:71] output data size: 128,3,32,32
I0615 15:54:11.045140  2037 net.cpp:105] Top shape: 128 3 32 32 (393216)
I0615 15:54:11.045145  2037 net.cpp:105] Top shape: 128 1 1 1 (128)
I0615 15:54:11.045150  2037 layer_factory.hpp:78] Creating layer 0_0_conv
I0615 15:54:11.045155  2037 net.cpp:69] Creating Layer 0_0_conv
I0615 15:54:11.045157  2037 net.cpp:396] 0_0_conv <- data
I0615 15:54:11.045164  2037 net.cpp:358] 0_0_conv -> 0_0_conv
I0615 15:54:11.045171  2037 net.cpp:98] Setting up 0_0_conv
I0615 15:54:11.045442  2037 net.cpp:105] Top shape: 128 8 32 32 (1048576)
I0615 15:54:11.045457  2037 layer_factory.hpp:78] Creating layer 0_0_conv_ReLU
I0615 15:54:11.045461  2037 net.cpp:69] Creating Layer 0_0_conv_ReLU
I0615 15:54:11.045464  2037 net.cpp:396] 0_0_conv_ReLU <- 0_0_conv
I0615 15:54:11.045469  2037 net.cpp:347] 0_0_conv_ReLU -> 0_0_conv (in-place)
I0615 15:54:11.045474  2037 net.cpp:98] Setting up 0_0_conv_ReLU
I0615 15:54:11.045476  2037 net.cpp:105] Top shape: 128 8 32 32 (1048576)
I0615 15:54:11.045480  2037 layer_factory.hpp:78] Creating layer 0_1_conv
I0615 15:54:11.045483  2037 net.cpp:69] Creating Layer 0_1_conv
I0615 15:54:11.045486  2037 net.cpp:396] 0_1_conv <- 0_0_conv
I0615 15:54:11.045491  2037 net.cpp:358] 0_1_conv -> 0_1_conv
I0615 15:54:11.045495  2037 net.cpp:98] Setting up 0_1_conv
I0615 15:54:11.045507  2037 net.cpp:105] Top shape: 128 8 32 32 (1048576)
I0615 15:54:11.045512  2037 layer_factory.hpp:78] Creating layer 0_1_conv_ReLU
I0615 15:54:11.045516  2037 net.cpp:69] Creating Layer 0_1_conv_ReLU
I0615 15:54:11.045518  2037 net.cpp:396] 0_1_conv_ReLU <- 0_1_conv
I0615 15:54:11.045523  2037 net.cpp:347] 0_1_conv_ReLU -> 0_1_conv (in-place)
I0615 15:54:11.045529  2037 net.cpp:98] Setting up 0_1_conv_ReLU
I0615 15:54:11.045532  2037 net.cpp:105] Top shape: 128 8 32 32 (1048576)
I0615 15:54:11.045541  2037 layer_factory.hpp:78] Creating layer 0_pool
I0615 15:54:11.045544  2037 net.cpp:69] Creating Layer 0_pool
I0615 15:54:11.045547  2037 net.cpp:396] 0_pool <- 0_1_conv
I0615 15:54:11.045552  2037 net.cpp:358] 0_pool -> 0_pool
I0615 15:54:11.045557  2037 net.cpp:98] Setting up 0_pool
I0615 15:54:11.045562  2037 net.cpp:105] Top shape: 128 8 16 16 (262144)
I0615 15:54:11.045565  2037 layer_factory.hpp:78] Creating layer 1_0_conv
I0615 15:54:11.045569  2037 net.cpp:69] Creating Layer 1_0_conv
I0615 15:54:11.045572  2037 net.cpp:396] 1_0_conv <- 0_pool
I0615 15:54:11.045577  2037 net.cpp:358] 1_0_conv -> 1_0_conv
I0615 15:54:11.045581  2037 net.cpp:98] Setting up 1_0_conv
I0615 15:54:11.045589  2037 net.cpp:105] Top shape: 128 8 16 16 (262144)
I0615 15:54:11.045595  2037 layer_factory.hpp:78] Creating layer 1_0_conv_ReLU
I0615 15:54:11.045599  2037 net.cpp:69] Creating Layer 1_0_conv_ReLU
I0615 15:54:11.045603  2037 net.cpp:396] 1_0_conv_ReLU <- 1_0_conv
I0615 15:54:11.045605  2037 net.cpp:347] 1_0_conv_ReLU -> 1_0_conv (in-place)
I0615 15:54:11.045609  2037 net.cpp:98] Setting up 1_0_conv_ReLU
I0615 15:54:11.045613  2037 net.cpp:105] Top shape: 128 8 16 16 (262144)
I0615 15:54:11.045614  2037 layer_factory.hpp:78] Creating layer 1_1_conv
I0615 15:54:11.045619  2037 net.cpp:69] Creating Layer 1_1_conv
I0615 15:54:11.045621  2037 net.cpp:396] 1_1_conv <- 1_0_conv
I0615 15:54:11.045625  2037 net.cpp:358] 1_1_conv -> 1_1_conv
I0615 15:54:11.045629  2037 net.cpp:98] Setting up 1_1_conv
I0615 15:54:11.045639  2037 net.cpp:105] Top shape: 128 8 16 16 (262144)
I0615 15:54:11.045644  2037 layer_factory.hpp:78] Creating layer 1_1_conv_ReLU
I0615 15:54:11.045650  2037 net.cpp:69] Creating Layer 1_1_conv_ReLU
I0615 15:54:11.045652  2037 net.cpp:396] 1_1_conv_ReLU <- 1_1_conv
I0615 15:54:11.045656  2037 net.cpp:347] 1_1_conv_ReLU -> 1_1_conv (in-place)
I0615 15:54:11.045660  2037 net.cpp:98] Setting up 1_1_conv_ReLU
I0615 15:54:11.045662  2037 net.cpp:105] Top shape: 128 8 16 16 (262144)
I0615 15:54:11.045665  2037 layer_factory.hpp:78] Creating layer 1_pool
I0615 15:54:11.045668  2037 net.cpp:69] Creating Layer 1_pool
I0615 15:54:11.045670  2037 net.cpp:396] 1_pool <- 1_1_conv
I0615 15:54:11.045675  2037 net.cpp:358] 1_pool -> 1_pool
I0615 15:54:11.045677  2037 net.cpp:98] Setting up 1_pool
I0615 15:54:11.045681  2037 net.cpp:105] Top shape: 128 8 8 8 (65536)
I0615 15:54:11.045683  2037 layer_factory.hpp:78] Creating layer 2_0_conv
I0615 15:54:11.045687  2037 net.cpp:69] Creating Layer 2_0_conv
I0615 15:54:11.045691  2037 net.cpp:396] 2_0_conv <- 1_pool
I0615 15:54:11.045694  2037 net.cpp:358] 2_0_conv -> 2_0_conv
I0615 15:54:11.045699  2037 net.cpp:98] Setting up 2_0_conv
I0615 15:54:11.045707  2037 net.cpp:105] Top shape: 128 8 8 8 (65536)
I0615 15:54:11.045713  2037 layer_factory.hpp:78] Creating layer 2_0_conv_ReLU
I0615 15:54:11.045717  2037 net.cpp:69] Creating Layer 2_0_conv_ReLU
I0615 15:54:11.045720  2037 net.cpp:396] 2_0_conv_ReLU <- 2_0_conv
I0615 15:54:11.045723  2037 net.cpp:347] 2_0_conv_ReLU -> 2_0_conv (in-place)
I0615 15:54:11.045727  2037 net.cpp:98] Setting up 2_0_conv_ReLU
I0615 15:54:11.045729  2037 net.cpp:105] Top shape: 128 8 8 8 (65536)
I0615 15:54:11.045732  2037 layer_factory.hpp:78] Creating layer 2_1_conv
I0615 15:54:11.045735  2037 net.cpp:69] Creating Layer 2_1_conv
I0615 15:54:11.045738  2037 net.cpp:396] 2_1_conv <- 2_0_conv
I0615 15:54:11.045742  2037 net.cpp:358] 2_1_conv -> 2_1_conv
I0615 15:54:11.045747  2037 net.cpp:98] Setting up 2_1_conv
I0615 15:54:11.045754  2037 net.cpp:105] Top shape: 128 8 8 8 (65536)
I0615 15:54:11.045758  2037 layer_factory.hpp:78] Creating layer 2_1_conv_ReLU
I0615 15:54:11.045763  2037 net.cpp:69] Creating Layer 2_1_conv_ReLU
I0615 15:54:11.045764  2037 net.cpp:396] 2_1_conv_ReLU <- 2_1_conv
I0615 15:54:11.045768  2037 net.cpp:347] 2_1_conv_ReLU -> 2_1_conv (in-place)
I0615 15:54:11.045774  2037 net.cpp:98] Setting up 2_1_conv_ReLU
I0615 15:54:11.045778  2037 net.cpp:105] Top shape: 128 8 8 8 (65536)
I0615 15:54:11.045783  2037 layer_factory.hpp:78] Creating layer 2_pool
I0615 15:54:11.045788  2037 net.cpp:69] Creating Layer 2_pool
I0615 15:54:11.045789  2037 net.cpp:396] 2_pool <- 2_1_conv
I0615 15:54:11.045794  2037 net.cpp:358] 2_pool -> 2_pool
I0615 15:54:11.045797  2037 net.cpp:98] Setting up 2_pool
I0615 15:54:11.045800  2037 net.cpp:105] Top shape: 128 8 4 4 (16384)
I0615 15:54:11.045804  2037 layer_factory.hpp:78] Creating layer middle_conv
I0615 15:54:11.045807  2037 net.cpp:69] Creating Layer middle_conv
I0615 15:54:11.045809  2037 net.cpp:396] middle_conv <- 2_pool
I0615 15:54:11.045814  2037 net.cpp:358] middle_conv -> middle_conv
I0615 15:54:11.045819  2037 net.cpp:98] Setting up middle_conv
I0615 15:54:11.045855  2037 net.cpp:105] Top shape: 128 50 1 1 (6400)
I0615 15:54:11.045861  2037 layer_factory.hpp:78] Creating layer middle_conv_ReLU
I0615 15:54:11.045863  2037 net.cpp:69] Creating Layer middle_conv_ReLU
I0615 15:54:11.045866  2037 net.cpp:396] middle_conv_ReLU <- middle_conv
I0615 15:54:11.045869  2037 net.cpp:347] middle_conv_ReLU -> middle_conv (in-place)
I0615 15:54:11.045873  2037 net.cpp:98] Setting up middle_conv_ReLU
I0615 15:54:11.045876  2037 net.cpp:105] Top shape: 128 50 1 1 (6400)
I0615 15:54:11.045878  2037 layer_factory.hpp:78] Creating layer fc1
I0615 15:54:11.045883  2037 net.cpp:69] Creating Layer fc1
I0615 15:54:11.045886  2037 net.cpp:396] fc1 <- middle_conv
I0615 15:54:11.045891  2037 net.cpp:358] fc1 -> fc1
I0615 15:54:11.045894  2037 net.cpp:98] Setting up fc1
I0615 15:54:11.046038  2037 net.cpp:105] Top shape: 128 512 1 1 (65536)
I0615 15:54:11.046044  2037 layer_factory.hpp:78] Creating layer fc1_Dropout
I0615 15:54:11.046048  2037 net.cpp:69] Creating Layer fc1_Dropout
I0615 15:54:11.046051  2037 net.cpp:396] fc1_Dropout <- fc1
I0615 15:54:11.046056  2037 net.cpp:347] fc1_Dropout -> fc1 (in-place)
I0615 15:54:11.046061  2037 net.cpp:98] Setting up fc1_Dropout
I0615 15:54:11.046063  2037 net.cpp:105] Top shape: 128 512 1 1 (65536)
I0615 15:54:11.046066  2037 layer_factory.hpp:78] Creating layer fc1_Dropout_ReLU
I0615 15:54:11.046069  2037 net.cpp:69] Creating Layer fc1_Dropout_ReLU
I0615 15:54:11.046072  2037 net.cpp:396] fc1_Dropout_ReLU <- fc1
I0615 15:54:11.046075  2037 net.cpp:347] fc1_Dropout_ReLU -> fc1 (in-place)
I0615 15:54:11.046078  2037 net.cpp:98] Setting up fc1_Dropout_ReLU
I0615 15:54:11.046082  2037 net.cpp:105] Top shape: 128 512 1 1 (65536)
I0615 15:54:11.046084  2037 layer_factory.hpp:78] Creating layer fc2
I0615 15:54:11.046087  2037 net.cpp:69] Creating Layer fc2
I0615 15:54:11.046090  2037 net.cpp:396] fc2 <- fc1
I0615 15:54:11.046095  2037 net.cpp:358] fc2 -> fc2
I0615 15:54:11.046099  2037 net.cpp:98] Setting up fc2
I0615 15:54:11.046357  2037 net.cpp:105] Top shape: 128 100 1 1 (12800)
I0615 15:54:11.046365  2037 layer_factory.hpp:78] Creating layer softmax
I0615 15:54:11.046371  2037 net.cpp:69] Creating Layer softmax
I0615 15:54:11.046375  2037 net.cpp:396] softmax <- fc2
I0615 15:54:11.046378  2037 net.cpp:396] softmax <- label
I0615 15:54:11.046381  2037 net.cpp:358] softmax -> softmax
I0615 15:54:11.046386  2037 net.cpp:98] Setting up softmax
I0615 15:54:11.046396  2037 net.cpp:105] Top shape: 1 1 1 1 (1)
I0615 15:54:11.046398  2037 net.cpp:111]     with loss weight 1
I0615 15:54:11.046408  2037 net.cpp:172] softmax needs backward computation.
I0615 15:54:11.046411  2037 net.cpp:172] fc2 needs backward computation.
I0615 15:54:11.046413  2037 net.cpp:174] fc1_Dropout_ReLU does not need backward computation.
I0615 15:54:11.046416  2037 net.cpp:174] fc1_Dropout does not need backward computation.
…
I0615 15:54:11.046924  2037 net.cpp:277] The NetState phase (1) differed from the phase (0) specified by a rule in layer data
I0615 15:54:11.046934  2037 net.cpp:277] The NetState phase (1) differed from the phase (0) specified by a rule in layer fc1_Dropout
I0615 15:54:11.047024  2037 net.cpp:39] Initializing net from parameters: 
layers {
  top: "data"
  top: "label"
  name: "data"
  type: DATA
  data_param {
    source: "/dataset/cifar100_lmdb_lab/cifar100_test_lmdb"
    batch_size: 128
    backend: LMDB
  }
  include {
    phase: TEST
  }
  transform_param {
    mean_file: "/dataset/cifar100_lmdb_lab/mean.binaryproto"
  }
}
layers {
  bottom: "data"
  top: "0_0_conv"
  name: "0_0_conv"
  type: CONVOLUTION
  blobs_lr: 0
  blobs_lr: 0
  weight_decay: 0
  weight_decay: 0
  convolution_param {
    num_output: 8
    pad: 1
    kernel_size: 3
    stride: 1
    weight_filler {
      type: "xavier"
    }
    bias_filler {
      type: "constant"
      value: 0
    }
  }
}
layers {
  bottom: "0_0_conv"
  top: "0_0_conv"
  name: "0_0_conv_ReLU"
  type: RELU
}
layers {
  bottom: "0_0_conv"
  top: "0_1_conv"
  name: "0_1_conv"
  type: CONVOLUTION
  blobs_lr: 0
  blobs_lr: 0
  weight_decay: 0
  weight_decay: 0
  convolution_param {
    num_output: 8
    pad: 1
    kernel_size: 3
    stride: 1
    weight_filler {
      type: "xavier"
    }
    bias_filler {
      type: "constant"
      value: 0
    }
  }
}
layers {
  bottom: "0_1_conv"
  top: "0_1_conv"
  name: "0_1_conv_ReLU"
  type: RELU
}
layers {
  bottom: "0_1_conv"
  top: "0_pool"
  name: "0_pool"
  type: POOLING
  pooling_param {
    pool: MAX
    kernel_size: 2
    stride: 2
  }
}
layers {
  bottom: "0_pool"
  top: "1_0_conv"
  name: "1_0_conv"
  type: CONVOLUTION
  blobs_lr: 0
  blobs_lr: 0
  weight_decay: 0
  weight_decay: 0
  convolution_param {
    num_output: 8
    pad: 1
    kernel_size: 3
    stride: 1
    weight_filler {
      type: "xavier"
    }
    bias_filler {
      type: "constant"
      value: 0
    }
  }
}
layers {
  bottom: "1_0_conv"
  top: "1_0_conv"
  name: "1_0_conv_ReLU"
  type: RELU
}
layers {
  bottom: "1_0_conv"
  top: "1_1_conv"
  name: "1_1_conv"
  type: CONVOLUTION
  blobs_lr: 0
  blobs_lr: 0
  weight_decay: 0
  weight_decay: 0
  convolution_param {
    num_output: 8
    pad: 1
    kernel_size: 3
    stride: 1
    weight_filler {
      type: "xavier"
    }
    bias_filler {
      type: "constant"
      value: 0
    }
  }
}
layers {
  bottom: "1_1_conv"
  top: "1_1_conv"
  name: "1_1_conv_ReLU"
  type: RELU
}
layers {
  bottom: "1_1_conv"
  top: "1_pool"
  name: "1_pool"
  type: POOLING
  pooling_param {
    pool: MAX
    kernel_size: 2
    stride: 2
  }
}
layers {
  bottom: "1_pool"
  top: "2_0_conv"
  name: "2_0_conv"
  type: CONVOLUTION
  blobs_lr: 0
  blobs_lr: 0
  weight_decay: 0
  weight_decay: 0
  convolution_param {
    num_output: 8
    pad: 1
    kernel_size: 3
    stride: 1
    weight_filler {
      type: "xavier"
    }
    bias_filler {
      type: "constant"
      value: 0
    }
  }
}
layers {
  bottom: "2_0_conv"
  top: "2_0_conv"
  name: "2_0_conv_ReLU"
  type: RELU
}
layers {
  bottom: "2_0_conv"
  top: "2_1_conv"
  name: "2_1_conv"
  type: CONVOLUTION
  blobs_lr: 0
  blobs_lr: 0
  weight_decay: 0
  weight_decay: 0
  convolution_param {
    num_output: 8
    pad: 1
    kernel_size: 3
    stride: 1
    weight_filler {
      type: "xavier"
    }
    bias_filler {
      type: "constant"
      value: 0
    }
  }
}
layers {
  bottom: "2_1_conv"
  top: "2_1_conv"
  name: "2_1_conv_ReLU"
  type: RELU
}
layers {
  bottom: "2_1_conv"
  top: "2_pool"
  name: "2_pool"
  type: POOLING
  pooling_param {
    pool: MAX
    kernel_size: 2
    stride: 2
  }
}
layers {
  bottom: "2_pool"
  top: "middle_conv"
  name: "middle_conv"
  type: CONVOLUTION
  blobs_lr: 0
  blobs_lr: 0
  weight_decay: 0
  weight_decay: 0
  convolution_param {
    num_output: 50
    pad: 0
    kernel_size: 4
    stride: 1
    weight_filler {
      type: "xavier"
    }
    bias_filler {
      type: "constant"
      value: 0
    }
  }
}
layers {
  bottom: "middle_conv"
  top: "middle_conv"
  name: "middle_conv_ReLU"
  type: RELU
}
layers {
  bottom: "middle_conv"
  top: "fc1"
  name: "fc1"
  type: INNER_PRODUCT
  blobs_lr: 0
  blobs_lr: 0
  weight_decay: 0
  weight_decay: 0
  inner_product_param {
    num_output: 512
    weight_filler {
      type: "xavier"
    }
    bias_filler {
      type: "constant"
      value: 0
    }
  }
}
layers {
  bottom: "fc1"
  top: "fc1"
  name: "fc1_Dropout_ReLU"
  type: RELU
}
layers {
  bottom: "fc1"
  top: "fc2"
  name: "fc2"
  type: INNER_PRODUCT
  blobs_lr: 1
  blobs_lr: 2
  weight_decay: 0
  weight_decay: 0
  inner_product_param {
    num_output: 100
    weight_filler {
      type: "xavier"
    }
    bias_filler {
      type: "constant"
      value: 0
    }
  }
}
layers {
  bottom: "fc2"
  bottom: "label"
  top: "softmax"
  name: "softmax"
  type: SOFTMAX_LOSS
}
layers {
  bottom: "fc2"
  bottom: "label"
  top: "accuracy_top_1"
  name: "accuracy_top_1"
  type: ACCURACY
  accuracy_param {
    top_k: 1
  }
  include {
    phase: TEST
  }
}
layers {
  bottom: "fc2"
  bottom: "label"
  top: "accuracy_top_5"
  name: "accuracy_top_5"
  type: ACCURACY
  accuracy_param {
    top_k: 5
  }
  include {
    phase: TEST
  }
}
state {
  phase: TEST
}
I0615 15:54:11.047102  2037 layer_factory.hpp:78] Creating layer data
I0615 15:54:11.047109  2037 data_transformer.cpp:25] Loading mean file from/dataset/cifar100_lmdb_lab/mean.binaryproto
I0615 15:54:11.047147  2037 net.cpp:69] Creating Layer data
I0615 15:54:11.047152  2037 net.cpp:358] data -> data
I0615 15:54:11.047159  2037 net.cpp:358] data -> label
I0615 15:54:11.047163  2037 net.cpp:98] Setting up data
I0615 15:54:11.047168  2037 data_layer.cpp:32] Opening dataset /dataset/cifar100_lmdb_lab/cifar100_test_lmdb
I0615 15:54:11.047205  2037 data_layer.cpp:71] output data size: 128,3,32,32
I0615 15:54:11.047564  2037 net.cpp:105] Top shape: 128 3 32 32 (393216)
I0615 15:54:11.047581  2037 net.cpp:105] Top shape: 128 1 1 1 (128)
I0615 15:54:11.047585  2037 layer_factory.hpp:78] Creating layer label_data_1_split
I0615 15:54:11.047600  2037 net.cpp:69] Creating Layer label_data_1_split
I0615 15:54:11.047603  2037 net.cpp:396] label_data_1_split <- label
I0615 15:54:11.047608  2037 net.cpp:358] label_data_1_split -> label_data_1_split_0
I0615 15:54:11.047615  2037 net.cpp:358] label_data_1_split -> label_data_1_split_1
I0615 15:54:11.047621  2037 net.cpp:358] label_data_1_split -> label_data_1_split_2
I0615 15:54:11.047641  2037 net.cpp:98] Setting up label_data_1_split
I0615 15:54:11.047644  2037 net.cpp:105] Top shape: 128 1 1 1 (128)
I0615 15:54:11.047647  2037 net.cpp:105] Top shape: 128 1 1 1 (128)
I0615 15:54:11.047651  2037 net.cpp:105] Top shape: 128 1 1 1 (128)
I0615 15:54:11.047653  2037 layer_factory.hpp:78] Creating layer 0_0_conv
I0615 15:54:11.047658  2037 net.cpp:69] Creating Layer 0_0_conv
I0615 15:54:11.047662  2037 net.cpp:396] 0_0_conv <- data
I0615 15:54:11.047667  2037 net.cpp:358] 0_0_conv -> 0_0_conv
I0615 15:54:11.047670  2037 net.cpp:98] Setting up 0_0_conv
I0615 15:54:11.047683  2037 net.cpp:105] Top shape: 128 8 32 32 (1048576)
I0615 15:54:11.047689  2037 layer_factory.hpp:78] Creating layer 0_0_conv_ReLU
I0615 15:54:11.047693  2037 net.cpp:69] Creating Layer 0_0_conv_ReLU
I0615 15:54:11.047696  2037 net.cpp:396] 0_0_conv_ReLU <- 0_0_conv
I0615 15:54:11.047699  2037 net.cpp:347] 0_0_conv_ReLU -> 0_0_conv (in-place)
I0615 15:54:11.047703  2037 net.cpp:98] Setting up 0_0_conv_ReLU
I0615 15:54:11.047706  2037 net.cpp:105] Top shape: 128 8 32 32 (1048576)
I0615 15:54:11.047709  2037 layer_factory.hpp:78] Creating layer 0_1_conv
I0615 15:54:11.047713  2037 net.cpp:69] Creating Layer 0_1_conv
I0615 15:54:11.047715  2037 net.cpp:396] 0_1_conv <- 0_0_conv
I0615 15:54:11.047720  2037 net.cpp:358] 0_1_conv -> 0_1_conv
I0615 15:54:11.047725  2037 net.cpp:98] Setting up 0_1_conv
I0615 15:54:11.047735  2037 net.cpp:105] Top shape: 128 8 32 32 (1048576)
I0615 15:54:11.047740  2037 layer_factory.hpp:78] Creating layer 0_1_conv_ReLU
I0615 15:54:11.047744  2037 net.cpp:69] Creating Layer 0_1_conv_ReLU
I0615 15:54:11.047747  2037 net.cpp:396] 0_1_conv_ReLU <- 0_1_conv
I0615 15:54:11.047751  2037 net.cpp:347] 0_1_conv_ReLU -> 0_1_conv (in-place)
I0615 15:54:11.047755  2037 net.cpp:98] Setting up 0_1_conv_ReLU
I0615 15:54:11.047757  2037 net.cpp:105] Top shape: 128 8 32 32 (1048576)
I0615 15:54:11.047760  2037 layer_factory.hpp:78] Creating layer 0_pool
I0615 15:54:11.047765  2037 net.cpp:69] Creating Layer 0_pool
I0615 15:54:11.047767  2037 net.cpp:396] 0_pool <- 0_1_conv
I0615 15:54:11.047771  2037 net.cpp:358] 0_pool -> 0_pool
I0615 15:54:11.047775  2037 net.cpp:98] Setting up 0_pool
I0615 15:54:11.047778  2037 net.cpp:105] Top shape: 128 8 16 16 (262144)
I0615 15:54:11.047781  2037 layer_factory.hpp:78] Creating layer 1_0_conv
I0615 15:54:11.047785  2037 net.cpp:69] Creating Layer 1_0_conv
I0615 15:54:11.047788  2037 net.cpp:396] 1_0_conv <- 0_pool
I0615 15:54:11.047792  2037 net.cpp:358] 1_0_conv -> 1_0_conv
I0615 15:54:11.047797  2037 net.cpp:98] Setting up 1_0_conv
I0615 15:54:11.047806  2037 net.cpp:105] Top shape: 128 8 16 16 (262144)
I0615 15:54:11.047812  2037 layer_factory.hpp:78] Creating layer 1_0_conv_ReLU
I0615 15:54:11.047816  2037 net.cpp:69] Creating Layer 1_0_conv_ReLU
I0615 15:54:11.047819  2037 net.cpp:396] 1_0_conv_ReLU <- 1_0_conv
I0615 15:54:11.047822  2037 net.cpp:347] 1_0_conv_ReLU -> 1_0_conv (in-place)
I0615 15:54:11.047827  2037 net.cpp:98] Setting up 1_0_conv_ReLU
I0615 15:54:11.047828  2037 net.cpp:105] Top shape: 128 8 16 16 (262144)
I0615 15:54:11.047832  2037 layer_factory.hpp:78] Creating layer 1_1_conv
I0615 15:54:11.047834  2037 net.cpp:69] Creating Layer 1_1_conv
I0615 15:54:11.047837  2037 net.cpp:396] 1_1_conv <- 1_0_conv
I0615 15:54:11.047842  2037 net.cpp:358] 1_1_conv -> 1_1_conv
I0615 15:54:11.047847  2037 net.cpp:98] Setting up 1_1_conv
I0615 15:54:11.047860  2037 net.cpp:105] Top shape: 128 8 16 16 (262144)
I0615 15:54:11.047865  2037 layer_factory.hpp:78] Creating layer 1_1_conv_ReLU
I0615 15:54:11.047868  2037 net.cpp:69] Creating Layer 1_1_conv_ReLU
I0615 15:54:11.047871  2037 net.cpp:396] 1_1_conv_ReLU <- 1_1_conv
I0615 15:54:11.047874  2037 net.cpp:347] 1_1_conv_ReLU -> 1_1_conv (in-place)
I0615 15:54:11.047878  2037 net.cpp:98] Setting up 1_1_conv_ReLU
I0615 15:54:11.047880  2037 net.cpp:105] Top shape: 128 8 16 16 (262144)
I0615 15:54:11.047885  2037 layer_factory.hpp:78] Creating layer 1_pool
I0615 15:54:11.047889  2037 net.cpp:69] Creating Layer 1_pool
I0615 15:54:11.047895  2037 net.cpp:396] 1_pool <- 1_1_conv
I0615 15:54:11.047899  2037 net.cpp:358] 1_pool -> 1_pool
I0615 15:54:11.047904  2037 net.cpp:98] Setting up 1_pool
I0615 15:54:11.047906  2037 net.cpp:105] Top shape: 128 8 8 8 (65536)
I0615 15:54:11.047909  2037 layer_factory.hpp:78] Creating layer 2_0_conv
I0615 15:54:11.047916  2037 net.cpp:69] Creating Layer 2_0_conv
I0615 15:54:11.047919  2037 net.cpp:396] 2_0_conv <- 1_pool
I0615 15:54:11.047924  2037 net.cpp:358] 2_0_conv -> 2_0_conv
I0615 15:54:11.047927  2037 net.cpp:98] Setting up 2_0_conv
I0615 15:54:11.047936  2037 net.cpp:105] Top shape: 128 8 8 8 (65536)
I0615 15:54:11.047941  2037 layer_factory.hpp:78] Creating layer 2_0_conv_ReLU
I0615 15:54:11.047945  2037 net.cpp:69] Creating Layer 2_0_conv_ReLU
I0615 15:54:11.047947  2037 net.cpp:396] 2_0_conv_ReLU <- 2_0_conv
I0615 15:54:11.047951  2037 net.cpp:347] 2_0_conv_ReLU -> 2_0_conv (in-place)
I0615 15:54:11.047955  2037 net.cpp:98] Setting up 2_0_conv_ReLU
I0615 15:54:11.047957  2037 net.cpp:105] Top shape: 128 8 8 8 (65536)
I0615 15:54:11.047960  2037 layer_factory.hpp:78] Creating layer 2_1_conv
I0615 15:54:11.047963  2037 net.cpp:69] Creating Layer 2_1_conv
I0615 15:54:11.047966  2037 net.cpp:396] 2_1_conv <- 2_0_conv
I0615 15:54:11.047971  2037 net.cpp:358] 2_1_conv -> 2_1_conv
I0615 15:54:11.047976  2037 net.cpp:98] Setting up 2_1_conv
I0615 15:54:11.047982  2037 net.cpp:105] Top shape: 128 8 8 8 (65536)
I0615 15:54:11.047987  2037 layer_factory.hpp:78] Creating layer 2_1_conv_ReLU
I0615 15:54:11.047991  2037 net.cpp:69] Creating Layer 2_1_conv_ReLU
I0615 15:54:11.047993  2037 net.cpp:396] 2_1_conv_ReLU <- 2_1_conv
I0615 15:54:11.047997  2037 net.cpp:347] 2_1_conv_ReLU -> 2_1_conv (in-place)
I0615 15:54:11.048001  2037 net.cpp:98] Setting up 2_1_conv_ReLU
I0615 15:54:11.048003  2037 net.cpp:105] Top shape: 128 8 8 8 (65536)
I0615 15:54:11.048005  2037 layer_factory.hpp:78] Creating layer 2_pool
I0615 15:54:11.048009  2037 net.cpp:69] Creating Layer 2_pool
I0615 15:54:11.048012  2037 net.cpp:396] 2_pool <- 2_1_conv
I0615 15:54:11.048017  2037 net.cpp:358] 2_pool -> 2_pool
I0615 15:54:11.048019  2037 net.cpp:98] Setting up 2_pool
I0615 15:54:11.048023  2037 net.cpp:105] Top shape: 128 8 4 4 (16384)
I0615 15:54:11.048025  2037 layer_factory.hpp:78] Creating layer middle_conv
I0615 15:54:11.048029  2037 net.cpp:69] Creating Layer middle_conv
I0615 15:54:11.048032  2037 net.cpp:396] middle_conv <- 2_pool
I0615 15:54:11.048037  2037 net.cpp:358] middle_conv -> middle_conv
I0615 15:54:11.048040  2037 net.cpp:98] Setting up middle_conv
I0615 15:54:11.048074  2037 net.cpp:105] Top shape: 128 50 1 1 (6400)
I0615 15:54:11.048079  2037 layer_factory.hpp:78] Creating layer middle_conv_ReLU
I0615 15:54:11.048082  2037 net.cpp:69] Creating Layer middle_conv_ReLU
I0615 15:54:11.048084  2037 net.cpp:396] middle_conv_ReLU <- middle_conv
I0615 15:54:11.048091  2037 net.cpp:347] middle_conv_ReLU -> middle_conv (in-place)
I0615 15:54:11.048095  2037 net.cpp:98] Setting up middle_conv_ReLU
I0615 15:54:11.048097  2037 net.cpp:105] Top shape: 128 50 1 1 (6400)
I0615 15:54:11.048100  2037 layer_factory.hpp:78] Creating layer fc1
I0615 15:54:11.048105  2037 net.cpp:69] Creating Layer fc1
I0615 15:54:11.048107  2037 net.cpp:396] fc1 <- middle_conv
I0615 15:54:11.048111  2037 net.cpp:358] fc1 -> fc1
I0615 15:54:11.048115  2037 net.cpp:98] Setting up fc1
I0615 15:54:11.048280  2037 net.cpp:105] Top shape: 128 512 1 1 (65536)
I0615 15:54:11.048287  2037 layer_factory.hpp:78] Creating layer fc1_Dropout_ReLU
I0615 15:54:11.048290  2037 net.cpp:69] Creating Layer fc1_Dropout_ReLU
I0615 15:54:11.048293  2037 net.cpp:396] fc1_Dropout_ReLU <- fc1
I0615 15:54:11.048300  2037 net.cpp:347] fc1_Dropout_ReLU -> fc1 (in-place)
I0615 15:54:11.048303  2037 net.cpp:98] Setting up fc1_Dropout_ReLU
I0615 15:54:11.048306  2037 net.cpp:105] Top shape: 128 512 1 1 (65536)
I0615 15:54:11.048310  2037 layer_factory.hpp:78] Creating layer fc2
I0615 15:54:11.048315  2037 net.cpp:69] Creating Layer fc2
I0615 15:54:11.048317  2037 net.cpp:396] fc2 <- fc1
I0615 15:54:11.048327  2037 net.cpp:358] fc2 -> fc2
I0615 15:54:11.048333  2037 net.cpp:98] Setting up fc2
I0615 15:54:11.048619  2037 net.cpp:105] Top shape: 128 100 1 1 (12800)
I0615 15:54:11.048627  2037 layer_factory.hpp:78] Creating layer fc2_fc2_0_split
I0615 15:54:11.048640  2037 net.cpp:69] Creating Layer fc2_fc2_0_split
I0615 15:54:11.048642  2037 net.cpp:396] fc2_fc2_0_split <- fc2
I0615 15:54:11.048647  2037 net.cpp:358] fc2_fc2_0_split -> fc2_fc2_0_split_0
I0615 15:54:11.048653  2037 net.cpp:358] fc2_fc2_0_split -> fc2_fc2_0_split_1
I0615 15:54:11.048657  2037 net.cpp:358] fc2_fc2_0_split -> fc2_fc2_0_split_2
I0615 15:54:11.048662  2037 net.cpp:98] Setting up fc2_fc2_0_split
I0615 15:54:11.048666  2037 net.cpp:105] Top shape: 128 100 1 1 (12800)
I0615 15:54:11.048669  2037 net.cpp:105] Top shape: 128 100 1 1 (12800)
I0615 15:54:11.048674  2037 net.cpp:105] Top shape: 128 100 1 1 (12800)
I0615 15:54:11.048677  2037 layer_factory.hpp:78] Creating layer softmax
I0615 15:54:11.048681  2037 net.cpp:69] Creating Layer softmax
I0615 15:54:11.048684  2037 net.cpp:396] softmax <- fc2_fc2_0_split_0
I0615 15:54:11.048689  2037 net.cpp:396] softmax <- label_data_1_split_0
I0615 15:54:11.048693  2037 net.cpp:358] softmax -> softmax
I0615 15:54:11.048697  2037 net.cpp:98] Setting up softmax
I0615 15:54:11.048703  2037 net.cpp:105] Top shape: 1 1 1 1 (1)
I0615 15:54:11.048707  2037 net.cpp:111]     with loss weight 1
I0615 15:54:11.048710  2037 layer_factory.hpp:78] Creating layer accuracy_top_1
I0615 15:54:11.048717  2037 net.cpp:69] Creating Layer accuracy_top_1
I0615 15:54:11.048720  2037 net.cpp:396] accuracy_top_1 <- fc2_fc2_0_split_1
I0615 15:54:11.048724  2037 net.cpp:396] accuracy_top_1 <- label_data_1_split_1
I0615 15:54:11.048729  2037 net.cpp:358] accuracy_top_1 -> accuracy_top_1
I0615 15:54:11.048733  2037 net.cpp:98] Setting up accuracy_top_1
I0615 15:54:11.048738  2037 net.cpp:105] Top shape: 1 1 1 1 (1)
I0615 15:54:11.048740  2037 layer_factory.hpp:78] Creating layer accuracy_top_5
I0615 15:54:11.048744  2037 net.cpp:69] Creating Layer accuracy_top_5
I0615 15:54:11.048748  2037 net.cpp:396] accuracy_top_5 <- fc2_fc2_0_split_2
I0615 15:54:11.048751  2037 net.cpp:396] accuracy_top_5 <- label_data_1_split_2
I0615 15:54:11.048754  2037 net.cpp:358] accuracy_top_5 -> accuracy_top_5
I0615 15:54:11.048759  2037 net.cpp:98] Setting up accuracy_top_5
I0615 15:54:11.048763  2037 net.cpp:105] Top shape: 1 1 1 1 (1)
I0615 15:54:11.048765  2037 net.cpp:174] accuracy_top_5 does not need backward computation.
I0615 15:54:11.048768  2037 net.cpp:174] accuracy_top_1 does not need backward computation.
I0615 15:54:11.048771  2037 net.cpp:172] softmax needs backward computation.
I0615 15:54:11.048774  2037 net.cpp:172] fc2_fc2_0_split needs backward computation.
I0615 15:54:11.048776  2037 net.cpp:172] fc2 needs backward computation.
…
