…
I0624 04:27:02.655642 24379 solver.cpp:70] Creating training net from net file: prototxt/16-06-21_16h05m31s_0_60_reconstructFullFC0unfrozen_net.sh
I0624 04:27:02.656247 24379 net.cpp:277] The NetState phase (0) differed from the phase (1) specified by a rule in layer data
I0624 04:27:02.656404 24379 net.cpp:39] Initializing net from parameters: 
layers {
  top: "data"
  name: "data"
  type: DATA
  data_param {
    source: "/dataset/cifar100_lmdb_lab/cifar100_train_lmdb"
    batch_size: 750
    backend: LMDB
  }
  include {
    phase: TRAIN
  }
  transform_param {
    mean_file: "/dataset/cifar100_lmdb_lab/mean.binaryproto"
  }
}
layers {
  bottom: "data"
  top: "0_0_conv"
  name: "0_0_conv"
  type: CONVOLUTION
  blobs_lr: 1
  blobs_lr: 2
  weight_decay: 0
  weight_decay: 0
  convolution_param {
    num_output: 32
    pad: 1
    kernel_size: 3
    stride: 1
    weight_filler {
      type: "xavier"
    }
    bias_filler {
      type: "constant"
      value: 0
    }
  }
}
layers {
  bottom: "0_0_conv"
  top: "0_0_conv"
  name: "0_0_conv_ReLU"
  type: RELU
}
layers {
  bottom: "0_0_conv"
  top: "0_1_conv"
  name: "0_1_conv"
  type: CONVOLUTION
  blobs_lr: 1
  blobs_lr: 2
  weight_decay: 0
  weight_decay: 0
  convolution_param {
    num_output: 32
    pad: 1
    kernel_size: 3
    stride: 1
    weight_filler {
      type: "xavier"
    }
    bias_filler {
      type: "constant"
      value: 0
    }
  }
}
layers {
  bottom: "0_1_conv"
  top: "0_1_conv"
  name: "0_1_conv_ReLU"
  type: RELU
}
layers {
  bottom: "0_1_conv"
  top: "0_pool"
  top: "0_pool_mask"
  name: "0_pool"
  type: POOLING
  pooling_param {
    pool: MAX
    kernel_size: 2
    stride: 2
  }
}
layers {
  bottom: "0_pool"
  top: "1_0_conv"
  name: "1_0_conv"
  type: CONVOLUTION
  blobs_lr: 1
  blobs_lr: 2
  weight_decay: 0
  weight_decay: 0
  convolution_param {
    num_output: 32
    pad: 1
    kernel_size: 3
    stride: 1
    weight_filler {
      type: "xavier"
    }
    bias_filler {
      type: "constant"
      value: 0
    }
  }
}
layers {
  bottom: "1_0_conv"
  top: "1_0_conv"
  name: "1_0_conv_ReLU"
  type: RELU
}
layers {
  bottom: "1_0_conv"
  top: "1_1_conv"
  name: "1_1_conv"
  type: CONVOLUTION
  blobs_lr: 1
  blobs_lr: 2
  weight_decay: 0
  weight_decay: 0
  convolution_param {
    num_output: 32
    pad: 1
    kernel_size: 3
    stride: 1
    weight_filler {
      type: "xavier"
    }
    bias_filler {
      type: "constant"
      value: 0
    }
  }
}
layers {
  bottom: "1_1_conv"
  top: "1_1_conv"
  name: "1_1_conv_ReLU"
  type: RELU
}
layers {
  bottom: "1_1_conv"
  top: "1_pool"
  top: "1_pool_mask"
  name: "1_pool"
  type: POOLING
  pooling_param {
    pool: MAX
    kernel_size: 2
    stride: 2
  }
}
layers {
  bottom: "1_pool"
  top: "2_0_conv"
  name: "2_0_conv"
  type: CONVOLUTION
  blobs_lr: 1
  blobs_lr: 2
  weight_decay: 0
  weight_decay: 0
  convolution_param {
    num_output: 32
    pad: 1
    kernel_size: 3
    stride: 1
    weight_filler {
      type: "xavier"
    }
    bias_filler {
      type: "constant"
      value: 0
    }
  }
}
layers {
  bottom: "2_0_conv"
  top: "2_0_conv"
  name: "2_0_conv_ReLU"
  type: RELU
}
layers {
  bottom: "2_0_conv"
  top: "2_1_conv"
  name: "2_1_conv"
  type: CONVOLUTION
  blobs_lr: 1
  blobs_lr: 2
  weight_decay: 0
  weight_decay: 0
  convolution_param {
    num_output: 32
    pad: 1
    kernel_size: 3
    stride: 1
    weight_filler {
      type: "xavier"
    }
    bias_filler {
      type: "constant"
      value: 0
    }
  }
}
layers {
  bottom: "2_1_conv"
  top: "2_1_conv"
  name: "2_1_conv_ReLU"
  type: RELU
}
layers {
  bottom: "2_1_conv"
  top: "2_pool"
  top: "2_pool_mask"
  name: "2_pool"
  type: POOLING
  pooling_param {
    pool: MAX
    kernel_size: 2
    stride: 2
  }
}
layers {
  bottom: "2_pool"
  top: "middle_conv_zeros"
  name: "middle_conv_zeros"
  type: CONVOLUTION
  blobs_lr: 1
  blobs_lr: 2
  weight_decay: 0
  weight_decay: 0
  convolution_param {
    num_output: 50
    pad: 0
    kernel_size: 4
    stride: 1
    weight_filler {
      type: "constant"
      value: 0
    }
    bias_filler {
      type: "constant"
      value: 0
    }
  }
}
layers {
  bottom: "middle_conv_zeros"
  top: "middle_deconv"
  name: "middle_deconv"
  type: DECONVOLUTION
  blobs_lr: 1
  blobs_lr: 2
  weight_decay: 0
  weight_decay: 0
  convolution_param {
    num_output: 32
    pad: 1
    kernel_size: 4
    stride: 1
    weight_filler {
      type: "xavier"
    }
    bias_filler {
      type: "constant"
      value: 0
    }
  }
}
layers {
  bottom: "middle_deconv"
  bottom: "2_pool_mask"
  top: "2_unpool"
  name: "2_unpool"
  type: UNPOOLING
  unpooling_param {
    unpool: MAX
    kernel_size: 2
    stride: 2
    unpool_size: 8
  }
}
layers {
  bottom: "2_unpool"
  top: "2_1_deconv"
  name: "2_1_deconv"
  type: DECONVOLUTION
  blobs_lr: 1
  blobs_lr: 2
  weight_decay: 0
  weight_decay: 0
  convolution_param {
    num_output: 32
    pad: 1
    kernel_size: 3
    stride: 1
    weight_filler {
      type: "xavier"
    }
    bias_filler {
      type: "constant"
      value: 0
    }
  }
}
layers {
  bottom: "2_1_deconv"
  top: "2_1_deconv"
  name: "2_1_deconv_ReLU"
  type: RELU
}
layers {
  bottom: "2_1_deconv"
  top: "2_0_deconv"
  name: "2_0_deconv"
  type: DECONVOLUTION
  blobs_lr: 1
  blobs_lr: 2
  weight_decay: 0
  weight_decay: 0
  convolution_param {
    num_output: 32
    pad: 1
    kernel_size: 3
    stride: 1
    weight_filler {
      type: "xavier"
    }
    bias_filler {
      type: "constant"
      value: 0
    }
  }
}
layers {
  bottom: "2_0_deconv"
  top: "2_0_deconv"
  name: "2_0_deconv_ReLU"
  type: RELU
}
layers {
  bottom: "2_0_deconv"
  bottom: "1_pool_mask"
  top: "1_unpool"
  name: "1_unpool"
  type: UNPOOLING
  unpooling_param {
    unpool: MAX
    kernel_size: 2
    stride: 2
    unpool_size: 16
  }
}
layers {
  bottom: "1_unpool"
  top: "1_1_deconv"
  name: "1_1_deconv"
  type: DECONVOLUTION
  blobs_lr: 1
  blobs_lr: 2
  weight_decay: 0
  weight_decay: 0
  convolution_param {
    num_output: 32
    pad: 1
    kernel_size: 3
    stride: 1
    weight_filler {
      type: "xavier"
    }
    bias_filler {
      type: "constant"
      value: 0
    }
  }
}
layers {
  bottom: "1_1_deconv"
  top: "1_1_deconv"
  name: "1_1_deconv_ReLU"
  type: RELU
}
layers {
  bottom: "1_1_deconv"
  top: "1_0_deconv"
  name: "1_0_deconv"
  type: DECONVOLUTION
  blobs_lr: 1
  blobs_lr: 2
  weight_decay: 0
  weight_decay: 0
  convolution_param {
    num_output: 32
    pad: 1
    kernel_size: 3
    stride: 1
    weight_filler {
      type: "xavier"
    }
    bias_filler {
      type: "constant"
      value: 0
    }
  }
}
layers {
  bottom: "1_0_deconv"
  top: "1_0_deconv"
  name: "1_0_deconv_ReLU"
  type: RELU
}
layers {
  bottom: "1_0_deconv"
  bottom: "0_pool_mask"
  top: "0_unpool"
  name: "0_unpool"
  type: UNPOOLING
  unpooling_param {
    unpool: MAX
    kernel_size: 2
    stride: 2
    unpool_size: 32
  }
}
layers {
  bottom: "0_unpool"
  top: "0_1_deconv"
  name: "0_1_deconv"
  type: DECONVOLUTION
  blobs_lr: 1
  blobs_lr: 2
  weight_decay: 0
  weight_decay: 0
  convolution_param {
    num_output: 32
    pad: 1
    kernel_size: 3
    stride: 1
    weight_filler {
      type: "xavier"
    }
    bias_filler {
      type: "constant"
      value: 0
    }
  }
}
layers {
  bottom: "0_1_deconv"
  top: "0_1_deconv"
  name: "0_1_deconv_ReLU"
  type: RELU
}
layers {
  bottom: "0_1_deconv"
  top: "0_0_deconv"
  name: "0_0_deconv"
  type: DECONVOLUTION
  blobs_lr: 1
  blobs_lr: 2
  weight_decay: 0
  weight_decay: 0
  convolution_param {
    num_output: 32
    pad: 1
    kernel_size: 3
    stride: 1
    weight_filler {
      type: "xavier"
    }
    bias_filler {
      type: "constant"
      value: 0
    }
  }
}
layers {
  bottom: "0_0_deconv"
  top: "0_0_deconv"
  name: "0_0_deconv_ReLU"
  type: RELU
}
layers {
  bottom: "0_0_deconv"
  top: "reconstruct1"
  name: "reconstruct1"
  type: LOCAL
  blobs_lr: 1
  blobs_lr: 2
  weight_decay: 0
  weight_decay: 0
  local_param {
    num_output: 3
    pad: 0
    kernel_size: 1
    stride: 1
    weight_filler {
      type: "xavier"
    }
    bias_filler {
      type: "constant"
      value: 0
    }
  }
}
layers {
  bottom: "reconstruct1"
  top: "reconstruct2"
  name: "reconstruct2"
  type: LOCAL
  blobs_lr: 1
  blobs_lr: 2
  weight_decay: 0
  weight_decay: 0
  local_param {
    num_output: 3
    pad: 0
    kernel_size: 1
    stride: 1
    weight_filler {
      type: "xavier"
    }
    bias_filler {
      type: "constant"
      value: 0
    }
  }
}
layers {
  bottom: "data"
  bottom: "reconstruct2"
  top: "L2_Loss"
  name: "L2_Loss"
  type: EUCLIDEAN_LOSS
}
state {
  phase: TRAIN
}
I0624 04:27:02.656517 24379 layer_factory.hpp:78] Creating layer data
I0624 04:27:02.656530 24379 data_transformer.cpp:25] Loading mean file from/dataset/cifar100_lmdb_lab/mean.binaryproto
I0624 04:27:02.656577 24379 net.cpp:69] Creating Layer data
I0624 04:27:02.656584 24379 net.cpp:358] data -> data
I0624 04:27:02.656591 24379 net.cpp:98] Setting up data
I0624 04:27:02.656595 24379 data_layer.cpp:32] Opening dataset /dataset/cifar100_lmdb_lab/cifar100_train_lmdb
I0624 04:27:02.656662 24379 data_layer.cpp:71] output data size: 750,3,32,32
I0624 04:27:02.657773 24379 net.cpp:105] Top shape: 750 3 32 32 (2304000)
I0624 04:27:02.657794 24379 layer_factory.hpp:78] Creating layer data_data_0_split
I0624 04:27:02.657805 24379 net.cpp:69] Creating Layer data_data_0_split
I0624 04:27:02.657809 24379 net.cpp:396] data_data_0_split <- data
I0624 04:27:02.657814 24379 net.cpp:358] data_data_0_split -> data_data_0_split_0
I0624 04:27:02.657821 24379 net.cpp:358] data_data_0_split -> data_data_0_split_1
I0624 04:27:02.657826 24379 net.cpp:98] Setting up data_data_0_split
I0624 04:27:02.657832 24379 net.cpp:105] Top shape: 750 3 32 32 (2304000)
I0624 04:27:02.657835 24379 net.cpp:105] Top shape: 750 3 32 32 (2304000)
I0624 04:27:02.657838 24379 layer_factory.hpp:78] Creating layer 0_0_conv
I0624 04:27:02.657845 24379 net.cpp:69] Creating Layer 0_0_conv
I0624 04:27:02.657848 24379 net.cpp:396] 0_0_conv <- data_data_0_split_0
I0624 04:27:02.657857 24379 net.cpp:358] 0_0_conv -> 0_0_conv
I0624 04:27:02.657862 24379 net.cpp:98] Setting up 0_0_conv
I0624 04:27:02.658155 24379 net.cpp:105] Top shape: 750 32 32 32 (24576000)
I0624 04:27:02.658166 24379 layer_factory.hpp:78] Creating layer 0_0_conv_ReLU
I0624 04:27:02.658172 24379 net.cpp:69] Creating Layer 0_0_conv_ReLU
I0624 04:27:02.658175 24379 net.cpp:396] 0_0_conv_ReLU <- 0_0_conv
I0624 04:27:02.658179 24379 net.cpp:347] 0_0_conv_ReLU -> 0_0_conv (in-place)
I0624 04:27:02.658184 24379 net.cpp:98] Setting up 0_0_conv_ReLU
I0624 04:27:02.658186 24379 net.cpp:105] Top shape: 750 32 32 32 (24576000)
I0624 04:27:02.658190 24379 layer_factory.hpp:78] Creating layer 0_1_conv
I0624 04:27:02.658195 24379 net.cpp:69] Creating Layer 0_1_conv
I0624 04:27:02.658197 24379 net.cpp:396] 0_1_conv <- 0_0_conv
I0624 04:27:02.658201 24379 net.cpp:358] 0_1_conv -> 0_1_conv
I0624 04:27:02.658205 24379 net.cpp:98] Setting up 0_1_conv
I0624 04:27:02.658269 24379 net.cpp:105] Top shape: 750 32 32 32 (24576000)
I0624 04:27:02.658275 24379 layer_factory.hpp:78] Creating layer 0_1_conv_ReLU
I0624 04:27:02.658280 24379 net.cpp:69] Creating Layer 0_1_conv_ReLU
I0624 04:27:02.658282 24379 net.cpp:396] 0_1_conv_ReLU <- 0_1_conv
I0624 04:27:02.658288 24379 net.cpp:347] 0_1_conv_ReLU -> 0_1_conv (in-place)
I0624 04:27:02.658291 24379 net.cpp:98] Setting up 0_1_conv_ReLU
I0624 04:27:02.658294 24379 net.cpp:105] Top shape: 750 32 32 32 (24576000)
I0624 04:27:02.658298 24379 layer_factory.hpp:78] Creating layer 0_pool
I0624 04:27:02.658301 24379 net.cpp:69] Creating Layer 0_pool
I0624 04:27:02.658304 24379 net.cpp:396] 0_pool <- 0_1_conv
I0624 04:27:02.658313 24379 net.cpp:358] 0_pool -> 0_pool
I0624 04:27:02.658318 24379 net.cpp:358] 0_pool -> 0_pool_mask
I0624 04:27:02.658334 24379 net.cpp:98] Setting up 0_pool
I0624 04:27:02.658339 24379 net.cpp:105] Top shape: 750 32 16 16 (6144000)
I0624 04:27:02.658342 24379 net.cpp:105] Top shape: 750 32 16 16 (6144000)
I0624 04:27:02.658345 24379 layer_factory.hpp:78] Creating layer 1_0_conv
I0624 04:27:02.658350 24379 net.cpp:69] Creating Layer 1_0_conv
I0624 04:27:02.658354 24379 net.cpp:396] 1_0_conv <- 0_pool
I0624 04:27:02.658359 24379 net.cpp:358] 1_0_conv -> 1_0_conv
I0624 04:27:02.658362 24379 net.cpp:98] Setting up 1_0_conv
I0624 04:27:02.658412 24379 net.cpp:105] Top shape: 750 32 16 16 (6144000)
I0624 04:27:02.658418 24379 layer_factory.hpp:78] Creating layer 1_0_conv_ReLU
I0624 04:27:02.658423 24379 net.cpp:69] Creating Layer 1_0_conv_ReLU
I0624 04:27:02.658427 24379 net.cpp:396] 1_0_conv_ReLU <- 1_0_conv
I0624 04:27:02.658429 24379 net.cpp:347] 1_0_conv_ReLU -> 1_0_conv (in-place)
I0624 04:27:02.658433 24379 net.cpp:98] Setting up 1_0_conv_ReLU
I0624 04:27:02.658437 24379 net.cpp:105] Top shape: 750 32 16 16 (6144000)
I0624 04:27:02.658439 24379 layer_factory.hpp:78] Creating layer 1_1_conv
I0624 04:27:02.658444 24379 net.cpp:69] Creating Layer 1_1_conv
I0624 04:27:02.658447 24379 net.cpp:396] 1_1_conv <- 1_0_conv
I0624 04:27:02.658452 24379 net.cpp:358] 1_1_conv -> 1_1_conv
I0624 04:27:02.658455 24379 net.cpp:98] Setting up 1_1_conv
I0624 04:27:02.658509 24379 net.cpp:105] Top shape: 750 32 16 16 (6144000)
I0624 04:27:02.658512 24379 layer_factory.hpp:78] Creating layer 1_1_conv_ReLU
I0624 04:27:02.658517 24379 net.cpp:69] Creating Layer 1_1_conv_ReLU
I0624 04:27:02.658519 24379 net.cpp:396] 1_1_conv_ReLU <- 1_1_conv
I0624 04:27:02.658524 24379 net.cpp:347] 1_1_conv_ReLU -> 1_1_conv (in-place)
I0624 04:27:02.658526 24379 net.cpp:98] Setting up 1_1_conv_ReLU
I0624 04:27:02.658529 24379 net.cpp:105] Top shape: 750 32 16 16 (6144000)
I0624 04:27:02.658532 24379 layer_factory.hpp:78] Creating layer 1_pool
I0624 04:27:02.658536 24379 net.cpp:69] Creating Layer 1_pool
I0624 04:27:02.658538 24379 net.cpp:396] 1_pool <- 1_1_conv
I0624 04:27:02.658543 24379 net.cpp:358] 1_pool -> 1_pool
I0624 04:27:02.658548 24379 net.cpp:358] 1_pool -> 1_pool_mask
I0624 04:27:02.658552 24379 net.cpp:98] Setting up 1_pool
I0624 04:27:02.658555 24379 net.cpp:105] Top shape: 750 32 8 8 (1536000)
I0624 04:27:02.658558 24379 net.cpp:105] Top shape: 750 32 8 8 (1536000)
I0624 04:27:02.658560 24379 layer_factory.hpp:78] Creating layer 2_0_conv
I0624 04:27:02.658565 24379 net.cpp:69] Creating Layer 2_0_conv
I0624 04:27:02.658568 24379 net.cpp:396] 2_0_conv <- 1_pool
I0624 04:27:02.658572 24379 net.cpp:358] 2_0_conv -> 2_0_conv
I0624 04:27:02.658577 24379 net.cpp:98] Setting up 2_0_conv
I0624 04:27:02.658630 24379 net.cpp:105] Top shape: 750 32 8 8 (1536000)
I0624 04:27:02.658637 24379 layer_factory.hpp:78] Creating layer 2_0_conv_ReLU
I0624 04:27:02.658640 24379 net.cpp:69] Creating Layer 2_0_conv_ReLU
I0624 04:27:02.658643 24379 net.cpp:396] 2_0_conv_ReLU <- 2_0_conv
I0624 04:27:02.658648 24379 net.cpp:347] 2_0_conv_ReLU -> 2_0_conv (in-place)
I0624 04:27:02.658651 24379 net.cpp:98] Setting up 2_0_conv_ReLU
I0624 04:27:02.658653 24379 net.cpp:105] Top shape: 750 32 8 8 (1536000)
I0624 04:27:02.658656 24379 layer_factory.hpp:78] Creating layer 2_1_conv
I0624 04:27:02.658663 24379 net.cpp:69] Creating Layer 2_1_conv
I0624 04:27:02.658664 24379 net.cpp:396] 2_1_conv <- 2_0_conv
I0624 04:27:02.658668 24379 net.cpp:358] 2_1_conv -> 2_1_conv
I0624 04:27:02.658673 24379 net.cpp:98] Setting up 2_1_conv
I0624 04:27:02.658727 24379 net.cpp:105] Top shape: 750 32 8 8 (1536000)
I0624 04:27:02.658732 24379 layer_factory.hpp:78] Creating layer 2_1_conv_ReLU
I0624 04:27:02.658737 24379 net.cpp:69] Creating Layer 2_1_conv_ReLU
I0624 04:27:02.658740 24379 net.cpp:396] 2_1_conv_ReLU <- 2_1_conv
I0624 04:27:02.658743 24379 net.cpp:347] 2_1_conv_ReLU -> 2_1_conv (in-place)
I0624 04:27:02.658747 24379 net.cpp:98] Setting up 2_1_conv_ReLU
I0624 04:27:02.658751 24379 net.cpp:105] Top shape: 750 32 8 8 (1536000)
I0624 04:27:02.658754 24379 layer_factory.hpp:78] Creating layer 2_pool
I0624 04:27:02.658763 24379 net.cpp:69] Creating Layer 2_pool
I0624 04:27:02.658766 24379 net.cpp:396] 2_pool <- 2_1_conv
I0624 04:27:02.658771 24379 net.cpp:358] 2_pool -> 2_pool
I0624 04:27:02.658776 24379 net.cpp:358] 2_pool -> 2_pool_mask
I0624 04:27:02.658779 24379 net.cpp:98] Setting up 2_pool
I0624 04:27:02.658782 24379 net.cpp:105] Top shape: 750 32 4 4 (384000)
I0624 04:27:02.658785 24379 net.cpp:105] Top shape: 750 32 4 4 (384000)
I0624 04:27:02.658788 24379 layer_factory.hpp:78] Creating layer middle_conv_zeros
I0624 04:27:02.658793 24379 net.cpp:69] Creating Layer middle_conv_zeros
I0624 04:27:02.658797 24379 net.cpp:396] middle_conv_zeros <- 2_pool
I0624 04:27:02.658800 24379 net.cpp:358] middle_conv_zeros -> middle_conv_zeros
I0624 04:27:02.658805 24379 net.cpp:98] Setting up middle_conv_zeros
I0624 04:27:02.658835 24379 net.cpp:105] Top shape: 750 50 1 1 (37500)
I0624 04:27:02.658840 24379 layer_factory.hpp:78] Creating layer middle_deconv
I0624 04:27:02.658848 24379 net.cpp:69] Creating Layer middle_deconv
I0624 04:27:02.658850 24379 net.cpp:396] middle_deconv <- middle_conv_zeros
I0624 04:27:02.658855 24379 net.cpp:358] middle_deconv -> middle_deconv
I0624 04:27:02.658860 24379 net.cpp:98] Setting up middle_deconv
I0624 04:27:02.658998 24379 net.cpp:105] Top shape: 750 32 2 2 (96000)
I0624 04:27:02.659003 24379 layer_factory.hpp:78] Creating layer 2_unpool
I0624 04:27:02.659008 24379 net.cpp:69] Creating Layer 2_unpool
I0624 04:27:02.659011 24379 net.cpp:396] 2_unpool <- middle_deconv
I0624 04:27:02.659015 24379 net.cpp:396] 2_unpool <- 2_pool_mask
I0624 04:27:02.659019 24379 net.cpp:358] 2_unpool -> 2_unpool
I0624 04:27:02.659024 24379 net.cpp:98] Setting up 2_unpool
I0624 04:27:02.659030 24379 net.cpp:105] Top shape: 750 32 8 8 (1536000)
I0624 04:27:02.659034 24379 layer_factory.hpp:78] Creating layer 2_1_deconv
I0624 04:27:02.659039 24379 net.cpp:69] Creating Layer 2_1_deconv
I0624 04:27:02.659042 24379 net.cpp:396] 2_1_deconv <- 2_unpool
I0624 04:27:02.659047 24379 net.cpp:358] 2_1_deconv -> 2_1_deconv
I0624 04:27:02.659051 24379 net.cpp:98] Setting up 2_1_deconv
I0624 04:27:02.659102 24379 net.cpp:105] Top shape: 750 32 8 8 (1536000)
I0624 04:27:02.659109 24379 layer_factory.hpp:78] Creating layer 2_1_deconv_ReLU
I0624 04:27:02.659113 24379 net.cpp:69] Creating Layer 2_1_deconv_ReLU
I0624 04:27:02.659116 24379 net.cpp:396] 2_1_deconv_ReLU <- 2_1_deconv
I0624 04:27:02.659121 24379 net.cpp:347] 2_1_deconv_ReLU -> 2_1_deconv (in-place)
I0624 04:27:02.659124 24379 net.cpp:98] Setting up 2_1_deconv_ReLU
I0624 04:27:02.659127 24379 net.cpp:105] Top shape: 750 32 8 8 (1536000)
I0624 04:27:02.659129 24379 layer_factory.hpp:78] Creating layer 2_0_deconv
I0624 04:27:02.659133 24379 net.cpp:69] Creating Layer 2_0_deconv
I0624 04:27:02.659137 24379 net.cpp:396] 2_0_deconv <- 2_1_deconv
I0624 04:27:02.659142 24379 net.cpp:358] 2_0_deconv -> 2_0_deconv
I0624 04:27:02.659145 24379 net.cpp:98] Setting up 2_0_deconv
I0624 04:27:02.659196 24379 net.cpp:105] Top shape: 750 32 8 8 (1536000)
I0624 04:27:02.659200 24379 layer_factory.hpp:78] Creating layer 2_0_deconv_ReLU
I0624 04:27:02.659204 24379 net.cpp:69] Creating Layer 2_0_deconv_ReLU
I0624 04:27:02.659207 24379 net.cpp:396] 2_0_deconv_ReLU <- 2_0_deconv
I0624 04:27:02.659211 24379 net.cpp:347] 2_0_deconv_ReLU -> 2_0_deconv (in-place)
I0624 04:27:02.659214 24379 net.cpp:98] Setting up 2_0_deconv_ReLU
I0624 04:27:02.659217 24379 net.cpp:105] Top shape: 750 32 8 8 (1536000)
I0624 04:27:02.659220 24379 layer_factory.hpp:78] Creating layer 1_unpool
I0624 04:27:02.659224 24379 net.cpp:69] Creating Layer 1_unpool
I0624 04:27:02.659226 24379 net.cpp:396] 1_unpool <- 2_0_deconv
I0624 04:27:02.659229 24379 net.cpp:396] 1_unpool <- 1_pool_mask
I0624 04:27:02.659235 24379 net.cpp:358] 1_unpool -> 1_unpool
I0624 04:27:02.659238 24379 net.cpp:98] Setting up 1_unpool
I0624 04:27:02.659241 24379 net.cpp:105] Top shape: 750 32 16 16 (6144000)
I0624 04:27:02.659246 24379 layer_factory.hpp:78] Creating layer 1_1_deconv
I0624 04:27:02.659250 24379 net.cpp:69] Creating Layer 1_1_deconv
I0624 04:27:02.659258 24379 net.cpp:396] 1_1_deconv <- 1_unpool
I0624 04:27:02.659263 24379 net.cpp:358] 1_1_deconv -> 1_1_deconv
I0624 04:27:02.659267 24379 net.cpp:98] Setting up 1_1_deconv
I0624 04:27:02.659317 24379 net.cpp:105] Top shape: 750 32 16 16 (6144000)
I0624 04:27:02.659322 24379 layer_factory.hpp:78] Creating layer 1_1_deconv_ReLU
I0624 04:27:02.659325 24379 net.cpp:69] Creating Layer 1_1_deconv_ReLU
I0624 04:27:02.659328 24379 net.cpp:396] 1_1_deconv_ReLU <- 1_1_deconv
I0624 04:27:02.659332 24379 net.cpp:347] 1_1_deconv_ReLU -> 1_1_deconv (in-place)
I0624 04:27:02.659335 24379 net.cpp:98] Setting up 1_1_deconv_ReLU
I0624 04:27:02.659337 24379 net.cpp:105] Top shape: 750 32 16 16 (6144000)
I0624 04:27:02.659340 24379 layer_factory.hpp:78] Creating layer 1_0_deconv
I0624 04:27:02.659346 24379 net.cpp:69] Creating Layer 1_0_deconv
I0624 04:27:02.659348 24379 net.cpp:396] 1_0_deconv <- 1_1_deconv
I0624 04:27:02.659353 24379 net.cpp:358] 1_0_deconv -> 1_0_deconv
I0624 04:27:02.659358 24379 net.cpp:98] Setting up 1_0_deconv
I0624 04:27:02.659409 24379 net.cpp:105] Top shape: 750 32 16 16 (6144000)
I0624 04:27:02.659412 24379 layer_factory.hpp:78] Creating layer 1_0_deconv_ReLU
I0624 04:27:02.659416 24379 net.cpp:69] Creating Layer 1_0_deconv_ReLU
I0624 04:27:02.659420 24379 net.cpp:396] 1_0_deconv_ReLU <- 1_0_deconv
I0624 04:27:02.659423 24379 net.cpp:347] 1_0_deconv_ReLU -> 1_0_deconv (in-place)
I0624 04:27:02.659426 24379 net.cpp:98] Setting up 1_0_deconv_ReLU
I0624 04:27:02.659430 24379 net.cpp:105] Top shape: 750 32 16 16 (6144000)
I0624 04:27:02.659432 24379 layer_factory.hpp:78] Creating layer 0_unpool
I0624 04:27:02.659436 24379 net.cpp:69] Creating Layer 0_unpool
I0624 04:27:02.659438 24379 net.cpp:396] 0_unpool <- 1_0_deconv
I0624 04:27:02.659441 24379 net.cpp:396] 0_unpool <- 0_pool_mask
I0624 04:27:02.659446 24379 net.cpp:358] 0_unpool -> 0_unpool
I0624 04:27:02.659451 24379 net.cpp:98] Setting up 0_unpool
I0624 04:27:02.659453 24379 net.cpp:105] Top shape: 750 32 32 32 (24576000)
I0624 04:27:02.659456 24379 layer_factory.hpp:78] Creating layer 0_1_deconv
I0624 04:27:02.659459 24379 net.cpp:69] Creating Layer 0_1_deconv
I0624 04:27:02.659462 24379 net.cpp:396] 0_1_deconv <- 0_unpool
I0624 04:27:02.659467 24379 net.cpp:358] 0_1_deconv -> 0_1_deconv
I0624 04:27:02.659471 24379 net.cpp:98] Setting up 0_1_deconv
I0624 04:27:02.659521 24379 net.cpp:105] Top shape: 750 32 32 32 (24576000)
I0624 04:27:02.659526 24379 layer_factory.hpp:78] Creating layer 0_1_deconv_ReLU
I0624 04:27:02.659529 24379 net.cpp:69] Creating Layer 0_1_deconv_ReLU
I0624 04:27:02.659533 24379 net.cpp:396] 0_1_deconv_ReLU <- 0_1_deconv
I0624 04:27:02.659538 24379 net.cpp:347] 0_1_deconv_ReLU -> 0_1_deconv (in-place)
I0624 04:27:02.659541 24379 net.cpp:98] Setting up 0_1_deconv_ReLU
I0624 04:27:02.659544 24379 net.cpp:105] Top shape: 750 32 32 32 (24576000)
I0624 04:27:02.659546 24379 layer_factory.hpp:78] Creating layer 0_0_deconv
I0624 04:27:02.659553 24379 net.cpp:69] Creating Layer 0_0_deconv
I0624 04:27:02.659555 24379 net.cpp:396] 0_0_deconv <- 0_1_deconv
I0624 04:27:02.659559 24379 net.cpp:358] 0_0_deconv -> 0_0_deconv
I0624 04:27:02.659564 24379 net.cpp:98] Setting up 0_0_deconv
I0624 04:27:02.659615 24379 net.cpp:105] Top shape: 750 32 32 32 (24576000)
I0624 04:27:02.659621 24379 layer_factory.hpp:78] Creating layer 0_0_deconv_ReLU
I0624 04:27:02.659623 24379 net.cpp:69] Creating Layer 0_0_deconv_ReLU
I0624 04:27:02.659626 24379 net.cpp:396] 0_0_deconv_ReLU <- 0_0_deconv
I0624 04:27:02.659629 24379 net.cpp:347] 0_0_deconv_ReLU -> 0_0_deconv (in-place)
I0624 04:27:02.659633 24379 net.cpp:98] Setting up 0_0_deconv_ReLU
I0624 04:27:02.659636 24379 net.cpp:105] Top shape: 750 32 32 32 (24576000)
I0624 04:27:02.659638 24379 layer_factory.hpp:78] Creating layer reconstruct1
I0624 04:27:02.659646 24379 net.cpp:69] Creating Layer reconstruct1
I0624 04:27:02.659647 24379 net.cpp:396] reconstruct1 <- 0_0_deconv
I0624 04:27:02.659657 24379 net.cpp:358] reconstruct1 -> reconstruct1
I0624 04:27:02.659662 24379 net.cpp:98] Setting up reconstruct1
I0624 04:27:02.660290 24379 net.cpp:105] Top shape: 750 3 32 32 (2304000)
I0624 04:27:02.660297 24379 layer_factory.hpp:78] Creating layer reconstruct2
I0624 04:27:02.660302 24379 net.cpp:69] Creating Layer reconstruct2
I0624 04:27:02.660305 24379 net.cpp:396] reconstruct2 <- reconstruct1
I0624 04:27:02.660310 24379 net.cpp:358] reconstruct2 -> reconstruct2
I0624 04:27:02.660315 24379 net.cpp:98] Setting up reconstruct2
I0624 04:27:02.660374 24379 net.cpp:105] Top shape: 750 3 32 32 (2304000)
I0624 04:27:02.660380 24379 layer_factory.hpp:78] Creating layer L2_Loss
I0624 04:27:02.660385 24379 net.cpp:69] Creating Layer L2_Loss
I0624 04:27:02.660388 24379 net.cpp:396] L2_Loss <- data_data_0_split_1
I0624 04:27:02.660392 24379 net.cpp:396] L2_Loss <- reconstruct2
I0624 04:27:02.660395 24379 net.cpp:358] L2_Loss -> L2_Loss
I0624 04:27:02.660400 24379 net.cpp:98] Setting up L2_Loss
I0624 04:27:02.660405 24379 net.cpp:105] Top shape: 1 1 1 1 (1)
I0624 04:27:02.660408 24379 net.cpp:111]     with loss weight 1
I0624 04:27:02.660423 24379 net.cpp:172] L2_Loss needs backward computation.
I0624 04:27:02.660425 24379 net.cpp:172] reconstruct2 needs backward computation.
I0624 04:27:02.660429 24379 net.cpp:172] reconstruct1 needs backward computation.
I0624 04:27:02.660431 24379 net.cpp:172] 0_0_deconv_ReLU needs backward computation.
…
