…
I0614 23:09:38.010223 26781 solver.cpp:70] Creating training net from net file: prototxt/16-06-14_15h51m21s_0_50_reconstructFullFC0_net.sh
I0614 23:09:38.010817 26781 net.cpp:277] The NetState phase (0) differed from the phase (1) specified by a rule in layer data
I0614 23:09:38.010972 26781 net.cpp:39] Initializing net from parameters: 
layers {
  top: "data"
  name: "data"
  type: DATA
  data_param {
    source: "/dataset/cifar100_lmdb_lab/cifar100_train_lmdb"
    batch_size: 750
    backend: LMDB
  }
  include {
    phase: TRAIN
  }
  transform_param {
    mean_file: "/dataset/cifar100_lmdb_lab/mean.binaryproto"
  }
}
layers {
  bottom: "data"
  top: "0_0_conv"
  name: "0_0_conv"
  type: CONVOLUTION
  blobs_lr: 0
  blobs_lr: 0
  weight_decay: 0
  weight_decay: 0
  convolution_param {
    num_output: 16
    pad: 1
    kernel_size: 3
    stride: 1
    weight_filler {
      type: "xavier"
    }
    bias_filler {
      type: "constant"
      value: 0
    }
  }
}
layers {
  bottom: "0_0_conv"
  top: "0_0_conv"
  name: "0_0_conv_ReLU"
  type: RELU
}
layers {
  bottom: "0_0_conv"
  top: "0_1_conv"
  name: "0_1_conv"
  type: CONVOLUTION
  blobs_lr: 0
  blobs_lr: 0
  weight_decay: 0
  weight_decay: 0
  convolution_param {
    num_output: 16
    pad: 1
    kernel_size: 3
    stride: 1
    weight_filler {
      type: "xavier"
    }
    bias_filler {
      type: "constant"
      value: 0
    }
  }
}
layers {
  bottom: "0_1_conv"
  top: "0_1_conv"
  name: "0_1_conv_ReLU"
  type: RELU
}
layers {
  bottom: "0_1_conv"
  top: "0_pool"
  top: "0_pool_mask"
  name: "0_pool"
  type: POOLING
  pooling_param {
    pool: MAX
    kernel_size: 2
    stride: 2
  }
}
layers {
  bottom: "0_pool"
  top: "1_0_conv"
  name: "1_0_conv"
  type: CONVOLUTION
  blobs_lr: 0
  blobs_lr: 0
  weight_decay: 0
  weight_decay: 0
  convolution_param {
    num_output: 16
    pad: 1
    kernel_size: 3
    stride: 1
    weight_filler {
      type: "xavier"
    }
    bias_filler {
      type: "constant"
      value: 0
    }
  }
}
layers {
  bottom: "1_0_conv"
  top: "1_0_conv"
  name: "1_0_conv_ReLU"
  type: RELU
}
layers {
  bottom: "1_0_conv"
  top: "1_1_conv"
  name: "1_1_conv"
  type: CONVOLUTION
  blobs_lr: 0
  blobs_lr: 0
  weight_decay: 0
  weight_decay: 0
  convolution_param {
    num_output: 16
    pad: 1
    kernel_size: 3
    stride: 1
    weight_filler {
      type: "xavier"
    }
    bias_filler {
      type: "constant"
      value: 0
    }
  }
}
layers {
  bottom: "1_1_conv"
  top: "1_1_conv"
  name: "1_1_conv_ReLU"
  type: RELU
}
layers {
  bottom: "1_1_conv"
  top: "1_pool"
  top: "1_pool_mask"
  name: "1_pool"
  type: POOLING
  pooling_param {
    pool: MAX
    kernel_size: 2
    stride: 2
  }
}
layers {
  bottom: "1_pool"
  top: "2_0_conv"
  name: "2_0_conv"
  type: CONVOLUTION
  blobs_lr: 0
  blobs_lr: 0
  weight_decay: 0
  weight_decay: 0
  convolution_param {
    num_output: 16
    pad: 1
    kernel_size: 3
    stride: 1
    weight_filler {
      type: "xavier"
    }
    bias_filler {
      type: "constant"
      value: 0
    }
  }
}
layers {
  bottom: "2_0_conv"
  top: "2_0_conv"
  name: "2_0_conv_ReLU"
  type: RELU
}
layers {
  bottom: "2_0_conv"
  top: "2_1_conv"
  name: "2_1_conv"
  type: CONVOLUTION
  blobs_lr: 0
  blobs_lr: 0
  weight_decay: 0
  weight_decay: 0
  convolution_param {
    num_output: 16
    pad: 1
    kernel_size: 3
    stride: 1
    weight_filler {
      type: "xavier"
    }
    bias_filler {
      type: "constant"
      value: 0
    }
  }
}
layers {
  bottom: "2_1_conv"
  top: "2_1_conv"
  name: "2_1_conv_ReLU"
  type: RELU
}
layers {
  bottom: "2_1_conv"
  top: "2_pool"
  top: "2_pool_mask"
  name: "2_pool"
  type: POOLING
  pooling_param {
    pool: MAX
    kernel_size: 2
    stride: 2
  }
}
layers {
  bottom: "2_pool"
  top: "middle_conv_zeros"
  name: "middle_conv_zeros"
  type: CONVOLUTION
  blobs_lr: 0
  blobs_lr: 0
  weight_decay: 0
  weight_decay: 0
  convolution_param {
    num_output: 50
    pad: 0
    kernel_size: 4
    stride: 1
    weight_filler {
      type: "constant"
      value: 0
    }
    bias_filler {
      type: "constant"
      value: 0
    }
  }
}
layers {
  bottom: "middle_conv_zeros"
  top: "middle_deconv"
  name: "middle_deconv"
  type: DECONVOLUTION
  blobs_lr: 1
  blobs_lr: 2
  weight_decay: 0
  weight_decay: 0
  convolution_param {
    num_output: 16
    pad: 1
    kernel_size: 4
    stride: 1
    weight_filler {
      type: "xavier"
    }
    bias_filler {
      type: "constant"
      value: 0
    }
  }
}
layers {
  bottom: "middle_deconv"
  bottom: "2_pool_mask"
  top: "2_unpool"
  name: "2_unpool"
  type: UNPOOLING
  unpooling_param {
    unpool: MAX
    kernel_size: 2
    stride: 2
    unpool_size: 8
  }
}
layers {
  bottom: "2_unpool"
  top: "2_1_deconv"
  name: "2_1_deconv"
  type: DECONVOLUTION
  blobs_lr: 1
  blobs_lr: 2
  weight_decay: 0
  weight_decay: 0
  convolution_param {
    num_output: 16
    pad: 1
    kernel_size: 3
    stride: 1
    weight_filler {
      type: "xavier"
    }
    bias_filler {
      type: "constant"
      value: 0
    }
  }
}
layers {
  bottom: "2_1_deconv"
  top: "2_1_deconv"
  name: "2_1_deconv_ReLU"
  type: RELU
}
layers {
  bottom: "2_1_deconv"
  top: "2_0_deconv"
  name: "2_0_deconv"
  type: DECONVOLUTION
  blobs_lr: 1
  blobs_lr: 2
  weight_decay: 0
  weight_decay: 0
  convolution_param {
    num_output: 16
    pad: 1
    kernel_size: 3
    stride: 1
    weight_filler {
      type: "xavier"
    }
    bias_filler {
      type: "constant"
      value: 0
    }
  }
}
layers {
  bottom: "2_0_deconv"
  top: "2_0_deconv"
  name: "2_0_deconv_ReLU"
  type: RELU
}
layers {
  bottom: "2_0_deconv"
  bottom: "1_pool_mask"
  top: "1_unpool"
  name: "1_unpool"
  type: UNPOOLING
  unpooling_param {
    unpool: MAX
    kernel_size: 2
    stride: 2
    unpool_size: 16
  }
}
layers {
  bottom: "1_unpool"
  top: "1_1_deconv"
  name: "1_1_deconv"
  type: DECONVOLUTION
  blobs_lr: 1
  blobs_lr: 2
  weight_decay: 0
  weight_decay: 0
  convolution_param {
    num_output: 16
    pad: 1
    kernel_size: 3
    stride: 1
    weight_filler {
      type: "xavier"
    }
    bias_filler {
      type: "constant"
      value: 0
    }
  }
}
layers {
  bottom: "1_1_deconv"
  top: "1_1_deconv"
  name: "1_1_deconv_ReLU"
  type: RELU
}
layers {
  bottom: "1_1_deconv"
  top: "1_0_deconv"
  name: "1_0_deconv"
  type: DECONVOLUTION
  blobs_lr: 1
  blobs_lr: 2
  weight_decay: 0
  weight_decay: 0
  convolution_param {
    num_output: 16
    pad: 1
    kernel_size: 3
    stride: 1
    weight_filler {
      type: "xavier"
    }
    bias_filler {
      type: "constant"
      value: 0
    }
  }
}
layers {
  bottom: "1_0_deconv"
  top: "1_0_deconv"
  name: "1_0_deconv_ReLU"
  type: RELU
}
layers {
  bottom: "1_0_deconv"
  bottom: "0_pool_mask"
  top: "0_unpool"
  name: "0_unpool"
  type: UNPOOLING
  unpooling_param {
    unpool: MAX
    kernel_size: 2
    stride: 2
    unpool_size: 32
  }
}
layers {
  bottom: "0_unpool"
  top: "0_1_deconv"
  name: "0_1_deconv"
  type: DECONVOLUTION
  blobs_lr: 1
  blobs_lr: 2
  weight_decay: 0
  weight_decay: 0
  convolution_param {
    num_output: 16
    pad: 1
    kernel_size: 3
    stride: 1
    weight_filler {
      type: "xavier"
    }
    bias_filler {
      type: "constant"
      value: 0
    }
  }
}
layers {
  bottom: "0_1_deconv"
  top: "0_1_deconv"
  name: "0_1_deconv_ReLU"
  type: RELU
}
layers {
  bottom: "0_1_deconv"
  top: "0_0_deconv"
  name: "0_0_deconv"
  type: DECONVOLUTION
  blobs_lr: 1
  blobs_lr: 2
  weight_decay: 0
  weight_decay: 0
  convolution_param {
    num_output: 16
    pad: 1
    kernel_size: 3
    stride: 1
    weight_filler {
      type: "xavier"
    }
    bias_filler {
      type: "constant"
      value: 0
    }
  }
}
layers {
  bottom: "0_0_deconv"
  top: "0_0_deconv"
  name: "0_0_deconv_ReLU"
  type: RELU
}
layers {
  bottom: "0_0_deconv"
  top: "reconstruct1"
  name: "reconstruct1"
  type: LOCAL
  blobs_lr: 1
  blobs_lr: 2
  weight_decay: 0
  weight_decay: 0
  local_param {
    num_output: 3
    pad: 0
    kernel_size: 1
    stride: 1
    weight_filler {
      type: "xavier"
    }
    bias_filler {
      type: "constant"
      value: 0
    }
  }
}
layers {
  bottom: "reconstruct1"
  top: "reconstruct2"
  name: "reconstruct2"
  type: LOCAL
  blobs_lr: 1
  blobs_lr: 2
  weight_decay: 0
  weight_decay: 0
  local_param {
    num_output: 3
    pad: 0
    kernel_size: 1
    stride: 1
    weight_filler {
      type: "xavier"
    }
    bias_filler {
      type: "constant"
      value: 0
    }
  }
}
layers {
  bottom: "data"
  bottom: "reconstruct2"
  top: "L2_Loss"
  name: "L2_Loss"
  type: EUCLIDEAN_LOSS
}
state {
  phase: TRAIN
}
I0614 23:09:38.011088 26781 layer_factory.hpp:78] Creating layer data
I0614 23:09:38.011102 26781 data_transformer.cpp:25] Loading mean file from/dataset/cifar100_lmdb_lab/mean.binaryproto
I0614 23:09:38.011149 26781 net.cpp:69] Creating Layer data
I0614 23:09:38.011157 26781 net.cpp:358] data -> data
I0614 23:09:38.011163 26781 net.cpp:98] Setting up data
I0614 23:09:38.011168 26781 data_layer.cpp:32] Opening dataset /dataset/cifar100_lmdb_lab/cifar100_train_lmdb
I0614 23:09:38.011236 26781 data_layer.cpp:71] output data size: 750,3,32,32
I0614 23:09:38.012169 26781 net.cpp:105] Top shape: 750 3 32 32 (2304000)
I0614 23:09:38.012202 26781 layer_factory.hpp:78] Creating layer data_data_0_split
I0614 23:09:38.012210 26781 net.cpp:69] Creating Layer data_data_0_split
I0614 23:09:38.012214 26781 net.cpp:396] data_data_0_split <- data
I0614 23:09:38.012219 26781 net.cpp:358] data_data_0_split -> data_data_0_split_0
I0614 23:09:38.012228 26781 net.cpp:358] data_data_0_split -> data_data_0_split_1
I0614 23:09:38.012233 26781 net.cpp:98] Setting up data_data_0_split
I0614 23:09:38.012238 26781 net.cpp:105] Top shape: 750 3 32 32 (2304000)
I0614 23:09:38.012240 26781 net.cpp:105] Top shape: 750 3 32 32 (2304000)
I0614 23:09:38.012243 26781 layer_factory.hpp:78] Creating layer 0_0_conv
I0614 23:09:38.012249 26781 net.cpp:69] Creating Layer 0_0_conv
I0614 23:09:38.012253 26781 net.cpp:396] 0_0_conv <- data_data_0_split_0
I0614 23:09:38.012260 26781 net.cpp:358] 0_0_conv -> 0_0_conv
I0614 23:09:38.012266 26781 net.cpp:98] Setting up 0_0_conv
I0614 23:09:38.012552 26781 net.cpp:105] Top shape: 750 16 32 32 (12288000)
I0614 23:09:38.012562 26781 layer_factory.hpp:78] Creating layer 0_0_conv_ReLU
I0614 23:09:38.012567 26781 net.cpp:69] Creating Layer 0_0_conv_ReLU
I0614 23:09:38.012568 26781 net.cpp:396] 0_0_conv_ReLU <- 0_0_conv
I0614 23:09:38.012573 26781 net.cpp:347] 0_0_conv_ReLU -> 0_0_conv (in-place)
I0614 23:09:38.012576 26781 net.cpp:98] Setting up 0_0_conv_ReLU
I0614 23:09:38.012579 26781 net.cpp:105] Top shape: 750 16 32 32 (12288000)
I0614 23:09:38.012583 26781 layer_factory.hpp:78] Creating layer 0_1_conv
I0614 23:09:38.012588 26781 net.cpp:69] Creating Layer 0_1_conv
I0614 23:09:38.012591 26781 net.cpp:396] 0_1_conv <- 0_0_conv
I0614 23:09:38.012595 26781 net.cpp:358] 0_1_conv -> 0_1_conv
I0614 23:09:38.012599 26781 net.cpp:98] Setting up 0_1_conv
I0614 23:09:38.012619 26781 net.cpp:105] Top shape: 750 16 32 32 (12288000)
I0614 23:09:38.012625 26781 layer_factory.hpp:78] Creating layer 0_1_conv_ReLU
I0614 23:09:38.012629 26781 net.cpp:69] Creating Layer 0_1_conv_ReLU
I0614 23:09:38.012632 26781 net.cpp:396] 0_1_conv_ReLU <- 0_1_conv
I0614 23:09:38.012636 26781 net.cpp:347] 0_1_conv_ReLU -> 0_1_conv (in-place)
I0614 23:09:38.012640 26781 net.cpp:98] Setting up 0_1_conv_ReLU
I0614 23:09:38.012644 26781 net.cpp:105] Top shape: 750 16 32 32 (12288000)
I0614 23:09:38.012645 26781 layer_factory.hpp:78] Creating layer 0_pool
I0614 23:09:38.012650 26781 net.cpp:69] Creating Layer 0_pool
I0614 23:09:38.012652 26781 net.cpp:396] 0_pool <- 0_1_conv
I0614 23:09:38.012661 26781 net.cpp:358] 0_pool -> 0_pool
I0614 23:09:38.012666 26781 net.cpp:358] 0_pool -> 0_pool_mask
I0614 23:09:38.012681 26781 net.cpp:98] Setting up 0_pool
I0614 23:09:38.012686 26781 net.cpp:105] Top shape: 750 16 16 16 (3072000)
I0614 23:09:38.012689 26781 net.cpp:105] Top shape: 750 16 16 16 (3072000)
I0614 23:09:38.012692 26781 layer_factory.hpp:78] Creating layer 1_0_conv
I0614 23:09:38.012696 26781 net.cpp:69] Creating Layer 1_0_conv
I0614 23:09:38.012699 26781 net.cpp:396] 1_0_conv <- 0_pool
I0614 23:09:38.012704 26781 net.cpp:358] 1_0_conv -> 1_0_conv
I0614 23:09:38.012708 26781 net.cpp:98] Setting up 1_0_conv
I0614 23:09:38.012727 26781 net.cpp:105] Top shape: 750 16 16 16 (3072000)
I0614 23:09:38.012732 26781 layer_factory.hpp:78] Creating layer 1_0_conv_ReLU
I0614 23:09:38.012735 26781 net.cpp:69] Creating Layer 1_0_conv_ReLU
I0614 23:09:38.012738 26781 net.cpp:396] 1_0_conv_ReLU <- 1_0_conv
I0614 23:09:38.012742 26781 net.cpp:347] 1_0_conv_ReLU -> 1_0_conv (in-place)
I0614 23:09:38.012747 26781 net.cpp:98] Setting up 1_0_conv_ReLU
I0614 23:09:38.012748 26781 net.cpp:105] Top shape: 750 16 16 16 (3072000)
I0614 23:09:38.012751 26781 layer_factory.hpp:78] Creating layer 1_1_conv
I0614 23:09:38.012755 26781 net.cpp:69] Creating Layer 1_1_conv
I0614 23:09:38.012758 26781 net.cpp:396] 1_1_conv <- 1_0_conv
I0614 23:09:38.012763 26781 net.cpp:358] 1_1_conv -> 1_1_conv
I0614 23:09:38.012768 26781 net.cpp:98] Setting up 1_1_conv
I0614 23:09:38.012784 26781 net.cpp:105] Top shape: 750 16 16 16 (3072000)
I0614 23:09:38.012789 26781 layer_factory.hpp:78] Creating layer 1_1_conv_ReLU
I0614 23:09:38.012791 26781 net.cpp:69] Creating Layer 1_1_conv_ReLU
I0614 23:09:38.012794 26781 net.cpp:396] 1_1_conv_ReLU <- 1_1_conv
I0614 23:09:38.012797 26781 net.cpp:347] 1_1_conv_ReLU -> 1_1_conv (in-place)
I0614 23:09:38.012801 26781 net.cpp:98] Setting up 1_1_conv_ReLU
I0614 23:09:38.012804 26781 net.cpp:105] Top shape: 750 16 16 16 (3072000)
I0614 23:09:38.012806 26781 layer_factory.hpp:78] Creating layer 1_pool
I0614 23:09:38.012810 26781 net.cpp:69] Creating Layer 1_pool
I0614 23:09:38.012812 26781 net.cpp:396] 1_pool <- 1_1_conv
I0614 23:09:38.012817 26781 net.cpp:358] 1_pool -> 1_pool
I0614 23:09:38.012821 26781 net.cpp:358] 1_pool -> 1_pool_mask
I0614 23:09:38.012825 26781 net.cpp:98] Setting up 1_pool
I0614 23:09:38.012828 26781 net.cpp:105] Top shape: 750 16 8 8 (768000)
I0614 23:09:38.012831 26781 net.cpp:105] Top shape: 750 16 8 8 (768000)
I0614 23:09:38.012835 26781 layer_factory.hpp:78] Creating layer 2_0_conv
I0614 23:09:38.012837 26781 net.cpp:69] Creating Layer 2_0_conv
I0614 23:09:38.012840 26781 net.cpp:396] 2_0_conv <- 1_pool
I0614 23:09:38.012845 26781 net.cpp:358] 2_0_conv -> 2_0_conv
I0614 23:09:38.012848 26781 net.cpp:98] Setting up 2_0_conv
I0614 23:09:38.012866 26781 net.cpp:105] Top shape: 750 16 8 8 (768000)
I0614 23:09:38.012871 26781 layer_factory.hpp:78] Creating layer 2_0_conv_ReLU
I0614 23:09:38.012874 26781 net.cpp:69] Creating Layer 2_0_conv_ReLU
I0614 23:09:38.012877 26781 net.cpp:396] 2_0_conv_ReLU <- 2_0_conv
I0614 23:09:38.012881 26781 net.cpp:347] 2_0_conv_ReLU -> 2_0_conv (in-place)
I0614 23:09:38.012884 26781 net.cpp:98] Setting up 2_0_conv_ReLU
I0614 23:09:38.012887 26781 net.cpp:105] Top shape: 750 16 8 8 (768000)
I0614 23:09:38.012889 26781 layer_factory.hpp:78] Creating layer 2_1_conv
I0614 23:09:38.012893 26781 net.cpp:69] Creating Layer 2_1_conv
I0614 23:09:38.012897 26781 net.cpp:396] 2_1_conv <- 2_0_conv
I0614 23:09:38.012902 26781 net.cpp:358] 2_1_conv -> 2_1_conv
I0614 23:09:38.012905 26781 net.cpp:98] Setting up 2_1_conv
I0614 23:09:38.012923 26781 net.cpp:105] Top shape: 750 16 8 8 (768000)
I0614 23:09:38.012928 26781 layer_factory.hpp:78] Creating layer 2_1_conv_ReLU
I0614 23:09:38.012931 26781 net.cpp:69] Creating Layer 2_1_conv_ReLU
I0614 23:09:38.012934 26781 net.cpp:396] 2_1_conv_ReLU <- 2_1_conv
I0614 23:09:38.012938 26781 net.cpp:347] 2_1_conv_ReLU -> 2_1_conv (in-place)
I0614 23:09:38.012940 26781 net.cpp:98] Setting up 2_1_conv_ReLU
I0614 23:09:38.012943 26781 net.cpp:105] Top shape: 750 16 8 8 (768000)
I0614 23:09:38.012948 26781 layer_factory.hpp:78] Creating layer 2_pool
I0614 23:09:38.012962 26781 net.cpp:69] Creating Layer 2_pool
I0614 23:09:38.012966 26781 net.cpp:396] 2_pool <- 2_1_conv
I0614 23:09:38.012970 26781 net.cpp:358] 2_pool -> 2_pool
I0614 23:09:38.012975 26781 net.cpp:358] 2_pool -> 2_pool_mask
I0614 23:09:38.012979 26781 net.cpp:98] Setting up 2_pool
I0614 23:09:38.012982 26781 net.cpp:105] Top shape: 750 16 4 4 (192000)
I0614 23:09:38.012984 26781 net.cpp:105] Top shape: 750 16 4 4 (192000)
I0614 23:09:38.012987 26781 layer_factory.hpp:78] Creating layer middle_conv_zeros
I0614 23:09:38.012991 26781 net.cpp:69] Creating Layer middle_conv_zeros
I0614 23:09:38.012995 26781 net.cpp:396] middle_conv_zeros <- 2_pool
I0614 23:09:38.012998 26781 net.cpp:358] middle_conv_zeros -> middle_conv_zeros
I0614 23:09:38.013003 26781 net.cpp:98] Setting up middle_conv_zeros
I0614 23:09:38.013025 26781 net.cpp:105] Top shape: 750 50 1 1 (37500)
I0614 23:09:38.013030 26781 layer_factory.hpp:78] Creating layer middle_deconv
I0614 23:09:38.013037 26781 net.cpp:69] Creating Layer middle_deconv
I0614 23:09:38.013041 26781 net.cpp:396] middle_deconv <- middle_conv_zeros
I0614 23:09:38.013044 26781 net.cpp:358] middle_deconv -> middle_deconv
I0614 23:09:38.013049 26781 net.cpp:98] Setting up middle_deconv
I0614 23:09:38.013119 26781 net.cpp:105] Top shape: 750 16 2 2 (48000)
I0614 23:09:38.013124 26781 layer_factory.hpp:78] Creating layer 2_unpool
I0614 23:09:38.013128 26781 net.cpp:69] Creating Layer 2_unpool
I0614 23:09:38.013131 26781 net.cpp:396] 2_unpool <- middle_deconv
I0614 23:09:38.013135 26781 net.cpp:396] 2_unpool <- 2_pool_mask
I0614 23:09:38.013139 26781 net.cpp:358] 2_unpool -> 2_unpool
I0614 23:09:38.013144 26781 net.cpp:98] Setting up 2_unpool
I0614 23:09:38.013149 26781 net.cpp:105] Top shape: 750 16 8 8 (768000)
I0614 23:09:38.013152 26781 layer_factory.hpp:78] Creating layer 2_1_deconv
I0614 23:09:38.013156 26781 net.cpp:69] Creating Layer 2_1_deconv
I0614 23:09:38.013159 26781 net.cpp:396] 2_1_deconv <- 2_unpool
I0614 23:09:38.013164 26781 net.cpp:358] 2_1_deconv -> 2_1_deconv
I0614 23:09:38.013169 26781 net.cpp:98] Setting up 2_1_deconv
I0614 23:09:38.013187 26781 net.cpp:105] Top shape: 750 16 8 8 (768000)
I0614 23:09:38.013193 26781 layer_factory.hpp:78] Creating layer 2_1_deconv_ReLU
I0614 23:09:38.013196 26781 net.cpp:69] Creating Layer 2_1_deconv_ReLU
I0614 23:09:38.013200 26781 net.cpp:396] 2_1_deconv_ReLU <- 2_1_deconv
I0614 23:09:38.013203 26781 net.cpp:347] 2_1_deconv_ReLU -> 2_1_deconv (in-place)
I0614 23:09:38.013207 26781 net.cpp:98] Setting up 2_1_deconv_ReLU
I0614 23:09:38.013211 26781 net.cpp:105] Top shape: 750 16 8 8 (768000)
I0614 23:09:38.013213 26781 layer_factory.hpp:78] Creating layer 2_0_deconv
I0614 23:09:38.013217 26781 net.cpp:69] Creating Layer 2_0_deconv
I0614 23:09:38.013219 26781 net.cpp:396] 2_0_deconv <- 2_1_deconv
I0614 23:09:38.013226 26781 net.cpp:358] 2_0_deconv -> 2_0_deconv
I0614 23:09:38.013229 26781 net.cpp:98] Setting up 2_0_deconv
I0614 23:09:38.013247 26781 net.cpp:105] Top shape: 750 16 8 8 (768000)
I0614 23:09:38.013252 26781 layer_factory.hpp:78] Creating layer 2_0_deconv_ReLU
I0614 23:09:38.013255 26781 net.cpp:69] Creating Layer 2_0_deconv_ReLU
I0614 23:09:38.013258 26781 net.cpp:396] 2_0_deconv_ReLU <- 2_0_deconv
I0614 23:09:38.013262 26781 net.cpp:347] 2_0_deconv_ReLU -> 2_0_deconv (in-place)
I0614 23:09:38.013265 26781 net.cpp:98] Setting up 2_0_deconv_ReLU
I0614 23:09:38.013267 26781 net.cpp:105] Top shape: 750 16 8 8 (768000)
I0614 23:09:38.013270 26781 layer_factory.hpp:78] Creating layer 1_unpool
I0614 23:09:38.013274 26781 net.cpp:69] Creating Layer 1_unpool
I0614 23:09:38.013276 26781 net.cpp:396] 1_unpool <- 2_0_deconv
I0614 23:09:38.013279 26781 net.cpp:396] 1_unpool <- 1_pool_mask
I0614 23:09:38.013283 26781 net.cpp:358] 1_unpool -> 1_unpool
I0614 23:09:38.013288 26781 net.cpp:98] Setting up 1_unpool
I0614 23:09:38.013290 26781 net.cpp:105] Top shape: 750 16 16 16 (3072000)
I0614 23:09:38.013293 26781 layer_factory.hpp:78] Creating layer 1_1_deconv
I0614 23:09:38.013298 26781 net.cpp:69] Creating Layer 1_1_deconv
I0614 23:09:38.013305 26781 net.cpp:396] 1_1_deconv <- 1_unpool
I0614 23:09:38.013310 26781 net.cpp:358] 1_1_deconv -> 1_1_deconv
I0614 23:09:38.013314 26781 net.cpp:98] Setting up 1_1_deconv
I0614 23:09:38.013331 26781 net.cpp:105] Top shape: 750 16 16 16 (3072000)
I0614 23:09:38.013335 26781 layer_factory.hpp:78] Creating layer 1_1_deconv_ReLU
I0614 23:09:38.013339 26781 net.cpp:69] Creating Layer 1_1_deconv_ReLU
I0614 23:09:38.013342 26781 net.cpp:396] 1_1_deconv_ReLU <- 1_1_deconv
I0614 23:09:38.013346 26781 net.cpp:347] 1_1_deconv_ReLU -> 1_1_deconv (in-place)
I0614 23:09:38.013350 26781 net.cpp:98] Setting up 1_1_deconv_ReLU
I0614 23:09:38.013352 26781 net.cpp:105] Top shape: 750 16 16 16 (3072000)
I0614 23:09:38.013355 26781 layer_factory.hpp:78] Creating layer 1_0_deconv
I0614 23:09:38.013358 26781 net.cpp:69] Creating Layer 1_0_deconv
I0614 23:09:38.013361 26781 net.cpp:396] 1_0_deconv <- 1_1_deconv
I0614 23:09:38.013365 26781 net.cpp:358] 1_0_deconv -> 1_0_deconv
I0614 23:09:38.013368 26781 net.cpp:98] Setting up 1_0_deconv
I0614 23:09:38.013386 26781 net.cpp:105] Top shape: 750 16 16 16 (3072000)
I0614 23:09:38.013389 26781 layer_factory.hpp:78] Creating layer 1_0_deconv_ReLU
I0614 23:09:38.013393 26781 net.cpp:69] Creating Layer 1_0_deconv_ReLU
I0614 23:09:38.013396 26781 net.cpp:396] 1_0_deconv_ReLU <- 1_0_deconv
I0614 23:09:38.013399 26781 net.cpp:347] 1_0_deconv_ReLU -> 1_0_deconv (in-place)
I0614 23:09:38.013402 26781 net.cpp:98] Setting up 1_0_deconv_ReLU
I0614 23:09:38.013406 26781 net.cpp:105] Top shape: 750 16 16 16 (3072000)
I0614 23:09:38.013407 26781 layer_factory.hpp:78] Creating layer 0_unpool
I0614 23:09:38.013411 26781 net.cpp:69] Creating Layer 0_unpool
I0614 23:09:38.013413 26781 net.cpp:396] 0_unpool <- 1_0_deconv
I0614 23:09:38.013417 26781 net.cpp:396] 0_unpool <- 0_pool_mask
I0614 23:09:38.013422 26781 net.cpp:358] 0_unpool -> 0_unpool
I0614 23:09:38.013424 26781 net.cpp:98] Setting up 0_unpool
I0614 23:09:38.013427 26781 net.cpp:105] Top shape: 750 16 32 32 (12288000)
I0614 23:09:38.013430 26781 layer_factory.hpp:78] Creating layer 0_1_deconv
I0614 23:09:38.013434 26781 net.cpp:69] Creating Layer 0_1_deconv
I0614 23:09:38.013437 26781 net.cpp:396] 0_1_deconv <- 0_unpool
I0614 23:09:38.013440 26781 net.cpp:358] 0_1_deconv -> 0_1_deconv
I0614 23:09:38.013444 26781 net.cpp:98] Setting up 0_1_deconv
I0614 23:09:38.013463 26781 net.cpp:105] Top shape: 750 16 32 32 (12288000)
I0614 23:09:38.013468 26781 layer_factory.hpp:78] Creating layer 0_1_deconv_ReLU
I0614 23:09:38.013473 26781 net.cpp:69] Creating Layer 0_1_deconv_ReLU
I0614 23:09:38.013476 26781 net.cpp:396] 0_1_deconv_ReLU <- 0_1_deconv
I0614 23:09:38.013479 26781 net.cpp:347] 0_1_deconv_ReLU -> 0_1_deconv (in-place)
I0614 23:09:38.013483 26781 net.cpp:98] Setting up 0_1_deconv_ReLU
I0614 23:09:38.013485 26781 net.cpp:105] Top shape: 750 16 32 32 (12288000)
I0614 23:09:38.013489 26781 layer_factory.hpp:78] Creating layer 0_0_deconv
I0614 23:09:38.013494 26781 net.cpp:69] Creating Layer 0_0_deconv
I0614 23:09:38.013496 26781 net.cpp:396] 0_0_deconv <- 0_1_deconv
I0614 23:09:38.013501 26781 net.cpp:358] 0_0_deconv -> 0_0_deconv
I0614 23:09:38.013505 26781 net.cpp:98] Setting up 0_0_deconv
I0614 23:09:38.013522 26781 net.cpp:105] Top shape: 750 16 32 32 (12288000)
I0614 23:09:38.013527 26781 layer_factory.hpp:78] Creating layer 0_0_deconv_ReLU
I0614 23:09:38.013530 26781 net.cpp:69] Creating Layer 0_0_deconv_ReLU
I0614 23:09:38.013533 26781 net.cpp:396] 0_0_deconv_ReLU <- 0_0_deconv
I0614 23:09:38.013536 26781 net.cpp:347] 0_0_deconv_ReLU -> 0_0_deconv (in-place)
I0614 23:09:38.013540 26781 net.cpp:98] Setting up 0_0_deconv_ReLU
I0614 23:09:38.013542 26781 net.cpp:105] Top shape: 750 16 32 32 (12288000)
I0614 23:09:38.013545 26781 layer_factory.hpp:78] Creating layer reconstruct1
I0614 23:09:38.013551 26781 net.cpp:69] Creating Layer reconstruct1
I0614 23:09:38.013553 26781 net.cpp:396] reconstruct1 <- 0_0_deconv
I0614 23:09:38.013561 26781 net.cpp:358] reconstruct1 -> reconstruct1
I0614 23:09:38.013566 26781 net.cpp:98] Setting up reconstruct1
I0614 23:09:38.013824 26781 net.cpp:105] Top shape: 750 3 32 32 (2304000)
I0614 23:09:38.013831 26781 layer_factory.hpp:78] Creating layer reconstruct2
I0614 23:09:38.013836 26781 net.cpp:69] Creating Layer reconstruct2
I0614 23:09:38.013839 26781 net.cpp:396] reconstruct2 <- reconstruct1
I0614 23:09:38.013844 26781 net.cpp:358] reconstruct2 -> reconstruct2
I0614 23:09:38.013849 26781 net.cpp:98] Setting up reconstruct2
I0614 23:09:38.013905 26781 net.cpp:105] Top shape: 750 3 32 32 (2304000)
I0614 23:09:38.013909 26781 layer_factory.hpp:78] Creating layer L2_Loss
I0614 23:09:38.013914 26781 net.cpp:69] Creating Layer L2_Loss
I0614 23:09:38.013917 26781 net.cpp:396] L2_Loss <- data_data_0_split_1
I0614 23:09:38.013921 26781 net.cpp:396] L2_Loss <- reconstruct2
I0614 23:09:38.013924 26781 net.cpp:358] L2_Loss -> L2_Loss
I0614 23:09:38.013928 26781 net.cpp:98] Setting up L2_Loss
I0614 23:09:38.013934 26781 net.cpp:105] Top shape: 1 1 1 1 (1)
I0614 23:09:38.013936 26781 net.cpp:111]     with loss weight 1
I0614 23:09:38.013949 26781 net.cpp:172] L2_Loss needs backward computation.
I0614 23:09:38.013952 26781 net.cpp:172] reconstruct2 needs backward computation.
I0614 23:09:38.013955 26781 net.cpp:172] reconstruct1 needs backward computation.
I0614 23:09:38.013958 26781 net.cpp:172] 0_0_deconv_ReLU needs backward computation.
…
