…
ror: Failed to initialize libdc1394
I0623 20:47:34.402595 26722 caffe.cpp:134] Use GPU with device ID 0
I0623 20:47:34.521131 26722 net.cpp:277] The NetState phase (1) differed from the phase (0) specified by a rule in layer data
I0623 20:47:34.521312 26722 net.cpp:39] Initializing net from parameters: 
layers {
  top: "data"
  name: "data"
  type: DATA
  data_param {
    source: "/dataset/cifar100_lmdb_lab/cifar100_test_lmdb"
    batch_size: 750
    backend: LMDB
  }
  include {
    phase: TEST
  }
  transform_param {
    mean_file: "/dataset/cifar100_lmdb_lab/mean.binaryproto"
  }
}
layers {
  bottom: "data"
  top: "0_0_conv"
  name: "0_0_conv"
  type: CONVOLUTION
  blobs_lr: 0
  blobs_lr: 0
  weight_decay: 0
  weight_decay: 0
  convolution_param {
    num_output: 32
    pad: 1
    kernel_size: 3
    stride: 1
    weight_filler {
      type: "xavier"
    }
    bias_filler {
      type: "constant"
      value: 0
    }
  }
}
layers {
  bottom: "0_0_conv"
  top: "0_0_conv"
  name: "0_0_conv_ReLU"
  type: RELU
}
layers {
  bottom: "0_0_conv"
  top: "0_1_conv"
  name: "0_1_conv"
  type: CONVOLUTION
  blobs_lr: 0
  blobs_lr: 0
  weight_decay: 0
  weight_decay: 0
  convolution_param {
    num_output: 32
    pad: 1
    kernel_size: 3
    stride: 1
    weight_filler {
      type: "xavier"
    }
    bias_filler {
      type: "constant"
      value: 0
    }
  }
}
layers {
  bottom: "0_1_conv"
  top: "0_1_conv"
  name: "0_1_conv_ReLU"
  type: RELU
}
layers {
  bottom: "0_1_conv"
  top: "0_pool"
  top: "0_pool_mask"
  name: "0_pool"
  type: POOLING
  pooling_param {
    pool: MAX
    kernel_size: 2
    stride: 2
  }
}
layers {
  bottom: "0_pool"
  top: "1_0_conv"
  name: "1_0_conv"
  type: CONVOLUTION
  blobs_lr: 0
  blobs_lr: 0
  weight_decay: 0
  weight_decay: 0
  convolution_param {
    num_output: 32
    pad: 1
    kernel_size: 3
    stride: 1
    weight_filler {
      type: "xavier"
    }
    bias_filler {
      type: "constant"
      value: 0
    }
  }
}
layers {
  bottom: "1_0_conv"
  top: "1_0_conv"
  name: "1_0_conv_ReLU"
  type: RELU
}
layers {
  bottom: "1_0_conv"
  top: "1_1_conv"
  name: "1_1_conv"
  type: CONVOLUTION
  blobs_lr: 0
  blobs_lr: 0
  weight_decay: 0
  weight_decay: 0
  convolution_param {
    num_output: 32
    pad: 1
    kernel_size: 3
    stride: 1
    weight_filler {
      type: "xavier"
    }
    bias_filler {
      type: "constant"
      value: 0
    }
  }
}
layers {
  bottom: "1_1_conv"
  top: "1_1_conv"
  name: "1_1_conv_ReLU"
  type: RELU
}
layers {
  bottom: "1_1_conv"
  top: "1_pool"
  top: "1_pool_mask"
  name: "1_pool"
  type: POOLING
  pooling_param {
    pool: MAX
    kernel_size: 2
    stride: 2
  }
}
layers {
  bottom: "1_pool"
  top: "2_0_conv"
  name: "2_0_conv"
  type: CONVOLUTION
  blobs_lr: 0
  blobs_lr: 0
  weight_decay: 0
  weight_decay: 0
  convolution_param {
    num_output: 32
    pad: 1
    kernel_size: 3
    stride: 1
    weight_filler {
      type: "xavier"
    }
    bias_filler {
      type: "constant"
      value: 0
    }
  }
}
layers {
  bottom: "2_0_conv"
  top: "2_0_conv"
  name: "2_0_conv_ReLU"
  type: RELU
}
layers {
  bottom: "2_0_conv"
  top: "2_1_conv"
  name: "2_1_conv"
  type: CONVOLUTION
  blobs_lr: 0
  blobs_lr: 0
  weight_decay: 0
  weight_decay: 0
  convolution_param {
    num_output: 32
    pad: 1
    kernel_size: 3
    stride: 1
    weight_filler {
      type: "xavier"
    }
    bias_filler {
      type: "constant"
      value: 0
    }
  }
}
layers {
  bottom: "2_1_conv"
  top: "2_1_conv"
  name: "2_1_conv_ReLU"
  type: RELU
}
layers {
  bottom: "2_1_conv"
  top: "2_pool"
  top: "2_pool_mask"
  name: "2_pool"
  type: POOLING
  pooling_param {
    pool: MAX
    kernel_size: 2
    stride: 2
  }
}
layers {
  bottom: "2_pool"
  top: "middle_conv"
  name: "middle_conv"
  type: CONVOLUTION
  blobs_lr: 0
  blobs_lr: 0
  weight_decay: 0
  weight_decay: 0
  convolution_param {
    num_output: 50
    pad: 0
    kernel_size: 4
    stride: 1
    weight_filler {
      type: "xavier"
    }
    bias_filler {
      type: "constant"
      value: 0
    }
  }
}
layers {
  bottom: "middle_conv"
  top: "middle_deconv"
  name: "middle_deconv"
  type: DECONVOLUTION
  blobs_lr: 1
  blobs_lr: 2
  weight_decay: 0
  weight_decay: 0
  convolution_param {
    num_output: 32
    pad: 1
    kernel_size: 4
    stride: 1
    weight_filler {
      type: "xavier"
    }
    bias_filler {
      type: "constant"
      value: 0
    }
  }
}
layers {
  bottom: "middle_deconv"
  bottom: "2_pool_mask"
  top: "2_unpool"
  name: "2_unpool"
  type: UNPOOLING
  unpooling_param {
    unpool: MAX
    kernel_size: 2
    stride: 2
    unpool_size: 8
  }
}
layers {
  bottom: "2_unpool"
  top: "2_1_deconv"
  name: "2_1_deconv"
  type: DECONVOLUTION
  blobs_lr: 1
  blobs_lr: 2
  weight_decay: 0
  weight_decay: 0
  convolution_param {
    num_output: 32
    pad: 1
    kernel_size: 3
    stride: 1
    weight_filler {
      type: "xavier"
    }
    bias_filler {
      type: "constant"
      value: 0
    }
  }
}
layers {
  bottom: "2_1_deconv"
  top: "2_1_deconv"
  name: "2_1_deconv_ReLU"
  type: RELU
}
layers {
  bottom: "2_1_deconv"
  top: "2_0_deconv"
  name: "2_0_deconv"
  type: DECONVOLUTION
  blobs_lr: 1
  blobs_lr: 2
  weight_decay: 0
  weight_decay: 0
  convolution_param {
    num_output: 32
    pad: 1
    kernel_size: 3
    stride: 1
    weight_filler {
      type: "xavier"
    }
    bias_filler {
      type: "constant"
      value: 0
    }
  }
}
layers {
  bottom: "2_0_deconv"
  top: "2_0_deconv"
  name: "2_0_deconv_ReLU"
  type: RELU
}
layers {
  bottom: "2_0_deconv"
  bottom: "1_pool_mask"
  top: "1_unpool"
  name: "1_unpool"
  type: UNPOOLING
  unpooling_param {
    unpool: MAX
    kernel_size: 2
    stride: 2
    unpool_size: 16
  }
}
layers {
  bottom: "1_unpool"
  top: "1_1_deconv"
  name: "1_1_deconv"
  type: DECONVOLUTION
  blobs_lr: 1
  blobs_lr: 2
  weight_decay: 0
  weight_decay: 0
  convolution_param {
    num_output: 32
    pad: 1
    kernel_size: 3
    stride: 1
    weight_filler {
      type: "xavier"
    }
    bias_filler {
      type: "constant"
      value: 0
    }
  }
}
layers {
  bottom: "1_1_deconv"
  top: "1_1_deconv"
  name: "1_1_deconv_ReLU"
  type: RELU
}
layers {
  bottom: "1_1_deconv"
  top: "1_0_deconv"
  name: "1_0_deconv"
  type: DECONVOLUTION
  blobs_lr: 1
  blobs_lr: 2
  weight_decay: 0
  weight_decay: 0
  convolution_param {
    num_output: 32
    pad: 1
    kernel_size: 3
    stride: 1
    weight_filler {
      type: "xavier"
    }
    bias_filler {
      type: "constant"
      value: 0
    }
  }
}
layers {
  bottom: "1_0_deconv"
  top: "1_0_deconv"
  name: "1_0_deconv_ReLU"
  type: RELU
}
layers {
  bottom: "1_0_deconv"
  bottom: "0_pool_mask"
  top: "0_unpool"
  name: "0_unpool"
  type: UNPOOLING
  unpooling_param {
    unpool: MAX
    kernel_size: 2
    stride: 2
    unpool_size: 32
  }
}
layers {
  bottom: "0_unpool"
  top: "0_1_deconv"
  name: "0_1_deconv"
  type: DECONVOLUTION
  blobs_lr: 1
  blobs_lr: 2
  weight_decay: 0
  weight_decay: 0
  convolution_param {
    num_output: 32
    pad: 1
    kernel_size: 3
    stride: 1
    weight_filler {
      type: "xavier"
    }
    bias_filler {
      type: "constant"
      value: 0
    }
  }
}
layers {
  bottom: "0_1_deconv"
  top: "0_1_deconv"
  name: "0_1_deconv_ReLU"
  type: RELU
}
layers {
  bottom: "0_1_deconv"
  top: "0_0_deconv"
  name: "0_0_deconv"
  type: DECONVOLUTION
  blobs_lr: 1
  blobs_lr: 2
  weight_decay: 0
  weight_decay: 0
  convolution_param {
    num_output: 32
    pad: 1
    kernel_size: 3
    stride: 1
    weight_filler {
      type: "xavier"
    }
    bias_filler {
      type: "constant"
      value: 0
    }
  }
}
layers {
  bottom: "0_0_deconv"
  top: "0_0_deconv"
  name: "0_0_deconv_ReLU"
  type: RELU
}
layers {
  bottom: "0_0_deconv"
  top: "reconstruct1"
  name: "reconstruct1"
  type: LOCAL
  blobs_lr: 1
  blobs_lr: 2
  weight_decay: 0
  weight_decay: 0
  local_param {
    num_output: 3
    pad: 0
    kernel_size: 1
    stride: 1
    weight_filler {
      type: "xavier"
    }
    bias_filler {
      type: "constant"
      value: 0
    }
  }
}
layers {
  bottom: "reconstruct1"
  top: "reconstruct2"
  name: "reconstruct2"
  type: LOCAL
  blobs_lr: 1
  blobs_lr: 2
  weight_decay: 0
  weight_decay: 0
  local_param {
    num_output: 3
    pad: 0
    kernel_size: 1
    stride: 1
    weight_filler {
      type: "xavier"
    }
    bias_filler {
      type: "constant"
      value: 0
    }
  }
}
layers {
  bottom: "data"
  bottom: "reconstruct2"
  top: "L2_Loss"
  name: "L2_Loss"
  type: EUCLIDEAN_LOSS
}
I0623 20:47:34.521428 26722 layer_factory.hpp:78] Creating layer data
I0623 20:47:34.521442 26722 data_transformer.cpp:25] Loading mean file from/dataset/cifar100_lmdb_lab/mean.binaryproto
I0623 20:47:34.521489 26722 net.cpp:69] Creating Layer data
I0623 20:47:34.521495 26722 net.cpp:358] data -> data
I0623 20:47:34.521502 26722 net.cpp:98] Setting up data
I0623 20:47:34.521507 26722 data_layer.cpp:32] Opening dataset /dataset/cifar100_lmdb_lab/cifar100_test_lmdb
I0623 20:47:34.521574 26722 data_layer.cpp:71] output data size: 750,3,32,32
I0623 20:47:34.522490 26722 net.cpp:105] Top shape: 750 3 32 32 (2304000)
I0623 20:47:34.522514 26722 layer_factory.hpp:78] Creating layer data_data_0_split
I0623 20:47:34.522522 26722 net.cpp:69] Creating Layer data_data_0_split
I0623 20:47:34.522526 26722 net.cpp:396] data_data_0_split <- data
I0623 20:47:34.522531 26722 net.cpp:358] data_data_0_split -> data_data_0_split_0
I0623 20:47:34.522538 26722 net.cpp:358] data_data_0_split -> data_data_0_split_1
I0623 20:47:34.522543 26722 net.cpp:98] Setting up data_data_0_split
I0623 20:47:34.522549 26722 net.cpp:105] Top shape: 750 3 32 32 (2304000)
I0623 20:47:34.522552 26722 net.cpp:105] Top shape: 750 3 32 32 (2304000)
I0623 20:47:34.522555 26722 layer_factory.hpp:78] Creating layer 0_0_conv
I0623 20:47:34.522562 26722 net.cpp:69] Creating Layer 0_0_conv
I0623 20:47:34.522564 26722 net.cpp:396] 0_0_conv <- data_data_0_split_0
I0623 20:47:34.522572 26722 net.cpp:358] 0_0_conv -> 0_0_conv
I0623 20:47:34.522577 26722 net.cpp:98] Setting up 0_0_conv
I0623 20:47:34.522862 26722 net.cpp:105] Top shape: 750 32 32 32 (24576000)
I0623 20:47:34.522873 26722 layer_factory.hpp:78] Creating layer 0_0_conv_ReLU
I0623 20:47:34.522878 26722 net.cpp:69] Creating Layer 0_0_conv_ReLU
I0623 20:47:34.522881 26722 net.cpp:396] 0_0_conv_ReLU <- 0_0_conv
I0623 20:47:34.522884 26722 net.cpp:347] 0_0_conv_ReLU -> 0_0_conv (in-place)
I0623 20:47:34.522888 26722 net.cpp:98] Setting up 0_0_conv_ReLU
I0623 20:47:34.522892 26722 net.cpp:105] Top shape: 750 32 32 32 (24576000)
I0623 20:47:34.522896 26722 layer_factory.hpp:78] Creating layer 0_1_conv
I0623 20:47:34.522902 26722 net.cpp:69] Creating Layer 0_1_conv
I0623 20:47:34.522903 26722 net.cpp:396] 0_1_conv <- 0_0_conv
I0623 20:47:34.522908 26722 net.cpp:358] 0_1_conv -> 0_1_conv
I0623 20:47:34.522912 26722 net.cpp:98] Setting up 0_1_conv
I0623 20:47:34.522965 26722 net.cpp:105] Top shape: 750 32 32 32 (24576000)
I0623 20:47:34.522971 26722 layer_factory.hpp:78] Creating layer 0_1_conv_ReLU
I0623 20:47:34.522975 26722 net.cpp:69] Creating Layer 0_1_conv_ReLU
I0623 20:47:34.522977 26722 net.cpp:396] 0_1_conv_ReLU <- 0_1_conv
I0623 20:47:34.522982 26722 net.cpp:347] 0_1_conv_ReLU -> 0_1_conv (in-place)
I0623 20:47:34.522985 26722 net.cpp:98] Setting up 0_1_conv_ReLU
I0623 20:47:34.522989 26722 net.cpp:105] Top shape: 750 32 32 32 (24576000)
I0623 20:47:34.522991 26722 layer_factory.hpp:78] Creating layer 0_pool
I0623 20:47:34.522995 26722 net.cpp:69] Creating Layer 0_pool
I0623 20:47:34.522999 26722 net.cpp:396] 0_pool <- 0_1_conv
I0623 20:47:34.523002 26722 net.cpp:358] 0_pool -> 0_pool
I0623 20:47:34.523007 26722 net.cpp:358] 0_pool -> 0_pool_mask
I0623 20:47:34.523012 26722 net.cpp:98] Setting up 0_pool
I0623 20:47:34.523018 26722 net.cpp:105] Top shape: 750 32 16 16 (6144000)
I0623 20:47:34.523021 26722 net.cpp:105] Top shape: 750 32 16 16 (6144000)
I0623 20:47:34.523023 26722 layer_factory.hpp:78] Creating layer 1_0_conv
I0623 20:47:34.523028 26722 net.cpp:69] Creating Layer 1_0_conv
I0623 20:47:34.523030 26722 net.cpp:396] 1_0_conv <- 0_pool
I0623 20:47:34.523036 26722 net.cpp:358] 1_0_conv -> 1_0_conv
I0623 20:47:34.523041 26722 net.cpp:98] Setting up 1_0_conv
I0623 20:47:34.523111 26722 net.cpp:105] Top shape: 750 32 16 16 (6144000)
I0623 20:47:34.523130 26722 layer_factory.hpp:78] Creating layer 1_0_conv_ReLU
I0623 20:47:34.523135 26722 net.cpp:69] Creating Layer 1_0_conv_ReLU
I0623 20:47:34.523138 26722 net.cpp:396] 1_0_conv_ReLU <- 1_0_conv
I0623 20:47:34.523141 26722 net.cpp:347] 1_0_conv_ReLU -> 1_0_conv (in-place)
I0623 20:47:34.523145 26722 net.cpp:98] Setting up 1_0_conv_ReLU
I0623 20:47:34.523149 26722 net.cpp:105] Top shape: 750 32 16 16 (6144000)
I0623 20:47:34.523151 26722 layer_factory.hpp:78] Creating layer 1_1_conv
I0623 20:47:34.523156 26722 net.cpp:69] Creating Layer 1_1_conv
I0623 20:47:34.523159 26722 net.cpp:396] 1_1_conv <- 1_0_conv
I0623 20:47:34.523164 26722 net.cpp:358] 1_1_conv -> 1_1_conv
I0623 20:47:34.523169 26722 net.cpp:98] Setting up 1_1_conv
I0623 20:47:34.523227 26722 net.cpp:105] Top shape: 750 32 16 16 (6144000)
I0623 20:47:34.523233 26722 layer_factory.hpp:78] Creating layer 1_1_conv_ReLU
I0623 20:47:34.523239 26722 net.cpp:69] Creating Layer 1_1_conv_ReLU
I0623 20:47:34.523242 26722 net.cpp:396] 1_1_conv_ReLU <- 1_1_conv
I0623 20:47:34.523246 26722 net.cpp:347] 1_1_conv_ReLU -> 1_1_conv (in-place)
I0623 20:47:34.523249 26722 net.cpp:98] Setting up 1_1_conv_ReLU
I0623 20:47:34.523252 26722 net.cpp:105] Top shape: 750 32 16 16 (6144000)
I0623 20:47:34.523254 26722 layer_factory.hpp:78] Creating layer 1_pool
I0623 20:47:34.523258 26722 net.cpp:69] Creating Layer 1_pool
I0623 20:47:34.523262 26722 net.cpp:396] 1_pool <- 1_1_conv
I0623 20:47:34.523265 26722 net.cpp:358] 1_pool -> 1_pool
I0623 20:47:34.523270 26722 net.cpp:358] 1_pool -> 1_pool_mask
I0623 20:47:34.523274 26722 net.cpp:98] Setting up 1_pool
I0623 20:47:34.523278 26722 net.cpp:105] Top shape: 750 32 8 8 (1536000)
I0623 20:47:34.523282 26722 net.cpp:105] Top shape: 750 32 8 8 (1536000)
I0623 20:47:34.523284 26722 layer_factory.hpp:78] Creating layer 2_0_conv
I0623 20:47:34.523288 26722 net.cpp:69] Creating Layer 2_0_conv
I0623 20:47:34.523291 26722 net.cpp:396] 2_0_conv <- 1_pool
I0623 20:47:34.523295 26722 net.cpp:358] 2_0_conv -> 2_0_conv
I0623 20:47:34.523300 26722 net.cpp:98] Setting up 2_0_conv
I0623 20:47:34.523350 26722 net.cpp:105] Top shape: 750 32 8 8 (1536000)
I0623 20:47:34.523356 26722 layer_factory.hpp:78] Creating layer 2_0_conv_ReLU
I0623 20:47:34.523360 26722 net.cpp:69] Creating Layer 2_0_conv_ReLU
I0623 20:47:34.523363 26722 net.cpp:396] 2_0_conv_ReLU <- 2_0_conv
I0623 20:47:34.523366 26722 net.cpp:347] 2_0_conv_ReLU -> 2_0_conv (in-place)
I0623 20:47:34.523370 26722 net.cpp:98] Setting up 2_0_conv_ReLU
I0623 20:47:34.523373 26722 net.cpp:105] Top shape: 750 32 8 8 (1536000)
I0623 20:47:34.523375 26722 layer_factory.hpp:78] Creating layer 2_1_conv
I0623 20:47:34.523386 26722 net.cpp:69] Creating Layer 2_1_conv
I0623 20:47:34.523388 26722 net.cpp:396] 2_1_conv <- 2_0_conv
I0623 20:47:34.523392 26722 net.cpp:358] 2_1_conv -> 2_1_conv
I0623 20:47:34.523396 26722 net.cpp:98] Setting up 2_1_conv
I0623 20:47:34.523448 26722 net.cpp:105] Top shape: 750 32 8 8 (1536000)
I0623 20:47:34.523452 26722 layer_factory.hpp:78] Creating layer 2_1_conv_ReLU
I0623 20:47:34.523457 26722 net.cpp:69] Creating Layer 2_1_conv_ReLU
I0623 20:47:34.523459 26722 net.cpp:396] 2_1_conv_ReLU <- 2_1_conv
I0623 20:47:34.523463 26722 net.cpp:347] 2_1_conv_ReLU -> 2_1_conv (in-place)
I0623 20:47:34.523465 26722 net.cpp:98] Setting up 2_1_conv_ReLU
I0623 20:47:34.523468 26722 net.cpp:105] Top shape: 750 32 8 8 (1536000)
I0623 20:47:34.523471 26722 layer_factory.hpp:78] Creating layer 2_pool
I0623 20:47:34.523476 26722 net.cpp:69] Creating Layer 2_pool
I0623 20:47:34.523479 26722 net.cpp:396] 2_pool <- 2_1_conv
I0623 20:47:34.523483 26722 net.cpp:358] 2_pool -> 2_pool
I0623 20:47:34.523488 26722 net.cpp:358] 2_pool -> 2_pool_mask
I0623 20:47:34.523493 26722 net.cpp:98] Setting up 2_pool
I0623 20:47:34.523495 26722 net.cpp:105] Top shape: 750 32 4 4 (384000)
I0623 20:47:34.523499 26722 net.cpp:105] Top shape: 750 32 4 4 (384000)
I0623 20:47:34.523501 26722 layer_factory.hpp:78] Creating layer middle_conv
I0623 20:47:34.523509 26722 net.cpp:69] Creating Layer middle_conv
I0623 20:47:34.523515 26722 net.cpp:396] middle_conv <- 2_pool
I0623 20:47:34.523519 26722 net.cpp:358] middle_conv -> middle_conv
I0623 20:47:34.523524 26722 net.cpp:98] Setting up middle_conv
I0623 20:47:34.523653 26722 net.cpp:105] Top shape: 750 50 1 1 (37500)
I0623 20:47:34.523658 26722 layer_factory.hpp:78] Creating layer middle_deconv
I0623 20:47:34.523666 26722 net.cpp:69] Creating Layer middle_deconv
I0623 20:47:34.523669 26722 net.cpp:396] middle_deconv <- middle_conv
I0623 20:47:34.523674 26722 net.cpp:358] middle_deconv -> middle_deconv
I0623 20:47:34.523679 26722 net.cpp:98] Setting up middle_deconv
I0623 20:47:34.523813 26722 net.cpp:105] Top shape: 750 32 2 2 (96000)
I0623 20:47:34.523818 26722 layer_factory.hpp:78] Creating layer 2_unpool
I0623 20:47:34.523823 26722 net.cpp:69] Creating Layer 2_unpool
I0623 20:47:34.523825 26722 net.cpp:396] 2_unpool <- middle_deconv
I0623 20:47:34.523829 26722 net.cpp:396] 2_unpool <- 2_pool_mask
I0623 20:47:34.523833 26722 net.cpp:358] 2_unpool -> 2_unpool
I0623 20:47:34.523838 26722 net.cpp:98] Setting up 2_unpool
I0623 20:47:34.523844 26722 net.cpp:105] Top shape: 750 32 8 8 (1536000)
I0623 20:47:34.523847 26722 layer_factory.hpp:78] Creating layer 2_1_deconv
I0623 20:47:34.523851 26722 net.cpp:69] Creating Layer 2_1_deconv
I0623 20:47:34.523854 26722 net.cpp:396] 2_1_deconv <- 2_unpool
I0623 20:47:34.523861 26722 net.cpp:358] 2_1_deconv -> 2_1_deconv
I0623 20:47:34.523865 26722 net.cpp:98] Setting up 2_1_deconv
I0623 20:47:34.523921 26722 net.cpp:105] Top shape: 750 32 8 8 (1536000)
I0623 20:47:34.523929 26722 layer_factory.hpp:78] Creating layer 2_1_deconv_ReLU
I0623 20:47:34.523933 26722 net.cpp:69] Creating Layer 2_1_deconv_ReLU
I0623 20:47:34.523936 26722 net.cpp:396] 2_1_deconv_ReLU <- 2_1_deconv
I0623 20:47:34.523941 26722 net.cpp:347] 2_1_deconv_ReLU -> 2_1_deconv (in-place)
I0623 20:47:34.523944 26722 net.cpp:98] Setting up 2_1_deconv_ReLU
I0623 20:47:34.523947 26722 net.cpp:105] Top shape: 750 32 8 8 (1536000)
I0623 20:47:34.523949 26722 layer_factory.hpp:78] Creating layer 2_0_deconv
I0623 20:47:34.523954 26722 net.cpp:69] Creating Layer 2_0_deconv
I0623 20:47:34.523957 26722 net.cpp:396] 2_0_deconv <- 2_1_deconv
I0623 20:47:34.523962 26722 net.cpp:358] 2_0_deconv -> 2_0_deconv
I0623 20:47:34.523967 26722 net.cpp:98] Setting up 2_0_deconv
I0623 20:47:34.524018 26722 net.cpp:105] Top shape: 750 32 8 8 (1536000)
I0623 20:47:34.524022 26722 layer_factory.hpp:78] Creating layer 2_0_deconv_ReLU
I0623 20:47:34.524025 26722 net.cpp:69] Creating Layer 2_0_deconv_ReLU
I0623 20:47:34.524029 26722 net.cpp:396] 2_0_deconv_ReLU <- 2_0_deconv
I0623 20:47:34.524031 26722 net.cpp:347] 2_0_deconv_ReLU -> 2_0_deconv (in-place)
I0623 20:47:34.524035 26722 net.cpp:98] Setting up 2_0_deconv_ReLU
I0623 20:47:34.524039 26722 net.cpp:105] Top shape: 750 32 8 8 (1536000)
I0623 20:47:34.524041 26722 layer_factory.hpp:78] Creating layer 1_unpool
I0623 20:47:34.524044 26722 net.cpp:69] Creating Layer 1_unpool
I0623 20:47:34.524047 26722 net.cpp:396] 1_unpool <- 2_0_deconv
I0623 20:47:34.524050 26722 net.cpp:396] 1_unpool <- 1_pool_mask
I0623 20:47:34.524055 26722 net.cpp:358] 1_unpool -> 1_unpool
I0623 20:47:34.524060 26722 net.cpp:98] Setting up 1_unpool
I0623 20:47:34.524062 26722 net.cpp:105] Top shape: 750 32 16 16 (6144000)
I0623 20:47:34.524065 26722 layer_factory.hpp:78] Creating layer 1_1_deconv
I0623 20:47:34.524070 26722 net.cpp:69] Creating Layer 1_1_deconv
I0623 20:47:34.524073 26722 net.cpp:396] 1_1_deconv <- 1_unpool
I0623 20:47:34.524077 26722 net.cpp:358] 1_1_deconv -> 1_1_deconv
I0623 20:47:34.524081 26722 net.cpp:98] Setting up 1_1_deconv
I0623 20:47:34.524140 26722 net.cpp:105] Top shape: 750 32 16 16 (6144000)
I0623 20:47:34.524147 26722 layer_factory.hpp:78] Creating layer 1_1_deconv_ReLU
I0623 20:47:34.524150 26722 net.cpp:69] Creating Layer 1_1_deconv_ReLU
I0623 20:47:34.524153 26722 net.cpp:396] 1_1_deconv_ReLU <- 1_1_deconv
I0623 20:47:34.524159 26722 net.cpp:347] 1_1_deconv_ReLU -> 1_1_deconv (in-place)
I0623 20:47:34.524165 26722 net.cpp:98] Setting up 1_1_deconv_ReLU
I0623 20:47:34.524173 26722 net.cpp:105] Top shape: 750 32 16 16 (6144000)
I0623 20:47:34.524176 26722 layer_factory.hpp:78] Creating layer 1_0_deconv
I0623 20:47:34.524180 26722 net.cpp:69] Creating Layer 1_0_deconv
I0623 20:47:34.524183 26722 net.cpp:396] 1_0_deconv <- 1_1_deconv
I0623 20:47:34.524188 26722 net.cpp:358] 1_0_deconv -> 1_0_deconv
I0623 20:47:34.524191 26722 net.cpp:98] Setting up 1_0_deconv
I0623 20:47:34.524245 26722 net.cpp:105] Top shape: 750 32 16 16 (6144000)
I0623 20:47:34.524250 26722 layer_factory.hpp:78] Creating layer 1_0_deconv_ReLU
I0623 20:47:34.524253 26722 net.cpp:69] Creating Layer 1_0_deconv_ReLU
I0623 20:47:34.524256 26722 net.cpp:396] 1_0_deconv_ReLU <- 1_0_deconv
I0623 20:47:34.524260 26722 net.cpp:347] 1_0_deconv_ReLU -> 1_0_deconv (in-place)
I0623 20:47:34.524263 26722 net.cpp:98] Setting up 1_0_deconv_ReLU
I0623 20:47:34.524266 26722 net.cpp:105] Top shape: 750 32 16 16 (6144000)
I0623 20:47:34.524268 26722 layer_factory.hpp:78] Creating layer 0_unpool
I0623 20:47:34.524272 26722 net.cpp:69] Creating Layer 0_unpool
I0623 20:47:34.524276 26722 net.cpp:396] 0_unpool <- 1_0_deconv
I0623 20:47:34.524278 26722 net.cpp:396] 0_unpool <- 0_pool_mask
I0623 20:47:34.524286 26722 net.cpp:358] 0_unpool -> 0_unpool
I0623 20:47:34.524289 26722 net.cpp:98] Setting up 0_unpool
I0623 20:47:34.524293 26722 net.cpp:105] Top shape: 750 32 32 32 (24576000)
I0623 20:47:34.524296 26722 layer_factory.hpp:78] Creating layer 0_1_deconv
I0623 20:47:34.524299 26722 net.cpp:69] Creating Layer 0_1_deconv
I0623 20:47:34.524302 26722 net.cpp:396] 0_1_deconv <- 0_unpool
I0623 20:47:34.524307 26722 net.cpp:358] 0_1_deconv -> 0_1_deconv
I0623 20:47:34.524312 26722 net.cpp:98] Setting up 0_1_deconv
I0623 20:47:34.524364 26722 net.cpp:105] Top shape: 750 32 32 32 (24576000)
I0623 20:47:34.524369 26722 layer_factory.hpp:78] Creating layer 0_1_deconv_ReLU
I0623 20:47:34.524372 26722 net.cpp:69] Creating Layer 0_1_deconv_ReLU
I0623 20:47:34.524375 26722 net.cpp:396] 0_1_deconv_ReLU <- 0_1_deconv
I0623 20:47:34.524379 26722 net.cpp:347] 0_1_deconv_ReLU -> 0_1_deconv (in-place)
I0623 20:47:34.524384 26722 net.cpp:98] Setting up 0_1_deconv_ReLU
I0623 20:47:34.524386 26722 net.cpp:105] Top shape: 750 32 32 32 (24576000)
I0623 20:47:34.524389 26722 layer_factory.hpp:78] Creating layer 0_0_deconv
I0623 20:47:34.524394 26722 net.cpp:69] Creating Layer 0_0_deconv
I0623 20:47:34.524397 26722 net.cpp:396] 0_0_deconv <- 0_1_deconv
I0623 20:47:34.524401 26722 net.cpp:358] 0_0_deconv -> 0_0_deconv
I0623 20:47:34.524405 26722 net.cpp:98] Setting up 0_0_deconv
I0623 20:47:34.524456 26722 net.cpp:105] Top shape: 750 32 32 32 (24576000)
I0623 20:47:34.524461 26722 layer_factory.hpp:78] Creating layer 0_0_deconv_ReLU
I0623 20:47:34.524466 26722 net.cpp:69] Creating Layer 0_0_deconv_ReLU
I0623 20:47:34.524468 26722 net.cpp:396] 0_0_deconv_ReLU <- 0_0_deconv
I0623 20:47:34.524471 26722 net.cpp:347] 0_0_deconv_ReLU -> 0_0_deconv (in-place)
I0623 20:47:34.524474 26722 net.cpp:98] Setting up 0_0_deconv_ReLU
I0623 20:47:34.524477 26722 net.cpp:105] Top shape: 750 32 32 32 (24576000)
I0623 20:47:34.524480 26722 layer_factory.hpp:78] Creating layer reconstruct1
I0623 20:47:34.524492 26722 net.cpp:69] Creating Layer reconstruct1
I0623 20:47:34.524497 26722 net.cpp:396] reconstruct1 <- 0_0_deconv
I0623 20:47:34.524500 26722 net.cpp:358] reconstruct1 -> reconstruct1
I0623 20:47:34.524505 26722 net.cpp:98] Setting up reconstruct1
I0623 20:47:34.525049 26722 net.cpp:105] Top shape: 750 3 32 32 (2304000)
I0623 20:47:34.525055 26722 layer_factory.hpp:78] Creating layer reconstruct2
I0623 20:47:34.525061 26722 net.cpp:69] Creating Layer reconstruct2
I0623 20:47:34.525064 26722 net.cpp:396] reconstruct2 <- reconstruct1
I0623 20:47:34.525069 26722 net.cpp:358] reconstruct2 -> reconstruct2
I0623 20:47:34.525074 26722 net.cpp:98] Setting up reconstruct2
I0623 20:47:34.525128 26722 net.cpp:105] Top shape: 750 3 32 32 (2304000)
I0623 20:47:34.525133 26722 layer_factory.hpp:78] Creating layer L2_Loss
I0623 20:47:34.525140 26722 net.cpp:69] Creating Layer L2_Loss
I0623 20:47:34.525146 26722 net.cpp:396] L2_Loss <- data_data_0_split_1
I0623 20:47:34.525149 26722 net.cpp:396] L2_Loss <- reconstruct2
I0623 20:47:34.525153 26722 net.cpp:358] L2_Loss -> L2_Loss
I0623 20:47:34.525157 26722 net.cpp:98] Setting up L2_Loss
I0623 20:47:34.525166 26722 net.cpp:105] Top shape: 1 1 1 1 (1)
I0623 20:47:34.525168 26722 net.cpp:111]     with loss weight 1
I0623 20:47:34.525182 26722 net.cpp:172] L2_Loss needs backward computation.
I0623 20:47:34.525185 26722 net.cpp:172] reconstruct2 needs backward computation.
I0623 20:47:34.525188 26722 net.cpp:172] reconstruct1 needs backward computation.
I0623 20:47:34.525190 26722 net.cpp:172] 0_0_deconv_ReLU needs backward computation.
…
