…
I0615 15:55:08.643715  5063 net.cpp:277] The NetState phase (0) differed from the phase (1) specified by a rule in layer accuracy_top_1
I0615 15:55:08.643719  5063 net.cpp:277] The NetState phase (0) differed from the phase (1) specified by a rule in layer accuracy_top_5
I0615 15:55:08.643810  5063 net.cpp:39] Initializing net from parameters: 
layers {
  top: "data"
  top: "label"
  name: "data"
  type: DATA
  data_param {
    source: "/dataset/cifar100_lmdb_lab/cifar100_train_lmdb"
    batch_size: 128
    backend: LMDB
  }
  include {
    phase: TRAIN
  }
  transform_param {
    mean_file: "/dataset/cifar100_lmdb_lab/mean.binaryproto"
  }
}
layers {
  bottom: "data"
  top: "0_0_conv"
  name: "0_0_conv"
  type: CONVOLUTION
  blobs_lr: 1
  blobs_lr: 2
  weight_decay: 0
  weight_decay: 0
  convolution_param {
    num_output: 8
    pad: 1
    kernel_size: 3
    stride: 1
    weight_filler {
      type: "xavier"
    }
    bias_filler {
      type: "constant"
      value: 0
    }
  }
}
layers {
  bottom: "0_0_conv"
  top: "0_0_conv"
  name: "0_0_conv_ReLU"
  type: RELU
}
layers {
  bottom: "0_0_conv"
  top: "0_1_conv"
  name: "0_1_conv"
  type: CONVOLUTION
  blobs_lr: 1
  blobs_lr: 2
  weight_decay: 0
  weight_decay: 0
  convolution_param {
    num_output: 8
    pad: 1
    kernel_size: 3
    stride: 1
    weight_filler {
      type: "xavier"
    }
    bias_filler {
      type: "constant"
      value: 0
    }
  }
}
layers {
  bottom: "0_1_conv"
  top: "0_1_conv"
  name: "0_1_conv_ReLU"
  type: RELU
}
layers {
  bottom: "0_1_conv"
  top: "0_pool"
  name: "0_pool"
  type: POOLING
  pooling_param {
    pool: MAX
    kernel_size: 2
    stride: 2
  }
}
layers {
  bottom: "0_pool"
  top: "1_0_conv"
  name: "1_0_conv"
  type: CONVOLUTION
  blobs_lr: 1
  blobs_lr: 2
  weight_decay: 0
  weight_decay: 0
  convolution_param {
    num_output: 8
    pad: 1
    kernel_size: 3
    stride: 1
    weight_filler {
      type: "xavier"
    }
    bias_filler {
      type: "constant"
      value: 0
    }
  }
}
layers {
  bottom: "1_0_conv"
  top: "1_0_conv"
  name: "1_0_conv_ReLU"
  type: RELU
}
layers {
  bottom: "1_0_conv"
  top: "1_1_conv"
  name: "1_1_conv"
  type: CONVOLUTION
  blobs_lr: 1
  blobs_lr: 2
  weight_decay: 0
  weight_decay: 0
  convolution_param {
    num_output: 8
    pad: 1
    kernel_size: 3
    stride: 1
    weight_filler {
      type: "xavier"
    }
    bias_filler {
      type: "constant"
      value: 0
    }
  }
}
layers {
  bottom: "1_1_conv"
  top: "1_1_conv"
  name: "1_1_conv_ReLU"
  type: RELU
}
layers {
  bottom: "1_1_conv"
  top: "1_pool"
  name: "1_pool"
  type: POOLING
  pooling_param {
    pool: MAX
    kernel_size: 2
    stride: 2
  }
}
layers {
  bottom: "1_pool"
  top: "2_0_conv"
  name: "2_0_conv"
  type: CONVOLUTION
  blobs_lr: 1
  blobs_lr: 2
  weight_decay: 0
  weight_decay: 0
  convolution_param {
    num_output: 8
    pad: 1
    kernel_size: 3
    stride: 1
    weight_filler {
      type: "xavier"
    }
    bias_filler {
      type: "constant"
      value: 0
    }
  }
}
layers {
  bottom: "2_0_conv"
  top: "2_0_conv"
  name: "2_0_conv_ReLU"
  type: RELU
}
layers {
  bottom: "2_0_conv"
  top: "2_1_conv"
  name: "2_1_conv"
  type: CONVOLUTION
  blobs_lr: 1
  blobs_lr: 2
  weight_decay: 0
  weight_decay: 0
  convolution_param {
    num_output: 8
    pad: 1
    kernel_size: 3
    stride: 1
    weight_filler {
      type: "xavier"
    }
    bias_filler {
      type: "constant"
      value: 0
    }
  }
}
layers {
  bottom: "2_1_conv"
  top: "2_1_conv"
  name: "2_1_conv_ReLU"
  type: RELU
}
layers {
  bottom: "2_1_conv"
  top: "2_pool"
  name: "2_pool"
  type: POOLING
  pooling_param {
    pool: MAX
    kernel_size: 2
    stride: 2
  }
}
layers {
  bottom: "2_pool"
  top: "middle_conv"
  name: "middle_conv"
  type: CONVOLUTION
  blobs_lr: 1
  blobs_lr: 2
  weight_decay: 0
  weight_decay: 0
  convolution_param {
    num_output: 50
    pad: 0
    kernel_size: 4
    stride: 1
    weight_filler {
      type: "xavier"
    }
    bias_filler {
      type: "constant"
      value: 0
    }
  }
}
layers {
  bottom: "middle_conv"
  top: "middle_conv"
  name: "middle_conv_ReLU"
  type: RELU
}
layers {
  bottom: "middle_conv"
  top: "fc1"
  name: "fc1"
  type: INNER_PRODUCT
  blobs_lr: 1
  blobs_lr: 2
  weight_decay: 0
  weight_decay: 0
  inner_product_param {
    num_output: 512
    weight_filler {
      type: "xavier"
    }
    bias_filler {
      type: "constant"
      value: 0
    }
  }
}
layers {
  bottom: "fc1"
  top: "fc1"
  name: "fc1_Dropout"
  type: DROPOUT
  dropout_param {
    dropout_ratio: 0.5
  }
  include {
    phase: TRAIN
  }
}
layers {
  bottom: "fc1"
  top: "fc1"
  name: "fc1_Dropout_ReLU"
  type: RELU
}
layers {
  bottom: "fc1"
  top: "fc2"
  name: "fc2"
  type: INNER_PRODUCT
  blobs_lr: 1
  blobs_lr: 2
  weight_decay: 0
  weight_decay: 0
  inner_product_param {
    num_output: 100
    weight_filler {
      type: "xavier"
    }
    bias_filler {
      type: "constant"
      value: 0
    }
  }
}
layers {
  bottom: "fc2"
  bottom: "label"
  top: "softmax"
  name: "softmax"
  type: SOFTMAX_LOSS
}
state {
  phase: TRAIN
}
I0615 15:55:08.643877  5063 layer_factory.hpp:78] Creating layer data
I0615 15:55:08.643889  5063 data_transformer.cpp:25] Loading mean file from/dataset/cifar100_lmdb_lab/mean.binaryproto
I0615 15:55:08.643935  5063 net.cpp:69] Creating Layer data
I0615 15:55:08.643941  5063 net.cpp:358] data -> data
I0615 15:55:08.643949  5063 net.cpp:358] data -> label
I0615 15:55:08.643954  5063 net.cpp:98] Setting up data
I0615 15:55:08.643959  5063 data_layer.cpp:32] Opening dataset /dataset/cifar100_lmdb_lab/cifar100_train_lmdb
I0615 15:55:08.644028  5063 data_layer.cpp:71] output data size: 128,3,32,32
I0615 15:55:08.644363  5063 net.cpp:105] Top shape: 128 3 32 32 (393216)
I0615 15:55:08.644371  5063 net.cpp:105] Top shape: 128 1 1 1 (128)
I0615 15:55:08.644383  5063 layer_factory.hpp:78] Creating layer 0_0_conv
I0615 15:55:08.644388  5063 net.cpp:69] Creating Layer 0_0_conv
I0615 15:55:08.644392  5063 net.cpp:396] 0_0_conv <- data
I0615 15:55:08.644398  5063 net.cpp:358] 0_0_conv -> 0_0_conv
I0615 15:55:08.644404  5063 net.cpp:98] Setting up 0_0_conv
I0615 15:55:08.644668  5063 net.cpp:105] Top shape: 128 8 32 32 (1048576)
I0615 15:55:08.644681  5063 layer_factory.hpp:78] Creating layer 0_0_conv_ReLU
I0615 15:55:08.644686  5063 net.cpp:69] Creating Layer 0_0_conv_ReLU
I0615 15:55:08.644688  5063 net.cpp:396] 0_0_conv_ReLU <- 0_0_conv
I0615 15:55:08.644696  5063 net.cpp:347] 0_0_conv_ReLU -> 0_0_conv (in-place)
I0615 15:55:08.644701  5063 net.cpp:98] Setting up 0_0_conv_ReLU
I0615 15:55:08.644704  5063 net.cpp:105] Top shape: 128 8 32 32 (1048576)
I0615 15:55:08.644707  5063 layer_factory.hpp:78] Creating layer 0_1_conv
I0615 15:55:08.644711  5063 net.cpp:69] Creating Layer 0_1_conv
I0615 15:55:08.644713  5063 net.cpp:396] 0_1_conv <- 0_0_conv
I0615 15:55:08.644719  5063 net.cpp:358] 0_1_conv -> 0_1_conv
I0615 15:55:08.644724  5063 net.cpp:98] Setting up 0_1_conv
I0615 15:55:08.644736  5063 net.cpp:105] Top shape: 128 8 32 32 (1048576)
I0615 15:55:08.644740  5063 layer_factory.hpp:78] Creating layer 0_1_conv_ReLU
I0615 15:55:08.644744  5063 net.cpp:69] Creating Layer 0_1_conv_ReLU
I0615 15:55:08.644747  5063 net.cpp:396] 0_1_conv_ReLU <- 0_1_conv
I0615 15:55:08.644752  5063 net.cpp:347] 0_1_conv_ReLU -> 0_1_conv (in-place)
I0615 15:55:08.644757  5063 net.cpp:98] Setting up 0_1_conv_ReLU
I0615 15:55:08.644760  5063 net.cpp:105] Top shape: 128 8 32 32 (1048576)
I0615 15:55:08.644768  5063 layer_factory.hpp:78] Creating layer 0_pool
I0615 15:55:08.644773  5063 net.cpp:69] Creating Layer 0_pool
I0615 15:55:08.644775  5063 net.cpp:396] 0_pool <- 0_1_conv
I0615 15:55:08.644781  5063 net.cpp:358] 0_pool -> 0_pool
I0615 15:55:08.644785  5063 net.cpp:98] Setting up 0_pool
I0615 15:55:08.644791  5063 net.cpp:105] Top shape: 128 8 16 16 (262144)
I0615 15:55:08.644794  5063 layer_factory.hpp:78] Creating layer 1_0_conv
I0615 15:55:08.644798  5063 net.cpp:69] Creating Layer 1_0_conv
I0615 15:55:08.644801  5063 net.cpp:396] 1_0_conv <- 0_pool
I0615 15:55:08.644807  5063 net.cpp:358] 1_0_conv -> 1_0_conv
I0615 15:55:08.644812  5063 net.cpp:98] Setting up 1_0_conv
I0615 15:55:08.644821  5063 net.cpp:105] Top shape: 128 8 16 16 (262144)
I0615 15:55:08.644826  5063 layer_factory.hpp:78] Creating layer 1_0_conv_ReLU
I0615 15:55:08.644830  5063 net.cpp:69] Creating Layer 1_0_conv_ReLU
I0615 15:55:08.644832  5063 net.cpp:396] 1_0_conv_ReLU <- 1_0_conv
I0615 15:55:08.644836  5063 net.cpp:347] 1_0_conv_ReLU -> 1_0_conv (in-place)
I0615 15:55:08.644840  5063 net.cpp:98] Setting up 1_0_conv_ReLU
I0615 15:55:08.644842  5063 net.cpp:105] Top shape: 128 8 16 16 (262144)
I0615 15:55:08.644845  5063 layer_factory.hpp:78] Creating layer 1_1_conv
I0615 15:55:08.644848  5063 net.cpp:69] Creating Layer 1_1_conv
I0615 15:55:08.644851  5063 net.cpp:396] 1_1_conv <- 1_0_conv
I0615 15:55:08.644855  5063 net.cpp:358] 1_1_conv -> 1_1_conv
I0615 15:55:08.644860  5063 net.cpp:98] Setting up 1_1_conv
I0615 15:55:08.644870  5063 net.cpp:105] Top shape: 128 8 16 16 (262144)
I0615 15:55:08.644873  5063 layer_factory.hpp:78] Creating layer 1_1_conv_ReLU
I0615 15:55:08.644877  5063 net.cpp:69] Creating Layer 1_1_conv_ReLU
I0615 15:55:08.644881  5063 net.cpp:396] 1_1_conv_ReLU <- 1_1_conv
I0615 15:55:08.644883  5063 net.cpp:347] 1_1_conv_ReLU -> 1_1_conv (in-place)
I0615 15:55:08.644886  5063 net.cpp:98] Setting up 1_1_conv_ReLU
I0615 15:55:08.644889  5063 net.cpp:105] Top shape: 128 8 16 16 (262144)
I0615 15:55:08.644891  5063 layer_factory.hpp:78] Creating layer 1_pool
I0615 15:55:08.644894  5063 net.cpp:69] Creating Layer 1_pool
I0615 15:55:08.644897  5063 net.cpp:396] 1_pool <- 1_1_conv
I0615 15:55:08.644901  5063 net.cpp:358] 1_pool -> 1_pool
I0615 15:55:08.644904  5063 net.cpp:98] Setting up 1_pool
I0615 15:55:08.644907  5063 net.cpp:105] Top shape: 128 8 8 8 (65536)
I0615 15:55:08.644911  5063 layer_factory.hpp:78] Creating layer 2_0_conv
I0615 15:55:08.644914  5063 net.cpp:69] Creating Layer 2_0_conv
I0615 15:55:08.644917  5063 net.cpp:396] 2_0_conv <- 1_pool
I0615 15:55:08.644922  5063 net.cpp:358] 2_0_conv -> 2_0_conv
I0615 15:55:08.644925  5063 net.cpp:98] Setting up 2_0_conv
I0615 15:55:08.644934  5063 net.cpp:105] Top shape: 128 8 8 8 (65536)
I0615 15:55:08.644939  5063 layer_factory.hpp:78] Creating layer 2_0_conv_ReLU
I0615 15:55:08.644942  5063 net.cpp:69] Creating Layer 2_0_conv_ReLU
I0615 15:55:08.644945  5063 net.cpp:396] 2_0_conv_ReLU <- 2_0_conv
I0615 15:55:08.644948  5063 net.cpp:347] 2_0_conv_ReLU -> 2_0_conv (in-place)
I0615 15:55:08.644953  5063 net.cpp:98] Setting up 2_0_conv_ReLU
I0615 15:55:08.644954  5063 net.cpp:105] Top shape: 128 8 8 8 (65536)
I0615 15:55:08.644958  5063 layer_factory.hpp:78] Creating layer 2_1_conv
I0615 15:55:08.644960  5063 net.cpp:69] Creating Layer 2_1_conv
I0615 15:55:08.644963  5063 net.cpp:396] 2_1_conv <- 2_0_conv
I0615 15:55:08.644968  5063 net.cpp:358] 2_1_conv -> 2_1_conv
I0615 15:55:08.644971  5063 net.cpp:98] Setting up 2_1_conv
I0615 15:55:08.644979  5063 net.cpp:105] Top shape: 128 8 8 8 (65536)
I0615 15:55:08.644984  5063 layer_factory.hpp:78] Creating layer 2_1_conv_ReLU
I0615 15:55:08.644986  5063 net.cpp:69] Creating Layer 2_1_conv_ReLU
I0615 15:55:08.644989  5063 net.cpp:396] 2_1_conv_ReLU <- 2_1_conv
I0615 15:55:08.644994  5063 net.cpp:347] 2_1_conv_ReLU -> 2_1_conv (in-place)
I0615 15:55:08.644996  5063 net.cpp:98] Setting up 2_1_conv_ReLU
I0615 15:55:08.645000  5063 net.cpp:105] Top shape: 128 8 8 8 (65536)
I0615 15:55:08.645007  5063 layer_factory.hpp:78] Creating layer 2_pool
I0615 15:55:08.645010  5063 net.cpp:69] Creating Layer 2_pool
I0615 15:55:08.645014  5063 net.cpp:396] 2_pool <- 2_1_conv
I0615 15:55:08.645016  5063 net.cpp:358] 2_pool -> 2_pool
I0615 15:55:08.645020  5063 net.cpp:98] Setting up 2_pool
I0615 15:55:08.645023  5063 net.cpp:105] Top shape: 128 8 4 4 (16384)
I0615 15:55:08.645026  5063 layer_factory.hpp:78] Creating layer middle_conv
I0615 15:55:08.645030  5063 net.cpp:69] Creating Layer middle_conv
I0615 15:55:08.645033  5063 net.cpp:396] middle_conv <- 2_pool
I0615 15:55:08.645037  5063 net.cpp:358] middle_conv -> middle_conv
I0615 15:55:08.645041  5063 net.cpp:98] Setting up middle_conv
I0615 15:55:08.645076  5063 net.cpp:105] Top shape: 128 50 1 1 (6400)
I0615 15:55:08.645081  5063 layer_factory.hpp:78] Creating layer middle_conv_ReLU
I0615 15:55:08.645084  5063 net.cpp:69] Creating Layer middle_conv_ReLU
I0615 15:55:08.645087  5063 net.cpp:396] middle_conv_ReLU <- middle_conv
I0615 15:55:08.645090  5063 net.cpp:347] middle_conv_ReLU -> middle_conv (in-place)
I0615 15:55:08.645093  5063 net.cpp:98] Setting up middle_conv_ReLU
I0615 15:55:08.645097  5063 net.cpp:105] Top shape: 128 50 1 1 (6400)
I0615 15:55:08.645098  5063 layer_factory.hpp:78] Creating layer fc1
I0615 15:55:08.645103  5063 net.cpp:69] Creating Layer fc1
I0615 15:55:08.645107  5063 net.cpp:396] fc1 <- middle_conv
I0615 15:55:08.645110  5063 net.cpp:358] fc1 -> fc1
I0615 15:55:08.645114  5063 net.cpp:98] Setting up fc1
I0615 15:55:08.645261  5063 net.cpp:105] Top shape: 128 512 1 1 (65536)
I0615 15:55:08.645267  5063 layer_factory.hpp:78] Creating layer fc1_Dropout
I0615 15:55:08.645270  5063 net.cpp:69] Creating Layer fc1_Dropout
I0615 15:55:08.645273  5063 net.cpp:396] fc1_Dropout <- fc1
I0615 15:55:08.645279  5063 net.cpp:347] fc1_Dropout -> fc1 (in-place)
I0615 15:55:08.645283  5063 net.cpp:98] Setting up fc1_Dropout
I0615 15:55:08.645287  5063 net.cpp:105] Top shape: 128 512 1 1 (65536)
I0615 15:55:08.645289  5063 layer_factory.hpp:78] Creating layer fc1_Dropout_ReLU
I0615 15:55:08.645292  5063 net.cpp:69] Creating Layer fc1_Dropout_ReLU
I0615 15:55:08.645295  5063 net.cpp:396] fc1_Dropout_ReLU <- fc1
I0615 15:55:08.645298  5063 net.cpp:347] fc1_Dropout_ReLU -> fc1 (in-place)
I0615 15:55:08.645301  5063 net.cpp:98] Setting up fc1_Dropout_ReLU
I0615 15:55:08.645304  5063 net.cpp:105] Top shape: 128 512 1 1 (65536)
I0615 15:55:08.645308  5063 layer_factory.hpp:78] Creating layer fc2
I0615 15:55:08.645310  5063 net.cpp:69] Creating Layer fc2
I0615 15:55:08.645313  5063 net.cpp:396] fc2 <- fc1
I0615 15:55:08.645318  5063 net.cpp:358] fc2 -> fc2
I0615 15:55:08.645323  5063 net.cpp:98] Setting up fc2
I0615 15:55:08.645592  5063 net.cpp:105] Top shape: 128 100 1 1 (12800)
I0615 15:55:08.645599  5063 layer_factory.hpp:78] Creating layer softmax
I0615 15:55:08.645606  5063 net.cpp:69] Creating Layer softmax
I0615 15:55:08.645609  5063 net.cpp:396] softmax <- fc2
I0615 15:55:08.645613  5063 net.cpp:396] softmax <- label
I0615 15:55:08.645617  5063 net.cpp:358] softmax -> softmax
I0615 15:55:08.645620  5063 net.cpp:98] Setting up softmax
I0615 15:55:08.645632  5063 net.cpp:105] Top shape: 1 1 1 1 (1)
I0615 15:55:08.645635  5063 net.cpp:111]     with loss weight 1
I0615 15:55:08.645645  5063 net.cpp:172] softmax needs backward computation.
I0615 15:55:08.645648  5063 net.cpp:172] fc2 needs backward computation.
I0615 15:55:08.645651  5063 net.cpp:172] fc1_Dropout_ReLU needs backward computation.
I0615 15:55:08.645653  5063 net.cpp:172] fc1_Dropout needs backward computation.
I0615 15:55:08.645656  5063 net.cpp:172] fc1 needs backward computation.
…
I0615 15:55:08.646162  5063 net.cpp:277] The NetState phase (1) differed from the phase (0) specified by a rule in layer data
I0615 15:55:08.646172  5063 net.cpp:277] The NetState phase (1) differed from the phase (0) specified by a rule in layer fc1_Dropout
I0615 15:55:08.646260  5063 net.cpp:39] Initializing net from parameters: 
layers {
  top: "data"
  top: "label"
  name: "data"
  type: DATA
  data_param {
    source: "/dataset/cifar100_lmdb_lab/cifar100_test_lmdb"
    batch_size: 128
    backend: LMDB
  }
  include {
    phase: TEST
  }
  transform_param {
    mean_file: "/dataset/cifar100_lmdb_lab/mean.binaryproto"
  }
}
layers {
  bottom: "data"
  top: "0_0_conv"
  name: "0_0_conv"
  type: CONVOLUTION
  blobs_lr: 1
  blobs_lr: 2
  weight_decay: 0
  weight_decay: 0
  convolution_param {
    num_output: 8
    pad: 1
    kernel_size: 3
    stride: 1
    weight_filler {
      type: "xavier"
    }
    bias_filler {
      type: "constant"
      value: 0
    }
  }
}
layers {
  bottom: "0_0_conv"
  top: "0_0_conv"
  name: "0_0_conv_ReLU"
  type: RELU
}
layers {
  bottom: "0_0_conv"
  top: "0_1_conv"
  name: "0_1_conv"
  type: CONVOLUTION
  blobs_lr: 1
  blobs_lr: 2
  weight_decay: 0
  weight_decay: 0
  convolution_param {
    num_output: 8
    pad: 1
    kernel_size: 3
    stride: 1
    weight_filler {
      type: "xavier"
    }
    bias_filler {
      type: "constant"
      value: 0
    }
  }
}
layers {
  bottom: "0_1_conv"
  top: "0_1_conv"
  name: "0_1_conv_ReLU"
  type: RELU
}
layers {
  bottom: "0_1_conv"
  top: "0_pool"
  name: "0_pool"
  type: POOLING
  pooling_param {
    pool: MAX
    kernel_size: 2
    stride: 2
  }
}
layers {
  bottom: "0_pool"
  top: "1_0_conv"
  name: "1_0_conv"
  type: CONVOLUTION
  blobs_lr: 1
  blobs_lr: 2
  weight_decay: 0
  weight_decay: 0
  convolution_param {
    num_output: 8
    pad: 1
    kernel_size: 3
    stride: 1
    weight_filler {
      type: "xavier"
    }
    bias_filler {
      type: "constant"
      value: 0
    }
  }
}
layers {
  bottom: "1_0_conv"
  top: "1_0_conv"
  name: "1_0_conv_ReLU"
  type: RELU
}
layers {
  bottom: "1_0_conv"
  top: "1_1_conv"
  name: "1_1_conv"
  type: CONVOLUTION
  blobs_lr: 1
  blobs_lr: 2
  weight_decay: 0
  weight_decay: 0
  convolution_param {
    num_output: 8
    pad: 1
    kernel_size: 3
    stride: 1
    weight_filler {
      type: "xavier"
    }
    bias_filler {
      type: "constant"
      value: 0
    }
  }
}
layers {
  bottom: "1_1_conv"
  top: "1_1_conv"
  name: "1_1_conv_ReLU"
  type: RELU
}
layers {
  bottom: "1_1_conv"
  top: "1_pool"
  name: "1_pool"
  type: POOLING
  pooling_param {
    pool: MAX
    kernel_size: 2
    stride: 2
  }
}
layers {
  bottom: "1_pool"
  top: "2_0_conv"
  name: "2_0_conv"
  type: CONVOLUTION
  blobs_lr: 1
  blobs_lr: 2
  weight_decay: 0
  weight_decay: 0
  convolution_param {
    num_output: 8
    pad: 1
    kernel_size: 3
    stride: 1
    weight_filler {
      type: "xavier"
    }
    bias_filler {
      type: "constant"
      value: 0
    }
  }
}
layers {
  bottom: "2_0_conv"
  top: "2_0_conv"
  name: "2_0_conv_ReLU"
  type: RELU
}
layers {
  bottom: "2_0_conv"
  top: "2_1_conv"
  name: "2_1_conv"
  type: CONVOLUTION
  blobs_lr: 1
  blobs_lr: 2
  weight_decay: 0
  weight_decay: 0
  convolution_param {
    num_output: 8
    pad: 1
    kernel_size: 3
    stride: 1
    weight_filler {
      type: "xavier"
    }
    bias_filler {
      type: "constant"
      value: 0
    }
  }
}
layers {
  bottom: "2_1_conv"
  top: "2_1_conv"
  name: "2_1_conv_ReLU"
  type: RELU
}
layers {
  bottom: "2_1_conv"
  top: "2_pool"
  name: "2_pool"
  type: POOLING
  pooling_param {
    pool: MAX
    kernel_size: 2
    stride: 2
  }
}
layers {
  bottom: "2_pool"
  top: "middle_conv"
  name: "middle_conv"
  type: CONVOLUTION
  blobs_lr: 1
  blobs_lr: 2
  weight_decay: 0
  weight_decay: 0
  convolution_param {
    num_output: 50
    pad: 0
    kernel_size: 4
    stride: 1
    weight_filler {
      type: "xavier"
    }
    bias_filler {
      type: "constant"
      value: 0
    }
  }
}
layers {
  bottom: "middle_conv"
  top: "middle_conv"
  name: "middle_conv_ReLU"
  type: RELU
}
layers {
  bottom: "middle_conv"
  top: "fc1"
  name: "fc1"
  type: INNER_PRODUCT
  blobs_lr: 1
  blobs_lr: 2
  weight_decay: 0
  weight_decay: 0
  inner_product_param {
    num_output: 512
    weight_filler {
      type: "xavier"
    }
    bias_filler {
      type: "constant"
      value: 0
    }
  }
}
layers {
  bottom: "fc1"
  top: "fc1"
  name: "fc1_Dropout_ReLU"
  type: RELU
}
layers {
  bottom: "fc1"
  top: "fc2"
  name: "fc2"
  type: INNER_PRODUCT
  blobs_lr: 1
  blobs_lr: 2
  weight_decay: 0
  weight_decay: 0
  inner_product_param {
    num_output: 100
    weight_filler {
      type: "xavier"
    }
    bias_filler {
      type: "constant"
      value: 0
    }
  }
}
layers {
  bottom: "fc2"
  bottom: "label"
  top: "softmax"
  name: "softmax"
  type: SOFTMAX_LOSS
}
layers {
  bottom: "fc2"
  bottom: "label"
  top: "accuracy_top_1"
  name: "accuracy_top_1"
  type: ACCURACY
  accuracy_param {
    top_k: 1
  }
  include {
    phase: TEST
  }
}
layers {
  bottom: "fc2"
  bottom: "label"
  top: "accuracy_top_5"
  name: "accuracy_top_5"
  type: ACCURACY
  accuracy_param {
    top_k: 5
  }
  include {
    phase: TEST
  }
}
state {
  phase: TEST
}
I0615 15:55:08.646342  5063 layer_factory.hpp:78] Creating layer data
I0615 15:55:08.646347  5063 data_transformer.cpp:25] Loading mean file from/dataset/cifar100_lmdb_lab/mean.binaryproto
I0615 15:55:08.646381  5063 net.cpp:69] Creating Layer data
I0615 15:55:08.646387  5063 net.cpp:358] data -> data
I0615 15:55:08.646394  5063 net.cpp:358] data -> label
I0615 15:55:08.646399  5063 net.cpp:98] Setting up data
I0615 15:55:08.646402  5063 data_layer.cpp:32] Opening dataset /dataset/cifar100_lmdb_lab/cifar100_test_lmdb
I0615 15:55:08.646450  5063 data_layer.cpp:71] output data size: 128,3,32,32
I0615 15:55:08.646844  5063 net.cpp:105] Top shape: 128 3 32 32 (393216)
I0615 15:55:08.646852  5063 net.cpp:105] Top shape: 128 1 1 1 (128)
I0615 15:55:08.646854  5063 layer_factory.hpp:78] Creating layer label_data_1_split
I0615 15:55:08.646872  5063 net.cpp:69] Creating Layer label_data_1_split
I0615 15:55:08.646875  5063 net.cpp:396] label_data_1_split <- label
I0615 15:55:08.646880  5063 net.cpp:358] label_data_1_split -> label_data_1_split_0
I0615 15:55:08.646894  5063 net.cpp:358] label_data_1_split -> label_data_1_split_1
I0615 15:55:08.646899  5063 net.cpp:358] label_data_1_split -> label_data_1_split_2
I0615 15:55:08.646903  5063 net.cpp:98] Setting up label_data_1_split
I0615 15:55:08.646910  5063 net.cpp:105] Top shape: 128 1 1 1 (128)
I0615 15:55:08.646914  5063 net.cpp:105] Top shape: 128 1 1 1 (128)
I0615 15:55:08.646920  5063 net.cpp:105] Top shape: 128 1 1 1 (128)
I0615 15:55:08.646924  5063 layer_factory.hpp:78] Creating layer 0_0_conv
I0615 15:55:08.646929  5063 net.cpp:69] Creating Layer 0_0_conv
I0615 15:55:08.646931  5063 net.cpp:396] 0_0_conv <- data
I0615 15:55:08.646935  5063 net.cpp:358] 0_0_conv -> 0_0_conv
I0615 15:55:08.646940  5063 net.cpp:98] Setting up 0_0_conv
I0615 15:55:08.646950  5063 net.cpp:105] Top shape: 128 8 32 32 (1048576)
I0615 15:55:08.646956  5063 layer_factory.hpp:78] Creating layer 0_0_conv_ReLU
I0615 15:55:08.646960  5063 net.cpp:69] Creating Layer 0_0_conv_ReLU
I0615 15:55:08.646963  5063 net.cpp:396] 0_0_conv_ReLU <- 0_0_conv
I0615 15:55:08.646966  5063 net.cpp:347] 0_0_conv_ReLU -> 0_0_conv (in-place)
I0615 15:55:08.646970  5063 net.cpp:98] Setting up 0_0_conv_ReLU
I0615 15:55:08.646973  5063 net.cpp:105] Top shape: 128 8 32 32 (1048576)
I0615 15:55:08.646976  5063 layer_factory.hpp:78] Creating layer 0_1_conv
I0615 15:55:08.646980  5063 net.cpp:69] Creating Layer 0_1_conv
I0615 15:55:08.646982  5063 net.cpp:396] 0_1_conv <- 0_0_conv
I0615 15:55:08.646987  5063 net.cpp:358] 0_1_conv -> 0_1_conv
I0615 15:55:08.646991  5063 net.cpp:98] Setting up 0_1_conv
I0615 15:55:08.647003  5063 net.cpp:105] Top shape: 128 8 32 32 (1048576)
I0615 15:55:08.647008  5063 layer_factory.hpp:78] Creating layer 0_1_conv_ReLU
I0615 15:55:08.647012  5063 net.cpp:69] Creating Layer 0_1_conv_ReLU
I0615 15:55:08.647014  5063 net.cpp:396] 0_1_conv_ReLU <- 0_1_conv
I0615 15:55:08.647018  5063 net.cpp:347] 0_1_conv_ReLU -> 0_1_conv (in-place)
I0615 15:55:08.647022  5063 net.cpp:98] Setting up 0_1_conv_ReLU
I0615 15:55:08.647024  5063 net.cpp:105] Top shape: 128 8 32 32 (1048576)
I0615 15:55:08.647027  5063 layer_factory.hpp:78] Creating layer 0_pool
I0615 15:55:08.647032  5063 net.cpp:69] Creating Layer 0_pool
I0615 15:55:08.647034  5063 net.cpp:396] 0_pool <- 0_1_conv
I0615 15:55:08.647037  5063 net.cpp:358] 0_pool -> 0_pool
I0615 15:55:08.647042  5063 net.cpp:98] Setting up 0_pool
I0615 15:55:08.647045  5063 net.cpp:105] Top shape: 128 8 16 16 (262144)
I0615 15:55:08.647048  5063 layer_factory.hpp:78] Creating layer 1_0_conv
I0615 15:55:08.647052  5063 net.cpp:69] Creating Layer 1_0_conv
I0615 15:55:08.647054  5063 net.cpp:396] 1_0_conv <- 0_pool
I0615 15:55:08.647059  5063 net.cpp:358] 1_0_conv -> 1_0_conv
I0615 15:55:08.647063  5063 net.cpp:98] Setting up 1_0_conv
I0615 15:55:08.647073  5063 net.cpp:105] Top shape: 128 8 16 16 (262144)
I0615 15:55:08.647078  5063 layer_factory.hpp:78] Creating layer 1_0_conv_ReLU
I0615 15:55:08.647081  5063 net.cpp:69] Creating Layer 1_0_conv_ReLU
I0615 15:55:08.647084  5063 net.cpp:396] 1_0_conv_ReLU <- 1_0_conv
I0615 15:55:08.647089  5063 net.cpp:347] 1_0_conv_ReLU -> 1_0_conv (in-place)
I0615 15:55:08.647091  5063 net.cpp:98] Setting up 1_0_conv_ReLU
I0615 15:55:08.647094  5063 net.cpp:105] Top shape: 128 8 16 16 (262144)
I0615 15:55:08.647096  5063 layer_factory.hpp:78] Creating layer 1_1_conv
I0615 15:55:08.647100  5063 net.cpp:69] Creating Layer 1_1_conv
I0615 15:55:08.647102  5063 net.cpp:396] 1_1_conv <- 1_0_conv
I0615 15:55:08.647107  5063 net.cpp:358] 1_1_conv -> 1_1_conv
I0615 15:55:08.647111  5063 net.cpp:98] Setting up 1_1_conv
I0615 15:55:08.647121  5063 net.cpp:105] Top shape: 128 8 16 16 (262144)
I0615 15:55:08.647125  5063 layer_factory.hpp:78] Creating layer 1_1_conv_ReLU
I0615 15:55:08.647128  5063 net.cpp:69] Creating Layer 1_1_conv_ReLU
I0615 15:55:08.647131  5063 net.cpp:396] 1_1_conv_ReLU <- 1_1_conv
I0615 15:55:08.647135  5063 net.cpp:347] 1_1_conv_ReLU -> 1_1_conv (in-place)
I0615 15:55:08.647137  5063 net.cpp:98] Setting up 1_1_conv_ReLU
I0615 15:55:08.647140  5063 net.cpp:105] Top shape: 128 8 16 16 (262144)
I0615 15:55:08.647143  5063 layer_factory.hpp:78] Creating layer 1_pool
I0615 15:55:08.647146  5063 net.cpp:69] Creating Layer 1_pool
I0615 15:55:08.647148  5063 net.cpp:396] 1_pool <- 1_1_conv
I0615 15:55:08.647155  5063 net.cpp:358] 1_pool -> 1_pool
I0615 15:55:08.647158  5063 net.cpp:98] Setting up 1_pool
I0615 15:55:08.647166  5063 net.cpp:105] Top shape: 128 8 8 8 (65536)
I0615 15:55:08.647168  5063 layer_factory.hpp:78] Creating layer 2_0_conv
I0615 15:55:08.647173  5063 net.cpp:69] Creating Layer 2_0_conv
I0615 15:55:08.647176  5063 net.cpp:396] 2_0_conv <- 1_pool
I0615 15:55:08.647181  5063 net.cpp:358] 2_0_conv -> 2_0_conv
I0615 15:55:08.647184  5063 net.cpp:98] Setting up 2_0_conv
I0615 15:55:08.647192  5063 net.cpp:105] Top shape: 128 8 8 8 (65536)
I0615 15:55:08.647198  5063 layer_factory.hpp:78] Creating layer 2_0_conv_ReLU
I0615 15:55:08.647202  5063 net.cpp:69] Creating Layer 2_0_conv_ReLU
I0615 15:55:08.647204  5063 net.cpp:396] 2_0_conv_ReLU <- 2_0_conv
I0615 15:55:08.647207  5063 net.cpp:347] 2_0_conv_ReLU -> 2_0_conv (in-place)
I0615 15:55:08.647212  5063 net.cpp:98] Setting up 2_0_conv_ReLU
I0615 15:55:08.647213  5063 net.cpp:105] Top shape: 128 8 8 8 (65536)
I0615 15:55:08.647217  5063 layer_factory.hpp:78] Creating layer 2_1_conv
I0615 15:55:08.647219  5063 net.cpp:69] Creating Layer 2_1_conv
I0615 15:55:08.647222  5063 net.cpp:396] 2_1_conv <- 2_0_conv
I0615 15:55:08.647227  5063 net.cpp:358] 2_1_conv -> 2_1_conv
I0615 15:55:08.647230  5063 net.cpp:98] Setting up 2_1_conv
I0615 15:55:08.647238  5063 net.cpp:105] Top shape: 128 8 8 8 (65536)
I0615 15:55:08.647243  5063 layer_factory.hpp:78] Creating layer 2_1_conv_ReLU
I0615 15:55:08.647246  5063 net.cpp:69] Creating Layer 2_1_conv_ReLU
I0615 15:55:08.647249  5063 net.cpp:396] 2_1_conv_ReLU <- 2_1_conv
I0615 15:55:08.647253  5063 net.cpp:347] 2_1_conv_ReLU -> 2_1_conv (in-place)
I0615 15:55:08.647255  5063 net.cpp:98] Setting up 2_1_conv_ReLU
I0615 15:55:08.647258  5063 net.cpp:105] Top shape: 128 8 8 8 (65536)
I0615 15:55:08.647260  5063 layer_factory.hpp:78] Creating layer 2_pool
I0615 15:55:08.647264  5063 net.cpp:69] Creating Layer 2_pool
I0615 15:55:08.647267  5063 net.cpp:396] 2_pool <- 2_1_conv
I0615 15:55:08.647270  5063 net.cpp:358] 2_pool -> 2_pool
I0615 15:55:08.647274  5063 net.cpp:98] Setting up 2_pool
I0615 15:55:08.647279  5063 net.cpp:105] Top shape: 128 8 4 4 (16384)
I0615 15:55:08.647281  5063 layer_factory.hpp:78] Creating layer middle_conv
I0615 15:55:08.647284  5063 net.cpp:69] Creating Layer middle_conv
I0615 15:55:08.647287  5063 net.cpp:396] middle_conv <- 2_pool
I0615 15:55:08.647294  5063 net.cpp:358] middle_conv -> middle_conv
I0615 15:55:08.647299  5063 net.cpp:98] Setting up middle_conv
I0615 15:55:08.647332  5063 net.cpp:105] Top shape: 128 50 1 1 (6400)
I0615 15:55:08.647337  5063 layer_factory.hpp:78] Creating layer middle_conv_ReLU
I0615 15:55:08.647341  5063 net.cpp:69] Creating Layer middle_conv_ReLU
I0615 15:55:08.647342  5063 net.cpp:396] middle_conv_ReLU <- middle_conv
I0615 15:55:08.647347  5063 net.cpp:347] middle_conv_ReLU -> middle_conv (in-place)
I0615 15:55:08.647351  5063 net.cpp:98] Setting up middle_conv_ReLU
I0615 15:55:08.647353  5063 net.cpp:105] Top shape: 128 50 1 1 (6400)
I0615 15:55:08.647356  5063 layer_factory.hpp:78] Creating layer fc1
I0615 15:55:08.647361  5063 net.cpp:69] Creating Layer fc1
I0615 15:55:08.647363  5063 net.cpp:396] fc1 <- middle_conv
I0615 15:55:08.647367  5063 net.cpp:358] fc1 -> fc1
I0615 15:55:08.647372  5063 net.cpp:98] Setting up fc1
I0615 15:55:08.647503  5063 net.cpp:105] Top shape: 128 512 1 1 (65536)
I0615 15:55:08.647508  5063 layer_factory.hpp:78] Creating layer fc1_Dropout_ReLU
I0615 15:55:08.647511  5063 net.cpp:69] Creating Layer fc1_Dropout_ReLU
I0615 15:55:08.647516  5063 net.cpp:396] fc1_Dropout_ReLU <- fc1
I0615 15:55:08.647519  5063 net.cpp:347] fc1_Dropout_ReLU -> fc1 (in-place)
I0615 15:55:08.647522  5063 net.cpp:98] Setting up fc1_Dropout_ReLU
I0615 15:55:08.647526  5063 net.cpp:105] Top shape: 128 512 1 1 (65536)
I0615 15:55:08.647528  5063 layer_factory.hpp:78] Creating layer fc2
I0615 15:55:08.647531  5063 net.cpp:69] Creating Layer fc2
I0615 15:55:08.647534  5063 net.cpp:396] fc2 <- fc1
I0615 15:55:08.647539  5063 net.cpp:358] fc2 -> fc2
I0615 15:55:08.647545  5063 net.cpp:98] Setting up fc2
I0615 15:55:08.647830  5063 net.cpp:105] Top shape: 128 100 1 1 (12800)
I0615 15:55:08.647841  5063 layer_factory.hpp:78] Creating layer fc2_fc2_0_split
I0615 15:55:08.647856  5063 net.cpp:69] Creating Layer fc2_fc2_0_split
I0615 15:55:08.647858  5063 net.cpp:396] fc2_fc2_0_split <- fc2
I0615 15:55:08.647864  5063 net.cpp:358] fc2_fc2_0_split -> fc2_fc2_0_split_0
I0615 15:55:08.647881  5063 net.cpp:358] fc2_fc2_0_split -> fc2_fc2_0_split_1
I0615 15:55:08.647886  5063 net.cpp:358] fc2_fc2_0_split -> fc2_fc2_0_split_2
I0615 15:55:08.647891  5063 net.cpp:98] Setting up fc2_fc2_0_split
I0615 15:55:08.647894  5063 net.cpp:105] Top shape: 128 100 1 1 (12800)
I0615 15:55:08.647897  5063 net.cpp:105] Top shape: 128 100 1 1 (12800)
I0615 15:55:08.647900  5063 net.cpp:105] Top shape: 128 100 1 1 (12800)
I0615 15:55:08.647903  5063 layer_factory.hpp:78] Creating layer softmax
I0615 15:55:08.647908  5063 net.cpp:69] Creating Layer softmax
I0615 15:55:08.647912  5063 net.cpp:396] softmax <- fc2_fc2_0_split_0
I0615 15:55:08.647915  5063 net.cpp:396] softmax <- label_data_1_split_0
I0615 15:55:08.647918  5063 net.cpp:358] softmax -> softmax
I0615 15:55:08.647923  5063 net.cpp:98] Setting up softmax
I0615 15:55:08.647928  5063 net.cpp:105] Top shape: 1 1 1 1 (1)
I0615 15:55:08.647933  5063 net.cpp:111]     with loss weight 1
I0615 15:55:08.647944  5063 layer_factory.hpp:78] Creating layer accuracy_top_1
I0615 15:55:08.647950  5063 net.cpp:69] Creating Layer accuracy_top_1
I0615 15:55:08.647953  5063 net.cpp:396] accuracy_top_1 <- fc2_fc2_0_split_1
I0615 15:55:08.647956  5063 net.cpp:396] accuracy_top_1 <- label_data_1_split_1
I0615 15:55:08.647964  5063 net.cpp:358] accuracy_top_1 -> accuracy_top_1
I0615 15:55:08.647969  5063 net.cpp:98] Setting up accuracy_top_1
I0615 15:55:08.647971  5063 net.cpp:105] Top shape: 1 1 1 1 (1)
I0615 15:55:08.647974  5063 layer_factory.hpp:78] Creating layer accuracy_top_5
I0615 15:55:08.647979  5063 net.cpp:69] Creating Layer accuracy_top_5
I0615 15:55:08.647981  5063 net.cpp:396] accuracy_top_5 <- fc2_fc2_0_split_2
I0615 15:55:08.647984  5063 net.cpp:396] accuracy_top_5 <- label_data_1_split_2
I0615 15:55:08.647989  5063 net.cpp:358] accuracy_top_5 -> accuracy_top_5
I0615 15:55:08.647992  5063 net.cpp:98] Setting up accuracy_top_5
I0615 15:55:08.647996  5063 net.cpp:105] Top shape: 1 1 1 1 (1)
I0615 15:55:08.648000  5063 net.cpp:174] accuracy_top_5 does not need backward computation.
I0615 15:55:08.648003  5063 net.cpp:174] accuracy_top_1 does not need backward computation.
I0615 15:55:08.648006  5063 net.cpp:172] softmax needs backward computation.
I0615 15:55:08.648010  5063 net.cpp:172] fc2_fc2_0_split needs backward computation.
I0615 15:55:08.648012  5063 net.cpp:172] fc2 needs backward computation.
…
