…
I0623 20:47:59.968906 26783 solver.cpp:70] Creating training net from net file: prototxt/16-06-21_16h05m31s_0_50_reconstructFullFC0_net.sh
I0623 20:47:59.969503 26783 net.cpp:277] The NetState phase (0) differed from the phase (1) specified by a rule in layer data
I0623 20:47:59.969661 26783 net.cpp:39] Initializing net from parameters: 
layers {
  top: "data"
  name: "data"
  type: DATA
  data_param {
    source: "/dataset/cifar100_lmdb_lab/cifar100_train_lmdb"
    batch_size: 750
    backend: LMDB
  }
  include {
    phase: TRAIN
  }
  transform_param {
    mean_file: "/dataset/cifar100_lmdb_lab/mean.binaryproto"
  }
}
layers {
  bottom: "data"
  top: "0_0_conv"
  name: "0_0_conv"
  type: CONVOLUTION
  blobs_lr: 0
  blobs_lr: 0
  weight_decay: 0
  weight_decay: 0
  convolution_param {
    num_output: 32
    pad: 1
    kernel_size: 3
    stride: 1
    weight_filler {
      type: "xavier"
    }
    bias_filler {
      type: "constant"
      value: 0
    }
  }
}
layers {
  bottom: "0_0_conv"
  top: "0_0_conv"
  name: "0_0_conv_ReLU"
  type: RELU
}
layers {
  bottom: "0_0_conv"
  top: "0_1_conv"
  name: "0_1_conv"
  type: CONVOLUTION
  blobs_lr: 0
  blobs_lr: 0
  weight_decay: 0
  weight_decay: 0
  convolution_param {
    num_output: 32
    pad: 1
    kernel_size: 3
    stride: 1
    weight_filler {
      type: "xavier"
    }
    bias_filler {
      type: "constant"
      value: 0
    }
  }
}
layers {
  bottom: "0_1_conv"
  top: "0_1_conv"
  name: "0_1_conv_ReLU"
  type: RELU
}
layers {
  bottom: "0_1_conv"
  top: "0_pool"
  top: "0_pool_mask"
  name: "0_pool"
  type: POOLING
  pooling_param {
    pool: MAX
    kernel_size: 2
    stride: 2
  }
}
layers {
  bottom: "0_pool"
  top: "1_0_conv"
  name: "1_0_conv"
  type: CONVOLUTION
  blobs_lr: 0
  blobs_lr: 0
  weight_decay: 0
  weight_decay: 0
  convolution_param {
    num_output: 32
    pad: 1
    kernel_size: 3
    stride: 1
    weight_filler {
      type: "xavier"
    }
    bias_filler {
      type: "constant"
      value: 0
    }
  }
}
layers {
  bottom: "1_0_conv"
  top: "1_0_conv"
  name: "1_0_conv_ReLU"
  type: RELU
}
layers {
  bottom: "1_0_conv"
  top: "1_1_conv"
  name: "1_1_conv"
  type: CONVOLUTION
  blobs_lr: 0
  blobs_lr: 0
  weight_decay: 0
  weight_decay: 0
  convolution_param {
    num_output: 32
    pad: 1
    kernel_size: 3
    stride: 1
    weight_filler {
      type: "xavier"
    }
    bias_filler {
      type: "constant"
      value: 0
    }
  }
}
layers {
  bottom: "1_1_conv"
  top: "1_1_conv"
  name: "1_1_conv_ReLU"
  type: RELU
}
layers {
  bottom: "1_1_conv"
  top: "1_pool"
  top: "1_pool_mask"
  name: "1_pool"
  type: POOLING
  pooling_param {
    pool: MAX
    kernel_size: 2
    stride: 2
  }
}
layers {
  bottom: "1_pool"
  top: "2_0_conv"
  name: "2_0_conv"
  type: CONVOLUTION
  blobs_lr: 0
  blobs_lr: 0
  weight_decay: 0
  weight_decay: 0
  convolution_param {
    num_output: 32
    pad: 1
    kernel_size: 3
    stride: 1
    weight_filler {
      type: "xavier"
    }
    bias_filler {
      type: "constant"
      value: 0
    }
  }
}
layers {
  bottom: "2_0_conv"
  top: "2_0_conv"
  name: "2_0_conv_ReLU"
  type: RELU
}
layers {
  bottom: "2_0_conv"
  top: "2_1_conv"
  name: "2_1_conv"
  type: CONVOLUTION
  blobs_lr: 0
  blobs_lr: 0
  weight_decay: 0
  weight_decay: 0
  convolution_param {
    num_output: 32
    pad: 1
    kernel_size: 3
    stride: 1
    weight_filler {
      type: "xavier"
    }
    bias_filler {
      type: "constant"
      value: 0
    }
  }
}
layers {
  bottom: "2_1_conv"
  top: "2_1_conv"
  name: "2_1_conv_ReLU"
  type: RELU
}
layers {
  bottom: "2_1_conv"
  top: "2_pool"
  top: "2_pool_mask"
  name: "2_pool"
  type: POOLING
  pooling_param {
    pool: MAX
    kernel_size: 2
    stride: 2
  }
}
layers {
  bottom: "2_pool"
  top: "middle_conv_zeros"
  name: "middle_conv_zeros"
  type: CONVOLUTION
  blobs_lr: 0
  blobs_lr: 0
  weight_decay: 0
  weight_decay: 0
  convolution_param {
    num_output: 50
    pad: 0
    kernel_size: 4
    stride: 1
    weight_filler {
      type: "constant"
      value: 0
    }
    bias_filler {
      type: "constant"
      value: 0
    }
  }
}
layers {
  bottom: "middle_conv_zeros"
  top: "middle_deconv"
  name: "middle_deconv"
  type: DECONVOLUTION
  blobs_lr: 1
  blobs_lr: 2
  weight_decay: 0
  weight_decay: 0
  convolution_param {
    num_output: 32
    pad: 1
    kernel_size: 4
    stride: 1
    weight_filler {
      type: "xavier"
    }
    bias_filler {
      type: "constant"
      value: 0
    }
  }
}
layers {
  bottom: "middle_deconv"
  bottom: "2_pool_mask"
  top: "2_unpool"
  name: "2_unpool"
  type: UNPOOLING
  unpooling_param {
    unpool: MAX
    kernel_size: 2
    stride: 2
    unpool_size: 8
  }
}
layers {
  bottom: "2_unpool"
  top: "2_1_deconv"
  name: "2_1_deconv"
  type: DECONVOLUTION
  blobs_lr: 1
  blobs_lr: 2
  weight_decay: 0
  weight_decay: 0
  convolution_param {
    num_output: 32
    pad: 1
    kernel_size: 3
    stride: 1
    weight_filler {
      type: "xavier"
    }
    bias_filler {
      type: "constant"
      value: 0
    }
  }
}
layers {
  bottom: "2_1_deconv"
  top: "2_1_deconv"
  name: "2_1_deconv_ReLU"
  type: RELU
}
layers {
  bottom: "2_1_deconv"
  top: "2_0_deconv"
  name: "2_0_deconv"
  type: DECONVOLUTION
  blobs_lr: 1
  blobs_lr: 2
  weight_decay: 0
  weight_decay: 0
  convolution_param {
    num_output: 32
    pad: 1
    kernel_size: 3
    stride: 1
    weight_filler {
      type: "xavier"
    }
    bias_filler {
      type: "constant"
      value: 0
    }
  }
}
layers {
  bottom: "2_0_deconv"
  top: "2_0_deconv"
  name: "2_0_deconv_ReLU"
  type: RELU
}
layers {
  bottom: "2_0_deconv"
  bottom: "1_pool_mask"
  top: "1_unpool"
  name: "1_unpool"
  type: UNPOOLING
  unpooling_param {
    unpool: MAX
    kernel_size: 2
    stride: 2
    unpool_size: 16
  }
}
layers {
  bottom: "1_unpool"
  top: "1_1_deconv"
  name: "1_1_deconv"
  type: DECONVOLUTION
  blobs_lr: 1
  blobs_lr: 2
  weight_decay: 0
  weight_decay: 0
  convolution_param {
    num_output: 32
    pad: 1
    kernel_size: 3
    stride: 1
    weight_filler {
      type: "xavier"
    }
    bias_filler {
      type: "constant"
      value: 0
    }
  }
}
layers {
  bottom: "1_1_deconv"
  top: "1_1_deconv"
  name: "1_1_deconv_ReLU"
  type: RELU
}
layers {
  bottom: "1_1_deconv"
  top: "1_0_deconv"
  name: "1_0_deconv"
  type: DECONVOLUTION
  blobs_lr: 1
  blobs_lr: 2
  weight_decay: 0
  weight_decay: 0
  convolution_param {
    num_output: 32
    pad: 1
    kernel_size: 3
    stride: 1
    weight_filler {
      type: "xavier"
    }
    bias_filler {
      type: "constant"
      value: 0
    }
  }
}
layers {
  bottom: "1_0_deconv"
  top: "1_0_deconv"
  name: "1_0_deconv_ReLU"
  type: RELU
}
layers {
  bottom: "1_0_deconv"
  bottom: "0_pool_mask"
  top: "0_unpool"
  name: "0_unpool"
  type: UNPOOLING
  unpooling_param {
    unpool: MAX
    kernel_size: 2
    stride: 2
    unpool_size: 32
  }
}
layers {
  bottom: "0_unpool"
  top: "0_1_deconv"
  name: "0_1_deconv"
  type: DECONVOLUTION
  blobs_lr: 1
  blobs_lr: 2
  weight_decay: 0
  weight_decay: 0
  convolution_param {
    num_output: 32
    pad: 1
    kernel_size: 3
    stride: 1
    weight_filler {
      type: "xavier"
    }
    bias_filler {
      type: "constant"
      value: 0
    }
  }
}
layers {
  bottom: "0_1_deconv"
  top: "0_1_deconv"
  name: "0_1_deconv_ReLU"
  type: RELU
}
layers {
  bottom: "0_1_deconv"
  top: "0_0_deconv"
  name: "0_0_deconv"
  type: DECONVOLUTION
  blobs_lr: 1
  blobs_lr: 2
  weight_decay: 0
  weight_decay: 0
  convolution_param {
    num_output: 32
    pad: 1
    kernel_size: 3
    stride: 1
    weight_filler {
      type: "xavier"
    }
    bias_filler {
      type: "constant"
      value: 0
    }
  }
}
layers {
  bottom: "0_0_deconv"
  top: "0_0_deconv"
  name: "0_0_deconv_ReLU"
  type: RELU
}
layers {
  bottom: "0_0_deconv"
  top: "reconstruct1"
  name: "reconstruct1"
  type: LOCAL
  blobs_lr: 1
  blobs_lr: 2
  weight_decay: 0
  weight_decay: 0
  local_param {
    num_output: 3
    pad: 0
    kernel_size: 1
    stride: 1
    weight_filler {
      type: "xavier"
    }
    bias_filler {
      type: "constant"
      value: 0
    }
  }
}
layers {
  bottom: "reconstruct1"
  top: "reconstruct2"
  name: "reconstruct2"
  type: LOCAL
  blobs_lr: 1
  blobs_lr: 2
  weight_decay: 0
  weight_decay: 0
  local_param {
    num_output: 3
    pad: 0
    kernel_size: 1
    stride: 1
    weight_filler {
      type: "xavier"
    }
    bias_filler {
      type: "constant"
      value: 0
    }
  }
}
layers {
  bottom: "data"
  bottom: "reconstruct2"
  top: "L2_Loss"
  name: "L2_Loss"
  type: EUCLIDEAN_LOSS
}
state {
  phase: TRAIN
}
I0623 20:47:59.969776 26783 layer_factory.hpp:78] Creating layer data
I0623 20:47:59.969790 26783 data_transformer.cpp:25] Loading mean file from/dataset/cifar100_lmdb_lab/mean.binaryproto
I0623 20:47:59.969835 26783 net.cpp:69] Creating Layer data
I0623 20:47:59.969841 26783 net.cpp:358] data -> data
I0623 20:47:59.969848 26783 net.cpp:98] Setting up data
I0623 20:47:59.969852 26783 data_layer.cpp:32] Opening dataset /dataset/cifar100_lmdb_lab/cifar100_train_lmdb
I0623 20:47:59.969920 26783 data_layer.cpp:71] output data size: 750,3,32,32
I0623 20:47:59.970827 26783 net.cpp:105] Top shape: 750 3 32 32 (2304000)
I0623 20:47:59.970850 26783 layer_factory.hpp:78] Creating layer data_data_0_split
I0623 20:47:59.970860 26783 net.cpp:69] Creating Layer data_data_0_split
I0623 20:47:59.970865 26783 net.cpp:396] data_data_0_split <- data
I0623 20:47:59.970870 26783 net.cpp:358] data_data_0_split -> data_data_0_split_0
I0623 20:47:59.970877 26783 net.cpp:358] data_data_0_split -> data_data_0_split_1
I0623 20:47:59.970883 26783 net.cpp:98] Setting up data_data_0_split
I0623 20:47:59.970888 26783 net.cpp:105] Top shape: 750 3 32 32 (2304000)
I0623 20:47:59.970891 26783 net.cpp:105] Top shape: 750 3 32 32 (2304000)
I0623 20:47:59.970893 26783 layer_factory.hpp:78] Creating layer 0_0_conv
I0623 20:47:59.970901 26783 net.cpp:69] Creating Layer 0_0_conv
I0623 20:47:59.970904 26783 net.cpp:396] 0_0_conv <- data_data_0_split_0
I0623 20:47:59.970912 26783 net.cpp:358] 0_0_conv -> 0_0_conv
I0623 20:47:59.970917 26783 net.cpp:98] Setting up 0_0_conv
I0623 20:47:59.971216 26783 net.cpp:105] Top shape: 750 32 32 32 (24576000)
I0623 20:47:59.971228 26783 layer_factory.hpp:78] Creating layer 0_0_conv_ReLU
I0623 20:47:59.971233 26783 net.cpp:69] Creating Layer 0_0_conv_ReLU
I0623 20:47:59.971236 26783 net.cpp:396] 0_0_conv_ReLU <- 0_0_conv
I0623 20:47:59.971240 26783 net.cpp:347] 0_0_conv_ReLU -> 0_0_conv (in-place)
I0623 20:47:59.971245 26783 net.cpp:98] Setting up 0_0_conv_ReLU
I0623 20:47:59.971247 26783 net.cpp:105] Top shape: 750 32 32 32 (24576000)
I0623 20:47:59.971251 26783 layer_factory.hpp:78] Creating layer 0_1_conv
I0623 20:47:59.971256 26783 net.cpp:69] Creating Layer 0_1_conv
I0623 20:47:59.971257 26783 net.cpp:396] 0_1_conv <- 0_0_conv
I0623 20:47:59.971261 26783 net.cpp:358] 0_1_conv -> 0_1_conv
I0623 20:47:59.971266 26783 net.cpp:98] Setting up 0_1_conv
I0623 20:47:59.971319 26783 net.cpp:105] Top shape: 750 32 32 32 (24576000)
I0623 20:47:59.971325 26783 layer_factory.hpp:78] Creating layer 0_1_conv_ReLU
I0623 20:47:59.971329 26783 net.cpp:69] Creating Layer 0_1_conv_ReLU
I0623 20:47:59.971333 26783 net.cpp:396] 0_1_conv_ReLU <- 0_1_conv
I0623 20:47:59.971336 26783 net.cpp:347] 0_1_conv_ReLU -> 0_1_conv (in-place)
I0623 20:47:59.971340 26783 net.cpp:98] Setting up 0_1_conv_ReLU
I0623 20:47:59.971343 26783 net.cpp:105] Top shape: 750 32 32 32 (24576000)
I0623 20:47:59.971346 26783 layer_factory.hpp:78] Creating layer 0_pool
I0623 20:47:59.971350 26783 net.cpp:69] Creating Layer 0_pool
I0623 20:47:59.971354 26783 net.cpp:396] 0_pool <- 0_1_conv
I0623 20:47:59.971364 26783 net.cpp:358] 0_pool -> 0_pool
I0623 20:47:59.971367 26783 net.cpp:358] 0_pool -> 0_pool_mask
I0623 20:47:59.971382 26783 net.cpp:98] Setting up 0_pool
I0623 20:47:59.971387 26783 net.cpp:105] Top shape: 750 32 16 16 (6144000)
I0623 20:47:59.971391 26783 net.cpp:105] Top shape: 750 32 16 16 (6144000)
I0623 20:47:59.971393 26783 layer_factory.hpp:78] Creating layer 1_0_conv
I0623 20:47:59.971400 26783 net.cpp:69] Creating Layer 1_0_conv
I0623 20:47:59.971402 26783 net.cpp:396] 1_0_conv <- 0_pool
I0623 20:47:59.971406 26783 net.cpp:358] 1_0_conv -> 1_0_conv
I0623 20:47:59.971411 26783 net.cpp:98] Setting up 1_0_conv
I0623 20:47:59.971462 26783 net.cpp:105] Top shape: 750 32 16 16 (6144000)
I0623 20:47:59.971467 26783 layer_factory.hpp:78] Creating layer 1_0_conv_ReLU
I0623 20:47:59.971472 26783 net.cpp:69] Creating Layer 1_0_conv_ReLU
I0623 20:47:59.971475 26783 net.cpp:396] 1_0_conv_ReLU <- 1_0_conv
I0623 20:47:59.971478 26783 net.cpp:347] 1_0_conv_ReLU -> 1_0_conv (in-place)
I0623 20:47:59.971482 26783 net.cpp:98] Setting up 1_0_conv_ReLU
I0623 20:47:59.971485 26783 net.cpp:105] Top shape: 750 32 16 16 (6144000)
I0623 20:47:59.971488 26783 layer_factory.hpp:78] Creating layer 1_1_conv
I0623 20:47:59.971493 26783 net.cpp:69] Creating Layer 1_1_conv
I0623 20:47:59.971496 26783 net.cpp:396] 1_1_conv <- 1_0_conv
I0623 20:47:59.971500 26783 net.cpp:358] 1_1_conv -> 1_1_conv
I0623 20:47:59.971504 26783 net.cpp:98] Setting up 1_1_conv
I0623 20:47:59.971556 26783 net.cpp:105] Top shape: 750 32 16 16 (6144000)
I0623 20:47:59.971561 26783 layer_factory.hpp:78] Creating layer 1_1_conv_ReLU
I0623 20:47:59.971565 26783 net.cpp:69] Creating Layer 1_1_conv_ReLU
I0623 20:47:59.971568 26783 net.cpp:396] 1_1_conv_ReLU <- 1_1_conv
I0623 20:47:59.971571 26783 net.cpp:347] 1_1_conv_ReLU -> 1_1_conv (in-place)
I0623 20:47:59.971575 26783 net.cpp:98] Setting up 1_1_conv_ReLU
I0623 20:47:59.971577 26783 net.cpp:105] Top shape: 750 32 16 16 (6144000)
I0623 20:47:59.971580 26783 layer_factory.hpp:78] Creating layer 1_pool
I0623 20:47:59.971585 26783 net.cpp:69] Creating Layer 1_pool
I0623 20:47:59.971586 26783 net.cpp:396] 1_pool <- 1_1_conv
I0623 20:47:59.971591 26783 net.cpp:358] 1_pool -> 1_pool
I0623 20:47:59.971596 26783 net.cpp:358] 1_pool -> 1_pool_mask
I0623 20:47:59.971601 26783 net.cpp:98] Setting up 1_pool
I0623 20:47:59.971603 26783 net.cpp:105] Top shape: 750 32 8 8 (1536000)
I0623 20:47:59.971606 26783 net.cpp:105] Top shape: 750 32 8 8 (1536000)
I0623 20:47:59.971609 26783 layer_factory.hpp:78] Creating layer 2_0_conv
I0623 20:47:59.971612 26783 net.cpp:69] Creating Layer 2_0_conv
I0623 20:47:59.971616 26783 net.cpp:396] 2_0_conv <- 1_pool
I0623 20:47:59.971621 26783 net.cpp:358] 2_0_conv -> 2_0_conv
I0623 20:47:59.971624 26783 net.cpp:98] Setting up 2_0_conv
I0623 20:47:59.971675 26783 net.cpp:105] Top shape: 750 32 8 8 (1536000)
I0623 20:47:59.971681 26783 layer_factory.hpp:78] Creating layer 2_0_conv_ReLU
I0623 20:47:59.971685 26783 net.cpp:69] Creating Layer 2_0_conv_ReLU
I0623 20:47:59.971688 26783 net.cpp:396] 2_0_conv_ReLU <- 2_0_conv
I0623 20:47:59.971691 26783 net.cpp:347] 2_0_conv_ReLU -> 2_0_conv (in-place)
I0623 20:47:59.971695 26783 net.cpp:98] Setting up 2_0_conv_ReLU
I0623 20:47:59.971698 26783 net.cpp:105] Top shape: 750 32 8 8 (1536000)
I0623 20:47:59.971701 26783 layer_factory.hpp:78] Creating layer 2_1_conv
I0623 20:47:59.971706 26783 net.cpp:69] Creating Layer 2_1_conv
I0623 20:47:59.971709 26783 net.cpp:396] 2_1_conv <- 2_0_conv
I0623 20:47:59.971714 26783 net.cpp:358] 2_1_conv -> 2_1_conv
I0623 20:47:59.971717 26783 net.cpp:98] Setting up 2_1_conv
I0623 20:47:59.971768 26783 net.cpp:105] Top shape: 750 32 8 8 (1536000)
I0623 20:47:59.971773 26783 layer_factory.hpp:78] Creating layer 2_1_conv_ReLU
I0623 20:47:59.971777 26783 net.cpp:69] Creating Layer 2_1_conv_ReLU
I0623 20:47:59.971779 26783 net.cpp:396] 2_1_conv_ReLU <- 2_1_conv
I0623 20:47:59.971783 26783 net.cpp:347] 2_1_conv_ReLU -> 2_1_conv (in-place)
I0623 20:47:59.971787 26783 net.cpp:98] Setting up 2_1_conv_ReLU
I0623 20:47:59.971791 26783 net.cpp:105] Top shape: 750 32 8 8 (1536000)
I0623 20:47:59.971796 26783 layer_factory.hpp:78] Creating layer 2_pool
I0623 20:47:59.971804 26783 net.cpp:69] Creating Layer 2_pool
I0623 20:47:59.971807 26783 net.cpp:396] 2_pool <- 2_1_conv
I0623 20:47:59.971810 26783 net.cpp:358] 2_pool -> 2_pool
I0623 20:47:59.971815 26783 net.cpp:358] 2_pool -> 2_pool_mask
I0623 20:47:59.971819 26783 net.cpp:98] Setting up 2_pool
I0623 20:47:59.971823 26783 net.cpp:105] Top shape: 750 32 4 4 (384000)
I0623 20:47:59.971825 26783 net.cpp:105] Top shape: 750 32 4 4 (384000)
I0623 20:47:59.971828 26783 layer_factory.hpp:78] Creating layer middle_conv_zeros
I0623 20:47:59.971833 26783 net.cpp:69] Creating Layer middle_conv_zeros
I0623 20:47:59.971837 26783 net.cpp:396] middle_conv_zeros <- 2_pool
I0623 20:47:59.971842 26783 net.cpp:358] middle_conv_zeros -> middle_conv_zeros
I0623 20:47:59.971845 26783 net.cpp:98] Setting up middle_conv_zeros
I0623 20:47:59.971890 26783 net.cpp:105] Top shape: 750 50 1 1 (37500)
I0623 20:47:59.971896 26783 layer_factory.hpp:78] Creating layer middle_deconv
I0623 20:47:59.971904 26783 net.cpp:69] Creating Layer middle_deconv
I0623 20:47:59.971907 26783 net.cpp:396] middle_deconv <- middle_conv_zeros
I0623 20:47:59.971912 26783 net.cpp:358] middle_deconv -> middle_deconv
I0623 20:47:59.971917 26783 net.cpp:98] Setting up middle_deconv
I0623 20:47:59.972061 26783 net.cpp:105] Top shape: 750 32 2 2 (96000)
I0623 20:47:59.972067 26783 layer_factory.hpp:78] Creating layer 2_unpool
I0623 20:47:59.972071 26783 net.cpp:69] Creating Layer 2_unpool
I0623 20:47:59.972074 26783 net.cpp:396] 2_unpool <- middle_deconv
I0623 20:47:59.972079 26783 net.cpp:396] 2_unpool <- 2_pool_mask
I0623 20:47:59.972081 26783 net.cpp:358] 2_unpool -> 2_unpool
I0623 20:47:59.972086 26783 net.cpp:98] Setting up 2_unpool
I0623 20:47:59.972092 26783 net.cpp:105] Top shape: 750 32 8 8 (1536000)
I0623 20:47:59.972095 26783 layer_factory.hpp:78] Creating layer 2_1_deconv
I0623 20:47:59.972100 26783 net.cpp:69] Creating Layer 2_1_deconv
I0623 20:47:59.972103 26783 net.cpp:396] 2_1_deconv <- 2_unpool
I0623 20:47:59.972107 26783 net.cpp:358] 2_1_deconv -> 2_1_deconv
I0623 20:47:59.972112 26783 net.cpp:98] Setting up 2_1_deconv
I0623 20:47:59.972190 26783 net.cpp:105] Top shape: 750 32 8 8 (1536000)
I0623 20:47:59.972198 26783 layer_factory.hpp:78] Creating layer 2_1_deconv_ReLU
I0623 20:47:59.972203 26783 net.cpp:69] Creating Layer 2_1_deconv_ReLU
I0623 20:47:59.972205 26783 net.cpp:396] 2_1_deconv_ReLU <- 2_1_deconv
I0623 20:47:59.972209 26783 net.cpp:347] 2_1_deconv_ReLU -> 2_1_deconv (in-place)
I0623 20:47:59.972213 26783 net.cpp:98] Setting up 2_1_deconv_ReLU
I0623 20:47:59.972215 26783 net.cpp:105] Top shape: 750 32 8 8 (1536000)
I0623 20:47:59.972218 26783 layer_factory.hpp:78] Creating layer 2_0_deconv
I0623 20:47:59.972223 26783 net.cpp:69] Creating Layer 2_0_deconv
I0623 20:47:59.972226 26783 net.cpp:396] 2_0_deconv <- 2_1_deconv
I0623 20:47:59.972230 26783 net.cpp:358] 2_0_deconv -> 2_0_deconv
I0623 20:47:59.972234 26783 net.cpp:98] Setting up 2_0_deconv
I0623 20:47:59.972285 26783 net.cpp:105] Top shape: 750 32 8 8 (1536000)
I0623 20:47:59.972290 26783 layer_factory.hpp:78] Creating layer 2_0_deconv_ReLU
I0623 20:47:59.972293 26783 net.cpp:69] Creating Layer 2_0_deconv_ReLU
I0623 20:47:59.972296 26783 net.cpp:396] 2_0_deconv_ReLU <- 2_0_deconv
I0623 20:47:59.972301 26783 net.cpp:347] 2_0_deconv_ReLU -> 2_0_deconv (in-place)
I0623 20:47:59.972303 26783 net.cpp:98] Setting up 2_0_deconv_ReLU
I0623 20:47:59.972306 26783 net.cpp:105] Top shape: 750 32 8 8 (1536000)
I0623 20:47:59.972309 26783 layer_factory.hpp:78] Creating layer 1_unpool
I0623 20:47:59.972313 26783 net.cpp:69] Creating Layer 1_unpool
I0623 20:47:59.972316 26783 net.cpp:396] 1_unpool <- 2_0_deconv
I0623 20:47:59.972319 26783 net.cpp:396] 1_unpool <- 1_pool_mask
I0623 20:47:59.972323 26783 net.cpp:358] 1_unpool -> 1_unpool
I0623 20:47:59.972327 26783 net.cpp:98] Setting up 1_unpool
I0623 20:47:59.972331 26783 net.cpp:105] Top shape: 750 32 16 16 (6144000)
I0623 20:47:59.972335 26783 layer_factory.hpp:78] Creating layer 1_1_deconv
I0623 20:47:59.972339 26783 net.cpp:69] Creating Layer 1_1_deconv
I0623 20:47:59.972347 26783 net.cpp:396] 1_1_deconv <- 1_unpool
I0623 20:47:59.972352 26783 net.cpp:358] 1_1_deconv -> 1_1_deconv
I0623 20:47:59.972357 26783 net.cpp:98] Setting up 1_1_deconv
I0623 20:47:59.972406 26783 net.cpp:105] Top shape: 750 32 16 16 (6144000)
I0623 20:47:59.972411 26783 layer_factory.hpp:78] Creating layer 1_1_deconv_ReLU
I0623 20:47:59.972414 26783 net.cpp:69] Creating Layer 1_1_deconv_ReLU
I0623 20:47:59.972417 26783 net.cpp:396] 1_1_deconv_ReLU <- 1_1_deconv
I0623 20:47:59.972420 26783 net.cpp:347] 1_1_deconv_ReLU -> 1_1_deconv (in-place)
I0623 20:47:59.972424 26783 net.cpp:98] Setting up 1_1_deconv_ReLU
I0623 20:47:59.972427 26783 net.cpp:105] Top shape: 750 32 16 16 (6144000)
I0623 20:47:59.972429 26783 layer_factory.hpp:78] Creating layer 1_0_deconv
I0623 20:47:59.972437 26783 net.cpp:69] Creating Layer 1_0_deconv
I0623 20:47:59.972440 26783 net.cpp:396] 1_0_deconv <- 1_1_deconv
I0623 20:47:59.972445 26783 net.cpp:358] 1_0_deconv -> 1_0_deconv
I0623 20:47:59.972450 26783 net.cpp:98] Setting up 1_0_deconv
I0623 20:47:59.972501 26783 net.cpp:105] Top shape: 750 32 16 16 (6144000)
I0623 20:47:59.972506 26783 layer_factory.hpp:78] Creating layer 1_0_deconv_ReLU
I0623 20:47:59.972509 26783 net.cpp:69] Creating Layer 1_0_deconv_ReLU
I0623 20:47:59.972512 26783 net.cpp:396] 1_0_deconv_ReLU <- 1_0_deconv
I0623 20:47:59.972517 26783 net.cpp:347] 1_0_deconv_ReLU -> 1_0_deconv (in-place)
I0623 20:47:59.972519 26783 net.cpp:98] Setting up 1_0_deconv_ReLU
I0623 20:47:59.972522 26783 net.cpp:105] Top shape: 750 32 16 16 (6144000)
I0623 20:47:59.972525 26783 layer_factory.hpp:78] Creating layer 0_unpool
I0623 20:47:59.972528 26783 net.cpp:69] Creating Layer 0_unpool
I0623 20:47:59.972532 26783 net.cpp:396] 0_unpool <- 1_0_deconv
I0623 20:47:59.972534 26783 net.cpp:396] 0_unpool <- 0_pool_mask
I0623 20:47:59.972539 26783 net.cpp:358] 0_unpool -> 0_unpool
I0623 20:47:59.972543 26783 net.cpp:98] Setting up 0_unpool
I0623 20:47:59.972546 26783 net.cpp:105] Top shape: 750 32 32 32 (24576000)
I0623 20:47:59.972549 26783 layer_factory.hpp:78] Creating layer 0_1_deconv
I0623 20:47:59.972553 26783 net.cpp:69] Creating Layer 0_1_deconv
I0623 20:47:59.972555 26783 net.cpp:396] 0_1_deconv <- 0_unpool
I0623 20:47:59.972560 26783 net.cpp:358] 0_1_deconv -> 0_1_deconv
I0623 20:47:59.972564 26783 net.cpp:98] Setting up 0_1_deconv
I0623 20:47:59.972617 26783 net.cpp:105] Top shape: 750 32 32 32 (24576000)
I0623 20:47:59.972622 26783 layer_factory.hpp:78] Creating layer 0_1_deconv_ReLU
I0623 20:47:59.972625 26783 net.cpp:69] Creating Layer 0_1_deconv_ReLU
I0623 20:47:59.972630 26783 net.cpp:396] 0_1_deconv_ReLU <- 0_1_deconv
I0623 20:47:59.972632 26783 net.cpp:347] 0_1_deconv_ReLU -> 0_1_deconv (in-place)
I0623 20:47:59.972636 26783 net.cpp:98] Setting up 0_1_deconv_ReLU
I0623 20:47:59.972640 26783 net.cpp:105] Top shape: 750 32 32 32 (24576000)
I0623 20:47:59.972642 26783 layer_factory.hpp:78] Creating layer 0_0_deconv
I0623 20:47:59.972648 26783 net.cpp:69] Creating Layer 0_0_deconv
I0623 20:47:59.972651 26783 net.cpp:396] 0_0_deconv <- 0_1_deconv
I0623 20:47:59.972656 26783 net.cpp:358] 0_0_deconv -> 0_0_deconv
I0623 20:47:59.972658 26783 net.cpp:98] Setting up 0_0_deconv
I0623 20:47:59.972715 26783 net.cpp:105] Top shape: 750 32 32 32 (24576000)
I0623 20:47:59.972720 26783 layer_factory.hpp:78] Creating layer 0_0_deconv_ReLU
I0623 20:47:59.972723 26783 net.cpp:69] Creating Layer 0_0_deconv_ReLU
I0623 20:47:59.972726 26783 net.cpp:396] 0_0_deconv_ReLU <- 0_0_deconv
I0623 20:47:59.972730 26783 net.cpp:347] 0_0_deconv_ReLU -> 0_0_deconv (in-place)
I0623 20:47:59.972733 26783 net.cpp:98] Setting up 0_0_deconv_ReLU
I0623 20:47:59.972736 26783 net.cpp:105] Top shape: 750 32 32 32 (24576000)
I0623 20:47:59.972738 26783 layer_factory.hpp:78] Creating layer reconstruct1
I0623 20:47:59.972745 26783 net.cpp:69] Creating Layer reconstruct1
I0623 20:47:59.972748 26783 net.cpp:396] reconstruct1 <- 0_0_deconv
I0623 20:47:59.972755 26783 net.cpp:358] reconstruct1 -> reconstruct1
I0623 20:47:59.972760 26783 net.cpp:98] Setting up reconstruct1
I0623 20:47:59.973281 26783 net.cpp:105] Top shape: 750 3 32 32 (2304000)
I0623 20:47:59.973291 26783 layer_factory.hpp:78] Creating layer reconstruct2
I0623 20:47:59.973296 26783 net.cpp:69] Creating Layer reconstruct2
I0623 20:47:59.973299 26783 net.cpp:396] reconstruct2 <- reconstruct1
I0623 20:47:59.973304 26783 net.cpp:358] reconstruct2 -> reconstruct2
I0623 20:47:59.973307 26783 net.cpp:98] Setting up reconstruct2
I0623 20:47:59.973364 26783 net.cpp:105] Top shape: 750 3 32 32 (2304000)
I0623 20:47:59.973369 26783 layer_factory.hpp:78] Creating layer L2_Loss
I0623 20:47:59.973374 26783 net.cpp:69] Creating Layer L2_Loss
I0623 20:47:59.973377 26783 net.cpp:396] L2_Loss <- data_data_0_split_1
I0623 20:47:59.973381 26783 net.cpp:396] L2_Loss <- reconstruct2
I0623 20:47:59.973384 26783 net.cpp:358] L2_Loss -> L2_Loss
I0623 20:47:59.973389 26783 net.cpp:98] Setting up L2_Loss
I0623 20:47:59.973395 26783 net.cpp:105] Top shape: 1 1 1 1 (1)
I0623 20:47:59.973398 26783 net.cpp:111]     with loss weight 1
I0623 20:47:59.973412 26783 net.cpp:172] L2_Loss needs backward computation.
I0623 20:47:59.973414 26783 net.cpp:172] reconstruct2 needs backward computation.
I0623 20:47:59.973417 26783 net.cpp:172] reconstruct1 needs backward computation.
I0623 20:47:59.973420 26783 net.cpp:172] 0_0_deconv_ReLU needs backward computation.
…
