…
I0623 12:12:19.139510     7 net.cpp:277] The NetState phase (0) differed from the phase (1) specified by a rule in layer accuracy_top_1
I0623 12:12:19.139514     7 net.cpp:277] The NetState phase (0) differed from the phase (1) specified by a rule in layer accuracy_top_5
I0623 12:12:19.139605     7 net.cpp:39] Initializing net from parameters: 
layers {
  top: "data"
  top: "label"
  name: "data"
  type: DATA
  data_param {
    source: "/dataset/cifar10/cifar10_train_lmdb"
    batch_size: 128
    backend: LMDB
  }
  include {
    phase: TRAIN
  }
  transform_param {
    mean_file: "/dataset/cifar10/mean.binaryproto"
  }
}
layers {
  bottom: "data"
  top: "0_0_conv"
  name: "0_0_conv"
  type: CONVOLUTION
  blobs_lr: 1
  blobs_lr: 2
  weight_decay: 0
  weight_decay: 0
  convolution_param {
    num_output: 32
    pad: 1
    kernel_size: 3
    stride: 1
    weight_filler {
      type: "xavier"
    }
    bias_filler {
      type: "constant"
      value: 0
    }
  }
}
layers {
  bottom: "0_0_conv"
  top: "0_0_conv"
  name: "0_0_conv_ReLU"
  type: RELU
}
layers {
  bottom: "0_0_conv"
  top: "0_1_conv"
  name: "0_1_conv"
  type: CONVOLUTION
  blobs_lr: 1
  blobs_lr: 2
  weight_decay: 0
  weight_decay: 0
  convolution_param {
    num_output: 32
    pad: 1
    kernel_size: 3
    stride: 1
    weight_filler {
      type: "xavier"
    }
    bias_filler {
      type: "constant"
      value: 0
    }
  }
}
layers {
  bottom: "0_1_conv"
  top: "0_1_conv"
  name: "0_1_conv_ReLU"
  type: RELU
}
layers {
  bottom: "0_1_conv"
  top: "0_pool"
  name: "0_pool"
  type: POOLING
  pooling_param {
    pool: MAX
    kernel_size: 2
    stride: 2
  }
}
layers {
  bottom: "0_pool"
  top: "1_0_conv"
  name: "1_0_conv"
  type: CONVOLUTION
  blobs_lr: 1
  blobs_lr: 2
  weight_decay: 0
  weight_decay: 0
  convolution_param {
    num_output: 32
    pad: 1
    kernel_size: 3
    stride: 1
    weight_filler {
      type: "xavier"
    }
    bias_filler {
      type: "constant"
      value: 0
    }
  }
}
layers {
  bottom: "1_0_conv"
  top: "1_0_conv"
  name: "1_0_conv_ReLU"
  type: RELU
}
layers {
  bottom: "1_0_conv"
  top: "1_1_conv"
  name: "1_1_conv"
  type: CONVOLUTION
  blobs_lr: 1
  blobs_lr: 2
  weight_decay: 0
  weight_decay: 0
  convolution_param {
    num_output: 32
    pad: 1
    kernel_size: 3
    stride: 1
    weight_filler {
      type: "xavier"
    }
    bias_filler {
      type: "constant"
      value: 0
    }
  }
}
layers {
  bottom: "1_1_conv"
  top: "1_1_conv"
  name: "1_1_conv_ReLU"
  type: RELU
}
layers {
  bottom: "1_1_conv"
  top: "1_pool"
  name: "1_pool"
  type: POOLING
  pooling_param {
    pool: MAX
    kernel_size: 2
    stride: 2
  }
}
layers {
  bottom: "1_pool"
  top: "2_0_conv"
  name: "2_0_conv"
  type: CONVOLUTION
  blobs_lr: 1
  blobs_lr: 2
  weight_decay: 0
  weight_decay: 0
  convolution_param {
    num_output: 32
    pad: 1
    kernel_size: 3
    stride: 1
    weight_filler {
      type: "xavier"
    }
    bias_filler {
      type: "constant"
      value: 0
    }
  }
}
layers {
  bottom: "2_0_conv"
  top: "2_0_conv"
  name: "2_0_conv_ReLU"
  type: RELU
}
layers {
  bottom: "2_0_conv"
  top: "2_1_conv"
  name: "2_1_conv"
  type: CONVOLUTION
  blobs_lr: 1
  blobs_lr: 2
  weight_decay: 0
  weight_decay: 0
  convolution_param {
    num_output: 32
    pad: 1
    kernel_size: 3
    stride: 1
    weight_filler {
      type: "xavier"
    }
    bias_filler {
      type: "constant"
      value: 0
    }
  }
}
layers {
  bottom: "2_1_conv"
  top: "2_1_conv"
  name: "2_1_conv_ReLU"
  type: RELU
}
layers {
  bottom: "2_1_conv"
  top: "2_pool"
  name: "2_pool"
  type: POOLING
  pooling_param {
    pool: MAX
    kernel_size: 2
    stride: 2
  }
}
layers {
  bottom: "2_pool"
  top: "middle_conv"
  name: "middle_conv"
  type: CONVOLUTION
  blobs_lr: 1
  blobs_lr: 2
  weight_decay: 0
  weight_decay: 0
  convolution_param {
    num_output: 50
    pad: 0
    kernel_size: 4
    stride: 1
    weight_filler {
      type: "xavier"
    }
    bias_filler {
      type: "constant"
      value: 0
    }
  }
}
layers {
  bottom: "middle_conv"
  top: "middle_conv"
  name: "middle_conv_ReLU"
  type: RELU
}
layers {
  bottom: "middle_conv"
  top: "fc1"
  name: "fc1"
  type: INNER_PRODUCT
  blobs_lr: 1
  blobs_lr: 2
  weight_decay: 0
  weight_decay: 0
  inner_product_param {
    num_output: 512
    weight_filler {
      type: "xavier"
    }
    bias_filler {
      type: "constant"
      value: 0
    }
  }
}
layers {
  bottom: "fc1"
  top: "fc1"
  name: "fc1_Dropout"
  type: DROPOUT
  dropout_param {
    dropout_ratio: 0.5
  }
  include {
    phase: TRAIN
  }
}
layers {
  bottom: "fc1"
  top: "fc1"
  name: "fc1_Dropout_ReLU"
  type: RELU
}
layers {
  bottom: "fc1"
  top: "fc2_10"
  name: "fc2_10"
  type: INNER_PRODUCT
  blobs_lr: 1
  blobs_lr: 2
  weight_decay: 0
  weight_decay: 0
  inner_product_param {
    num_output: 10
    weight_filler {
      type: "xavier"
    }
    bias_filler {
      type: "constant"
      value: 0
    }
  }
}
layers {
  bottom: "fc2_10"
  bottom: "label"
  top: "softmax"
  name: "softmax"
  type: SOFTMAX_LOSS
}
state {
  phase: TRAIN
}
I0623 12:12:19.139670     7 layer_factory.hpp:78] Creating layer data
I0623 12:12:19.139683     7 data_transformer.cpp:25] Loading mean file from/dataset/cifar10/mean.binaryproto
I0623 12:12:19.139732     7 net.cpp:69] Creating Layer data
I0623 12:12:19.139739     7 net.cpp:358] data -> data
I0623 12:12:19.139746     7 net.cpp:358] data -> label
I0623 12:12:19.139752     7 net.cpp:98] Setting up data
I0623 12:12:19.139755     7 data_layer.cpp:32] Opening dataset /dataset/cifar10/cifar10_train_lmdb
I0623 12:12:19.139824     7 data_layer.cpp:71] output data size: 128,3,32,32
I0623 12:12:19.140218     7 net.cpp:105] Top shape: 128 3 32 32 (393216)
I0623 12:12:19.140224     7 net.cpp:105] Top shape: 128 1 1 1 (128)
I0623 12:12:19.140228     7 layer_factory.hpp:78] Creating layer 0_0_conv
I0623 12:12:19.140233     7 net.cpp:69] Creating Layer 0_0_conv
I0623 12:12:19.140236     7 net.cpp:396] 0_0_conv <- data
I0623 12:12:19.140244     7 net.cpp:358] 0_0_conv -> 0_0_conv
I0623 12:12:19.140250     7 net.cpp:98] Setting up 0_0_conv
I0623 12:12:19.140516     7 net.cpp:105] Top shape: 128 32 32 32 (4194304)
I0623 12:12:19.140529     7 layer_factory.hpp:78] Creating layer 0_0_conv_ReLU
I0623 12:12:19.140534     7 net.cpp:69] Creating Layer 0_0_conv_ReLU
I0623 12:12:19.140537     7 net.cpp:396] 0_0_conv_ReLU <- 0_0_conv
I0623 12:12:19.140542     7 net.cpp:347] 0_0_conv_ReLU -> 0_0_conv (in-place)
I0623 12:12:19.140545     7 net.cpp:98] Setting up 0_0_conv_ReLU
I0623 12:12:19.140548     7 net.cpp:105] Top shape: 128 32 32 32 (4194304)
I0623 12:12:19.140552     7 layer_factory.hpp:78] Creating layer 0_1_conv
I0623 12:12:19.140555     7 net.cpp:69] Creating Layer 0_1_conv
I0623 12:12:19.140558     7 net.cpp:396] 0_1_conv <- 0_0_conv
I0623 12:12:19.140563     7 net.cpp:358] 0_1_conv -> 0_1_conv
I0623 12:12:19.140568     7 net.cpp:98] Setting up 0_1_conv
I0623 12:12:19.140617     7 net.cpp:105] Top shape: 128 32 32 32 (4194304)
I0623 12:12:19.140622     7 layer_factory.hpp:78] Creating layer 0_1_conv_ReLU
I0623 12:12:19.140630     7 net.cpp:69] Creating Layer 0_1_conv_ReLU
I0623 12:12:19.140633     7 net.cpp:396] 0_1_conv_ReLU <- 0_1_conv
I0623 12:12:19.140638     7 net.cpp:347] 0_1_conv_ReLU -> 0_1_conv (in-place)
I0623 12:12:19.140647     7 net.cpp:98] Setting up 0_1_conv_ReLU
I0623 12:12:19.140652     7 net.cpp:105] Top shape: 128 32 32 32 (4194304)
I0623 12:12:19.140662     7 layer_factory.hpp:78] Creating layer 0_pool
I0623 12:12:19.140668     7 net.cpp:69] Creating Layer 0_pool
I0623 12:12:19.140671     7 net.cpp:396] 0_pool <- 0_1_conv
I0623 12:12:19.140674     7 net.cpp:358] 0_pool -> 0_pool
I0623 12:12:19.140679     7 net.cpp:98] Setting up 0_pool
I0623 12:12:19.140686     7 net.cpp:105] Top shape: 128 32 16 16 (1048576)
I0623 12:12:19.140688     7 layer_factory.hpp:78] Creating layer 1_0_conv
I0623 12:12:19.140691     7 net.cpp:69] Creating Layer 1_0_conv
I0623 12:12:19.140694     7 net.cpp:396] 1_0_conv <- 0_pool
I0623 12:12:19.140699     7 net.cpp:358] 1_0_conv -> 1_0_conv
I0623 12:12:19.140703     7 net.cpp:98] Setting up 1_0_conv
I0623 12:12:19.140756     7 net.cpp:105] Top shape: 128 32 16 16 (1048576)
I0623 12:12:19.140763     7 layer_factory.hpp:78] Creating layer 1_0_conv_ReLU
I0623 12:12:19.140766     7 net.cpp:69] Creating Layer 1_0_conv_ReLU
I0623 12:12:19.140769     7 net.cpp:396] 1_0_conv_ReLU <- 1_0_conv
I0623 12:12:19.140772     7 net.cpp:347] 1_0_conv_ReLU -> 1_0_conv (in-place)
I0623 12:12:19.140776     7 net.cpp:98] Setting up 1_0_conv_ReLU
I0623 12:12:19.140779     7 net.cpp:105] Top shape: 128 32 16 16 (1048576)
I0623 12:12:19.140781     7 layer_factory.hpp:78] Creating layer 1_1_conv
I0623 12:12:19.140785     7 net.cpp:69] Creating Layer 1_1_conv
I0623 12:12:19.140789     7 net.cpp:396] 1_1_conv <- 1_0_conv
I0623 12:12:19.140792     7 net.cpp:358] 1_1_conv -> 1_1_conv
I0623 12:12:19.140797     7 net.cpp:98] Setting up 1_1_conv
I0623 12:12:19.140847     7 net.cpp:105] Top shape: 128 32 16 16 (1048576)
I0623 12:12:19.140852     7 layer_factory.hpp:78] Creating layer 1_1_conv_ReLU
I0623 12:12:19.140856     7 net.cpp:69] Creating Layer 1_1_conv_ReLU
I0623 12:12:19.140858     7 net.cpp:396] 1_1_conv_ReLU <- 1_1_conv
I0623 12:12:19.140862     7 net.cpp:347] 1_1_conv_ReLU -> 1_1_conv (in-place)
I0623 12:12:19.140866     7 net.cpp:98] Setting up 1_1_conv_ReLU
I0623 12:12:19.140868     7 net.cpp:105] Top shape: 128 32 16 16 (1048576)
I0623 12:12:19.140871     7 layer_factory.hpp:78] Creating layer 1_pool
I0623 12:12:19.140874     7 net.cpp:69] Creating Layer 1_pool
I0623 12:12:19.140877     7 net.cpp:396] 1_pool <- 1_1_conv
I0623 12:12:19.140880     7 net.cpp:358] 1_pool -> 1_pool
I0623 12:12:19.140884     7 net.cpp:98] Setting up 1_pool
I0623 12:12:19.140887     7 net.cpp:105] Top shape: 128 32 8 8 (262144)
I0623 12:12:19.140890     7 layer_factory.hpp:78] Creating layer 2_0_conv
I0623 12:12:19.140894     7 net.cpp:69] Creating Layer 2_0_conv
I0623 12:12:19.140897     7 net.cpp:396] 2_0_conv <- 1_pool
I0623 12:12:19.140902     7 net.cpp:358] 2_0_conv -> 2_0_conv
I0623 12:12:19.140905     7 net.cpp:98] Setting up 2_0_conv
I0623 12:12:19.140959     7 net.cpp:105] Top shape: 128 32 8 8 (262144)
I0623 12:12:19.140965     7 layer_factory.hpp:78] Creating layer 2_0_conv_ReLU
I0623 12:12:19.140969     7 net.cpp:69] Creating Layer 2_0_conv_ReLU
I0623 12:12:19.140971     7 net.cpp:396] 2_0_conv_ReLU <- 2_0_conv
I0623 12:12:19.140975     7 net.cpp:347] 2_0_conv_ReLU -> 2_0_conv (in-place)
I0623 12:12:19.140980     7 net.cpp:98] Setting up 2_0_conv_ReLU
I0623 12:12:19.140982     7 net.cpp:105] Top shape: 128 32 8 8 (262144)
I0623 12:12:19.140985     7 layer_factory.hpp:78] Creating layer 2_1_conv
I0623 12:12:19.140988     7 net.cpp:69] Creating Layer 2_1_conv
I0623 12:12:19.140990     7 net.cpp:396] 2_1_conv <- 2_0_conv
I0623 12:12:19.140995     7 net.cpp:358] 2_1_conv -> 2_1_conv
I0623 12:12:19.141000     7 net.cpp:98] Setting up 2_1_conv
I0623 12:12:19.141060     7 net.cpp:105] Top shape: 128 32 8 8 (262144)
I0623 12:12:19.141067     7 layer_factory.hpp:78] Creating layer 2_1_conv_ReLU
I0623 12:12:19.141069     7 net.cpp:69] Creating Layer 2_1_conv_ReLU
I0623 12:12:19.141072     7 net.cpp:396] 2_1_conv_ReLU <- 2_1_conv
I0623 12:12:19.141077     7 net.cpp:347] 2_1_conv_ReLU -> 2_1_conv (in-place)
I0623 12:12:19.141080     7 net.cpp:98] Setting up 2_1_conv_ReLU
I0623 12:12:19.141085     7 net.cpp:105] Top shape: 128 32 8 8 (262144)
I0623 12:12:19.141091     7 layer_factory.hpp:78] Creating layer 2_pool
I0623 12:12:19.141095     7 net.cpp:69] Creating Layer 2_pool
I0623 12:12:19.141098     7 net.cpp:396] 2_pool <- 2_1_conv
I0623 12:12:19.141103     7 net.cpp:358] 2_pool -> 2_pool
I0623 12:12:19.141106     7 net.cpp:98] Setting up 2_pool
I0623 12:12:19.141109     7 net.cpp:105] Top shape: 128 32 4 4 (65536)
I0623 12:12:19.141113     7 layer_factory.hpp:78] Creating layer middle_conv
I0623 12:12:19.141116     7 net.cpp:69] Creating Layer middle_conv
I0623 12:12:19.141119     7 net.cpp:396] middle_conv <- 2_pool
I0623 12:12:19.141125     7 net.cpp:358] middle_conv -> middle_conv
I0623 12:12:19.141130     7 net.cpp:98] Setting up middle_conv
I0623 12:12:19.141261     7 net.cpp:105] Top shape: 128 50 1 1 (6400)
I0623 12:12:19.141266     7 layer_factory.hpp:78] Creating layer middle_conv_ReLU
I0623 12:12:19.141270     7 net.cpp:69] Creating Layer middle_conv_ReLU
I0623 12:12:19.141273     7 net.cpp:396] middle_conv_ReLU <- middle_conv
I0623 12:12:19.141276     7 net.cpp:347] middle_conv_ReLU -> middle_conv (in-place)
I0623 12:12:19.141280     7 net.cpp:98] Setting up middle_conv_ReLU
I0623 12:12:19.141283     7 net.cpp:105] Top shape: 128 50 1 1 (6400)
I0623 12:12:19.141285     7 layer_factory.hpp:78] Creating layer fc1
I0623 12:12:19.141289     7 net.cpp:69] Creating Layer fc1
I0623 12:12:19.141291     7 net.cpp:396] fc1 <- middle_conv
I0623 12:12:19.141299     7 net.cpp:358] fc1 -> fc1
I0623 12:12:19.141304     7 net.cpp:98] Setting up fc1
I0623 12:12:19.141435     7 net.cpp:105] Top shape: 128 512 1 1 (65536)
I0623 12:12:19.141440     7 layer_factory.hpp:78] Creating layer fc1_Dropout
I0623 12:12:19.141445     7 net.cpp:69] Creating Layer fc1_Dropout
I0623 12:12:19.141448     7 net.cpp:396] fc1_Dropout <- fc1
I0623 12:12:19.141453     7 net.cpp:347] fc1_Dropout -> fc1 (in-place)
I0623 12:12:19.141456     7 net.cpp:98] Setting up fc1_Dropout
I0623 12:12:19.141459     7 net.cpp:105] Top shape: 128 512 1 1 (65536)
I0623 12:12:19.141463     7 layer_factory.hpp:78] Creating layer fc1_Dropout_ReLU
I0623 12:12:19.141465     7 net.cpp:69] Creating Layer fc1_Dropout_ReLU
I0623 12:12:19.141469     7 net.cpp:396] fc1_Dropout_ReLU <- fc1
I0623 12:12:19.141472     7 net.cpp:347] fc1_Dropout_ReLU -> fc1 (in-place)
I0623 12:12:19.141475     7 net.cpp:98] Setting up fc1_Dropout_ReLU
I0623 12:12:19.141479     7 net.cpp:105] Top shape: 128 512 1 1 (65536)
I0623 12:12:19.141480     7 layer_factory.hpp:78] Creating layer fc2_10
I0623 12:12:19.141484     7 net.cpp:69] Creating Layer fc2_10
I0623 12:12:19.141486     7 net.cpp:396] fc2_10 <- fc1
I0623 12:12:19.141490     7 net.cpp:358] fc2_10 -> fc2_10
I0623 12:12:19.141494     7 net.cpp:98] Setting up fc2_10
I0623 12:12:19.141525     7 net.cpp:105] Top shape: 128 10 1 1 (1280)
I0623 12:12:19.141530     7 layer_factory.hpp:78] Creating layer softmax
I0623 12:12:19.141537     7 net.cpp:69] Creating Layer softmax
I0623 12:12:19.141541     7 net.cpp:396] softmax <- fc2_10
I0623 12:12:19.141543     7 net.cpp:396] softmax <- label
I0623 12:12:19.141547     7 net.cpp:358] softmax -> softmax
I0623 12:12:19.141551     7 net.cpp:98] Setting up softmax
I0623 12:12:19.141561     7 net.cpp:105] Top shape: 1 1 1 1 (1)
I0623 12:12:19.141563     7 net.cpp:111]     with loss weight 1
I0623 12:12:19.141573     7 net.cpp:172] softmax needs backward computation.
I0623 12:12:19.141577     7 net.cpp:172] fc2_10 needs backward computation.
I0623 12:12:19.141578     7 net.cpp:172] fc1_Dropout_ReLU needs backward computation.
I0623 12:12:19.141582     7 net.cpp:172] fc1_Dropout needs backward computation.
I0623 12:12:19.141583     7 net.cpp:172] fc1 needs backward computation.
…
I0623 12:12:19.142096     7 net.cpp:277] The NetState phase (1) differed from the phase (0) specified by a rule in layer data
I0623 12:12:19.142107     7 net.cpp:277] The NetState phase (1) differed from the phase (0) specified by a rule in layer fc1_Dropout
I0623 12:12:19.142199     7 net.cpp:39] Initializing net from parameters: 
layers {
  top: "data"
  top: "label"
  name: "data"
  type: DATA
  data_param {
    source: "/dataset/cifar10/cifar10_test_lmdb"
    batch_size: 128
    backend: LMDB
  }
  include {
    phase: TEST
  }
  transform_param {
    mean_file: "/dataset/cifar10/mean.binaryproto"
  }
}
layers {
  bottom: "data"
  top: "0_0_conv"
  name: "0_0_conv"
  type: CONVOLUTION
  blobs_lr: 1
  blobs_lr: 2
  weight_decay: 0
  weight_decay: 0
  convolution_param {
    num_output: 32
    pad: 1
    kernel_size: 3
    stride: 1
    weight_filler {
      type: "xavier"
    }
    bias_filler {
      type: "constant"
      value: 0
    }
  }
}
layers {
  bottom: "0_0_conv"
  top: "0_0_conv"
  name: "0_0_conv_ReLU"
  type: RELU
}
layers {
  bottom: "0_0_conv"
  top: "0_1_conv"
  name: "0_1_conv"
  type: CONVOLUTION
  blobs_lr: 1
  blobs_lr: 2
  weight_decay: 0
  weight_decay: 0
  convolution_param {
    num_output: 32
    pad: 1
    kernel_size: 3
    stride: 1
    weight_filler {
      type: "xavier"
    }
    bias_filler {
      type: "constant"
      value: 0
    }
  }
}
layers {
  bottom: "0_1_conv"
  top: "0_1_conv"
  name: "0_1_conv_ReLU"
  type: RELU
}
layers {
  bottom: "0_1_conv"
  top: "0_pool"
  name: "0_pool"
  type: POOLING
  pooling_param {
    pool: MAX
    kernel_size: 2
    stride: 2
  }
}
layers {
  bottom: "0_pool"
  top: "1_0_conv"
  name: "1_0_conv"
  type: CONVOLUTION
  blobs_lr: 1
  blobs_lr: 2
  weight_decay: 0
  weight_decay: 0
  convolution_param {
    num_output: 32
    pad: 1
    kernel_size: 3
    stride: 1
    weight_filler {
      type: "xavier"
    }
    bias_filler {
      type: "constant"
      value: 0
    }
  }
}
layers {
  bottom: "1_0_conv"
  top: "1_0_conv"
  name: "1_0_conv_ReLU"
  type: RELU
}
layers {
  bottom: "1_0_conv"
  top: "1_1_conv"
  name: "1_1_conv"
  type: CONVOLUTION
  blobs_lr: 1
  blobs_lr: 2
  weight_decay: 0
  weight_decay: 0
  convolution_param {
    num_output: 32
    pad: 1
    kernel_size: 3
    stride: 1
    weight_filler {
      type: "xavier"
    }
    bias_filler {
      type: "constant"
      value: 0
    }
  }
}
layers {
  bottom: "1_1_conv"
  top: "1_1_conv"
  name: "1_1_conv_ReLU"
  type: RELU
}
layers {
  bottom: "1_1_conv"
  top: "1_pool"
  name: "1_pool"
  type: POOLING
  pooling_param {
    pool: MAX
    kernel_size: 2
    stride: 2
  }
}
layers {
  bottom: "1_pool"
  top: "2_0_conv"
  name: "2_0_conv"
  type: CONVOLUTION
  blobs_lr: 1
  blobs_lr: 2
  weight_decay: 0
  weight_decay: 0
  convolution_param {
    num_output: 32
    pad: 1
    kernel_size: 3
    stride: 1
    weight_filler {
      type: "xavier"
    }
    bias_filler {
      type: "constant"
      value: 0
    }
  }
}
layers {
  bottom: "2_0_conv"
  top: "2_0_conv"
  name: "2_0_conv_ReLU"
  type: RELU
}
layers {
  bottom: "2_0_conv"
  top: "2_1_conv"
  name: "2_1_conv"
  type: CONVOLUTION
  blobs_lr: 1
  blobs_lr: 2
  weight_decay: 0
  weight_decay: 0
  convolution_param {
    num_output: 32
    pad: 1
    kernel_size: 3
    stride: 1
    weight_filler {
      type: "xavier"
    }
    bias_filler {
      type: "constant"
      value: 0
    }
  }
}
layers {
  bottom: "2_1_conv"
  top: "2_1_conv"
  name: "2_1_conv_ReLU"
  type: RELU
}
layers {
  bottom: "2_1_conv"
  top: "2_pool"
  name: "2_pool"
  type: POOLING
  pooling_param {
    pool: MAX
    kernel_size: 2
    stride: 2
  }
}
layers {
  bottom: "2_pool"
  top: "middle_conv"
  name: "middle_conv"
  type: CONVOLUTION
  blobs_lr: 1
  blobs_lr: 2
  weight_decay: 0
  weight_decay: 0
  convolution_param {
    num_output: 50
    pad: 0
    kernel_size: 4
    stride: 1
    weight_filler {
      type: "xavier"
    }
    bias_filler {
      type: "constant"
      value: 0
    }
  }
}
layers {
  bottom: "middle_conv"
  top: "middle_conv"
  name: "middle_conv_ReLU"
  type: RELU
}
layers {
  bottom: "middle_conv"
  top: "fc1"
  name: "fc1"
  type: INNER_PRODUCT
  blobs_lr: 1
  blobs_lr: 2
  weight_decay: 0
  weight_decay: 0
  inner_product_param {
    num_output: 512
    weight_filler {
      type: "xavier"
    }
    bias_filler {
      type: "constant"
      value: 0
    }
  }
}
layers {
  bottom: "fc1"
  top: "fc1"
  name: "fc1_Dropout_ReLU"
  type: RELU
}
layers {
  bottom: "fc1"
  top: "fc2_10"
  name: "fc2_10"
  type: INNER_PRODUCT
  blobs_lr: 1
  blobs_lr: 2
  weight_decay: 0
  weight_decay: 0
  inner_product_param {
    num_output: 10
    weight_filler {
      type: "xavier"
    }
    bias_filler {
      type: "constant"
      value: 0
    }
  }
}
layers {
  bottom: "fc2_10"
  bottom: "label"
  top: "softmax"
  name: "softmax"
  type: SOFTMAX_LOSS
}
layers {
  bottom: "fc2_10"
  bottom: "label"
  top: "accuracy_top_1"
  name: "accuracy_top_1"
  type: ACCURACY
  accuracy_param {
    top_k: 1
  }
  include {
    phase: TEST
  }
}
layers {
  bottom: "fc2_10"
  bottom: "label"
  top: "accuracy_top_5"
  name: "accuracy_top_5"
  type: ACCURACY
  accuracy_param {
    top_k: 5
  }
  include {
    phase: TEST
  }
}
state {
  phase: TEST
}
I0623 12:12:19.142274     7 layer_factory.hpp:78] Creating layer data
I0623 12:12:19.142280     7 data_transformer.cpp:25] Loading mean file from/dataset/cifar10/mean.binaryproto
I0623 12:12:19.142312     7 net.cpp:69] Creating Layer data
I0623 12:12:19.142316     7 net.cpp:358] data -> data
I0623 12:12:19.142323     7 net.cpp:358] data -> label
I0623 12:12:19.142328     7 net.cpp:98] Setting up data
I0623 12:12:19.142330     7 data_layer.cpp:32] Opening dataset /dataset/cifar10/cifar10_test_lmdb
I0623 12:12:19.142365     7 data_layer.cpp:71] output data size: 128,3,32,32
I0623 12:12:19.142817     7 net.cpp:105] Top shape: 128 3 32 32 (393216)
I0623 12:12:19.142834     7 net.cpp:105] Top shape: 128 1 1 1 (128)
I0623 12:12:19.142838     7 layer_factory.hpp:78] Creating layer label_data_1_split
I0623 12:12:19.142843     7 net.cpp:69] Creating Layer label_data_1_split
I0623 12:12:19.142846     7 net.cpp:396] label_data_1_split <- label
I0623 12:12:19.142850     7 net.cpp:358] label_data_1_split -> label_data_1_split_0
I0623 12:12:19.142856     7 net.cpp:358] label_data_1_split -> label_data_1_split_1
I0623 12:12:19.142861     7 net.cpp:358] label_data_1_split -> label_data_1_split_2
I0623 12:12:19.142865     7 net.cpp:98] Setting up label_data_1_split
I0623 12:12:19.142880     7 net.cpp:105] Top shape: 128 1 1 1 (128)
I0623 12:12:19.142884     7 net.cpp:105] Top shape: 128 1 1 1 (128)
I0623 12:12:19.142890     7 net.cpp:105] Top shape: 128 1 1 1 (128)
I0623 12:12:19.142894     7 layer_factory.hpp:78] Creating layer 0_0_conv
I0623 12:12:19.142899     7 net.cpp:69] Creating Layer 0_0_conv
I0623 12:12:19.142901     7 net.cpp:396] 0_0_conv <- data
I0623 12:12:19.142906     7 net.cpp:358] 0_0_conv -> 0_0_conv
I0623 12:12:19.142911     7 net.cpp:98] Setting up 0_0_conv
I0623 12:12:19.142925     7 net.cpp:105] Top shape: 128 32 32 32 (4194304)
I0623 12:12:19.142930     7 layer_factory.hpp:78] Creating layer 0_0_conv_ReLU
I0623 12:12:19.142933     7 net.cpp:69] Creating Layer 0_0_conv_ReLU
I0623 12:12:19.142936     7 net.cpp:396] 0_0_conv_ReLU <- 0_0_conv
I0623 12:12:19.142940     7 net.cpp:347] 0_0_conv_ReLU -> 0_0_conv (in-place)
I0623 12:12:19.142943     7 net.cpp:98] Setting up 0_0_conv_ReLU
I0623 12:12:19.142946     7 net.cpp:105] Top shape: 128 32 32 32 (4194304)
I0623 12:12:19.142949     7 layer_factory.hpp:78] Creating layer 0_1_conv
I0623 12:12:19.142953     7 net.cpp:69] Creating Layer 0_1_conv
I0623 12:12:19.142956     7 net.cpp:396] 0_1_conv <- 0_0_conv
I0623 12:12:19.142961     7 net.cpp:358] 0_1_conv -> 0_1_conv
I0623 12:12:19.142966     7 net.cpp:98] Setting up 0_1_conv
I0623 12:12:19.143015     7 net.cpp:105] Top shape: 128 32 32 32 (4194304)
I0623 12:12:19.143020     7 layer_factory.hpp:78] Creating layer 0_1_conv_ReLU
I0623 12:12:19.143023     7 net.cpp:69] Creating Layer 0_1_conv_ReLU
I0623 12:12:19.143026     7 net.cpp:396] 0_1_conv_ReLU <- 0_1_conv
I0623 12:12:19.143030     7 net.cpp:347] 0_1_conv_ReLU -> 0_1_conv (in-place)
I0623 12:12:19.143033     7 net.cpp:98] Setting up 0_1_conv_ReLU
I0623 12:12:19.143036     7 net.cpp:105] Top shape: 128 32 32 32 (4194304)
I0623 12:12:19.143039     7 layer_factory.hpp:78] Creating layer 0_pool
I0623 12:12:19.143043     7 net.cpp:69] Creating Layer 0_pool
I0623 12:12:19.143045     7 net.cpp:396] 0_pool <- 0_1_conv
I0623 12:12:19.143049     7 net.cpp:358] 0_pool -> 0_pool
I0623 12:12:19.143052     7 net.cpp:98] Setting up 0_pool
I0623 12:12:19.143056     7 net.cpp:105] Top shape: 128 32 16 16 (1048576)
I0623 12:12:19.143059     7 layer_factory.hpp:78] Creating layer 1_0_conv
I0623 12:12:19.143062     7 net.cpp:69] Creating Layer 1_0_conv
I0623 12:12:19.143065     7 net.cpp:396] 1_0_conv <- 0_pool
I0623 12:12:19.143069     7 net.cpp:358] 1_0_conv -> 1_0_conv
I0623 12:12:19.143074     7 net.cpp:98] Setting up 1_0_conv
I0623 12:12:19.143127     7 net.cpp:105] Top shape: 128 32 16 16 (1048576)
I0623 12:12:19.143133     7 layer_factory.hpp:78] Creating layer 1_0_conv_ReLU
I0623 12:12:19.143137     7 net.cpp:69] Creating Layer 1_0_conv_ReLU
I0623 12:12:19.143139     7 net.cpp:396] 1_0_conv_ReLU <- 1_0_conv
I0623 12:12:19.143143     7 net.cpp:347] 1_0_conv_ReLU -> 1_0_conv (in-place)
I0623 12:12:19.143146     7 net.cpp:98] Setting up 1_0_conv_ReLU
I0623 12:12:19.143149     7 net.cpp:105] Top shape: 128 32 16 16 (1048576)
I0623 12:12:19.143152     7 layer_factory.hpp:78] Creating layer 1_1_conv
I0623 12:12:19.143162     7 net.cpp:69] Creating Layer 1_1_conv
I0623 12:12:19.143164     7 net.cpp:396] 1_1_conv <- 1_0_conv
I0623 12:12:19.143168     7 net.cpp:358] 1_1_conv -> 1_1_conv
I0623 12:12:19.143172     7 net.cpp:98] Setting up 1_1_conv
I0623 12:12:19.143224     7 net.cpp:105] Top shape: 128 32 16 16 (1048576)
I0623 12:12:19.143229     7 layer_factory.hpp:78] Creating layer 1_1_conv_ReLU
I0623 12:12:19.143231     7 net.cpp:69] Creating Layer 1_1_conv_ReLU
I0623 12:12:19.143234     7 net.cpp:396] 1_1_conv_ReLU <- 1_1_conv
I0623 12:12:19.143239     7 net.cpp:347] 1_1_conv_ReLU -> 1_1_conv (in-place)
I0623 12:12:19.143241     7 net.cpp:98] Setting up 1_1_conv_ReLU
I0623 12:12:19.143244     7 net.cpp:105] Top shape: 128 32 16 16 (1048576)
I0623 12:12:19.143247     7 layer_factory.hpp:78] Creating layer 1_pool
I0623 12:12:19.143250     7 net.cpp:69] Creating Layer 1_pool
I0623 12:12:19.143252     7 net.cpp:396] 1_pool <- 1_1_conv
I0623 12:12:19.143260     7 net.cpp:358] 1_pool -> 1_pool
I0623 12:12:19.143263     7 net.cpp:98] Setting up 1_pool
I0623 12:12:19.143271     7 net.cpp:105] Top shape: 128 32 8 8 (262144)
I0623 12:12:19.143275     7 layer_factory.hpp:78] Creating layer 2_0_conv
I0623 12:12:19.143277     7 net.cpp:69] Creating Layer 2_0_conv
I0623 12:12:19.143280     7 net.cpp:396] 2_0_conv <- 1_pool
I0623 12:12:19.143285     7 net.cpp:358] 2_0_conv -> 2_0_conv
I0623 12:12:19.143290     7 net.cpp:98] Setting up 2_0_conv
I0623 12:12:19.143338     7 net.cpp:105] Top shape: 128 32 8 8 (262144)
I0623 12:12:19.143344     7 layer_factory.hpp:78] Creating layer 2_0_conv_ReLU
I0623 12:12:19.143347     7 net.cpp:69] Creating Layer 2_0_conv_ReLU
I0623 12:12:19.143350     7 net.cpp:396] 2_0_conv_ReLU <- 2_0_conv
I0623 12:12:19.143353     7 net.cpp:347] 2_0_conv_ReLU -> 2_0_conv (in-place)
I0623 12:12:19.143357     7 net.cpp:98] Setting up 2_0_conv_ReLU
I0623 12:12:19.143360     7 net.cpp:105] Top shape: 128 32 8 8 (262144)
I0623 12:12:19.143362     7 layer_factory.hpp:78] Creating layer 2_1_conv
I0623 12:12:19.143367     7 net.cpp:69] Creating Layer 2_1_conv
I0623 12:12:19.143368     7 net.cpp:396] 2_1_conv <- 2_0_conv
I0623 12:12:19.143373     7 net.cpp:358] 2_1_conv -> 2_1_conv
I0623 12:12:19.143378     7 net.cpp:98] Setting up 2_1_conv
I0623 12:12:19.143429     7 net.cpp:105] Top shape: 128 32 8 8 (262144)
I0623 12:12:19.143435     7 layer_factory.hpp:78] Creating layer 2_1_conv_ReLU
I0623 12:12:19.143437     7 net.cpp:69] Creating Layer 2_1_conv_ReLU
I0623 12:12:19.143440     7 net.cpp:396] 2_1_conv_ReLU <- 2_1_conv
I0623 12:12:19.143443     7 net.cpp:347] 2_1_conv_ReLU -> 2_1_conv (in-place)
I0623 12:12:19.143446     7 net.cpp:98] Setting up 2_1_conv_ReLU
I0623 12:12:19.143450     7 net.cpp:105] Top shape: 128 32 8 8 (262144)
I0623 12:12:19.143452     7 layer_factory.hpp:78] Creating layer 2_pool
I0623 12:12:19.143456     7 net.cpp:69] Creating Layer 2_pool
I0623 12:12:19.143460     7 net.cpp:396] 2_pool <- 2_1_conv
I0623 12:12:19.143463     7 net.cpp:358] 2_pool -> 2_pool
I0623 12:12:19.143466     7 net.cpp:98] Setting up 2_pool
I0623 12:12:19.143471     7 net.cpp:105] Top shape: 128 32 4 4 (65536)
I0623 12:12:19.143472     7 layer_factory.hpp:78] Creating layer middle_conv
I0623 12:12:19.143476     7 net.cpp:69] Creating Layer middle_conv
I0623 12:12:19.143479     7 net.cpp:396] middle_conv <- 2_pool
I0623 12:12:19.143483     7 net.cpp:358] middle_conv -> middle_conv
I0623 12:12:19.143487     7 net.cpp:98] Setting up middle_conv
I0623 12:12:19.143625     7 net.cpp:105] Top shape: 128 50 1 1 (6400)
I0623 12:12:19.143631     7 layer_factory.hpp:78] Creating layer middle_conv_ReLU
I0623 12:12:19.143636     7 net.cpp:69] Creating Layer middle_conv_ReLU
I0623 12:12:19.143640     7 net.cpp:396] middle_conv_ReLU <- middle_conv
I0623 12:12:19.143642     7 net.cpp:347] middle_conv_ReLU -> middle_conv (in-place)
I0623 12:12:19.143646     7 net.cpp:98] Setting up middle_conv_ReLU
I0623 12:12:19.143649     7 net.cpp:105] Top shape: 128 50 1 1 (6400)
I0623 12:12:19.143651     7 layer_factory.hpp:78] Creating layer fc1
I0623 12:12:19.143656     7 net.cpp:69] Creating Layer fc1
I0623 12:12:19.143658     7 net.cpp:396] fc1 <- middle_conv
I0623 12:12:19.143662     7 net.cpp:358] fc1 -> fc1
I0623 12:12:19.143667     7 net.cpp:98] Setting up fc1
I0623 12:12:19.143810     7 net.cpp:105] Top shape: 128 512 1 1 (65536)
I0623 12:12:19.143815     7 layer_factory.hpp:78] Creating layer fc1_Dropout_ReLU
I0623 12:12:19.143820     7 net.cpp:69] Creating Layer fc1_Dropout_ReLU
I0623 12:12:19.143822     7 net.cpp:396] fc1_Dropout_ReLU <- fc1
I0623 12:12:19.143826     7 net.cpp:347] fc1_Dropout_ReLU -> fc1 (in-place)
I0623 12:12:19.143829     7 net.cpp:98] Setting up fc1_Dropout_ReLU
I0623 12:12:19.143833     7 net.cpp:105] Top shape: 128 512 1 1 (65536)
I0623 12:12:19.143836     7 layer_factory.hpp:78] Creating layer fc2_10
I0623 12:12:19.143841     7 net.cpp:69] Creating Layer fc2_10
I0623 12:12:19.143846     7 net.cpp:396] fc2_10 <- fc1
I0623 12:12:19.143851     7 net.cpp:358] fc2_10 -> fc2_10
I0623 12:12:19.143857     7 net.cpp:98] Setting up fc2_10
I0623 12:12:19.143895     7 net.cpp:105] Top shape: 128 10 1 1 (1280)
I0623 12:12:19.143903     7 layer_factory.hpp:78] Creating layer fc2_10_fc2_10_0_split
I0623 12:12:19.143905     7 net.cpp:69] Creating Layer fc2_10_fc2_10_0_split
I0623 12:12:19.143908     7 net.cpp:396] fc2_10_fc2_10_0_split <- fc2_10
I0623 12:12:19.143914     7 net.cpp:358] fc2_10_fc2_10_0_split -> fc2_10_fc2_10_0_split_0
I0623 12:12:19.143919     7 net.cpp:358] fc2_10_fc2_10_0_split -> fc2_10_fc2_10_0_split_1
I0623 12:12:19.143924     7 net.cpp:358] fc2_10_fc2_10_0_split -> fc2_10_fc2_10_0_split_2
I0623 12:12:19.143929     7 net.cpp:98] Setting up fc2_10_fc2_10_0_split
I0623 12:12:19.143932     7 net.cpp:105] Top shape: 128 10 1 1 (1280)
I0623 12:12:19.143935     7 net.cpp:105] Top shape: 128 10 1 1 (1280)
I0623 12:12:19.143939     7 net.cpp:105] Top shape: 128 10 1 1 (1280)
I0623 12:12:19.143941     7 layer_factory.hpp:78] Creating layer softmax
I0623 12:12:19.143945     7 net.cpp:69] Creating Layer softmax
I0623 12:12:19.143949     7 net.cpp:396] softmax <- fc2_10_fc2_10_0_split_0
I0623 12:12:19.143951     7 net.cpp:396] softmax <- label_data_1_split_0
I0623 12:12:19.143956     7 net.cpp:358] softmax -> softmax
I0623 12:12:19.143961     7 net.cpp:98] Setting up softmax
I0623 12:12:19.143966     7 net.cpp:105] Top shape: 1 1 1 1 (1)
I0623 12:12:19.143975     7 net.cpp:111]     with loss weight 1
I0623 12:12:19.143980     7 layer_factory.hpp:78] Creating layer accuracy_top_1
I0623 12:12:19.143983     7 net.cpp:69] Creating Layer accuracy_top_1
I0623 12:12:19.143987     7 net.cpp:396] accuracy_top_1 <- fc2_10_fc2_10_0_split_1
I0623 12:12:19.143991     7 net.cpp:396] accuracy_top_1 <- label_data_1_split_1
I0623 12:12:19.143996     7 net.cpp:358] accuracy_top_1 -> accuracy_top_1
I0623 12:12:19.143999     7 net.cpp:98] Setting up accuracy_top_1
I0623 12:12:19.144002     7 net.cpp:105] Top shape: 1 1 1 1 (1)
I0623 12:12:19.144006     7 layer_factory.hpp:78] Creating layer accuracy_top_5
I0623 12:12:19.144009     7 net.cpp:69] Creating Layer accuracy_top_5
I0623 12:12:19.144012     7 net.cpp:396] accuracy_top_5 <- fc2_10_fc2_10_0_split_2
I0623 12:12:19.144016     7 net.cpp:396] accuracy_top_5 <- label_data_1_split_2
I0623 12:12:19.144019     7 net.cpp:358] accuracy_top_5 -> accuracy_top_5
I0623 12:12:19.144023     7 net.cpp:98] Setting up accuracy_top_5
I0623 12:12:19.144026     7 net.cpp:105] Top shape: 1 1 1 1 (1)
I0623 12:12:19.144029     7 net.cpp:174] accuracy_top_5 does not need backward computation.
I0623 12:12:19.144032     7 net.cpp:174] accuracy_top_1 does not need backward computation.
I0623 12:12:19.144035     7 net.cpp:172] softmax needs backward computation.
I0623 12:12:19.144038     7 net.cpp:172] fc2_10_fc2_10_0_split needs backward computation.
I0623 12:12:19.144042     7 net.cpp:172] fc2_10 needs backward computation.
…
